saved_models/AAPL_model.pth (torch, 800866 bytes, 9 tensors)

lstm.weight_ih_l0 f4 [512, 1]
0.07172296 -0.04567977 0.02627932 -0.003199911 0.07998994 -0.00206876 0.13047516 0.077505454
-0.065888144 -0.07478136 0.011315539 -0.008370437 -0.051557615 0.106003545 0.10208501 -0.04242997
-0.010348452 -0.037562985 0.13458043 -0.021581473 0.11901435 0.11435859 0.05128573 -0.028821826
-0.008633104 -0.031694755 0.09481937 0.060903955 0.06390353 0.059176758 0.025620976 0.09266807
0.042448945 -0.025303107 0.04852569 -0.029497925 -0.09684365 0.058978405 -0.015787011 -0.018369464
0.045124102 0.049928658 -0.17385752 -0.012255983 -0.115671195 0.056447286 0.10339095 0.096725896
0.018166613 0.1386196 0.04723035 0.038080614 -0.11519166 -0.041699145 -0.023667904 -0.13477486
0.09028107 -0.068636596 -0.0066444715 -0.04597728 -0.05204992 -0.060372975 0.057311054 -0.07358568
0.10911265 0.039154302 0.10366332 0.013497934 0.0739579 -0.008918727 0.00018634408 0.035523325
-0.022693876 -0.11620792 -0.033698883 0.04414018 -0.024750922 0.107312694 0.0347902 -0.0322776
-0.09319639 0.0071705445 0.12053791 0.10112329 -0.06868053 0.09951196 -0.10783401 0.012622587
-0.030919494 -0.095947154 -0.03264122 0.004234505 0.014325659 -0.1085506 -0.03632056 0.11128649
0.08570336 0.09741428 0.104801424 0.036821105 0.029094817 -0.07030051 -0.034259927 -0.03912159
0.124739304 0.070934094 0.12355262 0.014494385 0.06706429 0.026104918 0.021257194 0.102410205
0.10072006 -0.016498003 -0.07106908 0.10941473 0.038309302 0.1088685 0.04900966 -0.02260358
0.0853814 0.011393218 -0.06819253 0.12108423 0.13489568 0.037941303 -0.12665406 -0.051513836
0.12496726 -0.07450834 0.03307621 0.03619732 -0.013231379 -0.047953624 -0.021472218 0.06673838
-0.109708376 -0.010765593 0.08008844 -0.006466066 -0.06889404 0.09277818 0.09706168 0.011309534
-0.05469002 -0.0779695 0.11371617 0.02410548 0.017579343 0.11279438 0.017606245 -0.10072406
0.07726491 -0.043380886 -0.02619522 0.12141958 0.06469926 0.09017422 0.0034140695 0.019600281
0.051279806 0.12450454 0.05778983 -0.023804273 -0.07279999 0.122985594 0.029008832 -0.07775398
0.07064229 -0.02545036 -0.0872956 0.001307938 0.0017859671 0.09744419 0.041249983 0.08160429
0.07296142 -0.2744064 0.062474053 -0.030294824 -0.08985338 0.052771788 0.075406805 -0.09201061
-0.018000312 0.054896083 -0.037040755 0.106489025 -0.010044948 -0.05350211 -0.007674292 -0.026552657
0.12893967 -0.037219077 -0.105718076 0.050723948 -0.03171803 -0.08608368 0.03480098 -0.048238598
0.057979774 -0.11887234 0.012048671 0.10398618 -0.09243085 0.07349798 0.052205827 0.064755246
-0.104986295 0.109991774 -0.001190747 -0.02399652 -0.11227469 0.0003908526 -0.09209732 -0.059900664
-0.0092897 0.031775374 -0.16611546 0.13433033 0.0013476957 -0.1749264 0.027061187 0.11328206
0.03152322 0.095422566 -0.035674334 -0.011489455 -0.08418496 -0.051688198 -0.022206917 0.035884608
0.011542725 -0.03701386 0.032444146 0.0017258665 0.047014333 0.02878433 -0.060344897 -0.027273864
0.08268774 -0.026697045 -0.027058262 0.044800084 -0.019964214 0.09012488 0.059037074 0.008986104
0.067052126 0.013286252 -0.06430216 -0.03455264 0.025946155 -0.02832811 -0.07960457 0.069112584
00000000: 7de3 923d b61a 3bbd ba47 d73c 99b5 51bb
00000010: c4d1 a33d 0994 07bb 489b 053e 2ebb 9e3d
00000020: 5df0 86bd f826 99bd cf64 393c 2824 09bc
00000030: 142e 53bd 6318 d93d f211 d13d 0ccb 2dbd
00000040: 8e8c 29bc a5db 19bd 74cf 093e a1cb b0bc
00000050: ccbd f33d d634 ea3d fc10 523d c01b ecbc
00000060: dd71 0dbc 5cd2 01bd a830 c23d 6d76 793d
00000070: dbdf 823d 5463 723d 15e3 d13c c2c8 bd3d
00000080: f2de 2d3d 7648 cfbc e0c2 463d a2a5 f1bc
00000090: f755 c6bd 5793 713d c353 81bc 8f7b 96bc
000000a0: 0dd4 383d fe81 4c3d b507 32be 52cd 48bc
000000b0: 05e5 ecbd 4535 673d a2be d33d 3a18 c63d
000000c0: 26d2 943c 4cf2 0d3e 9d74 413d 6bfa 1b3d
000000d0: 9be9 ebbd b9cc 2abd 31e3 c1bc 6c02 0abe
000000e0: 48e5 b83d 5891 8cbd deb9 d9bb ac52 3cbd
000000f0: 4c32 55bd a749 77bd ffbe 6a3d 17b4 96bd
00000100: 7476 df3d 4360 203d 6f4d d43d 7026 5d3c
00000110: 3d77 973d da1f 12bc 5c65 4339 e880 113d
00000120: 82e8 b9bc 6bfe edbd d707 0abd 55cc 343d
00000130: 72c2 cabc c2c6 db3d 2b80 0e3d 8435 04bd
00000140: c0dd bebd e3f6 ea3b 94dc f63d ba19 cf3d
00000150: 61a8 8cbd edcc cb3d 14d8 dcbd f8ce 4e3c
00000160: e14a fdbc f17f c4bd cdb2 05bd 9ac1 8a3b
00000170: 2bb6 6a3c c74f debd dec4 14bd 2cea e33d
00000180: 3e85 af3d 2381 c73d 21a2 d63d bad1 163d
00000190: 4158 ee3c b7f9 8fbd 2354 0cbd f63d 20bd
000001a0: 5277 ff3d e545 913d 2809 fd3d db79 6d3c
000001b0: 0159 893d fbd9 d53c 9123 ae3c 71bc d13d
000001c0: 5246 ce3d d226 87bc aa8c 91bd d414 e03d
000001d0: 37ea 1c3d 73f6 de3d 5abe 483d 252b b9bc
000001e0: 72dc ae3d 9faa 3a3c 86a8 8bbd 02fb f73d
000001f0: 1822 0a3e 5768 1b3d 9ab1 01be 2c00 53bd
00000200: d6ee ff3d d497 98bd ec7a 073d a443 143d
00000210: 6dc8 58bc 056b 44bd 81e6 afbc 22ae 883d
00000220: c9ae e0bd 2b62 30bc 6805 a43d 4be1 d3bb
00000230: 5218 8dbd 7d02 be3d 46c8 c63d a04b 393c
00000240: a402 60bd 79ae 9fbd 06e4 e83d db78 c53c
00000250: 8e02 903c bd00 e73d f93a 903c 6a48 cebd
00000260: 113d 9e3d 28b0 31bd 5c97 d6bc d4aa f83d
00000270: 0c81 843d 43ad b83d 95be 5f3b c590 a03c
00000280: c60a 523d 3cfc fe3d 07b5 6c3d 2e01 c3bc
00000290: 2918 95bd dfdf fb3d eea3 ed3c 7b3d 9fbd
000002a0: e8ac 903d 467d d0bc 09c8 b2bd 1e6f ab3a
000002b0: 1d17 ea3a d290 c73d bef5 283d 2620 a73d
000002c0: cc6c 953d ff7e 8cbe cbe4 7f3d da2c f8bc
000002d0: 0d05 b8bd 3b27 583d e26e 9a3d 0f70 bcbd
000002e0: 6475 93bc b7da 603d 0cb8 17bd eb16 da3d
000002f0: 9193 24bc 0725 5bbd a178 fbbb f584 d9bc
00000300: c308 043e 0873 18bd b882 d8bd eac3 4f3d
00000310: c4ea 01bd a44c b0bd 798b 0e3d d695 45bd
00000320: 337c 6d3d 5773 f3bd ca67 453c b5f6 d43d
00000330: 634c bdbd 1c86 963d c7d5 553d 669e 843d
00000340: 0e03 d7bd 5e43 e13d d712 9cba 5a94 c4bc
00000350: 46f0 e5bd 59eb cc39 859d bcbd 665a 75bd
00000360: d333 18bc e526 023d 2c1a 2abe e48d 093e
00000370: 2aa5 b03a e81f 33be 6caf dd3c 6d00 e83d
00000380: 7e1e 013d e86c c33d 401f 12bd 443e 3cbc
00000390: 2a69 acbd 01b7 53bd 48eb b5bc bdfb 123d
000003a0: b31d 3d3c d89b 17bd 27e4 043d 7836 e23a
000003b0: 1a92 403d 1dcd eb3c 362c 77bd 706d dfbc
000003c0: 3158 a93d c3b3 dabc 4aa9 ddbc 4b80 373d
000003d0: fe8b a3bc 6593 b83d dcd0 713d 743a 133c
000003e0: a052 893d 94ae 593c dab0 83bd 1287 0dbd
000003f0: 088d d43c 5a10 e8bc b907 a3bd e68a 8d3d

lstm.weight_hh_l0 f4 [512, 128]
0.050974198 -0.10711965 -0.021706697 0.05165124 -0.07586928 0.051308997 0.07795874 -0.04065013
0.033087958 -0.03417677 -0.047923286 0.07307974 0.06539689 -0.061343033 0.00549176 -0.016350875
-0.06892148 -0.018512506 0.046617705 0.025788702 -0.070371926 -0.008615357 -0.06443068 -0.012947104
0.00481576 0.0057600117 -0.047925502 -0.08275469 0.022369795 0.07151685 -0.09471377 -0.064360365
-0.0540715 0.065446965 0.019094395 -0.03565457 -0.031163447 0.024093421 -0.05209787 0.067335226
-0.027094873 0.0155390315 0.031006701 0.06769825 -0.086545534 0.06853999 0.05223973 -0.024243126
0.021930458 -0.029495453 0.04128397 0.06487167 -0.0560393 0.018904962 -0.06481123 0.03070319
0.072990574 -0.017282927 -0.0342574 0.013235554 -0.08188816 -0.06643949 -0.068137124 -0.06416427
0.024506073 0.06703198 -0.082055055 -0.025601406 0.0056874272 0.03459793 0.014946157 -0.051832322
0.0327273 0.01398987 -0.021715684 0.020535637 -0.06837587 -0.062673934 -0.080542736 -0.06921939
-0.029075736 -0.012963699 0.008764043 -0.08863742 -0.0134441955 0.04279506 0.043804314 0.0047381595
-0.018987812 0.018599803 0.052980132 -0.06078125 0.038189817 -0.015829232 -0.09187607 -0.09594109
-0.0026184171 -0.04992515 -0.034113783 -0.062371626 -0.060067695 0.03168098 -0.06503578 -0.052426275
0.051152885 0.08377496 0.08669619 0.03705596 0.035937052 0.030109858 0.018291779 0.026180938
0.084828146 0.031359613 0.08299711 -0.021244772 -0.013721297 0.044755388 -0.032501355 -0.10177876
-0.10636697 0.08678975 0.00055294833 0.036839567 0.05337188 0.057046615 0.07391965 -0.010719163
0.15051858 0.07756998 -0.08521192 0.062341113 -0.045358106 0.05160772 0.025987502 -0.020725803
0.119763374 -0.11237075 -0.043425884 -0.16725715 0.1288637 0.022830203 -0.07592246 0.13836281
0.009886897 -0.0130866 0.023992933 -0.043014508 -0.10429336 0.059785396 -0.04511589 -0.118534595
0.030711813 -0.024713205 0.106316715 0.11276848 0.051013235 -0.15136084 0.13081399 0.09094889
-0.09431366 -0.057350136 0.055345617 -0.079690956 0.009996218 -0.09046241 -0.00920642 0.09733715
-0.1174002 0.019199628 0.19389908 0.06333276 -0.10469739 -0.076572925 0.05224102 -0.07323439
0.10112887 0.09691889 -0.048431575 0.12605989 -0.14094585 -0.012171332 -0.0660284 -0.09230942
0.047528546 0.06292624 0.04834599 -0.026845668 -0.008359097 0.020965498 -0.053401794 -0.046311248
-0.09420106 -0.09541406 -0.025197411 -0.116761245 0.051877312 0.01870032 0.07066801 0.06502565
-0.029996162 0.10725041 -0.0017716311 0.037856903 0.011943583 -0.064726755 -0.10325044 0.0037778479
-0.051531427 -0.043619413 -0.10634891 -0.004318396 0.0846155 0.08219361 -0.04667943 -0.12601809
0.036365297 0.16340992 -0.16619883 -0.14772332 0.058816664 -0.24752462 -0.10075962 0.12306753
-0.012869733 -0.108001575 0.018069042 0.14010757 -0.030096918 -0.048938114 0.11026642 -0.035233986
-0.025557946 -0.11705138 -0.017884666 0.111064635 -0.12047376 0.02483762 -0.03796183 -0.016478654
-0.06934838 -0.021990893 0.14283887 0.073351905 0.0047655455 -0.12751432 0.0908791 -0.06510415
0.074436136 -0.0012351886 -0.08385993 0.041148808 -0.1390662 0.08803378 -0.06815165 0.08505463
00000000: 52ca 503d 8c61 dbbd 3ed2 b1bc 4090 533d
00000010: 5a61 9bbd 6229 523d d5a8 9f3d c080 26bd
00000020: 3d87 073d f1fc 0bbd 354b 44bd d5aa 953d
00000030: ceee 853d d542 7bbd 39f4 b33b 45f2 85bc
00000040: b426 8dbd 8aa7 97bc 35f2 3e3d d442 d33c
00000050: 281f 90bd 6d27 0dbc 3bf4 83bd 1720 54bc
00000060: 86cd 9d3b 7bbe bc3b 884d 44bd 4a7b a9bd
00000070: dc40 b73c 6d77 923d 4bf9 c1bd 5ecf 83bd
00000080: 147a 5dbd 0f09 863d d96b 9c3c 870a 12bd
00000090: 7c4a ffbc 915f c53c 9364 55bd 0de7 893d
000000a0: 11f6 ddbc 6c97 7e3c c401 fe3c 61a5 8a3d
000000b0: c93e b1bd b25e 8c3d 54f9 553d 8599 c6bc
000000c0: 81a7 b33c 73a0 f1bc 6119 293d 70db 843d
000000d0: 7789 65bd 94de 9a3c c0bb 84bd 4285 fb3c
000000e0: 157c 953d ed94 8dbc 7d51 0cbd f0d9 583c
000000f0: fbb4 a7bd 6d11 88bd 7a8b 8bbd 8f68 83bd
00000100: f6c0 c83c 1048 893d 7b0c a8bd 0aba d1bc
00000110: 995d ba3b 8fb6 0d3d bae0 743c 214e 54bd
00000120: 100d 063d c535 653c 17e5 b1bc 5a3a a83c
00000130: a608 8cbd 315b 80bd 97f3 a4bd e5c2 8dbd
00000140: 3d30 eebc b265 54bc 1097 0f3c 8987 b5bd
00000150: 0b45 5cbc df49 2f3d 276c 333d 9042 9b3b
00000160: 548c 9bbc 9d5e 983c b201 593d c3f5 78bd
00000170: ed6c 1c3d 4eac 81bc 8529 bcbd c37c c4bd
00000180: c099 2bbb 507e 4cbd e5ba 0bbd 6479 7fbd
00000190: 8b09 76bd eac3 013d 7b31 85bd efbc 56bd
000001a0: b085 513d 3592 ab3d c68d b13d fec7 173d
000001b0: bb32 133d f3a8 f63c a4d8 953c 6879 d63c
000001c0: 61ba ad3d f072 003d 64fa a93d 8409 aebc
000001d0: 4acf 60bc 6d51 373d 2420 05bd 6271 d0bd
000001e0: edd6 d9bd d3be b13d bcf3 103a 16e5 163d
000001f0: 799c 5a3d b6a9 693d 2f63 973d 6e9f 2fbc
00000200: 8b21 1a3e 02dd 9e3d 9683 aebd 6559 7f3d
00000210: 6cc9 39bd 9e62 533d bee3 d43c 29c9 a9bc
00000220: 8046 f53d a322 e6bd 57df 31bd 7545 2bbe
00000230: d9f4 033e 6806 bb3c 3c7d 9bbd fbae 0d3e
00000240: a7fc 213c 2e69 56bc d48c c43c fb2f 30bd
00000250: c297 d5bd 88e1 743d 71cb 38bd 44c2 f2bd
00000260: 5797 fb3c 5973 cabc 94bc d93d 29f3 e63d
00000270: 41f3 503d 56fe 1abe 1af4 053e 6943 ba3d
00000280: 8527 c1bd fae7 6abd 16b2 623d 0335 a3bd
00000290: 2dc7 233c 5b44 b9bd 86d6 16bc b358 c73d
000002a0: 846f f0bd 8a48 9d3c 7b8d 463e 9bb4 813d
000002b0: 966b d6bd 44d2 9cbd aefa 553d e9fb 95bd
000002c0: a71c cf3d 697d c63d 3060 46bd d815 013e
000002d0: 1c54 10be 446a 47bc e639 87bd b90c bdbd
000002e0: 4bad 423d 79df 803d 7206 463d 72eb dbbc
000002f0: 98f4 08bc d6bf ab3c d7bb 5abd ddb0 3dbd
00000300: 7cec c0bd 7268 c3bd cd6a cebc 8520 efbd
00000310: 4e7d 543d 6a31 993c 64ba 903d 2b2c 853d
00000320: 83ba f5bc 1aa6 db3d 1336 e8ba d70f 1b3d
00000330: 05af 433c 768f 84bd f774 d3bd c595 773b
00000340: 9e12 53bd 45aa 32bd 75cd d9bd 5581 8dbb
00000350: e44a ad3d 2055 a83d ee32 3fbd e30a 01be
00000360: c7f3 143d ee54 273e 0730 2abe c844 17be
00000370: bee9 703d 1877 7dbe 0f5b cebd d40a fc3d
00000380: 93db 52bc ee2f ddbd 8705 943c 5c78 0f3e
00000390: d08d f6bc 5573 48bd 5cd3 e13d 8351 10bd
000003a0: e65e d1bc a2b8 efbd dd82 92bc db75 e33d
000003b0: f2ba f6bd 4478 cb3c dd7d 1bbd 3efe 86bc
000003c0: 8606 8ebd 3f26 b4bc 5a44 123e 8639 963d
000003d0: 4b28 9c3b 1d93 02be d21e ba3d 5355 85bd
000003e0: f971 983d 0de6 a1ba c1be abbd a78b 283d
000003f0: 5f67 0ebe 0e4b b43d 1893 8bbd 1f31 ae3d

lstm.bias_ih_l0 f4 [512]
0.06088192 0.03126183 0.028695606 -0.0051007406 0.019742103 0.011989706 0.058771282 0.036502663
-0.061601635 0.061188787 -0.026692038 -0.057000637 0.15160371 0.031748116 0.08212844 0.06888526
0.10743688 0.055578265 -0.053515367 -0.09962975 0.10404269 -0.084435254 -0.0538362 -0.08023614
-0.041145727 0.009879483 -0.016444175 -0.00014205877 0.08180625 -0.049272694 -0.026960162 0.070303015
0.038927007 -0.002112472 -0.07197251 -0.05713668 -0.059119493 -0.04087241 0.037868638 -0.08348259
-0.08569043 0.068951756 0.043742865 -0.017163543 -0.072932094 0.0858399 -0.00021406356 0.050658554
-0.028850144 0.41288763 0.096547484 -0.009569824 -0.0076732873 -0.032645702 -0.027452342 0.09261223
0.063554704 0.07780666 0.04374823 0.0129579725 0.12958226 0.05756689 0.11613434 -0.034325134
0.079895556 -0.018084606 0.04805033 0.020546924 0.09262448 0.014128191 -0.020626552 0.088151634
0.019272702 0.07515614 0.09094398 -0.0043981876 0.093640536 -0.04241717 -0.05762428 -0.0046094786
-0.008848333 0.08740553 -0.019309716 0.1434204 -0.06935575 -0.03587197 0.08959883 -0.1084798
0.13011129 -0.041922156 0.1396773 -0.057345353 0.0076789823 -0.01934105 -0.08986994 -0.03509941
0.051990096 -0.02894407 -0.030422285 0.08052556 0.10471565 -0.03073193 0.019222917 0.014903057
-0.029891836 0.044823308 -0.09661931 -0.050539184 0.085305996 0.081852965 0.052210923 0.085157834
0.05872619 -0.060475994 -0.013928156 0.019891039 0.15726155 -0.035542402 0.02251013 -0.027401404
-0.039722044 -0.09421187 0.030049177 0.064566836 0.318827 0.057018366 0.057622373 -0.09700078
0.050558433 -0.03014389 0.08429722 -0.04160484 0.028516205 -0.037325226 0.024155034 0.050726335
-0.099059924 -0.056544673 0.022107434 -0.09059508 -0.030964606 0.060440935 0.031726245 0.0457087
-0.029288597 0.05339308 -0.068293266 -0.12613337 0.018356595 -0.07285089 -0.020309502 -0.012050568
0.04727733 -0.06314021 0.07106104 -0.030254357 0.057093922 0.040608745 -0.09264354 -0.039877515
-0.047848772 0.052678734 0.022201158 0.032531228 -0.018367963 -0.031912368 -0.09186155 -0.06757153
0.06713767 -0.015511781 0.022870013 -0.082516275 -0.04530536 -0.07377432 -0.05722724 0.0780489
-0.028098011 -0.0707957 -0.08079847 -0.006454925 -0.07939307 -0.076791294 0.006551492 0.050113
0.046186704 -0.014138922 0.02126579 -0.0234259 -0.0346475 -0.0029147721 -0.00011575341 0.044400174
0.058218434 -0.027092459 -0.040596724 -0.05306636 -0.026214529 -0.062041316 -0.01691812 0.005019191
0.00932006 0.050029624 -0.04205674 -0.08550393 0.039554108 -0.045709644 0.06414322 -0.013422226
-0.09202615 0.014962032 -0.054101147 -0.0042199977 0.053180385 -0.018669559 0.018701082 0.017454438
0.041823365 -0.053574566 0.07659235 -0.016326332 0.04736713 -0.04605512 0.054575156 -0.04132148
-0.059625376 0.023879202 0.007863801 -0.06672212 -0.072505556 -0.05483882 0.0024659964 -0.109339975
0.0753632 -0.05429238 -0.091668434 0.07548987 -0.038439605 -0.042854164 -0.0052097472 -0.013383361
0.013705093 -0.0375501 0.045807645 0.052852005 -0.07100773 -0.00041784882 -0.053510167 -0.05075411
-0.06337017 -0.03151518 -0.09988102 0.009121329 -0.070289314 0.0029519931 0.10713933 -0.07860646
00000000: 525f 793d 680c 003d 0c13 eb3c 1d24 a7bb
00000010: 31ba a13c 7970 443c 28ba 703d d183 153d
00000020: ff51 7cbd 18a1 7a3d 43a9 dabc 8079 69bd
00000030: 013e 1b3e 500a 023d f532 a83d b713 8d3d
00000040: de07 dc3d 09a6 633d ee32 5bbd af0a ccbd
00000050: 5514 d53d 64ec acbd 5983 5cbd d852 a4bd
00000060: 6c88 28bd 8edd 213c efb5 86bc 9cf5 14b9
00000070: 098a a73d 2ad2 49bd 8fdb dcbc 07fb 8f3d
00000080: ed71 1f3d 6671 0abb 5366 93bd 2708 6abd
00000090: 4827 72bd d469 27bd 251c 1b3d ecf8 aabd
000000a0: 777e afbd 9436 8d3d b82b 333d 8f9a 8cbc
000000b0: 6c5d 95bd d4cc af3d 4076 60b9 587f 4f3d
000000c0: 2357 ecbc 0266 d33e b0ba c53d c0ca 1cbc
000000d0: 3370 fbbb 80b7 05bd bce3 e0bc 7bab bd3d
000000e0: f828 823d 1959 9f3d 5831 333d ad4d 543c
000000f0: 36b1 043e 42cb 6b3d d7d7 ed3d 8398 0cbd
00000100: 48a0 a33d 2b26 94bc 6cd0 443d 0652 a83c
00000110: e7b1 bd3d ee79 673c 04f9 a8bc d888 b43d
00000120: c9e1 9d3c 76eb 993d d640 ba3d ac1e 90bb
00000130: 9cc6 bf3d a0bd 2dbd 7007 6cbd 1c0b 97bb
00000140: 99f8 10bc ac01 b33d 692f 9ebc ccdc 123e
00000150: 630a 8ebd 7dee 12bd 977f b73d a82a debd
00000160: e53b 053e 91b6 2bbd 9107 0f3e f6e2 6abd
00000170: f99f fb3b 1f71 9ebc bb0d b8bd 66c4 0fbd
00000180: 91f3 543d 1d1c edbc 2838 f9bc 96ea a43d
00000190: 2975 d63d 87c1 fbbc 6179 9d3c f42b 743c
000001a0: b9df f4bc a598 373d 58e0 c5bd 2d02 4fbd
000001b0: e9b4 ae3d 87a2 a73d 1fdb 553d 3b67 ae3d
000001c0: e08a 703d adb5 77bd ec32 64bc 88f2 a23c
000001d0: 2c09 213e e994 11bd 2a67 b83c e978 e0bc
000001e0: 95b3 22bd 27f2 c0bd b129 f63c 9e3b 843d
000001f0: 4b3d a33e 178c 693d 7005 6c3d 58a8 c6bd
00000200: 5c16 4f3d 52f0 f6bc 05a4 ac3d d669 2abd
00000210: d19a e93c 56e2 18bd c7e0 c53c 6bc6 4f3d
00000220: eedf cabd 639b 67bd a61a b53c ea89 b9bd
00000230: 7ca9 fdbc ea90 773d 61f3 013d 0c39 3b3d
00000240: a4ee efbc b4b2 5a3d 57dd 8bbd 1b29 01be
00000250: 9260 963c d932 95bd 1d60 a6bc bf6f 45bc
00000260: e0a5 413d a84f 81bd 7388 913d fcd7 f7bc
00000270: 51db 693d 5b55 263d e5bb bdbd 9b56 23bd
00000280: 13fd 43bd a8c5 573d 34df b53c 773f 053d
00000290: 6978 96bc 8bb6 02bd e921 bcbd f162 8abd
000002a0: 7a7f 893d 2025 7ebc e559 bb3c 4bfe a8bd
000002b0: 1d92 39bd fe16 97bd 1c67 6abd 1ad8 9f3d
000002c0: cd2d e6bc 56fd 90bd ab79 a5bd d683 d3bb
000002d0: d598 a2bd c144 9dbd e6ad d63b 4a43 4d3d
000002e0: 452e 3d3d f0a6 67bc 9835 ae3c ace7 bfbc
000002f0: 89ea 0dbd c305 3fbb a4c0 f2b8 f5dc 353d
00000300: 7476 6e3d 01f1 ddbc c048 26bd 1d5c 59bd
00000310: dabf d6bc 091f 7ebd df97 8abc 0778 a43b
00000320: 2ab3 183c ddeb 4c3d b043 2cbd af1c afbd
00000330: 7d03 223d 093a 3bbd 855d 833d e5e8 5bbc
00000340: 3578 bcbd 5023 753c 2a99 5dbd e847 8abb
00000350: add3 593d e7f0 98bc 0333 993c 9cfc 8e3c
00000360: fa4e 2b3d 0171 5bbd 73dc 9c3d cdbe 85bc
00000370: 0904 423d 4ba4 3cbd 338a 5f3d b640 29bd
00000380: bd39 74bd 519e c33c 2cd7 003c 9ba5 88bd
00000390: cb7d 94bd ac9e 60bd 8e9c 213b a3ed dfbd
000003a0: 0558 9a3d b061 5ebd a9bc bbbd 6f9a 9a3d
000003b0: d972 1dbd d987 2fbd 87b6 aabb e245 5bbc
000003c0: 548b 603c 22ce 19bd cca0 3b3d 587b 583d
000003d0: 806c 91bd b812 dbb9 7a2d 5bbd 8be3 4fbd
000003e0: 38c8 81bd 1016 01bd 6c8e ccbd a071 153c
000003f0: d8f3 8fbd 3a76 413b dd6b db3d 6cfc a0bd

lstm.bias_hh_l0 f4 [512]
-0.056567684 0.19343407 -0.0373198 0.055564962 0.14857641 -0.017927699 -0.041523665 -0.0066530276
0.018611643 -0.07847379 -0.062112104 -0.02732178 0.12314914 0.040924422 -0.051347192 -0.022976898
0.11213197 0.051561054 0.03586124 -0.08844405 -0.027857026 -0.0053617167 -0.029577998 -0.029078145
0.06995387 0.034135744 -0.04466894 0.012939036 0.021677596 -0.022613792 0.053100776 0.003361013
-0.056298617 0.01013343 -0.020713523 -0.08521096 0.031705458 -9.4266914e-05 0.041513663 -0.06461252
0.035218082 -0.03749466 0.042676523 0.056146923 0.018039575 0.023243427 0.014625704 0.039494686
-0.0913305 0.40568173 -0.00454274 -0.058356874 0.1464492 -0.038967375 0.069889635 -0.011495493
0.04964614 -0.069592014 0.011585341 0.04560617 0.11905349 0.029420612 0.083038636 0.051341813
-0.0058005326 -0.0704597 0.08377014 -0.0282089 0.0796194 -0.024280112 -0.05290945 0.007389004
-0.0074585266 -0.0749284 0.0052335123 0.059066102 0.10016644 -0.06332496 0.0804388 -0.058733337
-0.095542945 -0.00911664 0.055849336 0.101426154 0.002909734 -0.042682294 0.023022933 -0.020411305
0.17444302 0.008312343 0.028951786 -0.06337877 0.12601298 0.06148002 -0.028826123 -0.07869886
0.032419268 0.102373466 0.05214109 0.0020870122 -0.016168265 0.084678836 -0.044453885 0.025564216
-0.03046514 -0.08184003 0.038822126 -0.07679466 0.06086225 -0.03493476 0.0011475272 0.019845739
-0.08361925 0.02799726 2.2779936e-05 -0.07307597 0.18405163 -0.040422224 -0.058821823 -0.041113097
0.12037496 0.024617212 0.048092052 0.0166357 0.22454178 -0.07149736 0.14857534 -0.072973765
-0.046550468 0.06298519 0.041522264 -0.060692944 0.04298147 0.05500747 -0.08015871 -0.019599276
-0.03913149 -0.022663096 0.07920709 -0.04561038 -0.04896207 -0.077446036 -0.06569056 -0.029272059
-0.06263201 0.054014586 -0.034278423 -0.1202492 -0.078204624 -0.08334258 -0.0076992093 -0.11669082
-0.071161866 0.050047614 0.045383655 -0.011798584 0.01499888 -0.0343151 -0.015432917 0.038489927
-0.03627057 -0.0015665732 -0.06440655 0.041826215 -0.10462334 0.07309209 -0.0032875638 -0.060266044
-0.036782276 0.03640488 -0.06149196 0.016241625 0.060685016 0.06154939 -0.0783127 0.068834364
-0.0032641902 -0.08269583 0.0532343 -0.08992431 -0.10321247 -0.038496718 -0.035616256 0.06952237
-0.048371937 -0.06991716 -0.04572524 -0.09748486 -0.0981735 -0.04764421 -0.06111526 -0.07630242
-0.028038463 -0.080598325 -0.039638013 -0.0222972 0.07262213 -0.05044375 -0.0031686611 -0.00051284756
0.030759035 -0.054851267 0.07014293 0.001437802 0.04562417 -0.029956039 0.052791864 0.044353757
-0.020421386 -0.047030218 -0.0685419 -0.04011713 0.05521531 0.06735352 -0.07826272 0.01723782
-0.031080771 -0.029912734 -0.04944308 -0.06990915 -0.050749633 0.037811242 -0.03816865 0.05485519
-0.071783505 -0.089933835 0.015035619 -0.02049576 -0.104895554 -0.081947036 -0.08282314 -0.014846123
-0.029498443 0.04072822 -0.059136987 -0.033925544 0.04458636 -0.020030681 0.024145938 -0.03581533
0.05491752 -0.06060418 0.0049183457 0.0133874705 -0.064334586 -0.05560354 -0.0005118799 0.0721055
0.02500721 0.01193471 -0.019085787 0.071511015 -0.09684992 -0.049321156 -0.05092059 0.04632143
00000000: 84b3 67bd 9513 463e a6dc 18bd 1698 633d
00000010: 6a24 183e 1cdd 92bc b814 2abd a401 dabb
00000020: 7277 983c deb6 a0bd 4369 7ebd edd1 dfbc
00000030: 9e35 fc3d 5ea0 273d 6f51 52bd 0c3a bcbc
00000040: 72a5 e53d af31 533d 3ce3 123d 2722 b5bd
00000050: 6b34 e4bc 57b1 afbb 8f4d f2bc 4a35 eebc
00000060: f943 8f3d ecd1 0b3d c7f6 36bd 40fe 533c
00000070: 3795 b13c 8f40 b9bc 3380 593d 7144 5c3b
00000080: 6199 66bd b006 263c 68af a9bc 1583 aebd
00000090: 95dd 013d 2ab1 c5b8 3b0a 2a3d 9253 84bd
000000a0: d640 103d 0094 19bd 94cd 2e3d 51fa 653d
000000b0: bbc7 933c 0069 be3c a6a0 6f3c 2ec5 213d
000000c0: 7c0b bbbd 84b5 cf3e 44db 94bb 9e07 6fbd
000000d0: c7f6 153e 419c 1fbd 4c22 8f3d 9857 3cbc
000000e0: c059 4b3d 4286 8ebd 71d0 3d3c 89cd 3a3d
000000f0: 51d2 f33d 7f03 f13c 2910 aa3d cb4b 523d
00000100: 6512 bebb 2d4d 90bd ae8f ab3d 5a16 e7bc
00000110: 7f0f a33d 16e7 c6bc 94b7 58bd 751f f23b
00000120: a866 f4bb 1074 99bd e27d ab3b 4cef 713d
00000130: 1024 cd3d 84b0 81bd 19bd a43d 5e92 70bd
00000140: 05ac c3bd f65d 15bc 46c2 643d 84b8 cf3d
00000150: 3cb1 3e3b a1d3 2ebd 979a bc3c 9c35 a7bc
00000160: 31a1 323e 7e30 083c 4c2c ed3c bbcc 81bd
00000170: 8c09 013e 79d2 7b3d c324 ecbc de2c a1bd
00000180: 11ca 043d 2ea9 d13d e591 553d 41c6 083b
00000190: 4f73 84bc 196c ad3d 4715 36bd 0c6c d13c
000001a0: 0792 f9bc bf9b a7bd f303 1f3d 8546 9dbd
000001b0: b24a 793d c017 0fbd a068 963a 8893 a23c
000001c0: 9240 abbd 835a e53c 8a17 bf37 dba8 95bd
000001d0: 0878 3c3e c691 25bd 27ef 70bd 3566 28bd
000001e0: 2687 f63d 09aa c93c 2cfc 443d 9747 883c
000001f0: 48ee 653e 356d 92bd 2224 183e 4573 95bd
00000200: b4ab 3ebd 61fe 803d 4013 2a3d 2a99 78bd
00000210: 560d 303d 834f 613d 402a a4bd a98e a0bc
00000220: 5748 20bd f5a7 b9bc 5437 a23d f3d1 3abd
00000230: 748c 48bd 079c 9ebd c688 86bd f5cb efbc
00000240: 3645 80bd 663e 5d3d 8867 0cbd 3645 f6bd
00000250: bf29 a0bd 84af aabd a649 fcbb 99fb eebd
00000260: 50bd 91bd bafe 4c3d 36e4 393d d94e 41bc
00000270: ddbd 753c fe8d 0cbd 58da 7cbc 9da7 1d3d
00000280: 7390 14bd 7955 cdba 95e7 83bd f751 2b3d
00000290: c344 d6bd 4eb1 953d 2b74 57bb 87d9 76bd
000002a0: 03a9 16bd 491d 153d fede 7bbd 280d 853c
000002b0: da90 783d 371b 7c3d 6962 a0bd 08f9 8c3d
000002c0: 06ec 55bb 6e5c a9bd 360c 5a3d 3d2a b8bd
000002d0: 0f61 d3bd bcae 1dbd 5ae2 11bd bf61 8e3d
000002e0: a721 46bd ba30 8fbd 644a 3bbd 24a6 c7bd
000002f0: 300f c9bd 9326 43bd ff53 7abd 7144 9cbd
00000300: ebb0 e5bc bc10 a5bd 785b 22bd 9ea8 b6bc
00000310: e9ba 943d 1b9e 4ebd 50a9 4fbb 9e70 06ba
00000320: 5ffa fb3c b9ab 60bd 19a7 8f3d a174 bc3a
00000330: 69e0 3a3d 5e66 f5bc 483c 583d 49ac 353d
00000340: c04a a7bc c2a2 40bd b25f 8cbd dc51 24bd
00000350: 7329 623d a4f0 893d 3448 a0bd 5436 8d3c
00000360: 1a9d febc 8d0b f5bc d484 4abd 872c 8fbd
00000370: d9de 4fbd f6df 1a3d bb56 1cbd d6af 603d
00000380: 3b03 93bd 3b2f b8bd f557 763c b9e6 a7bc
00000390: 7bd3 d6bd d9d3 a7bd 2e9f a9bd 273d 73bc
000003a0: b8a6 f1bc a2d2 263d a039 72bd 83f5 0abd
000003b0: 30a0 363d 6217 a4bc b4cd c53c 18b3 12bd
000003c0: 32f1 603d 173c 78bd 132a a13b 1f57 5b3c
000003d0: dac1 83bd 8ac0 63bd ae2f 06ba 0cac 933d
000003e0: ecdb cc3c cd89 433c cc59 9cbc 5e74 923d
000003f0: 4059 c6bd fb04 4abd 1c92 50bd 8abb 3d3d

lstm.weight_ih_l1 f4 [512, 128]
0.045876462 -0.059821688 8.419268e-05 0.067622565 -0.08543398 -0.0059038214 -0.03751453 0.050338987
0.083284765 -0.012520797 0.037604038 -0.08939232 -0.11466035 -0.115511596 0.055264164 -0.07162289
0.0426034 0.08295612 -0.0061240047 0.06240554 -0.069639556 0.03596741 0.07090662 -0.07271159
0.009772016 0.05024827 -0.038019285 0.028980762 -0.051319085 0.007961679 -0.0112336 -0.04546427
0.019215245 -0.06456828 0.08946911 -0.06906057 0.022863472 0.00905652 0.029727962 0.043858133
-0.009604237 -0.050729614 -0.0013581427 -0.032879043 -0.020879392 -0.10620784 -0.006823466 0.012474088
-0.014231619 0.0066003148 0.11240918 -0.03155556 0.062416904 -0.032504436 -0.10458853 0.11024308
0.06575408 -0.062563464 -0.051611863 0.09294897 0.13610339 -0.042011984 0.09012154 -0.092151955
-0.046917703 -0.1023632 0.17087254 0.031710204 0.07211467 0.051823437 0.053765383 0.09061656
0.060818713 -0.10046224 0.04089855 0.035444155 -0.02841829 -0.046084683 0.00789891 0.0792193
-0.03131392 0.017432176 0.054001596 0.11635268 0.077508815 0.10539111 -0.007082708 -0.08035017
-0.0025601746 -0.009667795 0.15267046 0.03753032 0.118140586 -0.04781649 0.026882056 -0.032564856
0.09797853 -0.027212117 -0.10658692 -0.07027358 -0.028057324 -0.06559391 0.02049557 0.028682003
0.10491797 -0.034843914 -0.031260576 0.095781535 0.012168031 0.06498006 -0.049506243 -0.10770063
0.06434877 0.02199281 0.026329402 0.10476264 0.007925338 -0.092993945 0.0364501 0.08531894
0.068290204 0.05488305 0.0012523278 0.085328594 -0.00668633 0.058679726 0.087314844 0.05398197
0.011293111 0.09871115 -0.06337598 0.08718811 0.014357212 0.13210756 0.11418406 -0.034778472
0.0519912 -0.01685751 -0.098595686 -0.07362181 0.19661804 0.007696886 -0.08695458 0.05617245
-0.05745183 -0.060048304 -0.04252385 0.08857758 0.05797591 0.112059824 0.07622794 -0.012004385
-0.0817053 -0.038379654 0.043990474 -0.039931092 0.001275606 -0.024632994 0.0028001617 -0.045290835
0.06780003 0.065690294 0.06338665 -0.08931887 0.00035278354 0.05274627 0.003348083 0.01741097
-0.010080601 -0.055686943 0.0300212 -0.04914213 0.017531449 0.0056270007 0.06497158 0.06884886
0.09997981 0.2991539 -0.002988592 -0.016356291 -0.14016642 -0.052320853 0.040790327 -0.06036927
-0.020670403 0.05698242 0.14057347 0.028146701 -0.08834466 -0.010099635 -0.06937867 0.025541393
0.033060487 0.040579356 -0.16493751 0.06528608 0.00022581563 -0.0013457182 -0.028194092 -0.034035105
-0.0025025243 0.07666046 0.05833097 -0.024270115 0.11767624 -0.014607173 0.021890813 0.014587662
0.007381834 0.046713263 -0.01635044 -0.05585866 0.004339687 -0.011238192 -0.060166918 -0.051723722
-0.08664363 0.0025420054 -0.19761196 -0.11601344 0.04959933 -0.06948266 -0.011618997 0.112890124
0.02142735 -0.057578035 0.0544238 -0.0046015014 0.081774 -0.069137014 -0.026336437 -0.051568553
-0.06052978 -0.0054018 -0.059100002 -0.017452607 -0.03937025 0.06760668 0.023618609 -0.08519697
-0.01742567 -0.001359937 0.13348013 -0.011105436 -0.062780514 0.0029950605 0.060191214 0.038191404
0.063618936 0.03768182 -0.10789499 -0.030050354 -0.13138223 0.074228145 -0.16135621 0.1270012
00000000: f5e8 3b3d 9607 75bd 9a90 b038 b37d 8a3d
00000010: 03f8 aebd d874 c1bb d6a8 19bd 4130 4e3d
00000020: 3491 aa3d 0724 4dbc b106 1a3d 5213 b7bd
00000030: 0cd3 eabd 5891 ecbd ad5c 623d 06af 92bd
00000040: e780 2e3d e6e4 a93d e0ab c8bb f49c 7f3d
00000050: 2f9f 8ebd 9052 133d 7d37 913d d0e9 94bd
00000060: ce1a 203c 21d1 4d3d 1cba 1bbd 1069 ed3c
00000070: f633 52bd b471 023c 220d 38bc be38 3abd
00000080: 4a69 9d3c 603c 84bd 953b b73d a16f 8dbd
00000090: 2d4c bb3c cc61 143c 0e88 f33c 96a4 333d
000000a0: 175b 1dbc dbc9 4fbd b503 b2ba 2dac 06bd
000000b0: 420b abbc 7f83 d9bd 6297 dfbb 1e60 4c3c
000000c0: bd2b 69bc 7447 d83b c936 e63d 6740 01bd
000000d0: dea8 7f3d 5f23 05bd 8332 d6bd 20c7 e13d
000000e0: 13aa 863d 4621 80bd f666 53bd 085c be3d
000000f0: b05e 0b3e c214 2cbd a491 b83d 2aba bcbd
00000100: c72c 40bd cca3 d1bd 36f9 2e3e 8fe2 013d
00000110: dbb0 933d d044 543d 1739 5c3d 2d95 b93d
00000120: 0b1d 793d 26bf cdbd 3d85 273d e42d 113d
00000130: 79cd e8bc 4bc3 3cbd 6e6a 013c ba3d a23d
00000140: 0643 00bd eccd 8e3c c730 5d3d 504a ee3d
00000150: f1bc 9e3d 4bd7 d73d 1016 e8bb a18e a4bd
00000160: 9ac8 27bb ac65 1ebc a555 1c3e 65b9 193d
00000170: b1f3 f13d 39db 43bd c237 dc3c ba62 05bd
00000180: f8a8 c83d f2eb debc 3e4a dabd 98eb 8fbd
00000190: 79d8 e5bc 1a56 86bd 53e6 a73c 85f6 ea3c
000001a0: 3cdf d63d 7eb8 0ebd 170b 00bd 1c29 c43d
000001b0: 6c5c 473c 4414 853d 0fc7 4abd 2692 dcbd
000001c0: 4ac9 833d 442a b43c c2b0 d73c cc8d d63d
000001d0: 47d9 013c 9c73 bebd b34c 153d b2bb ae3d
000001e0: bcdb 8b3d 0dcd 603d 2625 a43a c2c0 ae3d
000001f0: 0019 dbbb 275a 703d 20d2 b23d 331c 5d3d
00000200: be06 393c 1229 ca3d 44cb 81bd ae8f b23d
00000210: 833a 6b3c 3447 073e 55d9 e93d df73 0ebd
00000220: b9f4 543d c318 8abc 89ec c9bd 08c7 96bd
00000230: 3d56 493e 2936 fc3b 3e15 b2bd 1515 663d
00000240: 9c52 6bbd 36f5 75bd 7d2d 2ebd 2a68 b53d
00000250: 2678 6d3d 9f7f e53d 651d 9c3d 0aae 44bc
00000260: 1c55 a7bd fc33 1dbd 5b2f 343d c98e 23bd
00000270: 3c32 a73a 22cb c9bc eb82 373b e282 39bd
00000280: beda 8a3d a288 863d dcd0 813d d0ec b6bd
00000290: cef5 b839 790c 583d 836b 5b3b 73a1 8e3c
000002a0: 1b29 25bc fe17 64bd 05ef f53c 4249 49bd
000002b0: 1d9e 8f3c b462 b83b d20f 853d a200 8d3d
000002c0: 37c2 cc3d b32a 993e 41dc 43bb a1fd 85bc
000002d0: c987 0fbe 644e 56bd c213 273d c545 77bd
000002e0: fa54 a9bc 6666 693d 7ef2 0f3e e993 e63c
000002f0: 0cee b4bd f178 25bc 6716 8ebd 2f3c d13c
00000300: 6f6a 073d 8a36 263d 61e5 28be b5b4 853d
00000310: ecc8 6c39 cf62 b0ba 4cf7 e6bc 6568 0bbd
00000320: 6401 24bb 2900 9d3d 75ec 6e3d 1fd2 c6bc
00000330: 3e00 f13d ed52 6fbc 5d54 b33c 1701 6f3c
00000340: 50e3 f13b 6856 3f3d 5cf1 85bc 0dcc 64bd
00000350: ef33 8e3b 6520 38bc 9671 76bd 41dc 53bd
00000360: 3772 b1bd c697 263b ca5a 4abe 7498 edbd
00000370: ab28 4b3d ed4c 8ebd 9b5d 3ebc f032 e73d
00000380: 6988 af3c f2d6 6bbd 7eeb 5e3d 31c8 96bb
00000390: 2079 a73d b597 8dbd 83bf d7bc 8c39 53bd
000003a0: 13ee 77bd 9501 b1bb d812 72bd c5f8 8ebc
000003b0: b342 21bd 5f75 8a3d d07b c13c c07b aebd
000003c0: 47c0 8ebc ea3f b2ba 04af 083e 93f3 35bc
000003d0: 1293 80bd c748 443b 108b 763d 976e 1c3d
000003e0: a54a 823d 4158 1a3d 0cf8 dcbd 292c f6bc
000003f0: 1089 06be ed04 983d 903a 25be 9a0c 023e

lstm.weight_hh_l1 f4 [512, 128]
0.08228793 -0.0013963162 -0.06736482 -0.032952722 -0.044940826 -0.00972412 -0.12060774 -0.047192503
-0.035866536 0.056911226 0.03129626 -0.025958253 0.03664166 -0.062191967 0.015287328 -0.031641625
0.048756283 -0.031178664 0.026759319 0.049222365 0.043621987 -0.019433245 -0.04944896 -0.08980315
0.09423162 0.054157168 0.028455287 -0.050769784 -0.08071293 0.03264916 0.055706274 -0.011317408
0.039196588 0.08962498 -0.051817086 0.0455993 -0.04021719 -0.057821665 -0.01055494 -0.020736823
0.07070032 -0.03691715 0.017451983 0.027367325 -0.007982035 -0.07591752 -0.049318857 -0.00761301
-0.0027233285 0.025136668 -0.057921063 0.0026634405 0.06399391 -0.005833223 0.031213645 -0.052484322
-0.021350905 -0.037296407 -0.05688659 0.07118666 -4.264958e-05 0.010247408 0.04119924 0.028746584
-0.09437763 0.052904807 0.035622817 0.07000588 -0.0951193 -0.039413527 -0.030237203 0.05240227
0.08112148 0.048172012 0.07565994 -0.04593357 -0.05833472 0.023433544 -0.0819161 0.023006395
-0.014659058 -0.029800422 -0.07934316 0.009133437 0.021596098 0.029617038 -0.0423543 0.030015597
-0.032328375 0.06423001 -0.03705857 -0.05898535 -0.07647042 0.089340806 -0.058766965 0.0007856975
0.06607309 0.004026427 0.06529355 0.07258887 -0.026641494 -0.0055094855 -0.031196972 -0.02325432
-0.02617937 -0.103082605 -0.032351296 0.087002546 -0.06936405 0.0024971752 0.058328416 -0.015794095
-0.038260445 0.103853956 -0.028170878 0.078171775 0.007918537 0.0825062 -0.053330973 0.05238589
0.0073268465 -0.054466035 -0.044658933 0.04091131 0.0034781676 0.053605784 0.08116596 0.019408159
-0.043376286 0.040575344 -0.05536359 0.07809443 -0.008193139 0.113241695 -0.08644943 0.010976524
-0.04517219 -0.06997916 -0.155293 0.015676077 0.014567761 -0.04631109 0.016320735 0.012278313
0.04431311 -0.037917603 -0.1009605 -0.083030105 -0.051421534 0.0847114 0.021669084 0.023234114
0.10909425 -0.05850715 0.010701475 -0.062154923 0.11719269 0.080023974 0.03880962 -0.048496004
-0.014893538 0.04918473 -0.008953156 0.061963882 0.0190834 0.020054676 0.010486837 -0.051677607
0.058839962 0.00825822 0.043152098 0.082386576 0.01592448 -0.011517715 0.07847576 -0.030013869
-0.034875292 0.09608374 -0.016185088 -0.0047571184 0.017970262 -0.02063261 0.07181513 0.06514369
0.07062085 0.027204074 0.0038048923 -0.05513651 0.08043325 0.079618536 0.035066463 -0.101806276
-0.015277079 -0.08257415 0.1870608 -0.0206804 -0.022085054 -0.07945491 0.09102442 0.009143901
0.02254627 0.05044179 0.085942626 0.037425425 0.020209894 0.1299414 0.025818871 0.048996024
-0.06870657 0.1251398 -0.0704636 0.02648908 0.024729542 0.02447508 0.1324963 -0.06084833
-0.04378088 -0.04938199 0.08782931 -0.08539612 -0.08133891 -0.021037308 0.05244585 0.0073210695
-0.04199528 0.061609183 -0.037168577 0.01627776 0.02585828 -0.031479187 -0.061696704 -0.07749398
0.0308648 -0.073611595 -0.011920609 0.07823873 -0.046331305 0.009316911 0.017176336 -0.09351813
-0.028734986 -0.07141889 -0.04570725 0.021926533 0.029508179 0.059845947 -0.027043475 0.1151824
0.047625445 0.045511108 0.088866666 -0.1530614 -0.027237514 -0.13206841 0.025447862 0.11249815
00000000: 9386 a83d 9904 b7ba 91f6 89bd 6ff9 06bd
00000010: df13 38bd ea51 1fbc 3101 f7bd ed4c 41bd
00000020: cae8 12bd bf1b 693d 8230 003d 67a6 d4bc
00000030: 9115 163d 01bd 7ebd b377 7a3c a69a 01bd
00000040: abb4 473d 666a ffbc 5c36 db3c 649d 493d
00000050: f8ac 323d 7832 9fbc fe8a 4abd b7ea b7bd
00000060: 82fc c03d e8d3 5d3d 101b e93c faf3 4fbd
00000070: d24c a5bd 20bb 053d 432c 643d a66c 39bc
00000080: 9a8c 203d 4d8d b73d 273e 54bd 55c6 3a3d
00000090: c8ba 24bd 69d6 6cbd a1ee 2cbc 45e0 a9bc
000000a0: 54cb 903d 7036 17bd 76f7 8e3c 7131 e03c
000000b0: 15c7 02bc a57a 9bbd 9202 4abd 8e76 f9bb
000000c0: df79 32bb 6aeb cd3c a33e 6dbd 1e8d 2e3b
000000d0: 3d0f 833d 9f24 bfbb c2b3 ff3c cdf9 56bd
000000e0: 18e8 aebc 1ec4 18bd ea01 69bd 50ca 913d
000000f0: a3e2 32b8 bfe4 273c 89c0 283d f57d eb3c
00000100: 0f49 c1bd b6b2 583d 3be9 113d 3e5f 8f3d
00000110: e8cd c2bd 1470 21bd 03b4 f7bc c3a3 563d
00000120: 0523 a63d 0450 453d 99f3 9a3d d724 3cbd
00000130: 63f0 6ebd b4f7 bf3c a1c3 a7bd e877 bc3c
00000140: 8c2c 70bc 0420 f4bc ab7e a2bd 69a4 153c
00000150: 4dea b03c 6e9f f23c b47b 2dbd 45e3 f53c
00000160: c26a 04bd 068b 833d baca 17bd 9f9a 71bd
00000170: 869c 9cbd 50f8 b63d a1b5 70bd 44f7 4d3a
00000180: 5451 873d 1ef0 833b a0b8 853d 79a9 943d
00000190: 433f dabc ea88 b4bb cb90 ffbc d87f bebc
000001a0: 1e76 d6bc f91c d3bd cb82 04bd 642e b23d
000001b0: bd0e 8ebd a6a7 233b c7e9 6e3d 9e62 81bc
000001c0: fcb6 1cbd 62b1 d43d 9dc6 e6bc 8618 a03d
000001d0: c0bc 013c 03f9 a83d 9471 5abd 9692 563d
000001e0: 0b16 f03b c717 5fbd 49ec 36bd 9e92 273d
000001f0: f8f1 633b bd91 5b3d 573a a63d dcfd 9e3c
00000200: 55ab 31bd 5532 263d efc4 62bd f9ef 9f3d
00000210: 843c 06bc 43eb e73d 660c b1bd e1d6 333c
00000220: 7906 39bd 3c51 8fbd 2105 1fbe 1e6b 803c
00000230: 9ead 6e3c b3b0 3dbd 10b3 853c fa2a 493c
00000240: aa81 353d 7d4f 1bbd 61c4 cebd b00b aabd
00000250: 639f 52bd 2c7d ad3d 5d83 b13c 7855 be3c
00000260: ce6c df3d 31a5 6fbd 3d55 2f3c 2996 7ebd
00000270: b902 f03d 9ce3 a33d d6f6 1e3d bfa3 46bd
00000280: 0704 74bc ed75 493d 42b0 12bc d7cd 7d3d
00000290: ca54 9c3c b449 a43c fbd0 2b3c e6ab 53bd
000002a0: 2c02 713d 7c4d 073c 41c0 303d 4bba a83d
000002b0: 0e74 823c ccb4 3cbc e6b7 a03d a5df f5bc
000002c0: 65d9 0ebd 8dc7 c43d 9796 84bc 9ae1 9bbb
000002d0: 5f36 933c b805 a9bc d013 933d 0e6a 853d
000002e0: aaa1 903d 14db de3c 805b 793b d2d6 61bd
000002f0: 30ba a43d 0b0f a33d daa1 0f3d cf7f d0bd
00000300: b74c 7abc a31c a9bd de8c 3f3e f169 a9bc
00000310: b7eb b4bc 41b9 a2bd 036b ba3d 4dd0 153c
00000320: f5b2 b83c 0d9c 4e3d b002 b03d 674b 193d
00000330: 388f a53c 5c0f 053e 1982 d33c 0eb0 483d
00000340: 08b6 8cbd a624 003e 384f 90bd a1ff d83c
00000350: 9c95 ca3c f77f c83c 1cad 073e 193c 79bd
00000360: 9453 33bd c544 4abd dadf b33d 29e4 aebd
00000370: 0495 a6bd 6f56 acbc 76d1 563d 95e5 ef3b
00000380: 3e03 2cbd e959 7c3d 143e 18bd f058 853c
00000390: bed4 d33c 52f0 00bd afb5 7cbd 2ab5 9ebd
000003a0: 2dd8 fc3c adc1 96bd a84e 43bc a13b a03d
000003b0: e5c5 3dbd f5a5 183c 63b5 8c3c 6f86 bfbd
000003c0: a265 ebbc 1144 92bd 8637 3bbd 469f b33c
000003d0: 23bb f13c 0621 753d 478a ddbc c0e4 eb3d
000003e0: e612 433d db69 3a3d baff b53d 21bc 1cbe
000003f0: 3521 dfbc f13c 07be 0978 d03c 6e65 e63d

lstm.bias_ih_l1 f4 [512]
0.0848976 -0.012874694 -0.014393443 0.043849856 0.031836085 0.04440235 0.4757615 0.03815166
0.12709455 0.037539985 -0.040340625 -0.037490282 0.10682717 0.05108961 0.07311786 0.14704956
-0.00954957 0.17667234 -0.072267495 -0.040287152 0.07786053 -0.008249846 0.037977207 0.17380306
-0.014725723 0.0007907938 -0.040547214 0.03200677 0.0822297 0.19209255 0.0057372237 -0.034772627
-0.025323836 -0.035499692 0.00074915827 0.024942894 0.09426827 0.03640906 0.021239337 0.056652177
-0.027341753 0.03123463 0.37032646 -0.056604747 -0.05343076 0.021914955 0.05817369 0.18356717
0.07602761 0.073242605 -0.018942881 -0.0024525283 0.035169512 -0.056374434 0.021042258 0.07493668
0.11211846 0.094701566 -0.032949515 0.03333822 -0.08310603 0.20549718 0.07222427 0.0036323005
-0.05578258 -0.0544804 0.08605022 -0.013189262 0.22842729 0.07384352 0.020893546 0.015086293
-0.025736434 -0.05112093 -0.07498623 0.095630825 0.027932746 -0.041923605 -0.0028453616 0.145915
0.01275074 -0.015457563 -0.024946412 0.19123524 0.032460973 0.052510176 0.021987053 -0.046845574
0.027388375 0.08969834 0.07696737 -0.0024389133 0.090154745 -0.03982954 0.041320477 -0.02176633
0.062131964 -0.013546365 -0.08601514 0.0071719396 0.015196846 0.102657214 -0.01697237 0.083362415
-0.07292407 -0.062849104 0.08813413 0.085975245 0.06786566 -0.10159167 -0.039050434 -0.021165151
-0.0042336076 0.08203668 -0.019048981 0.08394866 0.089775205 0.0138925705 0.0034031372 -0.056221634
0.081465244 -0.028600968 0.12083562 -0.00689514 -0.034865458 -0.00013956675 0.086185716 -0.040039793
-0.0013561047 -0.06798329 0.0071599786 -0.10866134 -0.008566267 0.07773817 0.023148341 -0.082397565
-0.09996279 -0.09140864 -0.044477552 0.01448888 -0.012390292 0.048186682 0.03596962 -0.058443684
-0.060404927 -0.050632235 -0.093843 -0.02631839 0.013539721 0.060652345 0.070860684 -0.14069541
-0.036966242 0.032097276 -0.03402724 0.07035493 0.067573786 -0.09819642 -0.061655656 -0.02213943
-0.009205542 -0.026327081 -0.043746334 0.07124608 -0.012150728 -0.056780595 -0.062468164 -0.044552296
-0.0669837 0.03842396 -0.052092373 0.012658803 -0.0048078275 -0.07841715 0.019992141 -0.054689296
0.03069703 0.048767634 -0.06716787 -0.04050073 0.034934103 -0.07811644 0.051140722 -0.08292757
-0.08322817 -0.0036027534 0.03748894 0.008120801 -0.04364012 0.117783 -0.08735252 -0.022093935
-0.015455193 -0.032077592 0.046727486 0.019220311 -0.07795347 0.061752714 0.04290769 -0.008012268
-0.042378135 -0.038802855 0.079247445 -0.08366129 -0.009745122 -0.02877399 -0.09281752 0.011756441
-0.03502139 -0.11477078 0.08584492 -0.048021365 0.030313574 0.024471978 -0.06959293 0.03327866
0.04234681 0.069970205 -0.027109182 -0.082588896 0.0315162 -0.040037483 0.089071415 0.090770274
0.0125028165 -0.06571967 0.04926197 0.05774526 0.02766069 0.05506749 0.01113127 -0.022597076
0.07445974 -0.054019187 -0.011610932 -0.0149679715 -0.014707043 -0.015256734 -0.053810496 -0.076729745
0.10780581 0.02236806 -0.023346746 0.064159356 -0.07324582 0.005744023 -0.009090366 0.0097054755
-0.06332887 -0.037936535 -0.120887116 -0.05728209 -0.03428256 0.012242541 -0.07907655 0.016609453
00000000: cbde ad3d 61f0 52bc 7ad2 6bbc e89b 333d
00000010: 8e66 023d 3ddf 353d 0397 f33e ea44 1c3d
00000020: 1325 023e 87c3 193d 363c 25bd 698f 19bd
00000030: 34c8 da3d 5743 513d d1be 953d 2994 163e
00000040: cd75 1cbc 98e9 343e fb00 94bd 2404 25bd
00000050: 5775 9f3d 5d2a 07bc fd8d 1b3d 6ef9 313e
00000060: 2944 71bc 464d 4f3a d614 26bd 8819 033d
00000070: 0c68 a83d e9b3 443e 52ff bb3b be6d 0ebd
00000080: ef73 cfbc 2068 11bd 2963 443a 0a55 cc3c
00000090: b90f c13d ab21 153d 1efe ad3c 1d0c 683d
000000a0: d0fb dfbc c4df ff3c 6e9b bd3e 61da 67bd
000000b0: 36da 5abd fe86 b33c 8947 6e3d 08f9 3b3e
000000c0: 5db4 9b3d 3800 963d 1a2e 9bbc 99ba 20bb
000000d0: e80d 103d e1e8 66bd d060 ac3c 6778 993d
000000e0: 5d9e e53d e5f2 c13d 12f6 06bd a88d 083d
000000f0: 7f33 aabd da6d 523e 51ea 933d e40b 6e3b
00000100: 467c 64bd d726 5fbd 193b b03d c617 58bc
00000110: d8e8 693e 453b 973d f128 ab3c 802c 773c
00000120: 37d5 d2bc 2e64 51bd 6192 99bd 18da c33d
00000130: 37d3 e43c 16b8 2bbd 3f79 3abb be6a 153e
00000140: 7be8 503c b841 7dbc 6b5c ccbc 2cd3 433e
00000150: ccf5 043d e914 573d 311e b43c 25e1 3fbd
00000160: 965d e03c c3b3 b73d 12a1 9d3d 2dd6 1fbb
00000170: 0da3 b83d 4d24 23bd a93f 293d 4d4f b2bc
00000180: 167e 7e3d 93f1 5dbc b528 b0bd 9702 eb3b
00000190: 31fc 783c f23d d23d a409 8bbc eab9 aa3d
000001a0: 3759 95bd 08b7 80bd ab7f b43d ca13 b03d
000001b0: 27fd 8a3d 4b0f d0bd 59f3 1fbd 8a62 adbc
000001c0: 13ba 8abb d902 a83d 9c0c 9cbc 46ed ab3d
000001d0: 10dc b73d aa9d 633c 2b07 5f3b a848 66bd
000001e0: 40d7 a63d 944c eabc aa78 f73d a0f0 e1bb
000001f0: 15cf 0ebd aa58 12b9 2382 b03d c400 24bd
00000200: 53bf b1ba d33a 8bbd 419e ea3b d689 debd
00000210: 8759 0cbc 3135 9f3d 97a1 bd3c 0ec0 a8bd
00000220: 4bb9 ccbd 7434 bbbd 182e 36bd c462 6d3c
00000230: a700 4bbc 665f 453d e154 133d a562 6fbd
00000240: 286b 77bd bf63 4fbd c230 c0bd aa99 d7bc
00000250: b5d5 5d3c 986e 783d 681f 913d 7512 10be
00000260: ea69 17bd 6f78 033d 2660 0bbd 3f16 903d
00000270: 2064 8a3d 341b c9bd a48a 7cbd c05d b5bc
00000280: d7d2 16bc e4ab d7bc 5b2f 33bd 77e9 913d
00000290: d913 47bc c592 68bd 9ede 7fbd 787c 36bd
000002a0: c02e 89bd 7162 1d3d d05e 55bd de66 4f3c
000002b0: fb8a 9dbb 2c99 a0bd 8fc6 a33c e201 60bd
000002c0: 5678 fb3c 92c0 473d 4f8f 89bd 18e4 25bd
000002d0: 1017 0f3d 83fb 9fbd ef78 513d eed5 a9bd
000002e0: 8873 aabd 2c1c 6cbb 018e 193d 1c0d 053c
000002f0: fcbf 32bd 3738 f13d e1e5 b2bd 57fe b4bc
00000300: c737 7dbc cb63 03bd 5265 3f3d ea73 9d3c
00000310: 12a6 9fbd 6af0 7c3d f9bf 2f3d e345 03bc
00000320: b294 2dbd beef 1ebd 7c4c a23d 9c56 abbd
00000330: 01aa 1fbc 6eb7 ebbc 1d17 bebd 169e 403c
00000340: 9772 0fbd f10c ebbd 76cf af3d 0db2 44bd
00000350: 2c54 f83c 7579 c83c bd86 8ebd 344f 083d
00000360: d973 2d3d 8a4c 8f3d 1314 debc 5e24 a9bd
00000370: 2217 013d 58fe 23bd 136b b63d c4e5 b93d
00000380: 9dd8 4c3c 0998 86bd ebc6 493d 4b86 6c3d
00000390: ac98 e23c 738e 613d ee5f 363c 811d b9bc
000003a0: 597e 983d 3943 5dbd c73b 3ebc 393c 75bc
000003b0: cff5 70bc 61f7 79bc 6568 5cbd 7c24 9dbd
000003c0: 4bc9 dc3d 393d b73c ad41 bfbc fb65 833d
000003d0: e801 96bd 5b38 bc3b c2ef 14bc b703 1f3c
000003e0: 91b2 81bd 5763 1bbd aa93 f7bd a0a0 6abd
000003f0: df6b 0cbd f094 483c e3f2 a1bd 8c10 883c
