saved_models/AAPL_model.pth (torch, 800866 bytes, 9 tensors)

lstm.weight_ih_l0 f4 [512, 1]
000000 9a 7f a1 3d 62 e2 c7 bd 0b 52 19 bd f1 bd 27 3d
       0.07885666 -0.09759976 -0.037431758 0.040952627
000010 01 16 9b bc ef e9 ce 3d 80 97 2f 3d 83 d1 0b 3e
       -0.01893139 0.10103213 0.04286909 0.13654141
000020 a6 11 e4 3d a5 8f c3 bd d0 58 fc 3d 12 5e 03 3d
       0.11136179 -0.095488824 0.12321627 0.032072134
000030 6c 63 09 3e 79 90 a4 3d b9 b9 a6 3d fd a8 55 3d
       0.13416833 0.080353685 0.081408925 0.052163113
000040 a6 e7 99 3c 4a ec 8d 3c 74 d7 11 3e b5 d6 c1 bb
       0.018787216 0.017324585 0.14242345 -0.0059154877
000050 9f 57 08 3e 02 55 0a be af 60 0b 3e 7f 10 ac 3d
       0.13314675 -0.1350899 0.136111 0.08401584
000060 1d 3c 1d 3e 19 af 49 bc 46 81 52 3d 0d 1c 17 3e
       0.15354963 -0.012309813 0.051392816 0.14756794
000070 5a 2f 74 3d 54 3f cf bc 2f 7e e3 bd 32 19 95 3d
       0.05961547 -0.025298752 -0.11108052 0.07280196
000080 d0 f2 89 bd 77 b3 90 3d ca cc 8c 3d c6 f0 78 bd
       -0.06735766 0.0706548 0.06874998 -0.060776494
000090 44 8c 83 3c 4c 08 e4 bb fe 1c bf 3c 31 33 d4 3d
       0.016058095 -0.006958997 0.023329254 0.103613265
0000a0 30 b6 9d 3d 91 95 52 3d 6c 05 c7 3d bd 16 dc 3c
       0.07700765 0.05141217 0.09717831 0.026866311
0000b0 7f 08 82 3d 28 45 95 bd 1b ed 51 3d cf 96 9e 3c
       0.06349277 -0.07288581 0.051251512 0.01935902
0000c0 c5 a0 3f bc 71 8b 97 bd 1a c5 4f 3c 38 9b a3 3d
       -0.011696045 -0.07399643 0.01268127 0.0798859
0000d0 3d 77 94 3d 80 15 9c 39 a5 24 a6 3c 17 db 13 bd
       0.072493054 0.00029770657 0.020281145 -0.036097612
0000e0 b4 50 c0 3d cc e9 56 3d 8a 66 05 3d 58 78 3c 3c
       0.09390393 0.05246906 0.032568492 0.011503302
0000f0 b1 ae c8 3d fb 59 d9 3d 92 b8 8a 3a 21 3f c8 3d
       0.09798945 0.106128655 0.0010583571 0.09777666
000100 dc 4c 81 bb b9 32 a7 bd 08 a7 d8 3d 1c 87 78 bd
       -0.00394593 -0.081639715 0.10578734 -0.060675725
000110 37 26 0a bd a1 d6 ec 3d 64 1c 2d 3d e5 06 5d 3d
       -0.03372785 0.11564375 0.042263404 0.053961653
000120 4d be f4 3d f0 2a a8 3d 21 5a 68 bd 42 4c b7 3c
       0.119503595 0.08211315 -0.05672658 0.02237523
000130 39 ae 81 bc a3 18 da 3d a9 6e 74 3d cc 29 e8 3a
       -0.015830146 0.1064923 0.059675846 0.0017712652
000140 57 81 f0 3d df 6f 1c 3e a8 bb 36 3c 41 b4 3f 3b
       0.117434196 0.1527705 0.011153139 0.0029251727
000150 0d b3 84 3b db 4c d5 3b 26 1c ba 3d 5c 0c a2 bc
       0.004049665 0.006509406 0.090874 -0.019781284
000160 74 0c 46 3d f2 a8 ad 3d bc 3f 1a 3d 68 7d 76 bc
       0.04835172 0.084794894 0.037658438 -0.015044548
000170 a5 9a 6f 3d a7 ad e7 3c a5 4e b4 3d ef 15 dc bd
       0.05849709 0.028281046 0.08804063 -0.10746371
000180 29 d3 3e 3d a6 8b a9 3d 0f a3 7f bc 3b 64 be 3d
       0.046588097 0.08278589 -0.015602841 0.09296461
000190 2f 6a 30 3e ee 71 3e bd 26 12 af 3d 0a 04 ff bc
       0.17228006 -0.04649537 0.085483834 -0.031129856
0001a0 90 ef 9b 3d d5 e6 08 3e 93 3b 32 3d 65 6f 53 3d
       0.07614052 0.13369305 0.043513846 0.051619906
0001b0 00 17 f0 3c da d2 c4 3d 2d ce 84 bb 5d 3e 47 bd
       0.029307842 0.09610529 -0.0040528984 -0.04864346
0001c0 ad 03 37 bd 7d 0f de bc e0 0a 88 3d 27 9e 39 bd
       -0.04468124 -0.027106995 0.06642699 -0.04531684
0001d0 de aa 68 bb 7e f8 b4 3d 1a 11 12 bc ad f0 12 3d
       -0.0035502235 0.088364586 -0.00891521 0.035874058
0001e0 55 05 73 3d 33 30 ef 3d 96 5b f6 bc 11 e0 90 3d
       0.059331257 0.11679115 -0.030072968 0.07073987
0001f0 c4 67 00 3e 75 53 a0 3d 89 70 05 bc fc d7 44 3d
       0.12539583 0.07828418 -0.008144506 0.04805754
000200 e6 e9 77 bc 0f 35 ca bd fe c9 c7 bc e8 9b 86 3d
       -0.015131449 -0.098734014 -0.02438831 0.065727055
000210 d4 07 28 3c a2 1e 24 3d 01 55 b1 3d 9e cd bf 3d
       0.010255773 0.040068276 0.08658791 0.0936539
000220 cb 23 0c bb bd 94 71 bc 68 86 03 bc b4 c5 04 3d
       -0.002138364 -0.014744935 -0.00802765 0.032415107
000230 36 fb 0a 3e 44 b7 74 3d ff 92 71 3b 96 51 6f bd
       0.13572392 0.05974509 0.0036861298 -0.058427416
000240 f5 48 28 bd 85 ba 12 3e 2e 39 4c 3d 76 71 0a bd
       -0.041085202 0.14328964 0.04985922 -0.03379961
000250 6a ee 89 bd e8 93 da bd dc 24 08 3e 62 60 c7 bc
       -0.06734927 -0.10672742 0.1329531 -0.024337951
000260 c8 03 5f bb 84 da 80 3d d9 ae a9 3d a6 2f 59 3d
       -0.0034029353 0.062916785 0.08285303 0.053023957
000270 a2 fa 47 3d 63 f5 98 3c 4a 93 3a bd 8b aa 51 bd
       0.048823006 0.018671697 -0.045550622 -0.051188033
000280 22 34 26 be c0 59 87 bd 37 0f dc 3c 54 54 89 3c
       -0.16230825 -0.06608915 0.026862724 0.016763844
000290 4a ff 94 bb 52 37 f7 bc fe c2 b6 3c 3a 99 71 3c
       -0.0045470344 -0.030177746 0.022309776 0.014746005
0002a0 ce 90 6f ba fd ab 02 3d 11 4c c5 bb 80 64 d9 3d
       -0.0009138704 0.031902302 -0.0060210307 0.10614872
0002b0 6b 65 72 3d 6b e9 1b 3d 3b a9 a8 bd 02 16 e7 bd
       0.05917875 0.0380644 -0.08235403 -0.112834945
0002c0 42 3f dc bd 95 c0 b8 bd 2b ee 38 3d ff 94 83 3d
       -0.10754253 -0.09021107 0.04514901 0.06424903
0002d0 c4 15 8d bd 49 04 ce 3d 2f 37 51 bd d6 ca 8e 3d
       -0.06888917 0.10059411 -0.051078018 0.06972282
0002e0 d4 82 03 bd 73 ba 48 3c ad ff fa bd 3c a9 5e bd
       -0.03210719 0.012251484 -0.122557975 -0.054360613
0002f0 00 62 31 bd e4 a5 46 ba ee 27 c7 3d c8 8d 8c 3d
       -0.04330635 -0.000757782 0.09724413 0.0686298
000300 11 c4 d0 bc 8b da c3 bc e4 6a 7d bd 5a 67 06 bd
       -0.025484117 -0.02390792 -0.061869517 -0.032813407
000310 ba 66 29 3c 00 1e 0f bd b5 27 cc 3d 0b c1 d4 bd
       0.010339433 -0.03494072 0.09968511 -0.103883825
000320 7e a2 7b 3d f1 b7 c0 bd 87 4f 21 bd e6 da f0 3c
       0.06143426 -0.09410084 -0.039382484 0.029401254
000330 1e 07 cf 3c 27 c5 0e bd 4f ee 0c 3c b1 41 0f 3d
       0.025271948 -0.034855988 0.008601739 0.034974758
000340 bc e6 dc 3d 75 b9 63 3d 7a 5f bc bc b8 c3 45 bd
       0.107861966 0.055596787 -0.022994746 -0.048282355
000350 90 c5 0d 3e 85 2f 34 bd d1 a7 20 be 17 66 93 bc
       0.13844895 -0.04399063 -0.15689017 -0.017993016
000360 9b 14 87 bd e5 63 60 bd a8 bf 33 3d 7c 7d c4 3c
       -0.06595727 -0.054782767 0.04388395 0.023985617
000370 20 2f 95 3d 19 b2 eb 3c 02 36 dd bc 95 bc 1e be
       0.07284379 0.028771447 -0.027003292 -0.15501626
000380 ee 74 5c 3d f1 e8 8c bd 06 9d be bd e4 62 14 3e
       0.05382245 -0.068803675 -0.093072936 0.14490849
000390 19 dc b9 3d 74 8b 10 3d 00 44 21 3d 6b 2d 77 bc
       0.090751834 0.035289243 0.03937149 -0.015086512
0003a0 73 3f 98 bd 65 e6 40 3d 92 1f 0e 3d fa 90 0d bc
       -0.07433977 0.04709472 0.034698077 -0.008640522
0003b0 9c e3 40 3d 51 00 f6 3c b1 87 42 3d 9d 07 37 be
       0.047092065 0.030029448 0.047492687 -0.17873998
0003c0 28 54 8f bd a4 bf 44 3c 5a ea 6d bd 51 50 37 bd
       -0.069984734 0.012008581 -0.058084823 -0.04475433
0003d0 a7 06 40 3c 9e a2 06 bd 6f a4 3c bd d0 a8 5d bc
       0.011720336 -0.032869928 -0.046055254 -0.013529018
0003e0 1d 9d 7f 3c 07 a4 b1 3d d5 68 d4 3d ff b8 cc 3d
       0.015601424 0.08673864 0.103715576 0.09996223
0003f0 d9 28 a5 3d a2 23 6c 3d 3e fe 67 bc dd 81 24 bc
       0.08064432 0.05765117 -0.014159737 -0.010040727

lstm.weight_hh_l0 f4 [512, 128]
000000 77 79 1e 3d 31 37 48 be ef dd 3f bd 14 2b 9c bc
       0.038690057 -0.19552304 -0.04684251 -0.01906351
000010 4a 25 48 3c 09 41 6b bd 85 67 99 bd f0 c5 74 bd
       0.012215922 -0.05743507 -0.07490448 -0.05975908
000020 1e 18 b5 bd 37 b8 00 bd c8 90 4e 3d 51 85 22 39
       -0.088424906 -0.03142568 0.050431043 0.00015499188
000030 21 6b 14 3d e8 7f 8d 3d f0 c6 87 bd 98 cb 33 bd
       0.03623498 0.06909162 -0.06629741 -0.043895334
000040 34 0a 12 3d b8 fa bb 3d 79 42 75 bc cf e7 a4 bd
       0.03565426 0.0917868 -0.014969462 -0.080520265
000050 30 4a 37 3e 39 dd 69 bd b1 c0 2a 3c 6b 19 4b 3d
       0.17899394 -0.05709574 0.010421918 0.049584787
000060 3d f8 db bc 04 f1 99 bd 80 30 c6 bc 87 2f 35 bb
       -0.026851768 -0.07516673 -0.024193048 -0.0027646737
000070 70 b1 88 3d f6 ca e0 bc b2 93 fd bd 5a 6e cc 3c
       0.066744685 -0.02744053 -0.12381686 0.024954963
000080 db c4 fe 3d 9d c7 de bc 0c 8b 6d bd 12 6d 0c be
       0.12439891 -0.027194792 -0.057993934 -0.13713482
000090 93 4e ce bb 94 11 f4 bc 9a d6 9f bd cb 88 8e bd
       -0.006295988 -0.029793538 -0.07804604 -0.06959685
0000a0 83 88 02 3d e7 31 7e 3d df 4d c0 3d a2 52 8c bd
       0.03186847 0.06205931 0.09389853 -0.068516985
0000b0 a6 75 8e 3c 3c f1 da 3d f1 a0 5f bd 32 bc d3 3d
       0.017390084 0.10690543 -0.054596845 0.1033863
0000c0 36 ff 10 bd 44 ff d2 3d ae 1e 3e bd f8 6c 47 bd
       -0.035399638 0.10302594 -0.046415977 -0.048687905
0000d0 18 1a 71 3d 85 20 4c 3c 3c e3 89 bd 84 29 56 3d
       0.058862776 0.012458925 -0.06732795 0.052285686
0000e0 00 5e eb bc 99 b2 99 3c 54 7e b4 bd 26 1e b2 bd
       -0.028731346 0.01876192 -0.08813158 -0.086971566
0000f0 34 ff 13 bc 3d 11 5e 3d 85 bc 52 bd 01 6c 4b 3d
       -0.009033013 0.05421566 -0.051449317 0.049663547
000100 75 07 4a bc fb bb e6 bb f2 5a 44 bd a0 76 07 bc
       -0.012330879 -0.007041452 -0.047938295 -0.0082680285
000110 cb d6 e0 bc 86 50 ef 3b ce f4 8c 39 83 46 9f 3d
       -0.027446171 0.0073033003 0.00026885275 0.07777121
000120 c0 9f d3 3c 7a 24 6c 3d 93 16 b1 3d fb 6b 21 3c
       0.02583301 0.057651974 0.08646884 0.009852405
000130 a5 c4 94 bd 89 90 b9 3d 88 4c 84 bd 1a 1b 03 3d
       -0.072640695 0.09060771 -0.0645991 0.032008268
000140 37 c2 ab 3d 25 6c 84 3d 70 5a 15 be 1c d9 b9 3d
       0.08386653 0.064659394 -0.1458528 0.090746135
000150 64 4a 08 3d e2 3c 7a 3d ac 20 d1 bd 51 9a 61 bd
       0.03327407 0.06109322 -0.1021131 -0.05507881
000160 fe 07 9a 3d fc 81 50 3d 6a b4 e5 bc ce 8d 87 bd
       0.07521056 0.050905213 -0.02804013 -0.06618844
000170 62 73 f1 3c e6 48 ae bd 15 f1 1a 3b 28 aa 19 be
       0.029473964 -0.08509998 0.0023642231 -0.15006316
000180 8a 9a 35 bd f5 65 98 3c 01 a6 0c bd 9a 6b 97 bd
       -0.044336833 0.018603304 -0.034338 -0.0739357
000190 8d 11 3b 3d 2d d9 ba 3c 8b 2a 7e 3d 04 72 5c bd
       0.045671035 0.022808636 0.06205229 -0.05381967
0001a0 97 24 38 be f0 19 ad bd 51 b3 3b 3c 03 81 57 bc
       -0.17982708 -0.08452213 0.011456327 -0.013153317
0001b0 63 58 89 3b 2f 4b a1 bc 28 af cc 3d 06 fe c8 3b
       0.0041914447 -0.01968917 0.09994346 0.0061337976
0001c0 fe 74 0c 3d a0 8f a7 bd bd db 43 3d f7 f4 ca 3b
       0.03429126 -0.08181691 0.04781698 0.006193753
0001d0 57 8c 76 bd 78 78 cf bd f0 56 65 bd d9 93 01 3d
       -0.060192432 -0.101303995 -0.055991113 0.03163514
0001e0 de 32 b0 3c f5 f7 d0 3c 28 9a f7 3c 55 73 88 3d
       0.02150863 0.02550886 0.030224875 0.06662623
0001f0 2d 7d 67 bb 8a dd 76 3c 6c 3e 04 3a 8c 1e 2d 3d
       -0.0035322413 0.0150674675 0.0005044702 0.04226546
000200 e4 6d 0d 3b 02 2a 50 3d b2 10 6a 38 38 0e 8f 3d
       0.0021580392 0.05082131 5.5805496e-05 0.06985134
000210 c9 bb b9 3c 01 8d a6 bc dc 1c a5 bd 32 45 fa bd
       0.02267255 -0.020330908 -0.08062145 -0.12220229
000220 ce b3 23 be fd 5f 2d bd bf a1 19 3d 99 02 55 3d
       -0.15986559 -0.04232787 0.03750777 0.05200443
000230 e1 b5 c2 bd a4 c8 6b bd e2 37 ed 3d e6 16 69 3d
       -0.09507347 -0.057564393 0.115829244 0.056906603
000240 8a 15 10 be 46 73 34 bc 69 ae e8 bc d8 64 2c bd
       -0.14070717 -0.011013811 -0.028403478 -0.04208836
000250 68 04 11 be bd bd b5 3d e6 aa 10 be 7d 5a bc 3a
       -0.14161837 0.0887408 -0.14127693 0.0014370229
000260 34 77 09 bd 5c 68 9d 3d 4f 3d 49 3d ce 62 da bd
       -0.033560947 0.076859206 0.049130734 -0.10663377
000270 72 77 c3 3d df 50 2b 3d 02 90 16 3e 32 62 8e 3d
       0.09544267 0.04182517 0.14703372 0.06952323
000280 d3 18 1a 3d 09 ae 74 bd c3 f8 05 3e 72 35 b1 3d
       0.03762133 -0.059736285 0.13083176 0.08652772
000290 55 f5 89 3d 2b b4 08 be 09 16 89 bd 94 2b b5 3d
       0.067362465 -0.13349979 -0.06693656 0.088462025
0002a0 58 42 c5 3d 10 92 55 bd b4 be ed 3d fb a4 1e bc
       0.09631795 -0.05214125 0.11608639 -0.009682889
0002b0 23 7b db 3d f7 f8 bd 3d 2b 43 d7 3c d6 4e d7 bc
       0.10716846 0.09276002 0.026277145 -0.02628271
0002c0 3e e3 ed bb 64 7c 2d 3d 78 27 0c 3e 91 31 c5 3b
       -0.0072597554 0.042354956 0.13686931 0.0060178717
0002d0 5b b7 8a bd 7b 9a b4 bc c8 b9 a2 bc 26 65 4f 3a
       -0.067732535 -0.022046318 -0.019863978 0.00079114956
0002e0 bb f7 07 be ca 24 60 bc 33 61 4c 3d 3c 89 9d 3d
       -0.13278095 -0.013680646 0.049897384 0.07692191
0002f0 36 01 bd bd b7 b4 fc 3d 96 13 fd bd 2c 8b 1f 3d
       -0.092287466 0.12339156 -0.12357251 0.038951084
000300 ce e2 0b 3d 18 b2 db bd 8f 7b d9 3c 7a e8 61 bb
       0.034151845 -0.10727328 0.026548175 -0.0034470842
000310 fb f0 56 3d 54 aa be bd 08 18 82 3d 80 f8 72 bd
       0.05247591 -0.09309831 0.0635224 -0.05931902
000320 56 94 e6 3d ce 2e ac bc de 83 b7 bd 48 b1 b1 3d
       0.112587616 -0.021018412 -0.089606985 0.08676392
000330 a3 53 b0 bc ef 60 c0 3d d8 47 19 3e 2b 68 5f 3b
       -0.021524256 0.093934886 0.14968812 0.0034089189
000340 c8 8d c2 bd b1 07 e9 3c e3 50 c0 bc 8c 42 f8 3d
       -0.09499699 0.02844605 -0.02347607 0.12122068
000350 d2 1b cc bd 96 7f 29 bd 82 3f 4d 3d 5a 72 0e bd
       -0.09966244 -0.04138144 0.050109394 -0.034777023
000360 6b db 18 be 0c 18 33 bd cf 8f 70 bc b0 bc d2 bb
       -0.14927451 -0.043724105 -0.014682724 -0.0064311847
000370 3a 4f e8 3c eb 36 e8 bc 80 55 cb 3d ee 58 9d bc
       0.02835809 -0.0283465 0.09928417 -0.019207444
000380 c0 0a d6 3d 43 7f 1b be 63 a6 59 bc 21 2d 77 bd
       0.10451269 -0.15185265 -0.013284299 -0.060345773
000390 e1 2a ba bd 52 aa 0c 3e db d7 c3 3c 0a 1d b7 3d
       -0.0909021 0.13736847 0.023906639 0.08941086
0003a0 8c ce f9 3d ee 4e c6 3c eb 04 3a 3b 9b d6 6a bd
       0.12197599 0.024207558 0.002838428 -0.05733357
0003b0 67 a2 c7 ba 04 8f d6 3d 7f b4 08 bd 50 e7 05 bc
       -0.0015230895 0.10476497 -0.03337526 -0.008172825
0003c0 05 56 f0 bd fb 35 02 3e d6 fa d8 bb 69 6b cc bd
       -0.11735157 0.12715904 -0.006621699 -0.09981424
0003d0 ba 82 29 3e f3 bb 51 3d 16 4d 88 3d 22 f0 1f 3d
       0.16553774 0.051204633 0.06655328 0.039047368
0003e0 e2 e2 e7 3d 2c 95 f9 3d 4f dd 21 be e7 52 91 bd
       0.11322571 0.121866554 -0.15807079 -0.070958905
0003f0 7d d8 29 be 73 6d e8 3d 80 2d a7 3c e2 6b 14 3e
       -0.1658649 0.11349001 0.020407438 0.14494279

lstm.bias_ih_l0 f4 [512]
000000 8f 78 d3 3b e3 50 c5 3d b5 8a c8 3d 63 77 78 3d
       0.0064535807 0.096345685 0.09792081 0.06066073
000010 f3 ac f5 3c d6 3c 66 3d 2e e9 1f 3d 05 71 98 3d
       0.029989695 0.05621036 0.039040737 0.07443432
000020 cc b7 f0 bc ec 3b 00 3e 1d 0f 2a 3d b8 88 4a 3d
       -0.029384516 0.12522858 0.04151832 0.04944679
000030 47 d3 bb bc b4 b1 b7 bd e7 d7 24 bd 20 f9 8b 3c
       -0.022927893 -0.08969441 -0.040244963 0.017086565
000040 9e a2 36 bd 57 88 1e bd 59 26 92 3d d3 2d 9e 3c
       -0.044588678 -0.038704243 0.071362205 0.01930896
000050 ed f3 29 3e e0 e1 06 3d 4e 62 a3 bd da a3 00 3b
       0.16596957 0.032930255 -0.079777345 0.0019628913
000060 c7 a9 70 3e 2c 90 ba bd 02 1d e5 3d 28 14 96 bd
       0.23502265 -0.0910953 0.111871734 -0.07328063
000070 8c 5a 01 bd 1e 39 3f 3d cc 24 b0 3d 47 ef 80 3d
       -0.031580493 0.04668533 0.086007684 0.062956385
000080 f0 f1 04 3e de ff 17 3b a3 50 a2 3c e7 3e f0 3d
       0.12982917 0.002319328 0.019813841 0.11730748
000090 bb b0 b7 bd 84 88 3f bb d9 7a d2 bc 97 2a 7e 3d
       -0.089692555 -0.0029225657 -0.025693344 0.062052336
0000a0 3f ef 9c 3c f7 8c 59 3c 15 ff 0f 3d e3 e6 19 bc
       0.01915705 0.013278238 0.035155375 -0.009393427
0000b0 23 78 2c bd 20 e5 14 3d 7a 98 6b bc ee 01 fd 3c
       -0.04210676 0.036351323 -0.014379615 0.03088471
0000c0 fd d6 13 3c 79 fc 85 bd 28 3a 93 3d b2 29 4f 3d
       0.009023425 -0.06542296 0.07188827 0.050576873
0000d0 ad 3f d2 3d 64 ad 26 bd 96 7d 70 bd da fc 58 3d
       0.102660514 -0.040692702 -0.058713518 0.052975513
0000e0 7e bf 0c bd e3 98 a0 bd 34 fd 82 3e 1d da 4e 3e
       -0.03436231 -0.07841661 0.25583804 0.20200391
0000f0 bc 7d 6b 3d 0b 1d 3e bc c6 6d 0b 3d 0b f5 08 3d
       0.057492957 -0.011603604 0.034040235 0.033436816
000100 c3 b6 0c bd b3 83 6d bd d7 5e e9 3c a7 36 78 3d
       -0.034353983 -0.057986926 0.028487606 0.060598996
000110 ce 98 99 bd 1e 2f 86 3b 28 37 35 3c 2e 17 06 3d
       -0.07499848 0.0040949723 0.011060514 0.03273695
000120 2c e4 7a bc ed 97 df 3d 19 a5 89 bd 10 26 a2 3c
       -0.0153131895 0.109176494 -0.06720943 0.01979354
000130 e6 a4 9e bd ca c3 9b 3d 96 b0 0c bd 5f 5f a2 bd
       -0.07746296 0.07605703 -0.034348093 -0.07928347
000140 36 3d bd bd 7b 07 2e bc 97 d4 d9 bc a9 02 29 3d
       -0.09240191 -0.010621901 -0.026590629 0.041262303
000150 da 4c fc bc 6b 6d c4 3d 5c c7 f8 3d 21 d8 6c 3d
       -0.030798364 0.09591182 0.121474 0.057823304
000160 ac 9e 92 bd 8d e4 1e 3d 1b 91 c6 3c c9 73 fa ba
       -0.071591705 0.03879218 0.024239114 -0.0019107993
000170 69 f8 da 3b d9 d7 89 3d a6 3f 97 bd b1 a7 66 3d
       0.006682445 0.06730623 -0.07385187 0.056312267
000180 dd 5e d2 3d d1 f7 69 3d 15 8e 41 bd d4 a5 9a bb
       0.10272 0.0571211 -0.04725464 -0.0047194753
000190 16 97 e2 3c 57 37 1b bb e6 08 e4 bc 6c 69 a6 bd
       0.027659934 -0.0023684108 -0.027836274 -0.081255764
0001a0 fc fa 20 3e 50 88 c7 3d d7 e0 fe bc 49 bd a8 3d
       0.15720743 0.097427964 -0.031113071 0.08239228
0001b0 99 22 69 3d 63 a5 2e 3d 75 93 1f bc 69 2a d3 3d
       0.05691776 0.042638194 -0.009739746 0.103108235
0001c0 f3 0a 41 bd 9d d8 64 3c 86 5a e6 3c 71 18 cd 3c
       -0.047129583 0.01396766 0.028119337 0.025036069
0001d0 85 1d 71 bd 38 a9 49 bc 9f ad 22 3d af 28 06 bb
       -0.058866043 -0.012308411 0.03971636 -0.0020471027
0001e0 4c a0 85 3d 7b e0 81 3d 2a 56 a4 bc bb 18 9e bc
       0.06524715 0.063416444 -0.020060617 -0.019298902
0001f0 df eb b0 3d 58 20 b6 3d 3f f0 0c bd 11 9e b4 3c
       0.08638739 0.08892888 -0.034408804 0.022048028
000200 94 88 b8 bd 69 f0 bb bd d6 bb 9e ba da 0c 90 3c
       -0.09010425 -0.09176714 -0.0012110423 0.017584253
000210 ef b1 55 3d dd b8 b3 bd 8c 8b 93 3c 64 60 61 3d
       0.052171644 -0.08775494 0.018010877 0.055023566
000220 be 4e ab 3d e4 18 a9 bd 9a 0b 13 3d 37 67 95 bd
       0.08364628 -0.08256701 0.035899736 -0.07295077
000230 cb ce 00 3d 7c 41 85 ba 21 f4 81 bd b5 7c 91 bd
       0.031447213 -0.0010166611 -0.06345392 -0.07103864
000240 0c 32 8f 3c bb 74 ef 3c 61 bd 83 3d 9f 3c 6d 3d
       0.017479919 0.029230466 0.064326055 0.05791914
000250 f3 d4 18 3d 4e fa b1 bd 30 ed ea 3c c3 25 3d 3d
       0.03731246 -0.0869032 0.028677553 0.04617859
000260 cf eb fd bd 8e 21 8e bc 9c a8 b6 3c 58 d5 5b 3d
       -0.123984925 -0.017349984 0.022297196 0.053670257
000270 26 f1 5f 3d 47 e7 dc bc 29 79 5b bd a4 7a 5c 3d
       0.054673336 -0.02696575 -0.053582344 0.053827897
000280 7c f4 2b 3c dc 18 8a bd a3 5c 4d 3b 66 95 f7 bc
       0.010495301 -0.06743023 0.0031335733 -0.030222606
000290 ff c8 20 bd fa 8c a3 3d 6e 84 84 bd 31 f9 01 bd
       -0.039254185 0.079858735 -0.064705715 -0.031731788
0002a0 f7 a2 08 3d c7 06 36 bd 73 3c 5c bd 2d 90 23 3d
       0.03335854 -0.044440057 -0.053768586 0.03993242
0002b0 1c 02 9e 3d 6d a0 04 bd fb c4 98 3d 15 c1 95 3b
       0.07715246 -0.032379556 0.07459446 0.0045701363
0002c0 26 ac 47 3d fb 39 31 3c fe bf 25 bd 70 4b 8e 3d
       0.048748158 0.010817046 -0.0404663 0.06947982
0002d0 85 c8 15 3d 8c d5 3c 3d 27 ab 7a 3c 99 e0 ce 3b
       0.036568183 0.04610209 0.015299595 0.006313395
0002e0 c5 82 58 bd 52 9c a7 bd 7a d5 0a bd c2 59 9d bd
       -0.052859087 -0.081841126 -0.033894993 -0.076831356
0002f0 e7 40 b7 bd 47 30 d3 bd 85 16 ad 3d 56 43 ed 3c
       -0.08947926 -0.103119425 0.08451561 0.028962772
000300 c8 56 91 3b 60 c5 0b 3d ba 20 71 3d 1a 8d 88 bd
       0.004435394 0.03412378 0.0588691 -0.06667538
000310 5f e0 93 bd 72 e7 e4 bd 3f 0f 8c 3c cb 12 98 3c
       -0.0722053 -0.11176957 0.017097114 0.018563649
000320 4d 46 83 3d a7 ca 99 3a 10 24 a3 3c da 22 53 3d
       0.06409893 0.0011733369 0.019914657 0.05154691
000330 12 a0 32 bd 98 00 80 3b ed f6 5a 3d 75 8c 57 bd
       -0.043609686 0.003906321 0.053458143 -0.052624185
000340 3c 76 27 bd 08 7a af 3d 11 1a 08 be 36 d7 b9 3b
       -0.04088424 0.085681975 -0.13291194 0.005671407
000350 9a df bc 3c 34 c1 b2 bd 2b 2a 1a bd e5 39 2a 3d
       0.02305584 -0.08728257 -0.03763787 0.04155912
000360 91 67 e5 3c 40 c2 c8 3c ad a1 1d 3c c2 66 33 3c
       0.028003486 0.024506688 0.009621066 0.010949792
000370 42 bf d8 bc 46 e6 d7 bd 6e 23 80 3b fb f8 2a 3d
       -0.026458386 -0.10541968 0.0039104735 0.041741353
000380 ef 34 9a 3b fe 34 1c 3d ee b4 56 3d 5c fb 4d bd
       0.004706017 0.038136475 0.05241864 -0.050288543
000390 81 94 b3 bc 97 57 35 3d a0 5c 56 bc d3 2c 95 bd
       -0.021921398 0.044272985 -0.013083607 -0.0728394
0003a0 71 f8 a7 3d c8 d0 4f 3c 8d 21 a0 bd 50 e9 ba bd
       0.08201683 0.012684055 -0.07818899 -0.09126532
0003b0 3e 6a f9 3c b5 02 4c bd 56 11 85 bc d0 ea 8a bd
       0.030446168 -0.04980727 -0.016243618 -0.06783068
0003c0 bf a4 10 3d a7 9f 77 bd 46 0c 01 3d 66 d8 9a bd
       0.035313364 -0.06045499 0.031505845 -0.07560806
0003d0 01 62 78 3d 41 f1 3d 3d 3c 9f bf bc 82 a0 0d bd
       0.06064034 0.046372656 -0.023391359 -0.0345769
0003e0 10 f3 e3 bc 3b a7 0b bd fa 2e 79 3d 2b 01 b4 bd
       -0.027825862 -0.03409503 0.060835816 -0.08789285
0003f0 f6 e9 1a 3d b2 c9 82 bd 0c b5 7a 3d 66 c4 ad 3b
       0.03782078 -0.063861266 0.061207816 0.0053029535

lstm.bias_hh_l0 f4 [512]
000000 bc 49 8a bd 0a b4 56 3d 68 e0 22 bc 89 53 8d bd
       -0.06752345 0.052417792 -0.009941198 -0.06900699
000010 a4 ec 17 3e 73 da 74 3c 5a 45 94 3d ca 7a e2 3c
       0.14836365 0.0149446605 0.0723979 0.027646441
000020 c2 67 30 bd 21 a7 56 3d e3 f8 b2 3d 1c 58 4b bb
       -0.0430677 0.05240548 0.087388776 -0.003102786
000030 72 1d c0 bb 64 ee c2 bc b5 0f d4 bc 6c fd 56 3d
       -0.005862885 -0.023795314 -0.025886396 0.052487776
000040 16 04 f0 3b 4b 8d 66 bd 0f a1 d7 bc 42 f0 a3 3d
       0.007324706 -0.05628709 -0.026321916 0.0800481
000050 f5 20 25 3e d2 2c 68 bd 08 5b 34 3d 25 5b 86 39
       0.16125853 -0.05668337 0.044032127 0.0002562638
000060 a9 66 66 3e c2 fe 93 3c d1 71 9f 3c 11 d5 7e 3d
       0.22500099 0.018065814 0.019463452 0.062214915
000070 87 f0 13 3c c5 b6 fa ba 98 34 ba 3d 46 7d 63 3d
       0.009029514 -0.0019127956 0.09092063 0.055539392
000080 20 fc 61 3c 06 07 9b bd b5 d6 41 3d 18 23 41 3d
       0.013793021 -0.07569699 0.0473239 0.04715261
000090 7d 88 22 bd 1d 96 5d bd 2d 6b b2 3d 19 34 85 3d
       -0.039680947 -0.054098237 0.087118484 0.065040775
0000a0 14 18 05 3d 92 08 04 bd cb 77 a0 3d 89 46 86 3d
       0.032493666 -0.032234736 0.07835349 0.06556422
0000b0 05 16 50 3d 0c 9e 68 3c 72 63 7a 3d 99 eb ae 3d
       0.05080225 0.014197838 0.061129995 0.085410304
0000c0 c9 e3 84 3d 30 42 82 bd 10 97 ca bc d2 45 66 bd
       0.06488759 -0.063602805 -0.024730235 -0.05621893
0000d0 85 24 34 3d 51 a4 c5 bb 9f f0 88 3d b3 cb eb 3c
       0.04398014 -0.006031551 0.0668652 0.028783655
0000e0 08 b5 91 3d 48 b9 15 bd c3 13 8c 3e f5 20 1a 3e
       0.07114607 -0.03655365 0.27358827 0.15051635
0000f0 4a fe 79 3c e7 08 8e bc 14 ea a5 bc fe 18 25 bd
       0.015258381 -0.01733823 -0.020253219 -0.040307038
000100 5e c3 63 3d ee 89 53 bc ba 8a b5 3c b5 4a 29 3d
       0.05560624 -0.012911303 0.022160877 0.04133101
000110 cb 68 95 3d 58 16 b2 3d ca 18 1e bd 89 45 d6 3d
       0.07295378 0.08695668 -0.03859786 0.104624815
000120 a9 f6 31 3d e7 ad c6 3d 46 a7 bc bd 4c f1 3e bc
       0.043448124 0.09701138 -0.092115924 -0.011654209
000130 ad 28 b5 bd ff 2f 0d 3d 4b 7f 87 3d 80 30 b5 3a
       -0.08845649 0.0344696 0.06616076 0.0013823658
000140 0d c5 36 bd 1d 8a 9e 3d 39 9b 89 3d cd f4 e5 3d
       -0.044621516 0.07741187 0.067190595 0.11228333
000150 2d 04 d5 3d 36 09 1b 3e d3 6d e2 3d 74 4a b8 3c
       0.10401187 0.15140232 0.110561036 0.02249644
000160 6b 03 cd 3c 7e e2 97 3d f7 0f 2f 3d 97 d0 04 3c
       0.025026044 0.07416247 0.042739835 0.008106372
000170 07 89 95 3d 27 fa 1f 3c f2 c8 55 bd da cd 08 3e
       0.073015265 0.009764231 -0.05219359 0.13359776
000180 d1 42 9f 3d 89 ab 0d bd 85 e0 18 bd 57 7a 51 bd
       0.07776416 -0.034587417 -0.037323494 -0.051142063
000190 87 e8 5c 3d 65 ed 62 3d 5a 22 9f 3c 41 6a af bd
       0.053932693 0.05540218 0.01942556 -0.08565188
0001a0 0d 2b c0 3b 82 c2 b8 3d 78 4a d0 3b c6 c8 2b 3d
       0.005864507 0.090214744 0.0063565336 0.04193952
0001b0 af e2 57 3d fa a5 8d bd 90 65 c8 bc 6d 25 9a 3d
       0.052706417 -0.06916423 -0.024462491 0.0752667
0001c0 d9 09 1f 3d 95 d9 2c 3d c2 b9 7e bd d6 5b 82 bb
       0.03882775 0.04219969 -0.06218887 -0.003978233
0001d0 55 c8 75 3d ea b8 94 bc 7f 13 8a 3b 1a ec e0 3c
       0.060005505 -0.01815458 0.00421375 0.027456332
0001e0 3e e3 71 bd 6f a5 2f 3b 94 fb 43 3d ff 74 4b 3d
       -0.059054606 0.0026801487 0.047847345 0.049672123
0001f0 4b 62 23 3d cd 42 56 ba 2d d8 6d 3c 6b 05 24 3d
       0.03988866 -0.0008173406 0.014516872 0.04004423
000200 0c 68 a0 bd 04 24 aa bc a5 cf 3a 3d 6f 77 41 bd
       -0.07832345 -0.020769127 0.04560818 -0.04723304
000210 af 7c 02 3b 4a 04 58 bd f2 99 3d 3d 16 ab cc bc
       0.0019910743 -0.052738465 0.04628939 -0.024983924
000220 3c 70 8c 3d 1e 90 c0 bd e6 21 a8 bd eb 8d 68 3d
       0.068573445 -0.09402488 -0.082095906 0.05677597
000230 d2 4b 7d 3d 3a 4b 07 3d d8 88 93 bc f7 7a e5 bd
       0.061839886 0.033030726 -0.018009588 -0.11205094
000240 cd 53 82 3d ec 51 9a bd 4d d3 26 3d 2a d3 04 bd
       0.0636364 -0.075351566 0.040728856 -0.032427944
000250 49 9f 9e 3c 0a 2d d5 bd 3a 51 6a 3d f9 6f 6c 3d
       0.019363062 -0.10408981 0.05720637 0.057723973
000260 e2 7c 0b bd a9 47 98 3d 44 7e 04 3d c0 86 29 3d
       -0.034054644 0.07435543 0.03234698 0.041388273
000270 ce 06 4c 3d 80 bf 87 bd 71 e0 56 bd cd 5a 95 bd
       0.049811177 -0.066283226 -0.052460138 -0.072927095
000280 5e 16 5e 3d c6 31 3a bc 46 88 ba bd 0a 75 a4 bd
       0.05422055 -0.011364406 -0.09108023 -0.08030136
000290 21 cf 05 3d 18 b0 35 bd b5 62 87 ba 85 c3 d0 bd
       0.032668237 -0.04435739 -0.00103291 -0.101935424
0002a0 6a 40 27 3b 5b 8c 38 3c 1b 9c 04 3d be 9e ac 3d
       0.0025520572 0.011263932 0.032375436 0.08428715
0002b0 8e 1d ca bc 22 19 e4 3c e2 74 ed 3b e3 d2 4d 3d
       -0.024672296 0.027844016 0.0072465995 0.050249945
0002c0 ee f9 66 3d a1 68 31 bd 7b 70 88 3c 3a 1d 92 3d
       0.056390695 -0.043312673 0.016655197 0.07134481
0002d0 c1 61 df bd c2 19 4f bd 86 83 87 bd b2 cc a1 bc
       -0.10907317 -0.050561674 -0.06616883 -0.019750927
0002e0 dd ca 31 bd 5d b6 8d bd 30 67 1d be 23 58 50 3d
       -0.043406356 -0.06919549 -0.15371394 0.050865304
0002f0 c9 eb 25 bc 78 16 0b bd 0a 6d 8c 3c 53 34 e6 bc
       -0.010127016 -0.033956975 0.017141838 -0.028101122
000300 a3 1c 3b 3c de 44 70 3d bc 86 10 bd 7e 22 a5 3b
       0.011420402 0.058659427 -0.035284743 0.005039512
000310 6f 08 4e bd 83 9c 33 bc 4d 44 5a bd db 61 08 bd
       -0.05030101 -0.010962608 -0.053287793 -0.033296447
000320 55 01 eb 3c 85 34 61 bd 05 c4 11 3d 24 bd 3c bd
       0.028687159 -0.054981727 0.03558733 -0.046078816
000330 e6 6c 68 3d 03 df 52 bd 63 84 9d 3d 9f be 82 bd
       0.05674448 -0.05148221 0.076912664 -0.06384014
000340 05 85 a7 bc 04 7c e9 bc 48 26 a1 bd c1 d4 1a bd
       -0.02044917 -0.028501518 -0.0786863 -0.037800554
000350 c4 63 5b bc 37 d7 3a 3d 0a df 5b 3d d4 13 69 bc
       -0.013390485 0.0456154 0.053679504 -0.014225919
000360 7a 91 7c 3c f2 66 0c 3d f7 60 8d bc 26 11 5e 3d
       0.015415544 0.034277864 -0.01725815 0.054215573
000370 f0 14 2b 3d 86 ce d1 bd 76 ba 90 bd 43 38 a4 bd
       0.041768014 -0.10244469 -0.070668146 -0.080185436
000380 23 ef 42 bd 54 51 dd 3c e2 0f b7 bd 56 39 80 3b
       -0.04759134 0.02701632 -0.08938576 0.003913085
000390 46 10 68 3d 3c 59 45 bb 39 1e a4 3d 43 0e 21 3b
       0.056656145 -0.0030113002 0.08013577 0.002457515
0003a0 0a 67 86 bc 0e c1 9c 3d 3f 22 b0 bd 04 75 bd 3c
       -0.016406555 0.0765401 -0.08600282 0.023127086
0003b0 30 2e 6a bd e7 52 05 3b db f4 a7 bd 52 95 4f 3c
       -0.057172954 0.0020343603 -0.08200999 0.012669878
0003c0 a8 b3 ea 3c 56 b0 9d bc a4 eb b6 bd 5d 61 ee 3c
       0.02865012 -0.019249123 -0.08931664 0.02909916
0003d0 f3 45 56 bc 01 09 b5 bc a2 a8 82 3c aa 37 b0 3c
       -0.013078201 -0.02209902 0.015949551 0.021510918
0003e0 5a 1b a1 bd 1b 2a 9f bd 1e c8 6a bc 60 ce 0b bd
       -0.07866545 -0.07771703 -0.014329938 -0.03413236
0003f0 22 37 95 3d 29 e1 d7 bb 14 11 a6 bd fd 1f ac 3c
       0.072859064 -0.0065881205 -0.08108726 0.021011347

lstm.weight_ih_l1 f4 [512, 128]
000000 0e 5d 97 bc 1e bc c6 3d eb 57 93 bd 86 89 53 bd
       -0.01847699 0.09703849 -0.071945034 -0.051644824
000010 c7 2a 05 bd c3 1c 69 3d 2e be 5c bd ca 0a e1 3c
       -0.0325115 0.056912195 -0.053892307 0.027470965
000020 a0 31 2f 3d d8 c4 a5 bd 3e c4 db bc 9c ea 24 3d
       0.042771935 -0.080941856 -0.026826974 0.040262803
000030 26 c2 99 3d 18 90 74 bd 79 87 85 bb 35 4d 85 3d
       0.07507734 -0.05970773 -0.0040749875 0.06508867
000040 33 03 5d bd 0a e0 96 3d 25 46 b9 bc ec c8 8a bd
       -0.05395813 0.07366951 -0.022616455 -0.06776604
000050 e9 11 8d bd b6 8e a4 bd 7a 7e 95 bd 44 4d db bd
       -0.06888182 -0.080350325 -0.07299514 -0.107080966
000060 72 9f 90 bb 34 87 58 bb ce 0d 6c bd a6 7e dd bb
       -0.0044135386 -0.0033039572 -0.057630353 -0.0067594824
000070 a5 1d 9e b8 4b 73 9c 3d 6f d9 47 3b 40 df d9 3c
       -7.539549e-05 0.07639178 0.003049459 0.026595712
000080 11 eb 4b bd 6a c6 f0 3a 5e 05 04 3c 18 20 40 bd
       -0.049784724 0.0018369679 0.00805792 -0.046905607
000090 03 7e df ba d4 af 10 bd 18 9f 26 3d 19 39 0f 3d
       -0.0017051104 -0.035323933 0.040679067 0.034966562
0000a0 4b 0f 70 bd dd ba 70 bd 93 19 45 bd 81 68 02 bc
       -0.058608335 -0.058771957 -0.048120093 -0.007959486
0000b0 ce e2 93 bc d3 3b 89 bd 69 77 f3 bb 9b 57 88 bd
       -0.018052485 -0.06700864 -0.0074300063 -0.066573344
0000c0 78 71 8a 3d 48 0a 9d 3c f5 c6 41 3d d0 e9 1a bc
       0.06759924 0.019169942 0.04730888 -0.009455159
0000d0 e1 96 8d bd 58 cb 8b 3d 1e 1d bd 3c 18 e5 6a bd
       -0.069135435 0.06825894 0.023085173 -0.057347387
0000e0 a3 64 4a bc a2 24 8c bc 72 18 e4 bc d7 37 a4 3c
       -0.012353095 -0.017107312 -0.027843688 0.020046158
0000f0 6b 27 a2 bd f8 da da bc ba d0 38 bd a5 3c 80 3d
       -0.07917675 -0.02671574 -0.045120932 0.06261567
000100 e7 19 ef bc 2b 71 25 bd d9 91 a3 bd 6a f8 e3 3c
       -0.029187156 -0.04039113 -0.079868026 0.027828414
000110 78 6b 5d bc 36 2d ad 3d fd 4d ba bc 5e c1 af bd
       -0.013514392 0.08455889 -0.022742266 -0.08581804
000120 2f d2 8c bc a9 6e e7 3d 9b db 3f bc 82 6c 9a bd
       -0.017190067 0.113004036 -0.011710073 -0.075402275
000130 e4 f9 c4 3d 8d 88 91 bd 38 18 ec bc 37 6f 8b bd
       0.09617975 -0.07106123 -0.028820142 -0.06808322
000140 76 8a 52 bd 52 74 bd bd f1 09 35 bd 99 b0 c8 bd
       -0.051401578 -0.09250702 -0.044198934 -0.09799308
000150 5e e2 a5 bd 1e 17 b7 bd a6 dc 63 bd 05 af 28 3d
       -0.08099817 -0.08939956 -0.05563035 0.041182537
000160 c7 a1 6f 3b cc 24 2c bc 9b 31 d4 3d e4 39 bf 3c
       0.0036564933 -0.01050682 0.10361024 0.023343034
000170 4b b7 b8 bd f8 8b 08 3d 12 2f 1a 3d 83 84 f8 bc
       -0.09019335 0.03333661 0.037642546 -0.030336624
000180 b0 b7 ac 3d d8 9d 48 bd 8d f1 37 bd 65 d3 93 3c
       0.08433473 -0.048978657 -0.044908095 0.018045137
000190 de 82 64 bc 5d 0c 66 bc 00 cd 09 bd 28 87 b8 3c
       -0.013947217 -0.014041034 -0.03364277 0.022525385
0001a0 80 40 62 3b 39 89 ae 3c e6 d3 9c 3d 3b cb 98 3d
       0.0034523308 0.021305667 0.07657604 0.07460638
0001b0 f1 ac fe 3c 24 77 81 3d b0 6f 74 bd 06 80 54 bd
       0.031088324 0.063215524 -0.059676826 -0.051879905
0001c0 51 7a 41 3d 19 de 97 3d 57 b9 2d bd 73 45 19 bd
       0.04723579 0.07415409 -0.042413082 -0.037419748
0001d0 b1 8d 43 3d d2 51 a1 bd 2c 32 87 3d 63 f7 a3 3d
       0.04774255 -0.07876934 0.066013664 0.0800617
0001e0 08 67 b6 3d 40 cd 2d 3d da a5 99 bc 8b 12 73 3d
       0.089063704 0.04243207 -0.018755842 0.059343856
0001f0 67 db 5c bb b2 8b 52 3b 77 d2 b1 3d 10 9c 2e bd
       -0.003370011 0.0032126722 0.08682721 -0.0426293
000200 85 04 be 3b 8c 51 1b 3b 01 3e ce bd ab db 2e bd
       0.0057988786 0.0023699729 -0.1007042 -0.04268996
000210 6f 23 e9 bd b9 72 4f bd b9 87 94 bd c1 b1 80 bc
       -0.113837115 -0.050646517 -0.072524495 -0.01570976
000220 9e 5c 63 3d 1f 45 c1 3d b1 42 e1 3c 9f 61 12 3c
       0.05550825 0.09437012 0.027497621 0.0089344075
000230 b2 35 c6 bd e0 34 8f bd cf 82 08 bd 39 87 ea bd
       -0.0967821 -0.06992507 -0.033327874 -0.11451573
000240 ee a5 93 bc 77 c6 9e 3c 08 df 7c bd 3d e7 be bc
       -0.018023457 0.019381745 -0.061736137 -0.023303622
000250 74 8f e6 3d e2 85 ab 3b 89 7f 3f bd 7c 36 ce 3d
       0.1125783 0.005234466 -0.046752486 0.10068986
000260 f6 89 8e bd 48 2a 3e bd 70 dd e0 3d 93 1d ce bb
       -0.06959908 -0.04642704 0.10979736 -0.0062901466
000270 8b 7e 0d bd 69 4e a9 3d 17 98 6e bc b5 6c 47 bd
       -0.03454451 0.08266909 -0.014562628 -0.048687655
000280 da 17 90 bc 8c 7c 50 3d 94 32 b0 3d 66 ff 91 bd
       -0.017589498 0.050900027 0.08603397 -0.071287915
000290 32 ac 8f bd d1 87 0a bd c3 7c 5d bc 83 db 0c be
       -0.070152655 -0.03382093 -0.013518515 -0.13755612
0002a0 ba 46 ea b9 ce d5 5c bd 08 ea 45 bd a7 79 b9 bc
       -0.00044684653 -0.053914838 -0.048318893 -0.022641016
0002b0 a3 b6 80 3d 92 14 f4 bd b1 d3 a4 bd 66 b7 d2 3d
       0.06284835 -0.11917986 -0.080481894 0.10288887
0002c0 ee 57 6e bb f7 f3 c8 3d 11 f2 90 bd 20 fb 63 3d
       -0.0036368328 0.098121576 -0.070774205 0.055659413
0002d0 d2 d7 94 3d 84 ef 86 3d c7 ae d9 3d e4 60 11 bd
       0.07267727 0.06588653 0.10629039 -0.035492793
0002e0 e7 46 d4 3c 5e db a8 3d 54 28 fc bd 20 5d ea bd
       0.025912715 0.08244966 -0.123123795 -0.114435434
0002f0 24 2f e3 3c e4 e5 2c bd de ef 3b 3b 4c 15 ab 3d
       0.02773244 -0.04221143 0.0028676908 0.083536714
000300 e5 22 05 3d 5f dd 51 bd 13 23 8a 3d c2 b2 42 bc
       0.03250398 -0.051236507 0.06744971 -0.0118834395
000310 79 3d c6 bc 8a 40 2f bc ae 5f e1 3c cf ce aa 3a
       -0.024199234 -0.01069654 0.027511444 0.0013031604
000320 c4 e0 1d 3d 2a 93 b1 3d aa 83 df 3c bb 42 98 3d
       0.03854443 0.086706474 0.027284462 0.07434603
000330 a9 bb 38 bd 6a ec 9a bc 8b 72 1d bd df 18 92 bd
       -0.04510084 -0.01891156 -0.038439315 -0.0713365
000340 2f ca 96 bd 7f 01 6c bd 96 74 98 bd b8 90 7e bc
       -0.07362782 -0.057618614 -0.07444112 -0.015537433
000350 36 ba 36 bc 3b 97 98 3c d6 35 9e bd 30 c3 9d 3c
       -0.011152795 0.0186268 -0.07725112 0.019258112
000360 f2 4a 98 bd e8 fa 84 3d ac 97 ed 3b 69 f5 90 3d
       -0.0743617 0.06493169 0.0072507467 0.07078058
000370 1a ed 02 bd 40 91 84 bd 68 d1 79 3a 8b c7 5c 3c
       -0.0319644 -0.06473017 0.00095298 0.013475309
000380 6e de 55 bc 5e 45 bd bd f9 3f 53 bc 91 f8 af 3c
       -0.01305352 -0.09241746 -0.01289367 0.02148083
000390 26 e1 19 bd c8 3e d9 bc 47 b1 b5 3c 9b 42 70 ba
       -0.037568234 -0.026519194 0.022179259 -0.00091651984
0003a0 f5 14 f0 bd 29 9a c5 3d eb e8 35 bd 3d 26 cd bd
       -0.11722747 0.09648544 -0.04441158 -0.10017059
0003b0 75 b4 49 bd 66 89 71 bd 34 cb ce bc 1a e9 f3 3d
       -0.049244363 -0.058968924 -0.02524338 0.11909695
0003c0 12 74 e9 bb f3 74 ac 3d d2 ae 9e 3d 39 c5 61 3d
       -0.0071244324 0.08420744 0.07748188 0.055119727
0003d0 41 68 fb bc 4f e2 b5 3d 85 eb 8c 3d 61 4b 9e 3d
       -0.03068936 0.088810556 0.06880859 0.07729221
0003e0 ad 9b 00 bb 66 a5 96 bb 93 22 8d bc b0 96 96 bd
       -0.001962404 -0.0045973537 -0.0172284 -0.0735296
0003f0 df ed 89 3b 63 06 fe bd e7 12 91 3c 0d 99 58 bd
       0.0042092646 -0.12403562 0.017709209 -0.052880336

lstm.weight_hh_l1 f4 [512, 128]
000000 8f dd 40 bd d8 4d c0 3d ae 57 83 bd 7c 09 c7 3c
       -0.047086295 0.093898475 -0.06413208 0.024296515
000010 78 28 3e 3d 68 55 e2 3c 6e 36 ac 3c 13 d3 95 3d
       0.046425313 0.027628615 0.021022048 0.0731565
000020 9f 22 b3 bd 63 0d 40 3d 31 9e 35 3d 3c af 87 bd
       -0.08746838 0.046887767 0.044340316 -0.0662522
000030 18 d4 f6 3c 8c 79 5f 3d 16 d0 02 bb 6a 5b ab bc
       0.030130431 0.054559276 -0.0019960455 -0.020917613
000040 5d 64 25 bd 8d 65 b9 3b 07 f6 47 bd 97 bf d0 3c
       -0.040378917 0.0056578577 -0.048818614 0.025481982
000050 3f c1 8f bd ea e2 14 3d 84 d9 e4 ba 0f 5c b0 3d
       -0.07019281 0.036349215 -0.0017459844 0.08611309
000060 a8 0c 39 3d 63 f3 95 bd af 74 c7 3d d4 58 03 bd
       0.045178086 -0.07321813 0.097390525 -0.032067135
000070 9b 36 98 bd bb 46 22 3b 7a 11 33 3b a6 01 02 3c
       -0.0743229 0.0024761397 0.002732365 0.007934963
000080 5d 06 a6 3c 56 52 57 3c ad 2d 99 3d e5 28 cf 3c
       0.020266706 0.013142189 0.07479415 0.025288055
000090 ed 80 c6 3c 36 30 81 bd 92 4f 1d 3d 3b d9 f3 3c
       0.024231398 -0.06308024 0.038405962 0.02976667
0000a0 4e 74 a5 3d b1 84 25 3d 28 5c 35 3d 56 6d 5d 3c
       0.08078824 0.040409748 0.04427734 0.013514837
0000b0 62 83 ab bd 6d 90 73 bd de 71 9f 3d 1e d2 11 3d
       -0.08374669 -0.059463907 0.0778539 0.035600774
0000c0 90 05 5f bd b1 79 a4 3d 51 8b 67 3d 91 f2 4c bd
       -0.054448664 0.08031023 0.056529347 -0.050036017
0000d0 47 ea ab bc 2a e9 a9 3d fa fe e6 3c 44 00 85 bd
       -0.020985736 0.08296426 0.028197754 -0.06494191
0000e0 45 90 b1 bc 65 5e 80 3d 63 d1 a4 3d 9c e0 82 bd
       -0.021675238 0.06268004 0.0804775 -0.06390497
0000f0 f5 b3 f7 3c 13 61 b2 3d 26 a1 05 bd 2e 8b 78 bc
       0.030237177 0.08709922 -0.032624386 -0.015169902
000100 44 76 ab 3d 8a 7c 82 bd 24 e0 9f bd 3c 0e 82 bd
       0.08372167 -0.0637141 -0.07806423 -0.06350371
000110 80 c7 11 3d f5 d9 9c 3c 18 03 26 bd 69 14 eb ba
       0.03559065 0.019146899 -0.040530294 -0.001793516
000120 48 b3 ac bd 8d dc 8a 3c bb 5b 8e 3d b0 06 9d bd
       -0.08432633 0.01695087 0.0695109 -0.07667291
000130 4b 99 84 3d d3 70 97 bd f6 7d b4 3d f9 21 ec 3c
       0.06474551 -0.073945664 0.08813088 0.028824793
000140 1d cf 68 3d a5 e0 5c 3d 29 72 a3 bd d2 80 2c bd
       0.056838144 0.053925175 -0.07980759 -0.04211504
000150 47 64 8b 3c 0a 2c d3 3c 09 cf d1 3c 5f 19 36 3c
       0.01701559 0.025777835 0.025611417 0.011114447
000160 27 fe 5e bd 59 79 4f bd c4 9f b9 bd e2 01 82 3d
       -0.054441597 -0.050652836 -0.09063676 0.06348015
000170 e9 31 7e 3d c4 9c 0e 3c 36 b0 23 3d c2 7a 79 bd
       0.062059317 0.008704368 0.03996297 -0.060908087
000180 14 03 8e bd df 5c 3e 3c bc c4 bc 3b 83 e5 3b bd
       -0.06934181 0.011618822 0.0057607573 -0.045873176
000190 18 4c 82 3d af 61 1d 3c 54 86 39 3d 11 8f 8c 3b
       0.0636217 0.009605809 0.04529412 0.004289516
0001a0 9c fb df 3d c6 f2 0b bc 15 0e ac bd 65 df d5 3c
       0.109366626 -0.008541768 -0.084011234 0.0261075
0001b0 a7 06 a3 bc e8 3c 8a bd 22 47 2c 3d 39 8c 3c 3d
       -0.019900633 -0.06749898 0.042060025 0.046032164
0001c0 56 9f 7d 3d 64 bc 15 bd 37 2d 1a 3c 4c cb b1 bc
       0.061919533 -0.036556616 0.009410194 -0.021703385
0001d0 42 08 89 3c 06 b4 35 3d ad 34 3a 3d f0 38 55 bd
       0.01672757 0.044361137 0.04546039 -0.052056253
0001e0 0e f4 d8 bc 00 2d 5a 3d d6 ed aa 3b 28 77 8a bc
       -0.026483562 0.05326557 0.0052163405 -0.016902521
0001f0 17 56 43 3d 4c cb a8 3d 19 f0 64 bd 75 ee b5 3d
       0.047689524 0.08241901 -0.055893037 0.08883373
000200 83 09 36 3d 28 3a cd bb e2 64 29 3c 8b 72 6d ba
       0.044442665 -0.0062630363 0.010338994 -0.0009057901
000210 c2 e2 82 bc 61 69 0b bd fe c3 4f 3d 25 1c b4 bd
       -0.015977267 -0.034036044 0.050724022 -0.08794431
000220 38 09 93 bd ab d8 20 bb 16 ca c1 bd a6 62 ad 3d
       -0.07179493 -0.0024543207 -0.09462373 0.08466081
000230 91 63 d3 3a fc e3 d8 3c 78 f9 8b 3d 0b 15 8b bd
       0.0016127696 0.026475899 0.06834692 -0.06791123
000240 2c 70 9c bd 92 9b 6d 3a d9 5d 80 bd 3d f7 66 3d
       -0.076385826 0.00090640143 -0.062679 0.05638813
000250 2a 66 a6 bd 63 4a 4d 3c 9c 78 0d 3c 25 7d b2 bd
       -0.08124955 0.012529942 0.008634713 -0.08715276
000260 46 97 64 3c 4e f3 92 3d 6b db 9e bd bf a3 25 3c
       0.013952082 0.07175313 -0.077566944 0.010109841
000270 2e 14 20 be e1 66 f6 3a ec c4 8a bd f8 90 f6 3c
       -0.15632698 0.0018798971 -0.06775841 0.030098423
000280 d8 b7 bb 3c f1 1a 1b bd d6 44 4c bd b9 5e 28 bc
       0.022914812 -0.03786749 -0.049870335 -0.01027649
000290 cc fc e5 bc 37 f1 5f 3d b7 18 e7 3c 88 91 04 3d
       -0.028074645 0.0546734 0.028210027 0.032365352
0002a0 c8 b2 b8 3c 5b d4 78 bb 26 dc a9 3d e1 91 0c bd
       0.022546187 -0.003796837 0.08293943 -0.03431881
0002b0 66 f7 dc 3c 3a be 80 bc 2d 56 27 bd a6 82 9f bd
       0.026973438 -0.015715707 -0.040853668 -0.07788591
0002c0 c7 fb 51 3d 54 72 59 bd bc f7 48 bd e0 e4 a9 bd
       0.051265504 -0.053087547 -0.049064383 -0.082956076
0002d0 2e 63 95 3d 09 90 84 3d a3 bc 87 bc 3f 7c 2a 3d
       0.07294308 0.06472785 -0.016569441 0.041622397
0002e0 20 27 7e 3d 87 f0 32 bd 7e 6c f3 3c 91 bf 84 bd
       0.06204903 -0.043686416 0.029714819 -0.06481851
0002f0 89 ab 61 bd c9 7c 32 3c f5 19 23 bd de 61 47 3d
       -0.05509523 0.010894009 -0.039819676 0.048677318
000300 8c 67 89 3c 0d c8 13 bd 64 b6 50 bc 20 a7 9f 3d
       0.016773008 -0.036079455 -0.012738798 0.077955484
000310 31 a9 0a be 24 a2 7c 3d 0f dc d5 bc 7f fc 93 bc
       -0.13541104 0.061678067 -0.026105909 -0.018064735
000320 57 fe 48 3d 31 79 2e bb c7 ef 1a bd 8d f6 2e 3d
       0.049070682 -0.0026622529 -0.037826326 0.042715598
000330 4d cc a0 3d bc e6 cd bc 75 e6 49 bd fb dd 80 bd
       0.07851467 -0.025134437 -0.049292047 -0.062923394
000340 c4 6d ab bd 89 5f 5d 3c ee d8 74 3d a1 84 40 3c
       -0.083705455 0.013511547 0.059777193 0.011750371
000350 df 55 09 bc 77 48 55 3d 0a b6 91 3d 56 5f 63 bd
       -0.00838229 0.05207106 0.07114799 -0.05551084
000360 fd aa c1 bd d3 d5 13 3c 47 ae fb 3c aa 9b 49 bd
       -0.094564416 0.009023148 0.03072275 -0.04922072
000370 20 b4 ed bc ae 0f d2 3c c6 e0 86 bb 76 82 a5 bd
       -0.029016554 0.025642242 -0.0041161506 -0.08081524
000380 73 35 49 bd 33 60 0f 3d d1 82 68 3d 48 16 8b 3d
       -0.04912324 0.035003852 0.05676538 0.06791359
000390 12 f0 4a bd 49 19 f8 3c 71 ce b9 3d 1b bd 4c 3d
       -0.049545355 0.030285494 0.09072579 0.049985033
0003a0 d9 fa 91 bc bf c4 be 3c 64 68 3d bd ab e5 4f 3c
       -0.017819809 0.023287175 -0.046242133 0.012689034
0003b0 ba 76 92 bd 7d 01 95 bd ea 20 6c 3c 38 5c 03 bd
       -0.071515515 -0.072756745 0.014412144 -0.03207037
0003c0 95 55 a7 bd 08 b8 97 bd e6 81 93 3d 70 b8 b3 bb
       -0.0817062 -0.07408148 0.072025105 -0.005484633
0003d0 6b e0 41 bc 03 b4 00 3d 87 c0 83 bd b0 6c f7 bb
       -0.011833291 0.031421673 -0.06433206 -0.0075507984
0003e0 f4 79 a0 bd 5e e2 84 3b e9 4a 37 bd 03 02 2c 3c
       -0.07835761 0.0040553054 -0.044749174 0.0104985265
0003f0 b9 0b 46 3d 9f bf b1 bd 69 03 7f 3d 22 b5 5d 3d
       0.048351023 -0.08679127 0.06225911 0.05412782

lstm.bias_ih_l1 f4 [512]
000000 cb ac b5 bd b9 c3 97 bc 01 84 07 3e 85 e9 c3 bc
       -0.08870848 -0.018525945 0.13233949 -0.023915062
000010 b4 e0 8b ba 30 44 83 bc 91 38 e9 3b 9d 0d 8c 3c
       -0.0010671825 -0.016023725 0.007117339 0.017096335
000020 82 81 aa bc 1f fd 51 3d 79 96 e4 3d 68 d5 6f 3e
       -0.020813707 0.051266786 0.11161513 0.23421252
000030 6d 43 bb 3d 54 30 87 bd a4 a5 9a bd df c5 7b 3c
       0.0914372 -0.06601015 -0.07551125 0.015367
000040 77 70 85 3d dd eb cb 3d 30 e7 9e 3d 60 ed a8 3d
       0.065155916 0.09957097 0.07758939 0.08248401
000050 84 da 60 3c e1 27 54 bd 2e 1b 39 bd 7c 1d ce bb
       0.013723973 -0.051795844 -0.045191936 -0.006290136
000060 db 9b 89 bd 41 ad 1a 3c 18 9b 57 bd b8 a7 e2 bc
       -0.0671918 0.009440721 -0.052638143 -0.027667865
000070 69 62 a3 3e 53 4a 8f 3c 17 71 94 bd 93 cf 70 bb
       0.31911018 0.017491495 -0.07248133 -0.0036744818
000080 79 b7 fd 3b ac 43 b1 3d 1f 1d 4f 3e e4 cc 8e bd
       0.007742819 0.086554855 0.20225953 -0.069726735
000090 ba 1d 65 bd b0 9c bd 3d 40 98 72 bd b0 2a 11 bd
       -0.055936553 0.092584014 -0.05922723 -0.0354411
0000a0 ff 1b 5b 3c 4c 6f 4a bd 60 07 b3 bd a9 90 8e bd
       0.013373374 -0.049422547 -0.08741641 -0.069611855
0000b0 95 dd 14 3e 92 00 ec bc 7e 0a aa 3d a8 05 12 3e
       0.14537652 -0.028808866 0.083027825 0.1425997
0000c0 64 c8 6c 3d 19 67 01 bd 2b 0b 7e bd 6a 43 be 3c
       0.057808295 -0.031592462 -0.06202237 0.023225505
0000d0 0e 77 6f bc 7b 89 a9 3c b0 69 32 bd 4a 49 2e bd
       -0.014615787 0.020695439 -0.043557823 -0.042550363
0000e0 27 03 62 bd 23 ab 97 3d df d8 b5 3d af 58 ab 3d
       -0.055178788 0.074056886 0.088792555 0.083665244
0000f0 fc f6 96 bc dd b8 ae 3d 47 31 d9 3d 19 08 8a bd
       -0.018428318 0.085313536 0.10605102 -0.06739826
000100 4c f9 b1 bd 86 31 05 bd 12 55 b1 bd c0 d5 7f bc
       -0.08690128 -0.032517932 -0.08658804 -0.015614927
000110 de 19 02 3f 25 76 46 3d 95 18 37 3d 8d 84 ed 3c
       0.5082072 0.048452515 0.044701178 0.02899387
000120 75 4b 8c bd c5 5c 9d 3d 8b aa 85 3c db 28 dc 3d
       -0.0685033 0.0768371 0.016316673 0.1074998
000130 13 b5 b7 3d 6d bd aa bb df ed 73 bc 77 b4 c6 3c
       0.08970084 -0.0052105696 -0.014888256 0.024255974
000140 da 72 0a bd 5e 5f 85 3d 0a e1 1e bd ac c4 a4 bc
       -0.033800937 0.065123305 -0.038788833 -0.020113312
000150 8f 59 58 3b f1 65 e0 3c 6d 37 0e 3e a5 0b 42 bd
       0.0033012365 0.02739236 0.13888331 -0.047374386
000160 96 6f 4f 3e ff ce bf 3d 70 ef b9 3d 9e ca be 3d
       0.2025741 0.09365653 0.09078872 0.0931599
000170 f8 40 63 38 f8 3d bb 3d 6d 33 89 bd bc 2b a7 3d
       5.4181524e-05 0.09142679 -0.06699262 0.081626385
000180 b9 de 8f bd 6a 7c de b9 3f b7 8d 3c 77 c6 d9 3c
       -0.07024903 -0.00042435835 0.017299293 0.026583893
000190 c2 cf fe 3b b7 a4 93 bd ee cc 46 3e 2e 87 92 bd
       0.0077762315 -0.07209151 0.19414112 -0.0715469
0001a0 38 9e 1f 3e df 35 da 3b 08 0f 3a bd f6 ac 12 3c
       0.155877 0.006659254 -0.04542449 0.00895237
0001b0 02 49 22 3d ba b2 d0 3d 7b e3 62 3d 20 03 15 bd
       0.039620407 0.101903394 0.055392724 -0.036379933
0001c0 9d 61 71 bd 17 df 74 bd ca e6 a7 3d 10 a2 3f bd
       -0.058930982 -0.059783068 0.081983164 -0.046785414
0001d0 28 67 9b 3d 8e 7d ad bb c3 28 29 bc 65 43 8d bc
       0.07588035 -0.0052945083 -0.01032466 -0.01724405
0001e0 57 e7 1b 3d 8a c6 b4 3c 31 6e bc 3d 11 fc 3f 3d
       0.03806242 0.022067327 0.09200705 0.04687125
0001f0 d2 cb 66 bb ba 3d a1 3d 87 02 d9 bc b6 84 ba 3d
       -0.0035216701 0.078731015 -0.026490463 0.09107344
000200 ba 0d 96 bd 6a c1 11 3d 93 4d 6f bd 46 00 e6 3a
       -0.07326837 0.035584845 -0.05842359 0.0017547689
000210 f1 56 7a bc 5c 6a a6 3d 61 ce 4d bd 71 e8 aa bd
       -0.0152795175 0.08125755 -0.050245646 -0.08345116
000220 cb 60 9a bd 72 0b 51 3d 41 2f 83 bd b5 ae c7 bd
       -0.07537993 0.051036306 -0.06405497 -0.097501196
000230 27 f1 96 bd cd 1e 07 bd 1a 7b 96 bc 4d 9b 47 3d
       -0.07370215 -0.03298836 -0.018369246 0.04873209
000240 3b 1e 9a bd 54 46 17 bb 61 c5 c8 3c fb 1f 8a 3d
       -0.07525297 -0.002308269 0.02450818 0.06744381
000250 90 8e d2 3c bb 17 b4 3d c8 c0 15 bd 64 b2 e9 3b
       0.025702745 0.08793589 -0.036560804 0.0071318615
000260 1a 37 1d 3c 60 16 56 3d 06 dc c7 3c 70 01 43 3d
       0.009595657 0.052267432 0.024396908 0.047608793
000270 3a f2 64 bc af 49 af bd 15 b9 2b 3d a2 fd a3 3d
       -0.013973767 -0.08558976 0.041924555 0.08007361
000280 e2 d2 06 3d 2f 6a 2e bc 8a 32 53 bd fb 44 d6 bd
       0.032915957 -0.010645433 -0.05156187 -0.10462376
000290 7c a8 b7 bd 83 32 ce bc 8c 1e 30 bd 35 38 a5 3b
       -0.08967683 -0.02517057 -0.04299788 0.005042101
0002a0 ad e9 be 3b ae a3 cd 3c 0b 4f da bd d5 2a a0 bd
       0.005826196 0.025102463 -0.106596075 -0.078206696
0002b0 e3 f4 55 bc f8 e9 9b 3d b8 32 e4 3c 46 95 c9 bd
       -0.013058874 0.076129854 0.027856216 -0.09842925
0002c0 97 05 4f bd e6 a1 b5 bd 29 1b 58 3d 8b 75 19 3d
       -0.05054244 -0.0886877 0.052760277 0.037465613
0002d0 3c 9e 0b bd fd 0b 5b 3d c8 45 40 3d 1b 38 a5 bd
       -0.03408645 0.05347823 0.04694155 -0.08067342
0002e0 49 6a 60 bd 48 c2 4a bc 36 a9 5a bd 0b 39 0c bd
       -0.05478886 -0.012375422 -0.05338403 -0.034234088
0002f0 eb 95 cd bd 80 6d 8f bc 4e 83 bd bd b9 f2 c3 bc
       -0.1003836 -0.017508268 -0.0925356 -0.02391945
000300 00 2e be bd ee f1 55 bc 4b 41 92 bd bd b3 8d bd
       -0.092861176 -0.013058169 -0.0714136 -0.06919048
000310 0d 66 35 bd 81 48 33 bd 6a eb f4 bd c7 2f 3b bd
       -0.044286776 -0.043770317 -0.11958964 -0.04569986
000320 83 c8 a2 bd e9 24 98 bd 13 0b e8 3c 81 a2 f7 bb
       -0.07948401 -0.07428915 0.028325593 -0.007557214
000330 d9 c6 16 39 86 94 b5 3c 29 8a 28 3d 34 01 b4 bc
       0.00014379191 0.022165548 0.041147385 -0.02197323
000340 16 65 b2 bd 38 f8 a3 bb ae cb 73 bc 35 9a 20 bd
       -0.08710687 -0.005003955 -0.014880104 -0.039209563
000350 3d 2c 72 3d c9 cf f4 3c 51 57 0f be 14 16 27 bd
       0.05912422 0.029884236 -0.13998152 -0.04079254
000360 81 9d ec 3b 3d 93 c5 bc 8c d7 b2 bb e3 c3 c8 bc
       0.0072209244 -0.02411806 -0.005457824 -0.024507469
000370 3d 82 9f 3d 7e a0 57 3d a9 45 ca bd 1e 77 82 3c
       0.07788513 0.05264329 -0.09876568 0.01592594
000380 8b 98 02 3b 00 f2 c3 bd a8 79 fc 3b d5 ab 0e 3c
       0.0019927348 -0.09567642 0.0077049322 0.00870796
000390 e6 f0 55 3b f3 18 74 3d 5b 51 2a 3a 42 3b ec 3a
       0.0032644807 0.059594106 0.0006497108 0.0018023031
0003a0 62 fc ea bd 6e da 8a 3d 49 52 4d bd 8a 34 f0 bb
       -0.114739195 0.067799434 -0.0501273 -0.007330482
0003b0 ed 0d b7 bc e4 12 aa bc da 8c 89 3d 58 44 af 3c
       -0.022345508 -0.02076096 0.067163184 0.021394894
0003c0 8d f1 29 3d e7 6e 9d bd 0b 25 62 3d f4 af 69 ba
       0.041490126 -0.076871686 0.05521111 -0.00089144637
0003d0 5f 2a 6e 3d e3 fd 84 3a c7 98 ac 3d 5c 03 f6 bb
       0.058145877 0.0010146465 0.084275775 -0.0075077247
0003e0 07 8c e4 3c f0 49 42 3d f5 27 b6 bd 50 13 31 bd
       0.027898801 0.047433794 -0.0889434 -0.04323131
0003f0 96 17 aa 3c 58 dd 33 3d b0 dc 4b 3d 9d fe 9e 3d
       0.0207632 0.04391226 0.04977101 0.077634074
