saved_models/AMZN_model.pth (torch, 800866 bytes, 9 tensors)

lstm.weight_ih_l0 f4 [512, 1]
0	0x3d8676a2	0.06565596
1	0x3ddbd4ed	0.10733972
2	0x3dd58218	0.10425204
3	0xbba22131	-0.0049478044
4	0x3c6d4eae	0.014484091
5	0x3dacd5ee	0.08439241
6	0x3d1d2164	0.038361922
7	0xbd05e528	-0.032689244
8	0xbde85112	-0.11343588
9	0x3c4d09d4	0.01251455
10	0xbd86228d	-0.06549559
11	0x3c6764ad	0.014123124
12	0x3ccd7d7a	0.025084246
13	0xbcc11931	-0.023571583
14	0xbce166e0	-0.027514875
15	0xbd413034	-0.04716511
16	0x3d9c4ee7	0.07632237
17	0x3dd16563	0.10224416
18	0x3c7c4382	0.0153969545
19	0x3d4ef62a	0.05052773
20	0x3ccd5e6a	0.025069434
21	0xbd6439fa	-0.055719353
22	0x3d195ccb	0.03744201
23	0x3c0e6ce1	0.008692951
24	0x3d4f10e4	0.050553218
25	0x3e18d088	0.14923298
26	0x3b6f1676	0.0036481894
27	0xbc5ecbb1	-0.0135983685
28	0x3ac5ab86	0.0015081025
29	0x3d421733	0.047385406
30	0x3ce09f6c	0.027419768
31	0x3cba87e5	0.022769878
32	0x3da77462	0.08176495
33	0xbc851340	-0.01624453
34	0x3ca5af9e	0.020225342
35	0x3d21fedd	0.039549697
36	0x3dd7daae	0.10539757
37	0x3cbabf27	0.022796227
38	0xbdfa2c7e	-0.122155175
39	0x3d9c826f	0.07642066
40	0x3d2e50ab	0.0425574
41	0x3dcb9ecf	0.099424
42	0x3db82e31	0.08993185
43	0x3db223fb	0.08698269
44	0x3d7875a1	0.060659055
45	0xb903c7dc	-0.00012567587
46	0x3cc28949	0.023747103
47	0x3b039cc2	0.0020082449
48	0xba626dcb	-0.0008637576
49	0xbdbb0ff3	-0.091339014
50	0x3dd77f2f	0.10522305
51	0xbcb8e513	-0.022570169
52	0x3bafc677	0.005364235
53	0xbc84689a	-0.01616316
54	0xbd77c019	-0.060485933
55	0xbc9fdd3b	-0.01951467
56	0x3b4ca4a8	0.0031226072
57	0xb90c3bf4	-0.00013373775
58	0xbda4bde8	-0.08044034
59	0x3ded05fc	0.11573407
60	0x3dd4e3f1	0.10395039
61	0x3e12aa6d	0.14322825
62	0x3dad19c9	0.08452184
63	0x3e0d9d5e	0.13829562
64	0xbda0f3d9	-0.0785901
65	0xbc36d86b	-0.0111599965
66	0xbca6f010	-0.020378143
67	0x3d589c18	0.052883238
68	0xbbf31a9b	-0.007418943
69	0x3deb53cc	0.11490592
70	0x3e094b2f	0.13407587
71	0xbd168be4	-0.036754504
72	0x3d872017	0.065979175
73	0x3d1968e6	0.037453555
74	0x3d84f978	0.06492895
75	0x3d599a84	0.053125873
76	0xbd2b9e98	-0.041899294
77	0xbd4fc017	-0.0507203
78	0xbd228baf	-0.039683994
79	0x3c61f919	0.0137923
80	0xbd339fb4	-0.043853477
81	0x3d504bb3	0.050853442
82	0x3c0188fc	0.007906195
83	0x3d301706	0.042990707
84	0x3d8ef070	0.069794536
85	0x3ba6077d	0.0050668106
86	0x3d0de1db	0.03463922
87	0x3dba0c44	0.09084371
88	0x3de5b23d	0.11215637
89	0xbe0a98b9	-0.13534822
90	0x3d1516d3	0.03639872
91	0x3c95101f	0.018196164
92	0x3d9897a9	0.07450802
93	0x3d858cc2	0.06520988
94	0x3da9f183	0.08298018
95	0x3d71bb59	0.05901656
96	0x3dc9ca2c	0.09853014
97	0x3bedebd7	0.0072607803
98	0x3d765b9c	0.06014596
99	0x3d525d9b	0.0513588
100	0x3e4a052e	0.19728538
101	0xbc8d529d	-0.017251307
102	0x3d2a8f14	0.041640356
103	0x3d8ae3ac	0.06781706
104	0x3d87b2c1	0.066258915
105	0x3d9683f3	0.07349386
106	0x3daac532	0.08338393
107	0x3da6f6a4	0.08152512
108	0x3cdee177	0.02720712
109	0x3c861130	0.016365618
110	0xbb86a149	-0.004108582
111	0x3d77de79	0.0605149
112	0x3deea75e	0.116530165
113	0x3dab9bb2	0.08379306
114	0xbdb48833	-0.088150404
115	0x3c340eeb	0.010989885
116	0xbba567f6	-0.0050477935
117	0x3c99e48b	0.018785736
118	0x3c39387b	0.01130497
119	0x3da9a34f	0.08283102
120	0xbd6c5a5e	-0.05770337
121	0x3d5388c6	0.05164411
122	0x3dd37c89	0.103264876
123	0x3caf7668	0.021418765
124	0x3df7f2b8	0.12106842
125	0x3d2e72d2	0.04258997
126	0x3ccb7e28	0.02484043
127	0x3d583d19	0.052792642
128	0x3d499ead	0.04922359
129	0x3e12103e	0.14264008
130	0x3e0528a6	0.13003787
131	0xbd07eeb1	-0.03318662
132	0x3d9bef9e	0.07614063
133	0x3d9b7ff7	0.07592767
134	0x3e048ee9	0.12945141
135	0x389c69d2	7.45837e-05
136	0xbdb6a18e	-0.08917533
137	0xbc386638	-0.01125484
138	0x3cd7efcb	0.02635946
139	0x3d730f27	0.059340622
140	0x3da62323	0.081121705
141	0xbe01440c	-0.12623614
142	0x3dba7d2b	0.09105905
143	0xb7d36c78	-2.520367e-05
144	0x3d95bb8b	0.073111616
145	0x3dab435a	0.08362456
146	0x3ce3e0c6	0.027817141
147	0xbdb1a44e	-0.08673917
148	0x3c48ecba	0.012263471
149	0x3c9f5ef8	0.019454464
150	0x3d6f4d3f	0.058423277
151	0x3d75c045	0.059997816
152	0x3cf087c0	0.029361606
153	0x3df6a865	0.120438375
154	0xbd826ee0	-0.06368804
155	0xbb89b2fa	-0.004202244
156	0x3c60fead	0.013732594
157	0x3be3dbea	0.006953706
158	0xbd06393b	-0.032769423
159	0xbe3b46bc	-0.18288702
160	0x3dc77b6a	0.09740336
161	0xbdd775fa	-0.10520549
162	0x3d7f73f6	0.06236645
163	0x3d12245d	0.03567921
164	0x3db4e075	0.08831874
165	0x3e128212	0.1430743
166	0xbddcb070	-0.1077584
167	0x3d3b22ca	0.045687474
168	0x3e0afc52	0.13572815
169	0x3da7422f	0.081669204
170	0xbd6b5403	-0.057453167
171	0x3a0426ef	0.0005041202
172	0xbba5c78c	-0.005059188
173	0x3d0bf34d	0.034167577
174	0xbe12e865	-0.14346464
175	0xbc53a6e3	-0.012918207
176	0x3d653f31	0.055968467
177	0xbd43b09e	-0.047775857
178	0x3dde0515	0.10840813
179	0x3db97f57	0.09057491
180	0x3d8369f2	0.06416692
181	0xbc4da4d0	-0.012551501
182	0xbd35c271	-0.044374887
183	0x3de54737	0.11195224
184	0x3c93cb49	0.01804127
185	0xbd29e0fa	-0.04147432
186	0xbd8e2ca2	-0.06942107
187	0x3d99102e	0.07473789
188	0x3d6e0fc4	0.058120504
189	0x3e07b4bf	0.13252543
190	0xbcf87fd3	-0.030334389
191	0x3dc69016	0.09695451
192	0x3d16591c	0.036706075
193	0xbd13f28e	-0.03611999
194	0xbd8861f7	-0.0665931
195	0x3d063fe4	0.032775775
196	0x3d8b41c2	0.06799652
197	0x3e12f34c	0.14350623
198	0x3e01dbf0	0.12681556
199	0xbd6f4cf9	-0.058423016
200	0xbda0b652	-0.07847275
201	0x3dbfd0b3	0.09365978
202	0x3d84d55d	0.06486008
203	0xbe0b5857	-0.13607918
204	0xbe0108e2	-0.12601045
205	0xbdfd6a9c	-0.1237385
206	0xbd2c3648	-0.042043954
207	0x3c9c5e8a	0.019088048
208	0xbe218058	-0.15771616
209	0xbd82554c	-0.06363925
210	0x3cbfb5af	0.023402063
211	0x3d7c3cc8	0.061581403
212	0x3d3d81bd	0.046266306
213	0xbd15f8a8	-0.03661409
214	0x3cc6558e	0.024210718
215	0x3da496b6	0.08036558
216	0x3bbeaf28	0.00581922
217	0xbd817f99	-0.063231654
218	0x3c6fc691	0.014634744
219	0x3d717217	0.058946695
220	0x3cea7536	0.028620344
221	0xbd8b34f3	-0.06797209
222	0x3d8d07b7	0.06886237
223	0xbc769a5e	-0.015051452
224	0x3c85c5c7	0.01632966
225	0x3c1ba0bb	0.00949877
226	0xbcf8d07b	-0.030372849
227	0x3dabc230	0.08386648
228	0x3b5ccca9	0.0033691323
229	0xbcc24ff1	-0.02371976
230	0x3e1a9b03	0.15098195
231	0xbbc20d5e	-0.0059220036
232	0x3c226331	0.009911344
233	0x3d62feb2	0.055418678
234	0x3d7d2544	0.061803117
235	0x3ba09dcf	0.0049016248
236	0x3d95bbe3	0.07311227
237	0xbc714579	-0.014726036
238	0x3dc88fff	0.0979309
239	0xbca5dbd8	-0.020246431
240	0x3ded07eb	0.11573776
241	0x3dd483bb	0.10376688
242	0xbe3d7476	-0.18501458
243	0x3d95bdc2	0.07311584
244	0xbd93f836	-0.07225077
245	0x3d0e28cb	0.034706872
246	0xbe1f9b91	-0.15586688
247	0xbcda5c1a	-0.026655246
248	0xbd69affd	-0.0570526
249	0x3cb0e235	0.021592239
250	0x3d8027d1	0.062575944
251	0x3c33a17b	0.010963793
252	0xbcaab02c	-0.020835958
253	0xbd7bbb87	-0.061458137
254	0xbdd1c64d	-0.10242901
255	0xbd44522a	-0.04792992

lstm.weight_hh_l0 f4 [512, 128]
0	0xbcc4991b	-0.023998788
1	0x3d51507b	0.051102143
2	0x3c071520	0.008244783
3	0xbb05fd42	-0.0020445143
4	0xbd47298c	-0.048623607
5	0x3d059ad7	0.03261837
6	0xbd4a2412	-0.049350806
7	0xbc175e41	-0.0092387805
8	0xbdeeea5f	-0.116657965
9	0x3d9d29cd	0.076739885
10	0xbc9fbb52	-0.019498501
11	0xbd85fc02	-0.06542207
12	0x3d10283a	0.035194613
13	0x3d956522	0.0729468
14	0xbd016ab3	-0.031595897
15	0xbd0ce690	-0.03439957
16	0xbd80a5f6	-0.062816545
17	0x3bdd3a65	0.006751346
18	0x3d2d1141	0.042252783
19	0xbd04fc4e	-0.03246718
20	0x3d2c6353	0.04208691
21	0x3ccafce1	0.024778785
22	0x3a62f2ca	0.0008657394
23	0xbceb90f4	-0.028755642
24	0xbbb47032	-0.005506539
25	0x3db0e0b6	0.0863661
26	0x3d69e691	0.05710465
27	0xbd48623c	-0.04892181
28	0x3ccbdefd	0.024886603
29	0x3da22c95	0.079186596
30	0x3d7a16ba	0.06105683
31	0x3d55ea88	0.05222562
32	0xbd22397d	-0.039605606
33	0x3d2ff3e1	0.04295719
34	0xbc9140d6	-0.017731111
35	0xbdd225a2	-0.10261084
36	0xba6a8ad8	-0.0008947081
37	0xbdd42086	-0.10357766
38	0x3d095c77	0.033535447
39	0x3da8093f	0.082048886
40	0x3d883a92	0.066517964
41	0x3cc757ea	0.024333913
42	0x3c94ac25	0.018148491
43	0x3d16e0b9	0.036835406
44	0x3ced6a00	0.028981209
45	0x3d9753af	0.07389008
46	0x3ce0b331	0.027429195
47	0x3c6fd075	0.014637102
48	0xbccbb7a1	-0.024867835
49	0x3d61a60e	0.055090003
50	0xbcd900db	-0.026489666
51	0xbd9c8ecd	-0.076444246
52	0xbd9bac97	-0.07601278
53	0x3d1c4121	0.03814805
54	0x3c4fb87f	0.012678265
55	0x3aa72379	0.001275166
56	0x3de8d34c	0.11368427
57	0xbb00aa51	-0.0019632766
58	0x3c54895b	0.012972201
59	0x3d23adc0	0.039960623
60	0x3b74ada2	0.0037334939
61	0xbcd8017c	-0.026367895
62	0x3a695dd2	0.0008902225
63	0xbd8a8d3a	-0.06765218
64	0xbd8bf0cf	-0.0683304
65	0x3d2580c2	0.040405996
66	0x3dc188e4	0.09449938
67	0xbd8478fb	-0.06468388
68	0x3d915209	0.07095725
69	0xbd0bc587	-0.034123924
70	0x3d9e5c2b	0.077324234
71	0xbcf5f120	-0.030022204
72	0xbc23f619	-0.010007405
73	0xbcbb9ea3	-0.022902792
74	0xbd6e293d	-0.058144797
75	0x3c1a21d7	0.009407482
76	0xbd349b59	-0.044093464
77	0xbcb61a06	-0.022229206
78	0x3c7000a5	0.014648591
79	0xbda10727	-0.07862692
80	0x3b4c1019	0.0031137525
81	0x3d1d1137	0.038346495
82	0xbd974d0a	-0.07387741
83	0xbc797896	-0.015226504
84	0x3c61b685	0.013776426
85	0xbd3c9068	-0.046036154
86	0x3d0f964c	0.035055444
87	0x3cbc36d5	0.022975365
88	0xbccf0a5a	-0.02527349
89	0xbdaad748	-0.08341843
90	0xbd0a1bb3	-0.033717822
91	0x3d50e1e0	0.05099666
92	0xbb5a9770	-0.0033354424
93	0x3c958bd0	0.018255144
94	0x3d7279c8	0.05919817
95	0x3d0a4869	0.033760462
96	0xbdc1c902	-0.09462167
97	0xbd205450	-0.039142907
98	0x3d68f049	0.05686978
99	0xbcccb488	-0.024988428
100	0xbda6ae46	-0.08138709
101	0xbc349e8d	-0.01102413
102	0x3d842853	0.06453004
103	0x3cf6e77b	0.030139675
104	0xbc194239	-0.009354168
105	0x3c82797d	0.01592707
106	0xbd11d729	-0.035605583
107	0x3cff8ee7	0.03119607
108	0xbcde42d2	-0.027131472
109	0xbc9afb8f	-0.01891878
110	0x3d9b4d95	0.07583157
111	0xbdbf3782	-0.09336759
112	0xbd69477e	-0.056952946
113	0x3cf5bb14	0.029996432
114	0xb95890ae	-0.00020653263
115	0xbdaae679	-0.083447404
116	0xbd3c3940	-0.045953035
117	0x3d2d4dbd	0.042310465
118	0xbd398288	-0.0452905
119	0x3d03354e	0.032033257
120	0xbc8dac59	-0.017294096
121	0xbda0bcea	-0.078485325
122	0x3d9dcf28	0.077055275
123	0x3da1a611	0.07893003
124	0x3db8bb88	0.09020144
125	0x3d0280d1	0.03186113
126	0x3aae4058	0.0013294322
127	0x3d2cc9ec	0.042184755
128	0x3da0b3eb	0.07846817
129	0x3d775a2e	0.060388736
130	0xbd93d2c1	-0.072179325
131	0x3d825102	0.06363107
132	0xbb17a862	-0.0023141135
133	0xbd3937c4	-0.045219198
134	0x3d2203ba	0.039554335
135	0xbd1e9ca6	-0.03872361
136	0x3d21648a	0.039402522
137	0xbd973893	-0.073838376
138	0xbd89196f	-0.06694304
139	0xbd9d9448	-0.07694298
140	0x3cd9d5b8	0.026591167
141	0xbd954c32	-0.07289924
142	0xbd67044f	-0.056400593
143	0x3d573fe8	0.05255118
144	0x3ba68c84	0.0050826687
145	0xbcc4a909	-0.024006383
146	0xbd8ba903	-0.06819346
147	0xbb4c9d5f	-0.003122173
148	0xbd9d6d1b	-0.07686826
149	0x3d9c8e2a	0.07644303
150	0xbd2c8bd6	-0.042125545
151	0xbcef2e69	-0.029196935
152	0xbd846209	-0.06464011
153	0x3cc7ab76	0.024373751
154	0x3d09e06a	0.033661284
155	0xbcd39915	-0.025829831
156	0x3c8ddfa8	0.017318562
157	0xbce6e2be	-0.028184291
158	0xbbc5e398	-0.006039094
159	0xbd39df5c	-0.045379028
160	0xbdba1e70	-0.09087837
161	0x3ce38886	0.02777506
162	0x3da631c6	0.08114962
163	0x3d4fcfa2	0.050735123
164	0x3b76b98a	0.003764721
165	0xbc0ac9a5	-0.008470927
166	0x3dadb854	0.084824234
167	0x3c06da07	0.008230693
168	0xbd60fbf7	-0.054927792
169	0xbd27c807	-0.040962245
170	0xbbe7a4d9	-0.007069212
171	0x3d3cf2dd	0.04613005
172	0xbcf2c680	-0.029635668
173	0xbd8ec472	-0.06971063
174	0xbca05ec6	-0.019576441
175	0xbd800308	-0.06250578
176	0xbda0976f	-0.07841384
177	0xbda01219	-0.07815952
178	0x3cef873b	0.029239288
179	0xbc8a08e4	-0.016849943
180	0xbd728dfe	-0.059217446
181	0x3cba3ad4	0.02273313
182	0x3d0d57d4	0.034507588
183	0x3d6eb421	0.058277253
184	0x3d6c0ee8	0.057631403
185	0xbc8d403b	-0.017242542
186	0x3db580a5	0.088624276
187	0xbcfda855	-0.030964056
188	0x3d580742	0.052741297
189	0x3d0aebe5	0.033916373
190	0x3cef272f	0.029193489
191	0xbc392a78	-0.011301629
192	0x3bada97d	0.0052997456
193	0xbc050be2	-0.008120509
194	0xbda8f9f7	-0.08250802
195	0x3d9f1884	0.07768348
196	0x3bf157f6	0.007365222
197	0xbc021bdd	-0.007941213
198	0x3c1ca4c9	0.009560772
199	0xbd915869	-0.07096941
200	0x3d3c2e17	0.045942392
201	0xbd48f944	-0.049065843
202	0xbd0045a7	-0.031316426
203	0x3c6efcfc	0.014586683
204	0x3d85446d	0.06507192
205	0xbc830bde	-0.01599687
206	0xbd4bf1cc	-0.049791142
207	0x3c5bc0c5	0.013412659
208	0xbd4db358	-0.050219864
209	0x3d34817e	0.044068806
210	0x3da76e8e	0.081753835
211	0xbd3c19d5	-0.045923073
212	0xbd6fdebe	-0.058562033
213	0x3d1d4620	0.038396955
214	0xbd7fe122	-0.062470563
215	0xbd39cb5c	-0.045359954
216	0xbd8e6622	-0.06953074
217	0xbc1f0190	-0.009704962
218	0xbcd0efce	-0.025504973
219	0x3c4ed14c	0.012623142
220	0x3cb7bdcd	0.022429371
221	0xbcaba3b9	-0.020952092
222	0x3d8013f6	0.06253807
223	0xbd80f921	-0.062975176
224	0xbc5257dc	-0.01283833
225	0x3d6dc77d	0.058051575
226	0xbb060310	-0.0020448603
227	0xbd13527d	-0.03596734
228	0x3d01a4d4	0.031651333
229	0x3d39a5e0	0.045324206
230	0xbd4fdf66	-0.05075016
231	0xbd893cdd	-0.06701062
232	0xbb9a25bb	-0.004704205
233	0xbd94ec21	-0.072716005
234	0x3d8068a4	0.062699586
235	0x3cf7e309	0.030259626
236	0xbd46201f	-0.048370477
237	0xbd7da813	-0.061927866
238	0xbd0a4082	-0.033752926
239	0xbd0d4fdb	-0.034499984
240	0x3d8f8599	0.070079036
241	0x3d8b7cfc	0.06810948
242	0x3d71303a	0.058883883
243	0x3db70450	0.089363694
244	0xbd5293dd	-0.051410545
245	0x3d0e3b29	0.03472439
246	0xbbc0e19c	-0.0058862697
247	0x3bfa2524	0.007633822
248	0xbd458174	-0.04821916
249	0xbd3679fb	-0.044549923
250	0xbcae174d	-0.021251345
251	0x3cd22e3a	0.025656808
252	0x3da868f4	0.08223143
253	0xbcc4933e	-0.023995992
254	0x3d5b0508	0.053471595
255	0xbda89185	-0.08230881

lstm.bias_ih_l0 f4 [512]
0	0x3d221c2f	0.03957766
1	0xbca96093	-0.020675933
2	0x3d4b36b0	0.0496127
3	0xbd818cf0	-0.0632571
4	0xba5d958f	-0.0008452767
5	0x3d477ffb	0.048706036
6	0x3d6ebfad	0.058288265
7	0xbd754f5a	-0.05989013
8	0x3d274db2	0.04084558
9	0x3dd45de5	0.103694715
10	0x3ccd72dc	0.025079183
11	0xbc237354	-0.009976227
12	0x3de24f92	0.11050333
13	0xbd01c7be	-0.03168463
14	0x3d9fb7c2	0.07798721
15	0x3cccffc2	0.025024299
16	0x3dc94d5a	0.09829207
17	0x3ddcf8a0	0.10789609
18	0x3d56d9f0	0.052453935
19	0x3da515b0	0.08060777
20	0x3d1724f0	0.03690046
21	0x3bf0a502	0.007343889
22	0x3d75e33d	0.060031164
23	0xbc41e4b2	-0.01183431
24	0x3db9f7a8	0.0908044
25	0x3d58be3f	0.052915808
26	0xbbcf26e2	-0.006321774
27	0x3daf90bf	0.0857253
28	0x3d1c5113	0.038163256
29	0xbd3a2e83	-0.045454513
30	0xbc95093e	-0.018192884
31	0x3e22a7e6	0.1588436
32	0x3d6c2681	0.057653908
33	0x3d045753	0.03230984
34	0xbca1b5d9	-0.019740032
35	0x3ded54a9	0.11588413
36	0xbb178642	-0.0023120795
37	0x3dcefbe0	0.10106635
38	0x3df2a9b0	0.118487716
39	0x3dd9af89	0.10629184
40	0x3c3f37b8	0.011670999
41	0xbd7f3222	-0.06230367
42	0x3ccbad88	0.02486302
43	0xbbb8f587	-0.0056445035
44	0x3d9c0276	0.07617657
45	0xbda3acd2	-0.07991947
46	0xb9f53959	-0.0004677277
47	0xbc9b1422	-0.018930499
48	0x3d3c1b79	0.045924637
49	0xbddb8a0b	-0.10719689
50	0xbda44d3c	-0.08022544
51	0xbdc6cce5	-0.09707049
52	0x3e05b814	0.13058501
53	0x3ce67b23	0.028134888
54	0x3cf5b4c0	0.029993415
55	0xbd254b49	-0.040355
56	0x3c642884	0.013925675
57	0x3d9e18ff	0.077196114
58	0xbdb2e602	-0.08735277
59	0x3a7aa88d	0.0009561859
60	0x3d521034	0.051284984
61	0xbc9ccd6a	-0.019140918
62	0x3de53ced	0.11193261
63	0xbd9e09b9	-0.07716698
64	0x3d9a3c31	0.07531012
65	0xbd144584	-0.036199108
66	0xbcb0107c	-0.021492235
67	0xbc8a1a77	-0.016858323
68	0x3d9e9b7e	0.077445015
69	0xbc8c721b	-0.017144253
70	0xbcc06a6c	-0.023488246
71	0x3ddc8363	0.107672475
72	0x3d6ab3ed	0.057300497
73	0x3d7cc292	0.061708994
74	0x3db6df20	0.089292765
75	0x3cae3ee6	0.021270227
76	0xbd3c56bc	-0.045981154
77	0x3c4e331b	0.012585427
78	0x3dc31f7e	0.09527491
79	0x3d576ede	0.052595966
80	0x3d9280d1	0.07153476
81	0xbda8c21e	-0.0824015
82	0x3d29baa4	0.04143776
83	0xbd2f8cbf	-0.042858835
84	0xb9f58567	-0.00046829434
85	0x3e1520b2	0.14563254
86	0x3d2c913c	0.042130694
87	0x3cbcce33	0.023047542
88	0xbd447853	-0.047966313
89	0x3d2d3a3b	0.04229186
90	0x3d285af4	0.041102365
91	0x3cc5fa0a	0.02416708
92	0xbcd9d754	-0.026591934
93	0xbdad976c	-0.08476147
94	0xbd883524	-0.06650761
95	0xbd97ec72	-0.07418145
96	0xbd484228	-0.048891217
97	0x3cafdb9b	0.02146702
98	0xbd8e1e36	-0.06939356
99	0x3d19ac6e	0.037517957
100	0x3e1f8160	0.15576696
101	0x3ddac523	0.10682132
102	0xbceb5273	-0.028725838
103	0xbcca8a3c	-0.024724118
104	0x3d60988e	0.054832987
105	0x3ba8a5ef	0.005146734
106	0xbd869cd4	-0.06572881
107	0x3de0a516	0.10968988
108	0x3cae6d6f	0.021292416
109	0x3c037b31	0.008024977
110	0xbd3828b8	-0.044960707
111	0xbcee7eaf	-0.029113142
112	0x3d812d8f	0.06307518
113	0xbd1ae6a7	-0.037817623
114	0x3d5c0363	0.053714167
115	0xbd11c7fb	-0.035591107
116	0xbdc5efc0	-0.09664869
117	0xbcd7ea53	-0.026356852
118	0x3d39b010	0.045333922
119	0xbda874d2	-0.08225407
120	0x3d7eacec	0.06217663
121	0x3d874644	0.06605199
122	0xbdb61dc8	-0.08892399
123	0x3d9bb28c	0.076024145
124	0x3d89353b	0.06699606
125	0xbc269575	-0.010167469
126	0x3d4fc628	0.050726086
127	0xbb8aeae0	-0.004239425
128	0xbdb7d236	-0.089756414
129	0xbcfa3ba8	-0.030546024
130	0xbdb8f036	-0.090301916
131	0xbdb6e05d	-0.08929513
132	0x3ceb557d	0.028727287
133	0x3b9c8da9	0.0047776294
134	0x3b46cd41	0.0030334743
135	0x3d39870f	0.045294818
136	0xbcf0f6f7	-0.029414637
137	0xbd9911d0	-0.074741006
138	0xbdabcc77	-0.08388608
139	0xbda0d0f0	-0.07852352
140	0x3cbab974	0.022793509
141	0xbd25a33c	-0.040438876
142	0x3d99cb6c	0.07509503
143	0xbd9b8e77	-0.075955324
144	0xbc65ee1c	-0.0140338205
145	0x3c939de2	0.01801962
146	0x3a5ec11c	0.00084974035
147	0xbd9eb013	-0.07748427
148	0x3d7ab139	0.06120417
149	0x3c0540cd	0.0081331255
150	0x3cff924e	0.031197693
151	0xbd0d2847	-0.03446224
152	0x3c1bcff8	0.009510033
153	0x3bfd841d	0.0077366964
154	0x3d625fc1	0.0552671
155	0xbc3763c4	-0.01119322
156	0xbd828982	-0.06373884
157	0xbd8c0cfb	-0.06838413
158	0xbc63a46b	-0.013894181
159	0xbd59c570	-0.053166807
160	0x3cbb26c8	0.02284564
161	0xbd7e6198	-0.06210479
162	0xbd00f2d7	-0.03148159
163	0xbd9b283b	-0.07576033
164	0xbd4fdd03	-0.050747883
165	0x3cf24c44	0.029577382
166	0x3d10e497	0.03537425
167	0xbd9487e8	-0.072524846
168	0x3d620873	0.05518384
169	0xbdb9fefb	-0.09081837
170	0x3cca5f05	0.024703512
171	0x3d10248f	0.035191115
172	0x3d866dc9	0.065639086
173	0x3cd47963	0.025936788
174	0xbc803b11	-0.015653165
175	0xbd82fd15	-0.06395928
176	0x3c5d8b39	0.013521963
177	0xbd99f6c9	-0.07517774
178	0x3d333ad7	0.043757286
179	0x3d4ea1ea	0.050447382
180	0xba0b2398	-0.0005307733
181	0xbda0e580	-0.07856274
182	0x3d56fc97	0.052486982
183	0xbdb5e275	-0.08881084
184	0x3c9a60cf	0.01884499
185	0x3d3e90ca	0.0465248
186	0xbd4a4264	-0.04937972
187	0xbd2129bd	-0.039346445
188	0xbda5e1bf	-0.08099698
189	0xbd50a9a7	-0.050943043
190	0xbd3d1d89	-0.046170745
191	0xbcb38911	-0.021915944
192	0x3d7f4f9b	0.062331777
193	0xbc8dcdf3	-0.017310118
194	0xbd9ad28f	-0.07559692
195	0xbd7708ac	-0.060311005
196	0xbc4bb95d	-0.012434331
197	0x3cbb7522	0.022883002
198	0xbd49792f	-0.049187835
199	0x3cc50854	0.024051823
200	0x3d8b8760	0.0681293
201	0x3cceb341	0.02523196
202	0xbd0da18c	-0.03457789
203	0x3dccf01d	0.100067355
204	0xbc88f757	-0.016719503
205	0xbd5e9c79	-0.054348443
206	0xbbd30443	-0.006439717
207	0x3c21a4c7	0.009865946
208	0xbd57c1a7	-0.052674916
209	0xbd600e3b	-0.05470107
210	0x3d4d89ec	0.05018036
211	0xbd930f9d	-0.07180712
212	0xbd385b8f	-0.045009192
213	0xbd964070	-0.07336509
214	0xbda71d0c	-0.08159837
215	0xbd9a47ed	-0.0753325
216	0xbd1e2736	-0.038611613
217	0xbcf0e122	-0.029404227
218	0x3d5af91b	0.05346022
219	0x3d98c750	0.07459891
220	0xbd9bb269	-0.076023884
221	0xbbc53763	-0.0060185655
222	0x3c161e8b	0.009162555
223	0xbd9104d8	-0.07081002
224	0xbc8f0b9b	-0.017461589
225	0x3ba61f65	0.0050696605
226	0xbd2d4f53	-0.042311978
227	0x3d6e6048	0.05819729
228	0xbe0756ba	-0.13216677
229	0x3d096b2f	0.033549484
230	0xbb8a3f2a	-0.0042189555
231	0x3c843e4b	0.016142985
232	0x3d25c632	0.040472217
233	0x3cf98a15	0.03046135
234	0xbcbee356	-0.023301762
235	0xbc8ed92f	-0.017437546
236	0x3d503a53	0.050836872
237	0xbda00803	-0.07814028
238	0xbc43b713	-0.011945504
239	0x3d51aba4	0.05118908
240	0xbdcd7993	-0.10032954
241	0xbd9c8c26	-0.07643919
242	0xbd5057f5	-0.050865132
243	0x3c8b0631	0.016970726
244	0xbd22d0dd	-0.03974997
245	0x3d18b451	0.037281338
246	0x3d51836f	0.051150735
247	0xbd7c12b9	-0.061541293
248	0xbd9cae85	-0.076504745
249	0x3c82d172	0.015969012
250	0xbdc02ebb	-0.09383913
251	0x3d0e2408	0.03470233
252	0xbdc7022c	-0.09717211
253	0xbdb2b336	-0.08725588
254	0x3bf01506	0.007326725
255	0x3d2383ef	0.039920744

lstm.bias_hh_l0 f4 [512]
0	0xbcf71c72	-0.030164931
1	0xbd7ccd43	-0.06171919
2	0xbb1ba15e	-0.0023747305
3	0xbd7b4390	-0.06134373
4	0x3c32426b	0.010880093
5	0xbd7bc3b1	-0.061465923
6	0xbd08a3d6	-0.03335937
7	0xbcfd353d	-0.030909175
8	0x3daaf25b	0.08347007
9	0xbd4bcf71	-0.04975838
10	0x3c0a0963	0.0084250895
11	0xbc7c5d6c	-0.015403133
12	0x3da98f70	0.08279312
13	0x3dc986ae	0.09840141
14	0x3dab042c	0.08350405
15	0x3ca55d2c	0.02018603
16	0x3ce339e2	0.027737562
17	0xbd2b9abe	-0.04189562
18	0x3dbfb46e	0.09360586
19	0xbd787cd0	-0.060665905
20	0xbcde75a9	-0.027155714
21	0xbb0ada65	-0.0021187302
22	0x3daf1ad7	0.08550041
23	0xbd31cd6e	-0.043408804
24	0x3d6e15a4	0.058126107
25	0xbcffa200	-0.031205177
26	0xbd6a5e6b	-0.05721895
27	0x3d9cec9b	0.076623164
28	0xbc9fd969	-0.019512849
29	0x3db06695	0.08613316
30	0x3bd45aae	0.0064805364
31	0x3da51307	0.0806027
32	0xbdbf3fcf	-0.093383424
33	0x3d821548	0.06351715
34	0xbc9e8599	-0.019350814
35	0x3dab2143	0.083559535
36	0x3d8495aa	0.06473859
37	0x3db47c64	0.08812788
38	0xbd1bef55	-0.03807004
39	0x3c4d985e	0.012548534
40	0xbc87a74d	-0.016559267
41	0x3cf595d9	0.02997868
42	0xbd3be626	-0.045873784
43	0x3ce4feb3	0.027953481
44	0x3d5416a4	0.051779404
45	0xbd8edc02	-0.06975557
46	0x3c197c52	0.009368019
47	0xbd994666	-0.074841306
48	0x3d4bdd31	0.04977149
49	0xbdbfb4a8	-0.09360629
50	0xbcef8476	-0.029237967
51	0xbdb10100	-0.08642769
52	0x3d6ee084	0.058319584
53	0xbc84bc2b	-0.016203007
54	0x3d746cc1	0.05967403
55	0x3d1733b6	0.03691455
56	0xbdc4f81c	-0.096176356
57	0x3dd380f9	0.10327334
58	0xbca86096	-0.020553868
59	0xbd05120f	-0.032487925
60	0x3d66bc98	0.0563322
61	0x3e0d26a5	0.13784273
62	0xbd0d209a	-0.03445492
63	0xbb9f1cde	-0.004855736
64	0xbd91bf3d	-0.07116554
65	0xbbb741f1	-0.0055925776
66	0xbdad09bd	-0.08449123
67	0xb8ad0067	-8.249358e-05
68	0x3c9976cb	0.018733403
69	0xbd0936da	-0.033499576
70	0xbc8e4fc7	-0.017372025
71	0x3deed547	0.11661773
72	0xbd62a2b8	-0.055330962
73	0x3ce4f009	0.027946489
74	0xbceb8c28	-0.028753355
75	0x3c183acd	0.009291363
76	0x3bf839fb	0.007575271
77	0x3d7ad9f7	0.061243024
78	0x3da5be2e	0.080929145
79	0xbd1abdf2	-0.037778802
80	0x3d053ef7	0.03253075
81	0xbd83d076	-0.06436245
82	0x3d97dbb2	0.074149504
83	0x3d6aa053	0.057281803
84	0x3d91c90f	0.07118427
85	0x3d90b427	0.07065611
86	0x3dd67fc5	0.10473589
87	0x3cf1e43c	0.029527776
88	0xbdc3f818	-0.095688045
89	0xbd85e598	-0.06537932
90	0xb9c5ecfa	-0.0003775133
91	0xbda2fad5	-0.07957999
92	0xbda5a48c	-0.080880255
93	0xbd2a457d	-0.041570175
94	0xbbd61ca2	-0.006534175
95	0x3cbb46f8	0.022860989
96	0xbd53f343	-0.051745664
97	0xbda75ec2	-0.081723705
98	0xbd8c005e	-0.068360075
99	0xbc98729d	-0.01860934
100	0x3e66a490	0.22523713
101	0x3dcce343	0.10004284
102	0x3da06dcd	0.07833443
103	0x3da44b20	0.080221415
104	0x3d3e9628	0.04652992
105	0xbce2bea2	-0.027678791
106	0x3d192ad2	0.037394352
107	0x3e1770a8	0.14789069
108	0xbc0348d1	-0.008012966
109	0x3d775cad	0.060391117
110	0xbccf8b4b	-0.025334975
111	0xbd924e42	-0.07143833
112	0x3dc122d1	0.09430469
113	0x3d9b4509	0.07581527
114	0x3e098655	0.1343015
115	0xbb7f18c8	-0.0038924683
116	0x3d5cf667	0.053945925
117	0x3d5e50e9	0.05427638
118	0x3dac512a	0.08413918
119	0xbb79feb5	-0.0038146202
120	0x3e004f6e	0.125303
121	0x3d7d62b4	0.06186171
122	0x3b3ffb03	0.0029293902
123	0x3c1a76dd	0.009427753
124	0x3c98fef4	0.018676259
125	0xb85be6ba	-5.242855e-05
126	0x3d96946e	0.073525295
127	0xbc292f8d	-0.010326278
128	0x3d740d23	0.05958284
129	0xbd1e3238	-0.03862211
130	0xbd4a96bf	-0.04946017
131	0xbd127e7f	-0.035765167
132	0xbd3af2cc	-0.045641705
133	0xbd87c2a8	-0.066289246
134	0xbc9f0b66	-0.019414615
135	0x3d986e4c	0.074429125
136	0xbd997ec5	-0.074948825
137	0xbd08bc54	-0.03338273
138	0x3d4cfb5e	0.05004441
139	0x3d25aed6	0.04044994
140	0xbd2f0a3b	-0.042734366
141	0x3c3d9758	0.011571728
142	0xbd085117	-0.03328046
143	0xbcad8fe2	-0.021186773
144	0x3d7bfc9f	0.061520215
145	0x3da6ee5c	0.08150932
146	0xbd3014c4	-0.042988554
147	0x3bf3e715	0.0074433186
148	0x3b8b5193	0.0042516678
149	0x3ce04be9	0.027379947
150	0xbb7c4d52	-0.0038498235
151	0xbaddd0c8	-0.0016923184
152	0x3d9585e8	0.07300931
153	0x3d13fa9b	0.036127668
154	0xbc98b9ca	-0.018643279
155	0xb9afcdd0	-0.00033531943
156	0xbdaa4415	-0.08313767
157	0x3d8f3f55	0.069945015
158	0x3d8d07c1	0.068862446
159	0xbd73ec5a	-0.059551574
160	0xbd922e99	-0.07137794
161	0x3d897807	0.067123465
162	0x3b4e4ed4	0.003148009
163	0xbb9689d3	-0.0045940666
164	0x3b2c9c4a	0.0026338273
165	0xbd847868	-0.06468278
166	0x3cd65291	0.026162418
167	0xbb0d0a84	-0.002152116
168	0xbdc02f8e	-0.0938407
169	0x3ce451e5	0.027871082
170	0x3d8f9c2c	0.07012209
171	0x3caee387	0.021348728
172	0xbccdbe4a	-0.025115151
173	0xbdad5a95	-0.08464543
174	0x3ba19e32	0.0049321884
175	0x3c765be1	0.015036554
176	0x3d8450cd	0.06460724
177	0x3cacd3ae	0.02109703
178	0x3d850020	0.064941645
179	0x3c882704	0.016620167
180	0x3a6cf6dc	0.00090394705
181	0x3d8091a2	0.06277777
182	0x3cc9f4dc	0.02465289
183	0x3d97e14f	0.07416021
184	0x3c7eccb2	0.015551733
185	0xbc97dc2b	-0.018537601
186	0xbdcbadce	-0.0994526
187	0xbda954a5	-0.08268098
188	0xbd9c53fd	-0.07633207
189	0x3c92f47e	0.017938849
190	0x3d17344d	0.036915112
191	0xbdaf6558	-0.08564252
192	0xbd4f1ea5	-0.050566334
193	0x3be11074	0.0068684164
194	0xbdcc5185	-0.09976486
195	0xbd4e3d60	-0.0503515
196	0x3d30cd55	0.04316457
197	0xbd144f7e	-0.036208622
198	0xbc5cf71f	-0.013486653
199	0xbbb1e553	-0.005428949
200	0xbd547336	-0.051867686
201	0x3d8f99ad	0.07011733
202	0xbdb3e5d2	-0.08784069
203	0xbd010074	-0.031494573
204	0x3bbffdc2	0.0058591077
205	0x3d2d5ca9	0.042324696
206	0xbda585a0	-0.080821276
207	0xbd8cdd9f	-0.06878208
208	0xbd649979	-0.055810425
209	0x3d754a95	0.05988558
210	0xbd7ba398	-0.061435312
211	0x3d8c8815	0.06861893
212	0xbc77f141	-0.015133203
213	0xbcd7402e	-0.02627572
214	0x3d43a39d	0.047763456
215	0xbd1f3284	-0.038866535
216	0x3d6b91ed	0.057512213
217	0xbd89f312	-0.06735815
218	0x3d523dcb	0.05132846
219	0xbd2f2b77	-0.04276606
220	0xbd311035	-0.043228347
221	0x3c6c03b6	0.014405182
222	0xbdbd8698	-0.09254187
223	0x3ccdf9a9	0.025143461
224	0xbd505349	-0.050860677
225	0xbca4a26f	-0.020096986
226	0x3d6b3a1d	0.057428468
227	0xbd9ef4c0	-0.07761526
228	0xbda1573f	-0.07877969
229	0xbcbac6bd	-0.022799844
230	0x3cdd8b1f	0.027043877
231	0x3c0400a7	0.008056796
232	0x3c7c7f93	0.015411275
233	0x3d0767d9	0.03305802
234	0xbda206f9	-0.07911486
235	0x3d8025a0	0.062571764
236	0x3abed915	0.0014560545
237	0xbd228116	-0.039673887
238	0xbd24eda4	-0.040265694
239	0x3d866e6e	0.065640315
240	0xbdcc7e57	-0.09985035
241	0xbd76a0f5	-0.060212094
242	0xbd83fa08	-0.06444174
243	0x3d03ec9a	0.032208063
244	0xbd9e2d4e	-0.07723485
245	0x3d9d7fd5	0.07690398
246	0xbd8103d2	-0.06299557
247	0xbd40196f	-0.046899255
248	0xbccc13fc	-0.024911873
249	0xbbfa1dbd	-0.0076329396
250	0xbc256be0	-0.01009652
251	0x3b81238c	0.003941005
252	0x3d2c58d6	0.042076908
253	0x3d348246	0.04406955
254	0xbdd064f3	-0.101755045
255	0xbd4e685d	-0.050392497

lstm.weight_ih_l1 f4 [512, 128]
0	0xbdbbefd1	-0.09176601
1	0xbcc0d3f9	-0.023538576
2	0xbcf01e88	-0.029311433
3	0xbd68ccd1	-0.056835953
4	0x3d3ea2bb	0.04654191
5	0x3d9e0901	0.07716561
6	0xbc81203a	-0.015762437
7	0x3dc11792	0.09428324
8	0x3d7745c4	0.060369268
9	0xbc9169a0	-0.017750561
10	0xbb575956	-0.0032859645
11	0x3d8ed8f1	0.06974972
12	0x3d0642f4	0.032778695
13	0x3d82d39a	0.06388016
14	0xbd919495	-0.07108418
15	0x3c843227	0.016137196
16	0xbb12a872	-0.0022378233
17	0x3d150aa6	0.03638711
18	0x3bed95e1	0.007250533
19	0xbcbed9c5	-0.0232972
20	0xbd4914d2	-0.04909212
21	0xbd953f51	-0.07287467
22	0xbcab0295	-0.020875255
23	0x3dacf6fd	0.08445547
24	0x3c90ec1f	0.017690716
25	0x398cab3f	0.0002683047
26	0xbd6f8edf	-0.058485862
27	0x3c006c00	0.007838249
28	0x3d087cfa	0.033322312
29	0x3da56b0f	0.080770604
30	0xbcfc0c99	-0.030767726
31	0x3d0f0d06	0.03492453
32	0xbd807f59	-0.0627429
33	0x3db4809b	0.08813592
34	0x3d7096e9	0.05873767
35	0x3d6eb18d	0.058274794
36	0xbd0aa556	-0.033849083
37	0xbdbef603	-0.09324267
38	0xbdaa9c8c	-0.0833064
39	0x3db66148	0.08905274
40	0xbda35565	-0.07975272
41	0xbbd03994	-0.00635452
42	0x3d2b39d9	0.041803215
43	0xbd39c575	-0.045354325
44	0xbd6fb029	-0.05851761
45	0xbce1e454	-0.027574696
46	0xbdd4a28e	-0.10382567
47	0x3da57a10	0.08079922
48	0xbd4160c4	-0.047211424
49	0xbca0f4e8	-0.01964803
50	0xbdaaa0d9	-0.083314605
51	0xbcccbb71	-0.024991723
52	0x3d09f34f	0.033679303
53	0xbda49a2b	-0.08037218
54	0x3db2a891	0.08723558
55	0x3d9ee20a	0.07757957
56	0x3d67a154	0.05655034
57	0xbda00057	-0.07812565
58	0xbd48cd90	-0.049024165
59	0xbdd5f79e	-0.1044762
60	0xbd84c4b9	-0.06482834
61	0x3d9ec739	0.077528425
62	0xbbf2eafc	-0.007413266
63	0xbd5540c5	-0.052063722
64	0x386a136e	5.5808043e-05
65	0xbd6c3abd	-0.057673205
66	0x3d9e56fc	0.07731435
67	0xbbde749a	-0.0067888023
68	0xbd974559	-0.07386274
69	0x3d649c5a	0.05581317
70	0x3ce6b016	0.028160136
71	0xbd00fb4f	-0.031489667
72	0x3d66d13e	0.056351893
73	0xbd34f136	-0.04417535
74	0x3dc2639e	0.09491657
75	0xbde71e43	-0.11285069
76	0x3db3b091	0.08773912
77	0xbd7eba0e	-0.062189154
78	0x3cc49a44	0.02399934
79	0xbd6d5c70	-0.057949483
80	0xbdc3145b	-0.09525367
81	0x3d1360a1	0.035980824
82	0x3d807594	0.06272426
83	0x3c12e286	0.00896514
84	0xbd91004b	-0.07080134
85	0xbd4eadfc	-0.050458893
86	0xbd5b374b	-0.05351953
87	0xbd409560	-0.047017455
88	0xbcbaf81f	-0.022823391
89	0xbd47c111	-0.048768107
90	0xbd0ef83a	-0.034904696
91	0xbd333b5d	-0.043757785
92	0xbc6c5539	-0.014424616
93	0x3d26afc4	0.040694967
94	0xbc76e335	-0.015068819
95	0x3c63f1c3	0.013912621
96	0xbdb75c99	-0.089532085
97	0xbd9d709a	-0.07687493
98	0xbdb05de9	-0.08611662
99	0xbc8f7d78	-0.017515883
100	0xbca38e5a	-0.01996534
101	0xbc99dd5c	-0.01878231
102	0x3ce50edc	0.027961187
103	0x3d090110	0.03344828
104	0xbd9b6cd3	-0.07589116
105	0x3d653159	0.055955265
106	0x3be228b4	0.006901825
107	0x3d3c48f1	0.045968
108	0x3d8a71f5	0.06760017
109	0xbd72a8d9	-0.059243057
110	0xbd6aadf1	-0.05729479
111	0x3da0d89d	0.07853816
112	0x3d2d56c4	0.042319074
113	0x3d63c21f	0.05560505
114	0xbdcf61f3	-0.10126104
115	0x3d2fdad0	0.042933285
116	0xbcc547f1	-0.024082156
117	0x3b448492	0.0029986245
118	0xbd6b6638	-0.05747053
119	0x3d679f56	0.05654844
120	0xbc7a82a0	-0.0152899325
121	0x3d580810	0.052742064
122	0x3da339b5	0.07969991
123	0x3d34d582	0.04414893
124	0x3da91643	0.08256199
125	0x3aae6d51	0.0013307725
126	0x3d0e3774	0.034720853
127	0x3da9dc10	0.08293927
128	0xbdb7d868	-0.08976823
129	0xbdb9ac0a	-0.09066017
130	0x3d8cd740	0.06876993
131	0x3bf7fbf0	0.007567875
132	0xbdbd49ea	-0.092426136
133	0xbd2ef6a0	-0.04271567
134	0xbd91c835	-0.071182646
135	0x3d050a6b	0.03248064
136	0xbd34ff0f	-0.044188555
137	0x3d6ead59	0.058270786
138	0xbd40b533	-0.047047805
139	0xbdb9f595	-0.09080044
140	0xbe0f2de6	-0.13982353
141	0xbd799be3	-0.06093968
142	0x3b4d3d9e	0.0031317244
143	0x3cb31b3f	0.021863578
144	0x3d88ec8c	0.06685743
145	0x3d1c51ee	0.03816407
146	0x3df68e7a	0.12038894
147	0x3d04d2fc	0.032427773
148	0xbd818fd6	-0.06326263
149	0x3ce8467b	0.02835392
150	0x3c8a7c56	0.016904991
151	0x3ab4a973	0.001378341
152	0x3e048468	0.12941134
153	0x3b661ca7	0.0035112293
154	0x3d43ef2e	0.04783552
155	0xbc0cc98f	-0.008592977
156	0x3db07499	0.08615989
157	0x3e06d0dc	0.13165611
158	0x3dde4922	0.10853793
159	0xbd83567e	-0.064129815
160	0x3cd2608a	0.025680799
161	0xbd641f2d	-0.055693794
162	0x3b373f6a	0.0027961382
163	0xbe1b6b3f	-0.1517763
164	0x3d621173	0.055192422
165	0x3cdf4058	0.027252361
166	0xbc8b425b	-0.016999414
167	0x3d502536	0.050816737
168	0x3ce53e4b	0.027983805
169	0xbcf6cfe2	-0.030128423
170	0x3c7c2566	0.015389776
171	0x3d2f61af	0.042817768
172	0x3da264ee	0.07929407
173	0x3da56488	0.080758154
174	0xbdf16cf3	-0.117883585
175	0x3ca46e12	0.020072017
176	0xbdc88a16	-0.09791963
177	0x3c1503e2	0.009095164
178	0xbdfb623e	-0.122745976
179	0xbdb43c96	-0.08800618
180	0x3dda668d	0.10664091
181	0x3d3d116e	0.0461592
182	0xbc8cc7af	-0.01718506
183	0x3da3bd39	0.07995076
184	0x3d875d8f	0.06609642
185	0x3c0c8796	0.008577248
186	0x3cff97a1	0.031200232
187	0xbd33756c	-0.043813154
188	0xbd1e4c85	-0.038647193
189	0x3ddf36fb	0.108991586
190	0x3e198fc2	0.14996246
191	0x3de32dbd	0.11092708
192	0xbda96303	-0.08270838
193	0x3dcf44a4	0.10120514
194	0xbb30baa6	-0.002696672
195	0xbd144808	-0.036201507
196	0xbd12c405	-0.03583147
197	0x3c5d8e2e	0.013522668
198	0x3d3e7cff	0.046505924
199	0x3cf3c45d	0.02975672
200	0x3c93cc90	0.018041879
201	0x3c6a5dc3	0.014304581
202	0xbbe2e337	-0.006924059
203	0x3bc522e3	0.0060161217
204	0xbd373ca8	-0.04473558
205	0x3d05d0f4	0.032669976
206	0xbc17203c	-0.009223994
207	0xbdeb7ae8	-0.11498052
208	0xbd40f0bc	-0.047104582
209	0x3c83c595	0.016085425
210	0xbdf1c9e6	-0.11806087
211	0xbda59a38	-0.080860555
212	0xbce34378	-0.027742133
213	0x3d8d91f3	0.06912603
214	0xbd47844a	-0.048710145
215	0x3ca99df5	0.020705203
216	0xbd98aade	-0.07454465
217	0x3d15a058	0.03652987
218	0x3c9ae2f8	0.018907055
219	0x3d482ad3	0.048868965
220	0xbda8a880	-0.08235264
221	0x3d239c47	0.03994396
222	0x3d6ae712	0.057349272
223	0x3cf90d98	0.03040199
224	0xbde837ea	-0.1133879
225	0x3d441d3e	0.04787945
226	0xbcc5bdbd	-0.024138326
227	0xbde07e53	-0.109615944
228	0x3d4521fc	0.048128113
229	0x3bb4d475	0.005518491
230	0xbc6da267	-0.014504052
231	0xbd95cef5	-0.073148645
232	0xbda79fd9	-0.081847854
233	0xbcdf8427	-0.027284695
234	0xbcb4012f	-0.02197322
235	0x3de33590	0.110942006
236	0x3cdb1f0d	0.026748205
237	0xbc5d9b48	-0.0135257915
238	0xbce10025	-0.02746589
239	0xbdb5c175	-0.088747896
240	0xbd97052e	-0.07374035
241	0x3c734226	0.014847314
242	0x3bb93792	0.0056523765
243	0xbd7048f0	-0.05866331
244	0x3d9ba366	0.07599525
245	0x3bdc84ac	0.006729683
246	0x3cb1d2c2	0.021706942
247	0xbd9624b8	-0.07331222
248	0x3d3b3355	0.04570325
249	0xbd705998	-0.058679193
250	0x3d9a8d38	0.075464666
251	0xbc607aa9	-0.013701119
252	0x3da9248c	0.08258924
253	0xbd294f13	-0.041335177
254	0xbc0d888f	-0.008638515
255	0x3d113643	0.03545214

lstm.weight_hh_l1 f4 [512, 128]
0	0x3c1f9c1a	0.009741807
1	0xbd0ea363	-0.034823786
2	0x3d8aa949	0.0677057
3	0x3db1a789	0.08674533
4	0xbdb4cce4	-0.08828142
5	0x3d5e56df	0.054282065
6	0xbabdd10e	-0.0014481859
7	0x3cb84b70	0.022496909
8	0xbd892f32	-0.06698455
9	0x3d5f6d5f	0.054547664
10	0x3d9d8c86	0.07692818
11	0xbd4a3313	-0.049365114
12	0x3d794b85	0.060863037
13	0xbc8f9aa4	-0.017529793
14	0x3d3ac173	0.045594644
15	0x3d1f09a7	0.038827565
16	0xbbaabf99	-0.0052108285
17	0xbcdbbb22	-0.02682263
18	0xbd9970f0	-0.07492244
19	0xbce9db03	-0.028546816
20	0x3cd27e99	0.025695132
21	0x3c777a34	0.015104819
22	0xbd4e83f0	-0.050418794
23	0x3d4c436b	0.049868982
24	0xbdbac72b	-0.091200195
25	0x3da2d82e	0.07951389
26	0xbd89dd95	-0.067317165
27	0x3c50e965	0.012750958
28	0x3d798bad	0.06092422
29	0x3d08762c	0.033315822
30	0xbd5d8524	-0.05408205
31	0xbcb4d5c2	-0.022074584
32	0xbd963782	-0.07334806
33	0x3d39d32e	0.045367412
34	0xbd935e09	-0.0719567
35	0x3d543853	0.051811527
36	0x3c923cee	0.01785132
37	0xbd319157	-0.043351498
38	0x3dc0c860	0.094132185
39	0xbd169664	-0.036764517
40	0xbd58018f	-0.05273586
41	0xbd42c659	-0.04755244
42	0x3daa158e	0.083048925
43	0x3d8254c4	0.06363824
44	0x3d6765c4	0.056493536
45	0xbcaae192	-0.020859513
46	0x3d48940e	0.04896932
47	0x3da930a4	0.082612306
48	0x3dae9492	0.08524431
49	0xbd121834	-0.035667613
50	0x3d1f3749	0.038871083
51	0x3d7e5855	0.06209596
52	0xbd3e9195	-0.046525557
53	0x3d81ccb4	0.06337872
54	0x3bb00d35	0.005372668
55	0x3cdc6d86	0.026907694
56	0xbd56be05	-0.05242731
57	0xbd20cb35	-0.039256293
58	0x3d39362c	0.045217678
59	0xbd2dd7c2	-0.04244209
60	0xba8c30af	-0.0010695661
61	0xbb8ae782	-0.0042390237
62	0x3c1f7f5d	0.009734956
63	0x3d033339	0.03203127
64	0x3ce5e1ab	0.028061708
65	0xbdb87c2c	-0.09008059
66	0xbde7326b	-0.11288913
67	0x3d95dc0c	0.07317361
68	0x3ce9bbae	0.028531875
69	0xbd4b3d6b	-0.04961912
70	0xbc950f2d	-0.018195713
71	0x3c685f7f	0.014182924
72	0x3c8dc700	0.017306805
73	0xbbf35ca2	-0.007426814
74	0xbdacc748	-0.084364474
75	0xbcc418a2	-0.023937527
76	0x3b844332	0.0040363306
77	0x3bafea46	0.0053685037
78	0x3d1de7ee	0.038551264
79	0x3b9094cb	0.0044122688
80	0xbc5c43ad	-0.01344387
81	0xbd967c96	-0.07347982
82	0xbd11566c	-0.03548281
83	0x3d5416b1	0.051779453
84	0x3ce2170e	0.027598884
85	0xbd274fd5	-0.040847618
86	0xbc7e8542	-0.015534701
87	0x3dc089f8	0.094013155
88	0x3d05ab23	0.03263391
89	0xbc73394f	-0.014845206
90	0xbce0adbf	-0.027426599
91	0xbddc821a	-0.107670024
92	0xbe029c2a	-0.12754884
93	0xbd3c819e	-0.04602205
94	0xbdfcb6f1	-0.12339581
95	0x3d5add41	0.05343366
96	0xbcf88d23	-0.030340737
97	0xbd0cd2c8	-0.034380704
98	0xbd474fb5	-0.04866
99	0x3d812ef7	0.06307786
100	0xbd904642	-0.070446506
101	0x3a4694ae	0.00075752556
102	0xbdae71a8	-0.08517772
103	0x3d8aa54d	0.0676981
104	0xbcea72cd	-0.028619194
105	0x3cee17b1	0.029064031
106	0xbe01dc4b	-0.12681691
107	0xbce1bf61	-0.027557077
108	0xbb42bb73	-0.002971378
109	0xbd416557	-0.047215786
110	0x3d94744e	0.07248746
111	0x3ceb8e5f	0.028754411
112	0x3c99cd56	0.01877467
113	0x3d40e80f	0.04709631
114	0x3c7d7881	0.015470625
115	0x3dad5a92	0.084645405
116	0xbcb1597b	-0.021649113
117	0x3d81bfbf	0.06335401
118	0xbd03a3e5	-0.032138724
119	0x3db24c29	0.08705933
120	0xbda4f8c6	-0.08055262
121	0xbdb4ad76	-0.088221475
122	0x3d14da63	0.036341082
123	0x3d8e4c8a	0.069481924
124	0xbc1d0ef9	-0.009586089
125	0xbc360796	-0.011110207
126	0x3cfd7420	0.030939162
127	0x3d7e9c7d	0.062160958
128	0xbd644249	-0.055727277
129	0x3dc8f7c4	0.098128825
130	0x3d06f8f4	0.032952264
131	0x3d2eb0e5	0.04264917
132	0x3d9bf737	0.07615512
133	0x3d9abd2c	0.07555613
134	0x3d3f7bf0	0.046749055
135	0x3d89e791	0.06733621
136	0xbc9e9fcd	-0.019363308
137	0xbbd49a5b	-0.006488127
138	0xbdd39187	-0.103304915
139	0x3c44f297	0.012020729
140	0x3d505ef5	0.050871808
141	0xbdf03330	-0.11728513
142	0x3d92a3b1	0.07160128
143	0xbddedd07	-0.10882001
144	0xbd617920	-0.055047154
145	0x3cfa06f6	0.030520897
146	0x3dbb220e	0.09137355
147	0xbc557500	-0.013028383
148	0x3c7ef225	0.015560661
149	0xbd2f8cc7	-0.042858865
150	0xbdb4215c	-0.08795425
151	0xbdb2aa95	-0.08723942
152	0x3c8650d9	0.016395973
153	0x3db50c6a	0.088402584
154	0x3c654423	0.013993296
155	0x3da06d06	0.078332946
156	0xbd03db5e	-0.032191627
157	0xbc973f85	-0.018462906
158	0xbd8aea90	-0.067830205
159	0x3cc61c5c	0.024183445
160	0x3cb0138b	0.021493694
161	0x3dadbaa2	0.08482863
162	0xbc955000	-0.018226624
163	0x3dbd1100	0.09231758
164	0xbd68e5e2	-0.05685986
165	0x3c5131f1	0.012768255
166	0xbcb97312	-0.022637878
167	0x3d745acb	0.0596569
168	0xbd8f17a6	-0.069869325
169	0xbc2a1087	-0.010379917
170	0xbc7e8912	-0.01553561
171	0xbc74b8d3	-0.014936644
172	0x3bde56a5	0.006785231
173	0x3de1464c	0.10999736
174	0x3cbcc1fb	0.023041716
175	0xbd48643e	-0.048923723
176	0x3d1d7514	0.038441733
177	0x3dc3b992	0.09556879
178	0x3d54e69d	0.051977742
179	0x3d579682	0.05263377
180	0xbdc7e51b	-0.09760495
181	0x3d22ec95	0.039776403
182	0x3dbb63ac	0.0914987
183	0xbd870eca	-0.06594618
184	0xbd8238a2	-0.06358458
185	0xbd147471	-0.03624386
186	0xbd5a71b7	-0.053331103
187	0x3d051c82	0.03249789
188	0xbcb235b1	-0.021754118
189	0xbda570b4	-0.08078137
190	0x3d086c9e	0.03330671
191	0x3d7abd11	0.061215464
192	0xbd4b1428	-0.04957977
193	0xbd812f38	-0.063078344
194	0xbd68d5de	-0.056844585
195	0x3cbac16d	0.02279731
196	0xbd462c2d	-0.048381973
197	0x3d1cd8b1	0.03829259
198	0x3dde8831	0.1086582
199	0x3bc3499a	0.0059597017
200	0xbdbe68b3	-0.092973135
201	0x3d8244fd	0.06360815
202	0xbd213cc1	-0.03936458
203	0x3d2fa747	0.042884137
204	0x3d66c357	0.056338634
205	0xbd91242f	-0.070869796
206	0xbce2e0c7	-0.027695073
207	0x3d3eb467	0.046558764
208	0x3b9a7be5	0.0047144764
209	0xbc358cb0	-0.011080906
210	0x3c4725ad	0.012154979
211	0x3d8e8b3c	0.069601506
212	0xbdb8d440	-0.090248585
213	0x3c773a20	0.015089542
214	0x3d8bd819	0.06828327
215	0xbd76aff2	-0.06022639
216	0xbcdbec1b	-0.026845982
217	0x3d5f9698	0.054586977
218	0x3d8ac509	0.06775863
219	0x3d3ea79d	0.046546567
220	0x3b80582b	0.0039167604
221	0xbd0185f0	-0.031621873
222	0xbd323a46	-0.043512605
223	0x3d3721c8	0.04470995
224	0x3d51da62	0.051233657
225	0xbdcd0dd6	-0.100124046
226	0xbca9fefd	-0.02075147
227	0x3d96f118	0.07370204
228	0xbc7b88c8	-0.015352435
229	0x3c089516	0.008336326
230	0xbd8e4d0d	-0.0694829
231	0x3c3dba4f	0.011580064
232	0x3c21750e	0.009854568
233	0x3c55a702	0.013040306
234	0x3db47f22	0.08813311
235	0xbd4ab60f	-0.04949003
236	0x3c8a4f6a	0.01688357
237	0x3cd46948	0.025929108
238	0xbd19def7	-0.03756615
239	0xbbfe6f3c	-0.007764725
240	0xbd0f1163	-0.03492869
241	0x3d953a26	0.072864816
242	0xbd1858ea	-0.03719417
243	0x3d0f24a9	0.03494707
244	0xbd94b259	-0.072605796
245	0xbd3dfec8	-0.046385556
246	0xbda92d34	-0.08260575
247	0x3d8b7486	0.068093345
248	0x3d673e4c	0.056455895
249	0x3b475f26	0.0030421703
250	0xbdca697a	-0.09883399
251	0x3cc4b978	0.02401422
252	0xbd4140f3	-0.04718108
253	0xbd97c589	-0.07410724
254	0xbd66f2a8	-0.05638376
255	0xbd070568	-0.03296414

lstm.bias_ih_l1 f4 [512]
0	0x3d0b60d0	0.034027874
1	0x3dbf93a7	0.09354334
2	0xbad4b533	-0.0016228318
3	0xbbf4f174	-0.0074750725
4	0x3939ca78	0.000177184
5	0x3dbfe191	0.09369195
6	0x3dab8658	0.083752334
7	0x3d348427	0.044071343
8	0xbd9855a5	-0.074382104
9	0x3d0b7472	0.034046598
10	0x3d4d9f23	0.050200593
11	0xbd095d74	-0.03353639
12	0xbc48c284	-0.012253407
13	0x3da2a6ff	0.07942008
14	0xbd3b798a	-0.045770206
15	0x3d7ab205	0.06120493
16	0x3d478a87	0.048716094
17	0x3b7c2fe7	0.00384807
18	0x3df9eb8a	0.12203129
19	0x3c48d180	0.01225698
20	0xbd949903	-0.07255747
21	0xbcfbeb55	-0.030751863
22	0x3d2ea367	0.0426363
23	0xbbb2dcf5	-0.005458469
24	0x3c8029fe	0.015645023
25	0x3d9d847c	0.07691285
26	0xbd94490a	-0.072404936
27	0xbdcaf789	-0.09910495
28	0x3db18fbd	0.08669994
29	0x3c2a8b8d	0.010409248
30	0x3dd3ee39	0.10348172
31	0x3d2260a9	0.039642964
32	0x3d430166	0.047608756
33	0x3db6b550	0.08921301
34	0xbd83f195	-0.064425625
35	0xbc06e6c6	-0.008233732
36	0x3d8e1057	0.0693671
37	0x3bae71c6	0.0053236214
38	0x3dcf1f95	0.10113446
39	0x3d454fa9	0.048171673
40	0x3d9c3d31	0.07628859
41	0xbd0ba65e	-0.034094207
42	0x3dd208da	0.102555946
43	0xbd104ba1	-0.035228375
44	0x3dd07647	0.101788096
45	0x3dcff762	0.101546064
46	0x3dfbb3ac	0.12290129
47	0x3e92bc03	0.28659067
48	0xbd833051	-0.064057
49	0xbd4ef7be	-0.050529234
50	0x3d1465d8	0.03622994
51	0x3b532a05	0.003222109
52	0x3c1c9395	0.009556671
53	0xbc223ff9	-0.009902948
54	0xbd3c066f	-0.045904573
55	0x3d762704	0.060095802
56	0xbda2f61b	-0.07957097
57	0x3d8456b5	0.064618506
58	0xbd57cedb	-0.052687507
59	0x3db9d294	0.09073368
60	0x3da67719	0.08128185
61	0x3e1c2ed3	0.15252237
62	0x3d457b18	0.048213094
63	0x3d4e46d1	0.050360505
64	0x3dcb99c8	0.09941441
65	0x3cf3d47f	0.029764412
66	0x3bd56770	0.006512575
67	0x3d9b7438	0.07590526
68	0x3e0b7451	0.1361859
69	0xbd1c5aa3	-0.038172375
70	0xba851400	-0.0010153055
71	0xbd0033cc	-0.031299397
72	0x3dcfe743	0.101515315
73	0x3d274392	0.040835924
74	0x3db81a03	0.08989336
75	0x3dc97241	0.09836245
76	0x3dbd49f4	0.09242621
77	0x3d3eecb5	0.04661246
78	0xbd59736d	-0.053088594
79	0xbd832f37	-0.0640549
80	0x3dc83490	0.097756505
81	0x3e5ba1aa	0.21448389
82	0x3e507aa2	0.2035928
83	0x3e7a5baf	0.24449037
84	0xbd36b087	-0.044601943
85	0xbd6f740d	-0.058460284
86	0xbdaee5fe	-0.08539961
87	0xbaddafe7	-0.0016913385
88	0x3f09e5ab	0.5386607
89	0x3d889289	0.06668574
90	0x3e3529af	0.17691682
91	0xba9d6552	-0.0012008345
92	0x3d13d170	0.036088407
93	0x3d3fd7e2	0.04683674
94	0x3cbd02b8	0.023072585
95	0x3e39fcf4	0.181629
96	0xbceb3cf8	-0.028715596
97	0xbd6b8889	-0.057503257
98	0x3d8b7486	0.068093345
99	0x3da413cc	0.080115885
100	0xbc9728c4	-0.018452056
101	0x3befc8a6	0.0073176203
102	0xbd3b5567	-0.045735743
103	0x3c8abf63	0.016936963
104	0x3d1512a7	0.03639474
105	0xbd66e4c2	-0.056370504
106	0x3e59bb36	0.21262822
107	0x3d929fc8	0.07159382
108	0x3c26f8c4	0.010191146
109	0xbd29092b	-0.04126851
110	0xbd438164	-0.04773082
111	0xbc9dc468	-0.019258693
112	0x3d07163c	0.03298019
113	0xbd753984	-0.059869304
114	0xbd15374b	-0.036429685
115	0xbd7394b7	-0.059467997
116	0xbba029a1	-0.004887775
117	0x3d95cd90	0.073145986
118	0xbd385506	-0.04500296
119	0xbd3acf04	-0.04560758
120	0x3c0e3633	0.008679914
121	0x3ddcb439	0.10776562
122	0xbd4b632a	-0.049655117
123	0x3cf208f2	0.029545281
124	0x3cd9e9ff	0.026600836
125	0x3e01f899	0.12692489
126	0x3d161ad5	0.036646683
127	0x3e4795f7	0.19490801
128	0xbd622bb8	-0.055217475
129	0xbab5be00	-0.0013865829
130	0x3c7ff479	0.015622252
131	0x3d7d1901	0.061791424
132	0x3d8729ab	0.065997444
133	0x3d349bf6	0.04409405
134	0xbdd0cd93	-0.1019546
135	0x3d84021f	0.06445717
136	0x3cc6b948	0.02425827
137	0xbbdedf4c	-0.0068015214
138	0x3c599647	0.013280458
139	0xbdcc0684	-0.0996218
140	0xbd997f99	-0.074950404
141	0xbd198aa3	-0.03748573
142	0xba98135f	-0.0011602453
143	0x3d4cc433	0.049991798
144	0x3cb8d08e	0.022560384
145	0x3d642c81	0.055706505
146	0xbd6365cf	-0.055517014
147	0xbc7bf2c1	-0.015377701
148	0x3d457253	0.04820473
149	0xbd2b6f35	-0.041854102
150	0xbaa298da	-0.0012405172
151	0x3b8749b0	0.0041286573
152	0xbd921951	-0.07133735
153	0xbd160c1e	-0.03663265
154	0xbd67de20	-0.05660832
155	0xbcacdfa2	-0.02110273
156	0x3cb030ec	0.021507703
157	0xbc473aa1	-0.012159974
158	0x3d85f466	0.06540756
159	0x3db8ef6a	0.090300396
160	0xbbce0ba9	-0.006288011
161	0x3d902a4e	0.07039319
162	0xbd147e4f	-0.03625327
163	0xbd91b5f0	-0.0711478
164	0x3d8b002c	0.06787142
165	0xbd176e96	-0.036970697
166	0xbd4ba79d	-0.049720395
167	0xbd75ab99	-0.0599781
168	0xbd17e846	-0.037086748
169	0x3d7c7de5	0.0616435
170	0xbd99186a	-0.0747536
171	0x3b687a7c	0.0035473397
172	0xbda56639	-0.08076138
173	0x3d0363b0	0.03207749
174	0xbd3f3999	-0.04668579
175	0xbdb94e24	-0.09048107
176	0x3d038b39	0.032115195
177	0xbda8bfcd	-0.08239708
178	0x3ca0eb91	0.019643577
179	0xbd8c9aa1	-0.068654306
180	0x3db6f864	0.089340955
181	0xbd758d01	-0.059948925
182	0xbda46ee9	-0.08028967
183	0x3cfba0ac	0.030716263
184	0x3d5a1879	0.053245995
185	0x3d09becc	0.033629224
186	0x3c3dd210	0.011585727
187	0x3d9ebc4b	0.07750758
188	0xbd606964	-0.05478801
189	0xbd8ed1fe	-0.069736466
190	0x3d3029cc	0.04300861
191	0xbd762e68	-0.06010285
192	0xbdcdc09e	-0.100465044
193	0xbd275347	-0.040850904
194	0xbd4b2a8a	-0.049601115
195	0xbd6fed71	-0.05857605
196	0x3c8afb2a	0.016965467
197	0xbb4407c0	-0.0029911846
198	0x3c750516	0.014954826
199	0xbc9c4734	-0.019076921
200	0x3d7c0988	0.061532527
201	0xbd11ec9c	-0.03562604
202	0x3d436e54	0.04771264
203	0x3cdf3f7e	0.027251955
204	0xbc57e500	-0.013177156
205	0x3c7e4394	0.015519042
206	0x3c18a16e	0.009315832
207	0xbd6586b7	-0.056036677
208	0xbd0c3e1a	-0.034238912
209	0xbd049d34	-0.032376483
210	0x3d40058a	0.046880282
211	0x3cd0b737	0.025477989
212	0xba06d06c	-0.00051427516
213	0xb7d5c176	-2.5481666e-05
214	0xbd0a0725	-0.03369822
215	0xbca61562	-0.020273868
216	0xbd05be67	-0.032652285
217	0x3c6c51b4	0.014423776
218	0xbd6cdd7d	-0.057828415
219	0x3d8ae185	0.06781296
220	0xbcbdce22	-0.02316958
221	0x3c8e05ad	0.01733669
222	0xbd96c452	-0.07361664
223	0xbdc3880a	-0.09547432
224	0x3d8b0d9e	0.06789707
225	0xbdc29544	-0.095011264
226	0x3dbcf8be	0.09227131
227	0xbbc17349	-0.0059036356
228	0xbd234bee	-0.039867334
229	0xbd0c66d6	-0.03427776
230	0xbbb04fbd	-0.0053805993
231	0x3bd56e83	0.006513418
232	0x3d9b3357	0.07578152
233	0x3d49aa34	0.049234584
234	0xbddd09ee	-0.107929096
235	0xbbe1d23e	-0.006891518
236	0xbd5a51ec	-0.053300783
237	0x3a2d64e8	0.00066144625
238	0x3d08552e	0.03328436
239	0x3c2e2d59	0.010630929
240	0x3c87b4ec	0.016565762
241	0x3d94c796	0.072646305
242	0x3d5bb325	0.053637642
243	0x3ab60404	0.0013886695
244	0x3b64aa8d	0.0034891695
245	0x3cee9fcb	0.02912893
246	0xbd8f72c4	-0.07004312
247	0x3d152f76	0.036422215
248	0xbc4eff82	-0.01263416
249	0xbb619755	-0.0034422476
250	0xbc647bab	-0.0139455
251	0x3bea93a6	0.0071587143
252	0x3d2edb6f	0.042689737
253	0xbbecc801	-0.0072259908
254	0x3d97ea0e	0.07417689
255	0xbd63714d	-0.055527974
