saved_models/AMZN_model.pth (torch, 800866 bytes, 9 tensors)

lstm.weight_ih_l0 f4 [512, 1]
0.10403854 -0.03659304 0.030853925 0.06650715 0.07308897 0.07993766 -0.1216906 0.0014215279
-0.008259656 -0.011320342 -0.10014403 -0.015204409 0.11784116 -0.017158499 0.110777296 -0.06289154
0.08637226 0.07710403 -0.0014628429 0.07195479 0.038257517 -0.042039495 0.08592456 0.10888564
0.045586675 0.025808873 -0.008428002 -0.022938306 0.09383081 0.07082788 0.03950518 -0.032312445
0.031288266 -0.06157356 -0.027732804 0.10287959 0.009191763 -0.06528518 -0.03330837 0.1310085
-0.045872584 0.024203954 0.013594786 0.063110955 0.07176131 0.08199896 -0.0096928 0.04869848
0.09065921 0.011072302 0.0029284249 -0.06633929 0.0020541912 0.09265771 0.06616464 0.110778116
0.0981312 -0.0056699007 -0.020599382 0.10390725 0.006290411 -0.055316728 -0.053755324 0.09775987
-0.0522402 0.050283603 0.12230364 0.086548425 0.08659472 0.0556607 -0.0026216465 -0.07416643
0.091445036 0.040784597 -0.031182986 0.075555004 0.0039281263 0.08470235 0.13954584 -0.002461482
-0.07033453 0.10412771 0.03587595 -0.08983902 0.1140851 0.02657147 -0.018642092 0.101342194
0.08230803 0.14637971 0.12788868 -0.08207578 0.007533501 0.01160253 0.04975097 0.089333035
-0.036162388 0.09283503 0.078763396 -0.02944519 -0.009050214 0.053910244 0.0036783933 0.15184498
0.0386485 0.07363579 -0.044717595 0.05364465 0.00077849557 -0.08323913 0.055886082 -0.0095955655
-0.05919555 0.035903722 -0.1118236 -0.08603699 -0.013060702 -0.055589084 -0.0737915 0.11047595
0.033682123 0.0140432995 -0.025236798 -0.11767361 -0.033462785 -0.09882762 -0.028327923 0.024603296
0.054836486 -0.11515406 0.07750235 0.00085533864 -0.0145829115 -0.010673537 -0.08308963 -0.032746553
-0.060320135 -0.013563393 -0.055359077 -0.03432884 0.053980663 0.09454919 0.05081816 -0.10626993
0.07416412 -0.0352422 -0.012418431 0.0071587297 -0.09626915 -0.03943469 -0.021912402 0.06424874
-0.0695732 0.058886666 0.05703408 0.043626547 0.029205836 -0.17571081 0.06939119 -0.067483045
-0.16115789 -0.10638455 -0.059728824 0.083721034 -0.15006767 -0.08527421 0.01897533 0.07419727
0.08439133 0.015756782 0.03122725 -0.038358353 0.058369413 -0.010035315 -0.017084774 -0.099138744
-0.008771565 0.06683059 0.12652059 -0.040514756 -0.1793026 0.010658392 -0.05684086 0.09436759
0.016908856 -0.04342046 0.02904711 -0.01654106 0.090806976 0.038701247 -0.11385574 0.093106456
-0.056366406 -0.035476565 0.01715678 0.004781792 0.00455384 -0.010138398 0.0025744892 -4.2025393e-05
-0.083924994 -0.07798421 0.02696723 0.034764856 -0.0892475 0.07015269 -0.2855342 -0.16221936
-0.08167734 0.082677275 0.06836552 0.04208854 0.074416146 0.0009294869 0.04556618 0.11130105
-0.01273045 0.13774903 -0.035633687 -0.071691565 -0.06470048 -0.026198879 -0.021054009 -0.00047194882
0.053748235 0.061410446 0.009686859 -0.09175664 -0.017665947 -0.012791285 0.021708863 0.12937887
0.1319143 -0.03689049 -0.08760611 0.026503416 0.04634475 -0.030654492 0.0421276 -0.054993827
0.030013185 -0.028732315 -0.03479164 -0.08266759 -0.051653456 -0.03238146 -0.086656086 0.050319664
0.107163765 -0.12886077 -0.09568301 -0.09120554 -0.14693888 0.039329 -0.04107301 -0.053923555
00000000: 2812 d53d 95e2 15bd 5fc1 fc3c e734 883d
00000010: abaf 953d 5bb6 a33d ec38 f9bd 9052 ba3a
00000020: 8253 07bc f578 39bc 5018 cdbd ea1b 79bc
00000030: b556 f13d fb8f 8cbc 35df e23d 48cd 80bd
00000040: f0e3 b03d b8e8 9d3d ddbc bfba 085d 933d
00000050: eab3 1c3d 9b31 2cbd 37f9 af3d 6fff de3d
00000060: 18b9 3a3d 216d d33c 9a15 0abc 1de9 bbbc
00000070: 5e2a c03d 350e 913d 2fd0 213d 0e5a 04bd
00000080: 2028 003d 8f34 7cbd e82f e3bc 89b2 d23d
00000090: 0c99 163c 3db4 85bd 5b6e 08bd 1827 063e
000000a0: e4e4 3bbd 5f47 c63c aabc 5e3c 5140 813d
000000b0: 98f7 923d 12ef a73d 8dce 1ebc 0f78 473d
000000c0: 89ab b93d 9a68 353c d1ea 3f3b e5dc 87bd
000000d0: 9c9f 063b 53c3 bd3d 5481 873d a3df e23d
000000e0: 03f9 c83d 93ca b9bb 09c0 a8bc 53cd d43d
000000f0: cb1f ce3b cb93 62bd 8b2e 5cbd 5436 c83d
00000100: d2f9 55bd 2ef6 4d3d 557a fa3d 4d40 b13d
00000110: 9358 b13d 79fc 633d eecf 2bbb 92e4 97bd
00000120: 8947 bb3d c00d 273d 7673 ffbc 95bc 9a3d
00000130: 83b7 803b 6d78 ad3d 1be5 0e3e d150 21bb
00000140: 8d0b 90bd e940 d53d a9f2 123d 85fd b7bd
00000150: 73a5 e93d 69ac d93c 4db7 98bc 7f8c cf3d
00000160: 1d91 a83d 90e4 153e 40f5 023e 5917 a8bd
00000170: 96db f63b 8a18 3e3c acc7 4b3d 3df4 b63d
00000180: 031f 14bd 4b20 be3d b44e a13d 0a37 f1bc
00000190: 5947 14bc fdd0 5c3d 3311 713b 407d 1b3e
000001a0: e44d 1e3d 5cce 963d cc29 37bd 7eba 5b3d
000001b0: f413 4c3a 4779 aabd cee8 643d b836 1dbc
000001c0: 0877 72bd c80f 133d c603 e5bd 2934 b0bd
000001d0: 8efc 55bc 61b1 63bd ff1f 97bd 3741 e23d
000001e0: 44f6 093d de15 663c 67bd cebc ddfe f0bd
000001f0: 4610 09bd 2366 cabd f60f e8bc da8c c93c
00000200: 399c 603d e4d5 ebbd 8db9 9e3d ce38 603a
00000210: 2aed 6ebc 0fe0 2ebc e52a aabd 4021 06bd
00000220: 3f12 77bd fe38 5ebc 33c0 62bd 669c 0cbd
00000230: d41a 5d3d 01a3 c13d b426 503d 0da4 d9bd
00000240: 5ce3 973d 205a 10bd ad76 4bbc c793 ea3b
00000250: c328 c5bd 4586 21bd a381 b3bc d894 833d
00000260: 657c 8ebd 2533 713d 919c 693d c0b1 323d
00000270: 1441 ef3c 89ed 33be f81c 8e3d 8d34 8abd
00000280: 9306 25be 25e0 d9bd 36a6 74bd ef75 ab3d
00000290: 57ab 19be 3fa4 aebd 2772 9b3c bdf4 973d
000002a0: 5dd5 ac3d 5e14 813c 4ad0 ff3c a61d 1dbd
000002b0: c414 6f3d 296b 24bc 5ef5 8bbc 4109 cbbd
000002c0: 9cb6 0fbc 7ade 883d 9d8e 013e cdf2 25bd
000002d0: 1a9b 37be 89a0 2e3c f6d1 68bd cc43 c13d
000002e0: 7184 8a3c a7d9 31bd 34f4 ed3c 1e81 87bc
000002f0: 02f9 b93d 3385 1e3d 332d e9bd 99ae be3d
00000300: 76e0 66bd e04f 11bd 608c 8c3c 94b0 9c3b
00000310: 6138 953b 861b 26bc c3b8 283b 6c44 30b8
00000320: dee0 abbd 2fb6 9fbd 61ea dc3c 9865 0e3d
00000330: 65c7 b6bd 37ac 8f3d 8a31 92be d51c 26be
00000340: 7346 a7bd b452 a93d 3903 8c3d 0865 2c3d
00000350: 7e67 983d cfa8 733a 9aa3 3a3d cef1 e33d
00000360: 6193 50bc 150e 0d3e a1f4 11bd 07d3 92bd
00000370: af81 84bd 089f d6bc 7579 acbc e66f f7b9
00000380: 1c27 5c3d 8589 7b3d a2b5 1e3c e8ea bbbd
00000390: 2db8 90bc 8a92 51bc c9d6 b13c e57b 043e
000003a0: 8b14 073e 7c1a 17bd d56a b3bd b11d d93c
000003b0: fed3 3d3d 211f fbbc fe8d 2c3d 3541 61bd
000003c0: 36de f53c 0860 ebbc ae81 0ebd a04d a9bd
000003d0: 9392 53bd 6ca2 04bd bf78 b1bd fe1b 4e3d
000003e0: ad78 db3d 14f4 03be 74f5 c3bd f8c9 babd
000003f0: 2577 16be 7217 213d 2c3c 28bd f2de 5cbd

lstm.weight_hh_l0 f4 [512, 128]
0.0072302627 0.003603791 0.07134911 -0.03130859 -0.083857305 0.03417099 -0.08407416 -0.07910411
0.013921663 -0.009399656 -0.005115034 -0.0008747337 0.005840017 0.07878962 0.033822123 0.057695363
0.05622494 -0.052129447 0.057572994 -0.032118056 -0.065674745 0.022151416 -0.0152742565 0.061685544
-0.064480275 -0.02083123 0.049765155 0.09035152 0.046652008 0.08651577 0.053318128 0.044015825
0.052935764 0.06025093 -0.048162173 -0.047895104 0.063328855 0.062802844 0.020714063 -0.018992756
-0.011722884 -0.0033881972 -0.091515124 0.04443272 0.054342475 0.009921843 -0.07761776 -0.026871901
0.06843547 -0.03159086 -0.08072988 0.09891876 0.06717977 0.010335175 0.0070260833 0.031265922
-0.049211293 0.063327044 -0.043281887 0.09375274 0.073513836 -0.0085974205 -0.026348205 -0.018005261
0.021417394 -0.061809584 0.028722277 0.08499469 0.037396137 -0.058285918 0.04242964 -0.07583856
0.08107052 0.064501114 -0.021745536 0.05970787 -0.058489505 0.084079616 0.04062235 -0.007137801
0.014128307 0.0022971395 -0.088735834 -0.063193604 0.08411102 -0.0798345 0.04247562 -0.06783463
-0.02897313 -0.037937324 0.039625507 -0.086835444 0.0018297465 -0.011234928 0.03329004 -0.001645821
0.03826574 -0.039182097 -0.0005581155 0.00041397457 0.025477 0.028528769 0.022814857 0.08132595
-0.034843333 0.044480234 0.073700674 0.098402694 -0.038384046 -0.06920873 0.053668473 0.002287894
0.061871745 0.067189954 -0.05700227 0.048251726 0.003469155 -0.01090714 -0.07650846 -0.052576207
0.015933648 0.030228982 -0.03808558 0.008517833 -0.014087243 0.08424839 -0.020304859 -0.05122093
-0.043932896 0.041679233 -0.0369639 -0.051683534 -0.05880335 -0.041910756 -0.027118294 0.010610707
0.002887527 0.026382854 0.0668168 -0.060899157 -0.087001294 0.014616909 0.036862794 0.061919887
-0.045042887 0.11999465 0.029303595 0.042318016 0.09172251 -0.049388535 -0.10837175 -0.042379364
0.08249565 -0.07238007 0.0016420379 0.10137769 0.05621125 -0.06098205 0.071508065 -0.09866563
0.08415711 -0.050219323 -0.06794788 0.09798519 0.051776834 -0.00041124356 -0.011889496 -0.0333409
-0.03885919 -0.06672911 0.02513608 0.052716635 -0.03823019 0.022231905 0.0033267967 -0.024031134
-0.09490555 0.014484586 0.01598725 -0.05552643 0.01831643 0.04529422 -0.027412165 0.027685735
0.08875984 0.020476524 -0.0644959 -0.05739696 0.0164596 -0.02566238 0.04134283 0.04988591
-0.03072471 -0.06730154 -0.010546917 0.0496738 -0.04204811 0.03532553 -0.077738665 0.011137433
-0.07755162 -0.029996304 -0.030542469 -0.094726205 -0.039925136 0.0027017354 -0.053422835 0.06932256
0.035235785 -0.020018853 -0.027588077 0.010784101 0.04312417 -0.05367936 0.10033711 -0.07419609
-0.0040814653 -0.017650075 0.114644594 0.025451219 0.030665353 -0.05217702 -0.0032980114 0.030594103
0.06710099 -0.0926242 0.08580761 -0.05381643 -0.02351625 -0.056106452 0.0016302734 -0.0021453262
0.05338799 0.06967579 -0.072196074 -0.013770899 -0.048977833 -0.0053152377 0.057490803 0.05411038
0.03054795 0.016265508 0.03163497 0.042081572 0.048815656 -0.006916119 0.011471472 -0.08524087
0.020758055 -0.05380187 0.03751238 -0.03861773 -0.049537256 -0.02053889 0.07217436 -0.093928866
00000000: d7eb ec3b 942d 6c3b 7b1f 923d 703d 00bd
00000010: 61bd abbd e1f6 0b3d 132f acbd 5601 a2bd
00000020: b017 643c 0401 1abc 049c a7bb 634e 65ba
00000030: 9d5d bf3b 745c a13d 1189 0a3d f951 6c3d
00000040: 1f4c 663d b085 55bd a9d1 6b3d 398e 03bd
00000050: 7b80 86bd e376 b53c e040 7abc fba9 7c3d
00000060: 3c0e 84bd 41a6 aabc 8cd6 4b3d 380a b93d
00000070: 2d16 3f3d 2e2f b13d 1c64 5a3d f049 343d
00000080: 2cd3 583d aec9 763d b345 45bd a82d 44bd
00000090: 8fb2 813d c79e 803d 8ab0 a93c b296 9bbc
000000a0: 5711 40bc 840c 5ebb 486c bbbd 15ff 353d
000000b0: 3796 5e3d 3a8f 223c 0ff6 9ebd 7622 dcbc
000000c0: e527 8c3d 6b65 01bd b555 a5bd eb95 ca3d
000000d0: 8c95 893d de54 293c 0f3b e63b b210 003d
000000e0: c891 49bd 9cb1 813d 5948 31bd 7001 c03d
000000f0: 6c8e 963d 32dc 0cbc 31d8 d7bc c57f 93bc
00000100: 8873 af3c 0c2c 7dbd fb4a eb3c b211 ae3d
00000110: b12c 193d 37bd 6ebd b4ca 2d3d 3f51 9bbd
00000120: 4d08 a63d 2919 843d b223 b2bc 3d90 743d
00000130: b192 6fbd ef31 ac3d 9f63 263d 37e4 e9bb
00000140: 6a7a 673c 9b8b 163b 22bb b5bd a66b 81bd
00000150: 6642 ac3d 4580 a3bd eafa 2d3d e2ec 8abd
00000160: 0f59 edbc 2b64 1bbd 5b4e 223d c8d6 b1bd
00000170: 1bd4 ef3a b412 38bc 235b 083d 97b8 d7ba
00000180: 89bc 1c3d 687d 20bd 7f4e 12ba ba0a d939
00000190: 24b5 d03c 2ab5 e93c 39e6 ba3c 388e a63d
000001a0: e2b7 0ebd e830 363d 61f0 963d 5a87 c93d
000001b0: 9738 1dbd 4ebd 8dbd 79d3 5b3d 7ef0 153b
000001c0: 3a6d 7d3d e39a 893d 367b 69bd 9aa3 453d
000001d0: c35a 633b dcb3 32bc 78b0 9cbd 265a 57bd
000001e0: 4887 823c c5a2 f73c a0ff 1bbd 628e 0b3c
000001f0: 2ece 66bc 6b8a ac3d 6056 a6bc 0acd 51bd
00000200: fbf2 33bd d8b7 2a3d 7567 17bd 1db2 53bd
00000210: c8db 70bd 9daa 2bbd 2f27 debc 88d8 2d3c
00000220: aa3c 3d3b db20 d83c 3fd7 883d 6571 79bd
00000230: bc2d b2bd c37b 6f3c 71fd 163d b59f 7d3d
00000240: e47e 38bd c1bf f53d 180e f03c a855 2d3d
00000250: 03d9 bb3d a24b 4abd 02f2 ddbd fc95 2dbd
00000260: 7bf3 a83d 013c 94bd a639 d73a 1b9f cf3d
00000270: c53d 663d 50c8 79bd d272 923d 3511 cabd
00000280: 905a ac3d c7b2 4dbd 4228 8bbd 76ac c83d
00000290: f213 543d 2d9c d7b9 29cc 42bc 7890 08bd
000002a0: d02a 1fbd 46a9 88bd 2eea cd3c 66ed 573d
000002b0: 4297 1cbd af1f b63c 6306 5a3b f1dc c4bc
000002c0: d75d c2bd c250 6d3c b1f7 823c af6f 63bd
000002d0: 560c 963c 6f86 393d 7a8f e0bc 32cd e23c
000002e0: b8c7 b53d 62be a73c 6d16 84bd 1319 6bbd
000002f0: 48d6 863c e939 d2bc 1957 293d 2b55 4c3d
00000300: 63b2 fbbc 64d5 89bd facc 2cbc c176 4b3d
00000310: a43a 2cbd 81b1 103d 7335 9fbd c879 363c
00000320: 62d3 9ebd cfba f5bc 3334 fabc d0ff c1bd
00000330: 8a88 23bd 990f 313b e7d1 5abd fdf8 8d3d
00000340: 6653 103d 94fe a3bc 6400 e2bc ccaf 303c
00000350: f8a2 303d e3de 5bbd 8b7d cd3d 1ff4 97bd
00000360: d0bd 85bb e496 90bc c9ca ea3d 137f d03c
00000370: e835 fb3c 92b7 55bd 7323 58bb 7ca0 fa3c
00000380: 3e6c 893d c2b1 bdbd e6bb af3d 9e6e 5cbd
00000390: 27a5 c0bc e1cf 65bd e6ae d53a 9a98 0cbb
000003a0: 5dad 5a3d 2eb2 8e3d 89db 93bd 569f 61bc
000003b0: fb9c 48bd 722b aebb 7a7b 6b3d d9a2 5d3d
000003c0: b23f fa3c 3e3f 853c ac93 013d ba5d 2c3d
000003d0: edf2 473d 9ca0 e2bb d7f2 3b3c c492 aebd
000003e0: cc0c aa3c 5a5f 5cbd 95a6 193d a02d 1ebd
000003f0: 94e7 4abd 2d41 a8bc 27d0 933d c75d c0bd

lstm.bias_ih_l0 f4 [512]
-0.035404466 -0.04736936 0.0031272974 0.047983807 0.28787744 0.062401902 -0.020809306 -0.012862881
0.116828874 0.04107053 -0.03791209 -0.0640775 -0.07966139 0.030303923 0.09672651 0.003556514
0.039078414 0.04647852 -0.05229917 -0.04921409 0.026659023 -0.06265685 0.07242777 0.062756285
-0.020034093 0.053958084 -0.012923661 -0.026037993 0.09661163 0.17993627 -0.0019066976 -0.03539304
0.09054982 -0.023698092 0.06456495 -0.04070543 0.089917056 0.09814815 0.055814758 0.15917039
-0.0066563766 0.035315655 0.024481434 0.12040518 0.021655079 -0.035710424 -0.029612169 -0.04340447
0.045254357 0.03655509 -0.012837434 0.013214795 0.25661525 0.007858701 0.12811424 -0.024585543
-0.06875805 0.062490564 -0.050845407 -0.038403366 -0.08726077 -0.0212216 0.031796657 -0.05108804
0.08598655 -0.024373466 -0.0105841495 0.054201115 0.007451566 0.13288867 0.02684962 0.033360545
0.1366487 0.054128326 -0.0026705961 -0.06820763 -0.001976102 0.016506953 0.50371027 0.010293607
-0.07989846 -0.047769766 0.017850647 -0.08902833 0.013896934 0.039132603 0.018942453 0.103270404
0.033422142 -0.031039976 -0.011602959 0.02382081 0.016557826 0.062350262 0.077885196 0.032633707
-0.08221811 -0.058726255 0.081769384 0.13585497 0.021084903 0.038660675 0.070231155 0.079023235
0.0017435115 0.019475345 0.0795232 0.083814405 -0.075936355 0.0046129036 -0.08355588 0.0233209
0.05965845 0.03249905 0.024163578 -0.002893922 -0.024507357 0.013798608 0.043831598 0.032754544
-0.03647443 -0.062008683 -0.07947987 -0.06402122 0.06702086 -0.0010286603 0.09300054 0.112534605
-0.005912331 -0.09006379 -0.003142418 0.049857203 0.016682666 -0.086371 -0.015790712 -0.0456365
-0.07045538 -0.08642741 0.029613473 -0.08797317 -0.025227275 -0.0555921 -0.060444865 -0.0076138224
-0.075308725 -0.05567793 -0.012363763 0.002792643 -0.031940147 -0.078229964 -0.05612991 -0.071168184
-0.0010343912 0.014283392 -0.07042424 0.057526335 -0.051564343 -0.15241916 0.043062165 -0.008499523
0.028556116 0.00055682095 0.021099068 -0.017095162 -0.023426237 -0.03980387 -0.09026746 -0.08389612
0.05169048 -0.08899927 0.0022016019 0.08524077 -0.03580239 -0.036150977 0.0449326 -0.0039689234
-0.08180742 -0.0108439205 0.058252066 -0.007659013 -0.095277786 -0.046049338 -0.0670752 -0.06516839
-0.032811202 0.037356596 -0.04540886 0.06888972 0.043739382 0.0016640872 -0.06453849 0.016885532
-0.054224808 0.07387392 0.027148448 -0.04535414 0.04460461 -0.09264511 -0.09646637 -0.079303406
-0.06451758 -0.04917953 -0.06325091 -0.044749532 0.0031038898 -0.036534566 -0.041039698 -0.091291465
0.023237359 -0.08571907 0.055761665 -0.06253174 0.0090807155 -0.05355109 0.047468413 -0.01044901
-0.050207485 -0.044302404 -0.012670928 0.06652408 -0.09716903 0.010473996 0.009248213 0.08096558
0.008536598 0.024801647 -0.021463534 -0.00822084 -0.07139075 -0.024367498 -0.0106105665 0.07837237
-0.036921952 0.048665356 -0.06763016 0.080268085 0.059226524 -0.09028216 0.011304792 -0.026903529
0.040321235 -0.022990877 -0.009007608 0.012356214 -0.07276896 -0.021701518 -0.04635023 -0.036514312
-0.08652014 -0.03593705 -0.019921122 -0.100297935 -0.06570862 -0.08968844 -0.0563411 0.067441955
00000000: 4604 11bd 6006 42bd 58f3 4c3b ab8a 443d
00000010: ac64 933e 2399 7f3d 4778 aabc d5be 52bc
00000020: fa43 ef3d 9239 283d b549 1bbd 103b 83bd
00000030: 8325 a3bd ef3f f83c 8c18 c63d 6714 693b
00000040: b010 203d 4360 3e3d a837 56bd b794 49bd
00000050: 0664 da3c 3c52 80bd 0355 943d 5e86 803d
00000060: 8a1e a4bc 2703 5d3d c3bd 53bc a14d d5bc
00000070: 51dc c53d 3741 383e 28ea f9ba 4bf8 10bd
00000080: 2f72 b93d 8022 c2bc a13a 843d bdba 26bd
00000090: 6f26 b83d e601 c93d 049e 643d 90fd 223e
000000a0: bc1d dabb 26a7 103d 4a8d c83c fe96 f63d
000000b0: fe65 b13c 1845 12bd 3895 f2bc e3c8 31bd
000000c0: a25c 393d caba 153d 1a54 52bc de82 583c
000000d0: 1363 833e c8c1 003c 6130 033e 9f67 c9bc
000000e0: 05d1 8cbd 1bf6 7f3d 4643 50bd d94c 1dbd
000000f0: c6b5 b2bd ecd8 adbc 363d 023d b141 51bd
00000100: b719 b03d ddaa c7bc 2469 2dbc fd01 5e3d
00000110: 442c f43b f813 083e bcf3 db3c 11a5 083d
00000120: a3ed 0b3e aab5 5d3d 2b05 2fbb 71b0 8bbd
00000130: 7d81 01bb 9739 873c 28f3 003f 84a6 283c
00000140: cea1 a3bd 3baa 43bd 853b 923c 7c54 b6bd
00000150: f7af 633c 8249 203d 342d 9b3c 6f7f d33d
00000160: a8e5 083d 8c47 febc 561a 3ebc dc23 c33c
00000170: 47a4 873c fd62 7f3d 4682 9f3d ecaa 053d
00000180: f861 a8bd f18a 70bd b576 a73d 911d 0b3e
00000190: 3fba ac3c a85a 1e3d 5ad5 8f3d efd6 a13d
000001a0: 8a86 e43a c28a 9f3c 0fdd a23d e3a6 ab3d
000001b0: 8584 9bbd d727 973b 581f abbd 790b bf3c
000001c0: 6b5c 743d b91d 053d b2f2 c53c f4a7 3dbb
000001d0: a7c3 c8bc 8f13 623c c388 333d a129 063d
000001e0: 3666 15bd d1fc 7dbd 58c6 a2bd 8f1d 83bd
000001f0: 3c42 893d 1dd4 86ba 1177 be3d 8b78 e63d
00000200: 3abc c1bb 5d73 b8bd 07f1 4dbb 1137 4c3d
00000210: 16aa 883c 47e3 b0bd 865b 81bc 57ed 3abd
00000220: e94a 90bd db00 b1bd f497 f23c 472b b4bd
00000230: 6ea9 cebc 8bb4 63bd 0995 77bd 5f7d f9bb
00000240: 763b 9abd 8b0e 64bd 6191 4abc c604 373b
00000250: acd3 02bd 0837 a0bd 7ae8 65bd a0c0 91bd
00000260: 6994 87ba e304 6a3c 953a 90bd bca0 6b3d
00000270: 2235 53bd c513 1cbe f461 303d 9541 0bbc
00000280: 84ee e93c 9ff7 113a f4d7 ac3c 270b 8cbc
00000290: 61e8 bfbc 6209 23bd 25de b8bd bbd1 abbd
000002a0: 66b9 533d 4045 b6bd c048 103b b692 ae3d
000002b0: 87a5 12bd 0c13 14bd 3f0b 383d be0d 82bb
000002c0: a68a a7bd b3aa 31bc b899 6e3d 75f8 fabb
000002d0: 0021 c3bd 3b9e 3cbd b95e 89bd 0177 85bd
000002e0: 0a65 06bd 3b03 193d a4fe 39bd 0e16 8d3d
000002f0: 1128 333d 801d da3a c12c 84bd 8753 8a3c
00000300: d51a 5ebd 364b 973d 6c66 de3c 43c5 39bd
00000310: 53b3 363d b8bc bdbd 2990 c5bd d369 a2bd
00000320: cb21 84bd 7a70 49bd b189 81bd 494b 37bd
00000330: a16a 4b3b 45a5 15bd 3e19 28bd 05f7 babd
00000340: 465c be3c 7b8d afbd 5866 643d a410 80bd
00000350: 48c7 143c 6358 5bbd 3d6e 423d 5332 2bbc
00000360: 5da6 4dbd 7076 35bd b999 4fbc c73d 883d
00000370: 8e00 c7bd 209b 2b3c d185 173c 48d1 a53d
00000380: 16dd 0b3c d32c cb3c 4bd4 afbc b4b0 06bc
00000390: 5035 92bd 599e c7bc f1d7 2dbc b181 a03d
000003a0: 793b 17bd 5355 473d ae81 8abd 9863 a43d
000003b0: 8397 723d dae5 b8bd bc37 393c ca64 dcbc
000003c0: e127 253d 5d57 bcbc a594 13bc b871 4a3c
000003d0: e407 95bd 62c7 b1bc bdd9 3dbd 0890 15bd
000003e0: 7931 b1bd ba32 13bd 9f31 a3bc 0169 cdbd
000003f0: 3e92 86bd 93ae b7bd edc5 66bd 021f 8a3d

lstm.bias_hh_l0 f4 [512]
-0.043126315 -0.07863595 -0.03383419 0.018902104 0.19284715 -0.05076393 0.023136614 -0.049549174
0.077715084 0.043600284 0.04896544 0.043065455 -0.07046093 -0.06477744 -0.064014316 0.044502396
0.07593103 0.010405239 0.038986802 0.06369377 0.12810145 0.038417317 -0.01076466 0.05571383
0.104054384 0.0449411 -0.077930935 -0.0733081 0.059747353 0.09325137 -0.021728884 -0.060348365
0.039712094 0.051394675 0.03564842 0.059965122 0.05779824 0.05226072 -0.04593029 0.045343954
-0.062871754 -0.0860211 0.047704987 -0.024665577 0.04297496 -0.05606661 -0.024448171 0.0016697916
-0.050392397 -0.056355752 -0.008705769 0.021330498 0.33046314 0.086108126 0.020173734 -0.043079484
-0.08542262 -0.040221665 -0.021651248 0.007668462 -0.061912164 0.036030803 0.07713797 -0.033238444
-0.056508105 -0.047636595 -0.050740972 -0.010378869 -0.0010247567 0.10418574 -0.054079052 0.029576331
0.11588808 0.025621213 -0.076508366 0.026898758 -0.041032847 0.029583344 0.5480191 0.12468117
-0.02932668 -0.0137416385 -0.022976747 -0.037619486 0.026244087 -0.012775465 0.044625796 -0.029809318
-0.0608263 -0.051647853 0.112197876 -0.0006581072 -0.100675784 0.04867328 0.046024036 0.0039979904
-0.0893088 0.026564226 -0.051606677 -0.005274314 0.008353011 0.042752802 -0.045245353 0.0020045182
-0.04565667 0.0022126588 0.07284259 0.06747705 -0.018819273 0.044015206 -0.04352284 -0.055959467
0.06822105 0.005316712 0.07784288 -0.020988591 0.025261955 0.032410853 0.025787225 -0.0054049776
-0.008333871 -0.03226681 -0.00055699446 0.012307048 0.13916306 -0.09005429 0.025995938 -0.02651013
-0.015014955 -0.043080244 0.06649511 0.05001327 -0.09232202 -0.073708124 -0.041736916 -0.017389333
-0.01010165 -0.032700166 -0.070029 0.013588139 0.009701771 0.05943435 0.03670698 -0.054650567
-0.015921155 -0.07681722 0.011353816 0.06497461 0.043154743 0.067036785 -0.010366275 0.05144671
0.05950836 -0.10173615 0.034367148 -0.02767868 -0.027556082 -0.076286 0.076145686 0.01215632
-0.05183914 -0.08985774 0.04227781 -0.07685741 0.029203722 0.070106804 -0.015692884 -0.07699214
0.07081707 0.0104237655 0.011499595 -0.047584936 0.03908683 -0.09805753 -0.07008146 -0.0285934
-0.02045285 -0.065248266 -0.056597583 0.023253988 -0.009804112 -0.08509858 0.03999886 0.0878
0.047303304 0.06387757 -0.01632295 -0.09644566 0.06713479 0.044188768 -0.028173838 -8.516423e-05
0.0134408735 0.019216305 -0.009822544 0.06534517 0.055156704 -0.0777449 -0.040095717 -0.07930488
-0.0036563824 0.025153741 -0.04907034 0.06517523 -0.021422237 -0.054172266 0.022104576 0.030414172
-0.008795356 -0.03751528 0.083818644 -0.06648801 0.061137192 -0.0037665134 0.009657527 -0.012802863
0.0018308045 0.06586962 -0.014814771 -0.029183447 0.05320254 -0.10583681 0.059363298 -0.061897676
0.010410951 -0.004541247 -0.085668005 -0.07004968 0.061418258 0.05869099 -0.03665925 0.047807544
-0.047801305 -0.021815911 -0.068808585 -0.018462399 0.014767001 0.011880545 0.052146953 -0.037031986
0.025730694 0.067546085 0.027244953 -0.089127555 -0.0632415 -0.0054766806 0.055997457 -0.08239344
0.075060375 -0.00042715223 0.0477691 0.061688077 -0.093945 -0.02356279 -0.06789065 -0.073748365
00000000: 38a5 30bd e30b a1bd b895 0abd 96d8 9a3c
00000010: b979 453e d7ed 4fbd ff88 bd3c 13f4 4abd
00000020: 1629 9f3d 3696 323d fc8f 483d 6765 303d
00000030: d24d 90bd 09aa 84bd f019 83bd 2548 363d
00000040: ba81 9b3d bc7a 2a3c a0b0 1f3d e171 823d
00000050: 072d 033e 7a5b 1d3d 425e 30bc 2f34 643d
00000060: 771a d53d 2914 383d 419a 9fbd 8f22 96bd
00000070: a4b9 743d 93fa be3d c600 b2bc d92f 77bd
00000080: 26a9 223d 3983 523d 1404 123d fd9d 753d
00000090: d9bd 6c3d 560f 563d 6621 3cbd 95ba 393d
000000a0: e8c2 80bd d52b b0bd 4e66 433d 770f cabc
000000b0: 8306 303d 1aa6 65bd 8847 c8bc e9dc da3a
000000c0: 4268 4ebd 4ad5 66bd a4a2 0ebc 4cbd ae3c
000000d0: 7732 a93e 7559 b03d 6343 a53c 1d74 30bd
000000e0: 0ef2 aebd 79bf 24bd f55d b1bc b947 fb3b
000000f0: 9c97 7dbd 0995 133d 83fa 9d3d 0925 08bd
00000100: 0b75 67bd 971e 43bd c4d5 4fbd 220c 2abc
00000110: 2151 86ba 555f d53d ff81 5dbd 104a f23c
00000120: bb56 ed3d 94e3 d13c 6bb0 9cbd c95a dc3c
00000130: 0f12 28bd c558 f23c fb4a 0c3f d758 ff3d
00000140: 813e f0bc 9c24 61bc bb39 bcbc e416 1abd
00000150: d7fd d63c 2f50 51bc 8ac9 363d ac32 f4bc
00000160: 0025 79bd b38c 53bd 00c8 e53d d484 2cba
00000170: 1b2f cebd a25d 473d b383 3c3d 9301 833b
00000180: 88e7 b6bd 389d d93c 8661 53bd 27d4 acbb
00000190: 11db 083c 901d 2f3d 3153 39bd 3c5e 033b
000001a0: 7d02 3bbd 4102 113b 7f2e 953d 6831 8a3d
000001b0: e02a 9abc 4a49 343d 0145 32bd c135 65bd
000001c0: 7ab7 8b3d d037 ae3b 166c 9f3d 44f0 abbc
000001d0: 29f2 ce3c 3ec1 043d bb3f d33c 3d1c b1bb
000001e0: ca8a 08bc 342a 04bd 4403 12ba 80a3 493c
000001f0: c380 0e3e 626e b8bd 6ff5 d43c c62b d9bc
00000200: 4901 76bc e974 30bd 972e 883d b7da 4c3d
00000210: 5413 bdbd 49f4 96bd 54f4 2abd 1374 8ebc
00000220: 6481 25bc 9cf0 05bd 5d6b 8fbd c9a0 5e3c
00000230: 2df4 1e3c 6f71 733d 0f5a 163d 46d9 5fbd
00000240: 156d 82bc 5952 9dbd 5b05 3a3c 6911 853d
00000250: 07c3 303d 954a 893d 4fd7 29bc c9b9 523d
00000260: 0abf 733d 0b5b d0bd 91c4 0c3d 66be e2bc
00000270: 4bbd e1bc d63b 9cbd 45f2 9b3d 4d2b 473c
00000280: 4755 54bd 5607 b8bd 7f2b 2d3d 6b67 9dbd
00000290: a53c ef3c 2894 8f3d 5d8e 80bc 0eae 9dbd
000002a0: 8a08 913d 71c8 2a3c cc68 3c3c 6ce8 42bd
000002b0: 8319 203d 63d2 c8bd de86 8fbd b53c eabc
000002c0: bc8c a7bc e2a0 85bd ded2 67bd 267f be3c
000002d0: 6da1 20bc 2a48 aebd d8d5 233d 7dd0 b33d
000002e0: 1cc1 413d 3ed2 823d b5b7 85bc 4d85 c5bd
000002f0: f77d 893d 48ff 343d d2cc e6bc 339a b2b8
00000300: 1c37 5c3c 836b 9d3c bcee 20bc b0d3 853d
00000310: ffeb 613d b838 9fbd 683b 24bd 996a a2bd
00000320: eb9f 6fbb 380f ce3c fbfd 48bd 977a 853d
00000330: b07d afbc bde3 5dbd a814 b53c 2427 f93c
00000340: 661a 10bc 9fa9 19bd 1ca9 ab3d de2a 88bd
00000350: fe6a 7a3d 9cd7 76bb 9b3a 1e3c 19c3 51bc
00000360: 9bf7 ef3a a7e6 863d a7b9 72bc 2012 efbc
00000370: e8ea 593d f8c0 d8bd ee26 733d 6b88 7dbd
00000380: b292 2a3c bece 94bb b572 afbd 3576 8fbd
00000390: b691 7b3d f765 703d 0228 16bd d8d1 433d
000003a0: 4dcb 43bd 48b7 b2bc 84eb 8cbd 753e 97bc
000003b0: 4bf1 713c 9ea6 423c 0b98 553d daae 17bd
000003c0: 2dc9 d23c 9a55 8a3d cf30 df3c 8288 b6bd
000003d0: c284 81bd ba75 b3bb 975d 653d e4bd a8bd
000003e0: 41b9 993d 67f3 dfb9 88a9 433d a3ac 7c3d
000003f0: 3c66 c0bd c106 c1bc 410a 8bbd 6209 97bd

lstm.weight_ih_l1 f4 [512, 128]
0.04703542 0.06686072 0.02544945 0.01954261 0.03510086 0.046379663 0.0619149 0.056450002
0.09240911 0.027383458 0.03539274 -0.04355552 -0.040165525 0.027870378 0.030892741 0.05559401
0.0039967615 -0.0111854 -0.018521111 0.0061298083 -0.017793292 -0.004262404 -0.036309756 -0.055571012
0.075261556 0.0824077 0.028632516 0.032396656 0.01362163 0.033125285 0.047527727 -0.06548791
0.02338114 0.026291447 0.03441416 0.08214467 0.066645116 0.095284455 -0.040153127 0.01280852
-0.050155483 0.033023432 -0.02886356 -0.06833377 0.002809117 -0.035488926 -0.053299677 -0.088608004
-0.016684543 -0.08843215 -0.075188644 -0.040426794 0.03836191 0.047211125 -0.04321572 -0.048160013
-0.07254065 -0.089657165 0.043850426 0.015902001 0.023634123 -0.02699622 -0.09224006 0.055955958
-0.014836914 0.04225444 -0.029961182 -0.040239003 0.019837594 0.07927628 -0.0038985426 0.078956224
0.083902135 -0.08261454 -0.010976234 -0.033560663 0.061010454 0.080552004 -0.024101093 0.023100594
-0.012054492 -0.0850056 0.055853605 0.06759253 -0.048851814 -0.089670986 0.013116324 -0.015231683
-0.007966047 0.038909517 -0.007573693 -0.034189098 0.07916433 -0.06891624 -0.02470483 -0.080974035
-0.018183444 0.085382216 -0.028156143 -0.073259704 0.053154312 0.05452249 -0.066427335 0.04606829
0.025867635 -0.045412224 0.052857563 0.011900783 0.08000126 0.04623907 0.020905228 0.06706555
-0.0101253195 -0.046407018 -0.064152114 -0.037913203 -0.037341718 -0.040842447 -0.082345314 -6.816009e-05
-0.06593805 -0.043847352 -0.029921507 0.073303 0.08049855 -0.072526716 0.050339833 0.04451189
0.060565956 -0.016635396 0.009142553 -0.051836587 0.015974015 0.081994 0.015872076 0.07037786
-0.00594377 -0.09989523 -0.13355511 0.009564647 -0.03166928 -0.035169438 0.04079132 0.01985605
0.06261172 -0.10459405 -0.14367239 0.06919253 -0.11268373 -0.020070052 -0.0038335181 0.013315607
0.021855347 -0.07914199 0.025566105 0.06204566 -0.07753369 -0.045750976 -0.052141912 0.0660386
0.07698041 -0.014079014 -0.03479518 0.018587247 -0.013264696 0.0061369003 -0.04307592 0.15122193
-0.009914839 0.034133185 -0.026735442 -0.0027165813 -0.04394275 -0.10193215 0.10913134 0.077499986
-0.04142822 0.057764344 0.023536915 0.120298624 0.08966567 -0.016809756 0.010092454 -0.052337322
-0.004315106 0.09068429 -0.011696535 0.066949576 -0.08768779 -0.04226835 -0.062062297 0.07315244
0.061662015 -0.061364383 -0.04791948 -0.041936312 -0.014386594 -0.040669467 0.09703139 0.051352903
-0.0076502096 -0.04186825 -0.023886532 0.058034282 0.066201605 0.059289332 -0.07734602 -0.037283342
0.09864953 -0.015441304 0.08847225 -0.04157751 -0.03878328 0.095620595 0.04346259 -0.020067189
0.0059553785 0.09884932 0.041966904 -0.07034527 0.091009155 -0.041185062 0.10284881 -0.08848093
0.01265256 0.0100203585 0.05383347 -0.044356026 -0.0019711407 0.03769491 -0.0328916 0.07262117
-0.09173696 -0.0769913 -0.08398814 -0.0042330227 -0.048794977 -0.03477477 0.0007260013 0.015231477
-0.02693939 0.060537778 -0.09722825 -0.070893586 0.10567435 0.07012633 -0.04109915 -0.037641916
0.091238655 0.10132367 0.014096009 0.021896029 0.009127472 -0.019858956 -0.021494502 -0.019201862
00000000: 36a8 403d 46ee 883d 5d7b d03c d317 a03c
00000010: ebc5 0f3d 9af8 3d3d 7a9a 7d3d 1e38 673d
00000020: fd40 bd3d 4653 e03c faf7 103d 4667 32bd
00000030: 9b84 24bd 6b50 e43c c612 fd3c 8bb6 633d
00000040: 44f7 823b f842 37bc 96b9 97bc 8fdc c83b
00000050: 3dc3 91bc a3ab 8bbb 8ab9 14bd 6e9e 63bd
00000060: bb22 9a3d 5ec5 a83d bd8e ea3c 5bb2 043d
00000070: 422d 5f3c 61ae 073d 6fac 423d 861e 86bd
00000080: ce89 bf3c 2961 d73c ddf5 0c3d 773b a83d
00000090: 3c7d 883d 7f24 c33d 9b77 24bd d4da 513c
000000a0: d66f 4dbd 9443 073d 4673 ecbc 93f2 8bbd
000000b0: 2a19 383b d65c 11bd c350 5abd 1d78 b5bd
000000c0: 06ae 88bc ea1b b5bd 81fc 99bd 9196 25bd
000000d0: 6121 1d3d 7460 413d f802 31bd 6f43 45bd
000000e0: 3190 94bd 2d9e b7bd 819c 333d ea44 823c
000000f0: 599c c13c 2d27 ddbc 5be8 bcbd 1332 653d
00000100: 8716 73bc fe12 2d3d 2771 f5bc a7d1 24bd
00000110: 7382 a23c 9a5b a23d b17e 7fbb cdb3 a13d
00000120: e2d4 ab3d d031 a9bd aad5 33bc e876 09bd
00000130: 19e6 793d 73f8 a43d a86f c5bc 753d bd3c
00000140: 3480 45bc 6a17 aebd c0c6 643d f46d 8a3d
00000150: d718 48bd 6ca5 b7bd dae5 563c 4f8e 79bc
00000160: 0684 02bc 965f 1f3d be2c f8bb de09 0cbd
00000170: e920 a23d f523 8dbd c961 cabc b7d5 a5bd
00000180: 72f5 94bc dfdc ae3d b6a7 e6bc 2f09 96bd
00000190: 56b8 593d f952 5f3d 0e0b 88bd 1ab2 3c3d
000001a0: 5de8 d33c 2b02 3abd 2c81 583d 80fb 423c
000001b0: b3d7 a33d 2e65 3d3d 7141 ab3c aa59 893d
000001c0: abe4 25bc 4915 3ebd 2f62 83bd e04a 1bbd
000001d0: a1f3 18bd 694a 27bd a9a4 a8bd 2bf1 8eb8
000001e0: 870a 87bd 4899 33bd f31d f5bc e21f 963d
000001f0: 6cdc a43d e388 94bd 2431 4e3d 1952 363d
00000200: 0214 783d f446 88bc a6ca 153c 9a52 54bd
00000210: f0db 823c 78ec a73d 2806 823c 4422 903d
00000220: f5c3 c2bb df95 ccbd acc2 08be 0ab5 1c3c
00000230: a6b7 01bd d40d 10bd cd14 273d 28a9 a23c
00000240: 933a 803d 6835 d6bd db1e 13be d0b4 8d3d
00000250: bac6 e6bd f369 a4bc c33b 7bbb b429 5a3c
00000260: fc09 b33c 3215 a2bd 0270 d13c 9723 7e3d
00000270: fcc9 9ebd 6065 3bbd c292 55bd 3f3f 873d
00000280: e8a7 9d3d aaab 66bc 6485 0ebd 4844 983c
00000290: 2b54 59bc 0d18 c93b 6070 30bd ecd9 1a3e
000002a0: d971 22bc 3dcf 0b3d 4904 dbbc ac08 32bb
000002b0: 50fd 33bd cec1 d0bd 4180 df3d 50b8 9e3d
000002c0: a3b0 29bd 4e9a 6c3d 7dd0 c03c 205f f63d
000002d0: a3a2 b73d 9db4 89bc d25a 253c a95f 56bd
000002e0: bc65 8dbb afb8 b93d d3a2 3fbc dc1c 893d
000002f0: a895 b3bd 9421 2dbd 0935 7ebd f2d0 953d
00000300: 4f91 7c3d 3859 7bbd 3747 44bd 69c5 2bbd
00000310: c0b5 6bbc 0795 26bd 65b8 c63d 6c57 523d
00000320: 9cae fabb 0b7e 2bbd b0ad c3bc 5bb5 6d3d
00000330: b594 873d 5fd9 723d 9767 9ebd 6bb6 18bd
00000340: c408 ca3d 86fd 7cbc f030 b53d 2e4d 2abd
00000350: 37db 1ebd bbd4 c33d d405 323d f263 a4bc
00000360: 5625 c33b 8371 ca3d 7de5 2b3d 2e11 90bd
00000370: 0263 ba3d abb1 28bd 66a2 d23d 7d35 b5bd
00000380: af4c 4f3c 6e2c 243c 7c80 5c3d aaae 35bd
00000390: 412e 01bb fa65 1a3d 58b9 06bd 68ba 943d
000003a0: 96e0 bbbd 9dad 9dbd f901 acbd 2bb5 8abb
000003b0: 3edd 47bd fd6f 0ebd 1f51 3e3a 728d 793c
000003c0: ffaf dcbc 76f6 773d 9b1f c7bd a830 91bd
000003d0: cb6b d83d 659e 8f3d 9557 28bd 692e 1abd
000003e0: 55db ba3d c982 cf3d f2f2 663c 4d5f b33c
000003f0: 648b 153c 40af a2bc 3d15 b0bc 394d 9dbc

lstm.weight_hh_l1 f4 [512, 128]
-0.035288066 -0.049836773 0.049719322 -0.016528595 -0.053168863 0.026925305 0.070531145 0.056181915
-0.03594835 -0.077907115 -0.036271825 -0.04367382 -0.055465203 -0.03600735 -0.008023653 0.079804316
-0.03880381 0.075313136 -0.0859003 -0.030894578 0.008892959 -0.005051848 -0.053188648 -0.11165556
0.037973408 -0.018931072 0.035287783 -0.049304206 -0.051032007 -0.0803898 -0.07496051 -0.022188833
0.0040804776 -0.11601237 0.07440234 -0.045379836 -0.021902215 -0.0038164034 0.00722984 0.042496044
0.0511251 -0.06842876 0.013470267 -0.0013344527 0.025206301 -0.109925285 -0.027149234 -0.0045058266
-0.087618425 -0.040620275 -0.07746099 -0.07322257 0.048867337 -0.036675125 0.059724145 0.08553669
0.027612602 -0.031611748 -0.0545769 -0.068963796 0.06812187 0.018413048 -0.07204796 0.0018321121
0.09603686 0.0007927713 -0.052631017 -0.06687614 0.0015978965 -0.045167733 0.08178421 0.030037003
-0.01923177 0.07084855 -0.076910876 0.06793723 0.08811888 0.026888486 0.019106746 0.060248062
0.072459936 0.018430457 0.031980228 -0.105821796 -0.022600953 -0.00096433464 0.021296369 -0.041723844
-0.08881761 0.052681416 0.019132113 -0.05712265 0.06917502 -0.006754624 -0.07856458 -0.013952789
-0.0021790254 0.09636909 0.02388775 0.07905535 0.09759329 -0.0767368 -0.013588709 -0.04279673
0.042532165 0.07985945 0.012290329 -0.03592889 -0.02089906 -0.054808237 -0.04422353 0.0674662
-0.01982908 -0.09440445 -0.0237897 -0.019603362 0.060842063 -0.06380417 0.026190914 -0.045196675
-0.070081055 -0.082204215 0.06262467 -0.027714565 0.02364597 -0.05042229 -0.089201905 -0.020567028
-0.051291548 0.014773088 0.05119818 -0.022631943 -0.06660237 -0.07449409 -0.06939355 0.04919356
0.06806382 -0.05133942 0.111566745 0.069184 -0.063592866 0.07947702 0.025755549 0.084004596
-0.011983914 -0.022446986 -0.037506748 -0.016028251 -0.037941296 0.07594631 -0.052648272 0.012537779
0.05535088 0.009616448 0.011580427 -0.036779184 0.039594926 -0.025760043 0.005441376 -0.0869895
-0.059542578 0.0068249484 -0.013749511 0.017337317 0.032196738 -0.05599576 0.029266438 -0.056086432
0.005154769 0.06533619 -0.056334887 0.027938038 -0.055441767 0.025138935 -0.06414494 0.004394519
0.035376277 0.068342306 -0.08701527 0.03330469 0.022381341 0.056702133 -0.053036585 0.011041993
-0.07841343 -0.018300211 0.044505313 -0.038213544 0.01095732 -0.03145679 0.046905383 -0.059462834
0.048694573 -0.016939137 -0.015294646 -0.06591142 0.025803376 0.03899082 0.10385233 0.06944969
-0.013517209 -0.03815845 -0.018458392 -0.008986684 -0.018368792 -0.054354813 -0.08593441 0.004061854
-0.026705723 0.051789008 0.009156558 0.014875213 -0.042658184 -0.12617142 -0.028685397 -0.06982585
-0.102524035 0.026050463 -0.042061944 0.033865236 -0.046471998 -0.057532802 -0.058914762 -0.03664944
-0.027779432 -0.024452304 -0.039666925 -0.005963217 0.026312329 0.03526357 0.018771516 -0.020592935
0.053240906 0.07629727 0.037729464 -0.11467519 -0.047934372 0.032916937 0.08878715 -0.0025240714
0.00037397022 -0.11017678 -0.04978786 -0.043246154 0.056543827 -0.06866252 0.054455474 -0.07715624
0.025528954 0.0013274739 0.0730038 0.06159468 0.07810888 0.073049456 0.071393766 -0.03690802
00000000: 388a 10bd a521 4cbd 7da6 4b3d fa66 87bc
00000010: 98c7 59bd 7592 dc3c a272 903d 021f 663d
00000020: 943e 13bd c48d 9fbd c491 14bd 52e3 32bd
00000030: 7b2f 63bd 717c 13bd a475 03bc 7270 a33d
00000040: bef0 1ebd c63d 9a3d 7fec afbd a016 fdbc
00000050: c6b3 113c f989 a5bb 57dc 59bd acab e4bd
00000060: 018a 1b3d 5615 9bbc ec89 103d 35f3 49bd
00000070: f006 51bd 68a3 a4bd e584 99bd 5bc5 b5bc
00000080: 87b5 853b e597 edbd 4160 983d 35e0 39bd
00000090: 466c b3bc a01c 7abb 4be8 ec3b 5510 2e3d
000000a0: 8e68 513d 6124 8cbd 65b2 5c3c cde8 aeba
000000b0: 727d ce3c 8220 e1bd 1268 debc 9da5 93bb
000000c0: 4a71 b3bd 7261 26bd dea3 9ebd b7f5 95bd
000000d0: 1e29 483d a838 16bd 4ea1 743d dc2d af3d
000000e0: d333 e23c 527b 01bd 078c 5fbd e43c 8dbd
000000f0: 7b83 8b3d f6d6 963c e18d 93bd 7b23 f03a
00000100: f9ae c43d fbd1 4f3a 9f93 57bd 5cf6 88bd
00000110: 8270 d13a cd01 39bd 7b7e a73d 2910 f63c
00000120: f28b 9dbc 0b19 913d 7383 9dbd ad22 8b3d
00000130: ac77 b43d 3e45 dc3c c085 9c3c acc6 763d
00000140: e065 943d 78fb 963c b3fd 023d 19b9 d8bd
00000150: a225 b9bc 67cb 7cba b975 ae3c 9fe6 2abd
00000160: 02e6 b5bd 78c8 573d f3ba 9c3c 71f9 69bd
00000170: a2ab 8d3d e555 ddbb 77e6 a0bd 3d9a 64bc
00000180: fbcd 0ebb 285d c53d 3eb0 c33c c5e7 a13d
00000190: fede c73d 2f28 9dbd 2da3 5ebc a04b 2fbd
000001a0: 3536 2e3d 5a8d a33d 605d 493c 2c2a 13bd
000001b0: 8134 abbc 9a7e 60bd bb23 35bd b82b 8a3d
000001c0: 9870 a2bc 1f57 c1bd 9ee2 c2bc 3b97 a0bc
000001d0: 8735 793d c3ab 82bd 548e d63c 2620 39bd
000001e0: a886 8fbd af5a a8bd 5d41 803d a809 e3bc
000001f0: 31b5 c13c 9a87 4ebd 7daf b6bd 2f7c a8bc
00000200: 1617 52bd d20a 723c 2fb5 513d a066 b9bc
00000210: d366 88bd 5c90 98bd 351e 8ebd 307f 493d
00000220: 0b65 8b3d 4949 52bd 1b7d e43d 57b0 8d3d
00000230: fa3c 82bd d9c4 a23d 4dfd d23c 9a0a ac3d
00000240: 2e58 44bc bee2 b7bc ada0 19bd ae4d 83bc
00000250: 5568 1bbd bd89 9b3d b7a5 57bd 426b 4d3c
00000260: 9bb7 623d 4e8e 1d3c d5bb 3d3c c5a5 16bd
00000270: 4a2e 223d ba06 d3bc 924d b23b 8d27 b2bd
00000280: ebe2 73bd d1a3 df3b a145 61bc fd06 8e3c
00000290: bae0 033d cf5b 65bd 2bc0 ef3c e3ba 65bd
000002a0: 56e9 a83b fbce 853d 69bf 66bd 50de e43c
000002b0: e816 63bd 2bf0 cd3c 6c5e 83bd e6ff 8f3b
000002c0: b7e6 103d 0df7 8b3d 1035 b2bd 806a 083d
000002d0: 1359 b73c 7f40 683d e43c 59bd 7ae9 343c
000002e0: 3897 a0bd 53ea 95bc 344b 363d ce85 1cbd
000002f0: 5586 333c d6d8 00bd dc1f 403d 4d8f 73bd
00000300: f673 473d f2c3 8abc 6596 7abc 91fc 86bd
00000310: 9a61 d33c d7b4 1f3d 88b0 d43d a43b 8e3d
00000320: 4977 5dbc 094c 1cbd 0e36 97bc e23c 13bc
00000330: 267a 96bc 27a3 5ebd 61fe afbd 4d19 853b
00000340: f6c5 dabc b620 543d 6305 163c 2ab7 733c
00000350: 59ba 2ebd 1533 01be a3fd eabc db00 8fbd
00000360: 1ff8 d1bd c867 d53c 2549 2cbd 46b6 0a3d
00000370: 6c59 3ebd 84a7 6bbd 9b50 71bd b91d 16bd
00000380: b191 e3bc 3350 c8bc c979 22bd 1767 c3bb
00000390: f48c d73c 8870 103d b9c6 993c 84b2 a8bc
000003a0: 2313 5a3d be41 9c3d 368a 1a3d d3da eabd
000003b0: d556 44bd e9d3 063d 0ad6 b53d e46a 25bb
000003c0: 6f11 c439 5da4 e1bd 5bee 4bbd e122 31bd
000003d0: 809a 673d ef9e 8cbd b40c 5f3d 1704 9ebd
000003e0: 1922 d13c a2fe ad3a 0483 953d b44a 7c3d
000003f0: 8cf7 9f3d f49a 953d e536 923d dd2c 17bd

lstm.bias_ih_l1 f4 [512]
-0.05026307 0.09557608 -0.023991317 0.05315365 0.08808606 -0.0037571199 -0.055103213 -0.0361596
0.026036486 -0.048537128 -0.014308256 0.03196166 0.111047424 0.14116336 -0.07504017 0.3243712
-0.06591868 0.022899231 0.1158772 -0.040327564 -0.03464327 0.08443751 -0.014968651 0.131423
0.003859699 -0.036106605 0.005701651 -0.026540529 -0.003322877 0.0003371521 -0.016844755 0.06013762
0.08059114 0.07960907 0.052665103 0.3375615 0.08264018 4.2926593e-05 0.00963575 -0.06865446
0.12755063 0.074591205 0.022977227 0.081880316 0.37921807 0.16067283 0.07493915 -0.014136928
0.22393917 0.06537447 0.02378887 0.07069903 -0.044097967 0.0022152234 0.07702431 -0.013219994
-0.026212335 -0.017249791 0.12654829 0.07530767 0.030265862 0.07473401 0.06066518 0.030359847
0.103472605 -0.04789321 0.02395461 0.0011341202 0.015139609 -0.07798336 0.094188936 0.051896237
0.061890464 0.11491998 0.09380165 -0.03560873 -0.039232247 -0.06768523 0.10185274 0.06849094
-0.07245243 0.10792767 -0.021481806 -0.020157795 -0.082342565 0.40546834 -0.03690537 0.117390834
0.07174994 -0.03248839 0.07017854 0.062396016 -0.02462818 0.05666552 0.08873963 -0.03577275
0.074884064 0.0052025514 0.08647394 0.030031824 0.11573809 -0.058214493 0.059765745 -0.009024597
0.06537006 0.082918614 0.059508003 0.054914936 0.03757889 -0.07207871 0.07237927 -0.005321308
0.07318501 0.22451076 -0.043494925 -0.07268721 0.03570926 -0.06223994 0.040072888 0.0058233435
0.08339794 -0.056523386 0.02869261 0.032457173 0.035664596 -0.03515928 0.027188974 -0.03056889
0.010852477 -0.011290982 -0.02141096 -0.036649223 0.015965756 0.047347713 -0.079224326 0.04604991
0.02615307 -0.0746055 0.05447661 -0.08279809 0.07929353 -0.023254208 0.077089556 -0.09152304
-0.051500626 -0.045542207 0.02533511 -0.03410722 -0.048805777 0.014557024 -0.03669664 -0.05256297
-0.08479811 0.0027124572 -0.06726361 -0.07293025 -0.08695414 -0.08324063 -0.075425886 0.082852416
0.026206644 0.014397142 -0.023820652 -0.007353848 -0.025243295 0.060892846 -0.0039606295 0.03460436
0.027598029 -0.006688832 0.027635492 -0.010907131 0.0021760268 0.039744943 -0.07210308 -0.002380761
0.07439891 -0.06670536 -0.07861273 -0.040186983 0.024233056 -0.09149088 -0.03091966 0.07483824
-0.042596538 0.06088259 -0.021473954 -0.05272011 0.055008743 0.023974814 -0.06579211 -0.019570831
-0.052358944 -0.06205805 0.07260344 0.024466347 -0.013045665 0.021669956 -0.09304007 0.012056819
-0.026547555 -0.1046228 0.0678773 -0.0058738044 0.059783492 0.033843614 -0.051368445 -0.05723682
0.026138952 -0.067774534 -0.0019746553 -0.038880266 -0.043832824 -0.03460082 -0.10280187 0.024114069
-0.080433704 0.012584268 -0.018157473 0.06124522 -0.09180798 -0.009920013 -0.06745613 0.052309632
-0.08225337 -0.03801808 0.0563903 0.084529035 -0.041257408 0.032712203 -0.08105853 -0.0015282718
-0.01949756 0.049459383 -0.0698114 -0.024117876 -0.06628233 -0.08839206 0.029685702 0.03981769
-0.04468616 0.031323623 0.050545417 -0.06445799 0.0022896961 -0.021179218 0.036926184 0.06600615
-0.030656068 -0.03141833 -0.077419765 -0.062610544 -0.06557324 0.089934476 -0.031702258 -0.033479817
00000000: a6e0 4dbd 64bd c33d 7089 c4bc a4b7 593d
00000010: 7766 b43d 033a 76bb e8b3 61bd 171c 14bd
00000020: 784a d53c dece 46bd 2d6d 6abc 3bea 023d
00000030: d56c e33d 218d 103e a9ae 99bd fb13 a63e
00000040: 5f00 87bd 2b97 bb3c 0751 ed3d 842e 25bd
00000050: 1ae6 0dbd 93ed ac3d 133f 75bc c093 063e
00000060: 01f3 7c3b 85e4 13bd ead4 ba3b 866b d9bc
00000070: a0c4 59bb cac3 b039 03fe 89bc dd52 763d
00000080: f80c a53d 150a a33d 5db7 573d dcd4 ac3e
00000090: 413f a93d 140c 3438 44df 1d3c b69a 8cbd
000000a0: a29c 023e 46c3 983d bd3a bc3c deb0 a73d
000000b0: df28 c23e 6b87 243e b279 993d 939e 67bc
000000c0: 4f50 653e 0de3 853d e0e0 c23c a7ca 903d
000000d0: 12a0 34bd 482d 113b ecbe 9d3d ac98 58bc
000000e0: 40bb d6bc 6f4f 8dbc e095 013e e83a 9a3d
000000f0: 1df0 f73c 250e 993d 0d7c 783d 37b5 f83c
00000100: 72e9 d33d ac2b 44bd 753c c43c c2a6 943a
00000110: 1f0c 783c bdb5 9fbd 21e6 c03d 2691 543d
00000120: db80 7d3d 2b5b eb3d 141b c03d 76da 11bd
00000130: feb1 20bd 8e9e 8abd 2b98 d03d fa44 8c3d
00000140: f161 94bd 2f09 dd3d 9dfa afbc f621 a5bc
00000150: 38a3 a8bd 8c99 cf3e 162a 17bd 9b6a f03d
00000160: a2f1 923d 8c12 05bd c4b9 8f3d f792 7f3d
00000170: 09c1 c9bc 1b1a 683d 20bd b53d 7286 12bd
00000180: d15c 993d 2a7a aa3b 4019 b13d 4d05 f63c
00000190: 1708 ed3d 5272 6ebd edcc 743d e7db 13bc
000001a0: bde0 853d 3cd1 a93d aabe 733d 7cee 603d
000001b0: 52ec 193d 019e 93bd 953b 943d 5e5e aebb
000001c0: 06e2 953d 26e6 653e bc27 32bd 08dd 94bd
000001d0: df43 123d 4fef 7ebd 7823 243d bfd1 be3b
000001e0: 8acc aa3d 1185 67bd c40c eb3c d0f1 043d
000001f0: 0a15 123d 2d03 10bd 69bb de3c 9c6b fabc
00000200: 96ce 313c d0fd 38bc 0a66 afbc 7f1d 16bd
00000210: 9eca 823c adef 413d 5d40 a2bd d59e 3c3d
00000220: f73e d63c c5ca 98bd de22 5f3d 0c92 a9bd
00000230: a564 a23d 9c7f bebc 21e1 9d3d 6e70 bbbd
00000240: 52f2 52bd 778a 3abd 948b cf3c 03b4 0bbd
00000250: 91e8 47bd 9680 6e3c 374f 16bd 454c 57bd
00000260: a2aa adbd 7bc3 313b 81c1 89bd 745c 95bd
00000270: 0315 b2bd 107a aabd e378 9abd 87ae a93d
00000280: 51af d63c fee1 6b3c 8723 c3bc 8cf8 f0bb
00000290: 07cb cebc c76a 793d 2bc8 81bb 4dbd 0d3d
000002a0: 4315 e23c fd2d dbbb d463 e23c d3b3 32bc
000002b0: ac9b 0e3b 98cb 223d c8aa 93bd 8b06 1cbb
000002c0: 755e 983d d29c 88bd b6ff a0bd 1b9b 24bd
000002d0: 6784 c63c 925f bbbd 3a4b fdbc cb44 993d
000002e0: b579 2ebd 0660 793d 25ea afbc 0bf1 57bd
000002f0: d950 613d d466 c43c 04be 86bd 0253 a0bc
00000300: 5576 56bd 9530 7ebd 1db1 943d a66d c83c
00000310: 7cbd 55bc 3185 b13c cb8b bebd f789 453c
00000320: 427a d9bc 7b44 d6bd 4103 8b3d 0b79 c0bb
00000330: 89df 743d 9a9f 0a3d b867 52bd 2871 6abd
00000340: 5b21 d63c 60cd 8abd 3869 01bb ea40 1fbd
00000350: 0c8a 33bd 97b9 0dbd c989 d2bd de8a c53c
00000360: 6dba a4bd 3f2e 4e3c fbbe 94bc 45dc 7a3d
00000370: d205 bcbd 8d87 22bc 7126 8abd a042 563d
00000380: 7474 a8bd d9b8 1bbd 84f9 663d 8f1d ad3d
00000390: 87fd 28bd 3bfd 053d 0402 a6bd 4b50 c8ba
000003a0: 59b9 9fbc ec95 4a3d 47f9 8ebd da92 c5bc
000003b0: 08bf 87bd e506 b5bd 6e2f f33c e017 233d
000003c0: d608 37bd 334d 003d b608 4f3d 8d02 84bd
000003d0: ba0e 163b 0a80 adbc e93f 173d 3b2e 873d
000003e0: 6f22 fbbc 82b0 00bd 418e 9ebd f539 80bd
000003f0: 434b 86bd 912f b83d 3ada 01bd 2222 09bd
