saved_models/TSLA_model.pth (torch, 800866 bytes, 9 tensors)

lstm.weight_ih_l0 f4 [512, 1]
000000 6b 16 3c 3d 9c 56 38 3e ec 3b aa 3d 8c 09 00 3d
       0.045919817 0.18001789 0.083122104 0.031259105
000010 5a c7 ff 3c 61 9b 05 3e e3 dd db bc 18 fc 5c 3d
       0.031222988 0.13047554 -0.026839202 0.053951353
000020 10 6a 8f ba ba 69 34 3d aa a3 9e bc 43 72 53 bd
       -0.0010941643 0.04404614 -0.01936515 -0.05162264
000030 da 68 a7 39 14 c7 0c 3d 4f 9d ad 3d 2a d2 7c 3d
       0.00031930843 0.034369543 0.0847727 0.061723866
000040 23 5b a9 3d 5a 62 64 bd 14 27 a8 bc 00 a9 8a 3d
       0.08269336 -0.055757858 -0.020526446 0.067705154
000050 53 93 23 bd f0 61 58 3d 36 0c 60 bd da 05 a3 3d
       -0.03993542 0.052827775 -0.054699145 0.079601005
000060 74 c6 1e 3c 42 62 c0 bc 60 36 4a bd cc e4 9c 3d
       0.00969087 -0.023484353 -0.049368262 0.07660827
000070 1f f2 ca bd 83 52 0a 3d 08 6b 3e bd fe 65 52 3d
       -0.09909462 0.033770096 -0.04648879 0.0513668
000080 e8 a7 33 bd 4f af 53 3d 0b f8 88 bd 21 12 40 3d
       -0.0438613 0.05168086 -0.066879354 0.04689229
000090 5d ea 97 3c ff 5e ec 3d 4c d3 ce 3d 99 9c 7f bc
       0.01854437 0.115415566 0.100988954 -0.015601301
0000a0 64 f8 9d 3d aa df 9c 3c 57 d7 f0 3d 5b cd a0 bc
       0.077133924 0.01914962 0.11759823 -0.019629171
0000b0 c0 17 5a bc 1f 86 80 bd d5 13 42 bc 2a 16 a9 3d
       -0.0133113265 -0.062755816 -0.011845549 0.082561806
0000c0 3f 8a f0 3d 6e c2 6c 3c 8e e1 82 bc cf ed d9 bc
       0.11745118 0.0144506525 -0.015976693 -0.026602654
0000d0 6e aa fc 3d 72 e7 fd 3d f2 2a bd 3d a3 ec 5f 3c
       0.123371944 0.1239766 0.09236707 0.013667258
0000e0 af 48 8a 3c 72 9e d0 ba 2a 4f 44 bc a4 ae 0d 3e
       0.016880361 -0.0015916361 -0.011981765 0.13836151
0000f0 81 46 9f 3d 3f 22 6e bd eb 0f 91 bd 62 ce a3 ba
       0.077771194 -0.05813813 -0.07083114 -0.001249742
000100 b2 5e 60 3d 0e 80 ac 3d 3f aa 98 bd c7 fa 49 ba
       0.05477781 0.08422862 -0.07454347 -0.000770491
000110 6d e7 0e bd 11 98 b9 3d be eb 86 3a 59 80 d9 3d
       -0.034888674 0.090622075 0.0010293645 0.106201835
000120 ce 2a a2 bc 56 68 0c bc 99 28 d2 3d d4 40 12 3e
       -0.019795801 -0.0085697975 0.1026165 0.14282542
000130 39 c7 80 bd 75 5c 08 3e b6 16 8b bc 6c 46 d4 bc
       -0.06287999 0.1331652 -0.016978603 -0.025912486
000140 fb 81 43 3d 92 e6 eb 3d eb e5 30 3d 9a c9 e3 3b
       0.04773138 0.11518587 0.043188017 0.006951523
000150 e4 20 b8 3d 68 64 ea 3d 14 b4 0a 3d d6 49 a5 bd
       0.089906484 0.11444932 0.033863142 -0.08070724
000160 d8 6b ea 3d 62 f6 12 3e 58 63 11 bc 7a 09 c2 3c
       0.11446351 0.143518 -0.008873783 0.02368616
000170 a6 53 60 3c 60 38 50 ba 8f 3c b3 bc 94 d3 9a 3d
       0.013691818 -0.0007942971 -0.021879463 0.075598866
000180 5b ed 29 3c 74 92 d1 bc 64 75 34 3e 71 75 05 bd
       0.010371531 -0.02558253 0.17622906 -0.032582704
000190 cf 92 86 bc 83 b5 ee bc f8 70 b9 3d f3 33 03 be
       -0.016427426 -0.029139286 0.0905475 -0.12812786
0001a0 a5 49 ac bd f1 57 f3 3d 87 4a b7 3d 11 e8 18 bb
       -0.08412484 0.11882008 0.08949762 -0.0023331682
0001b0 85 a0 8f 3d 84 83 4a 3d 8a a1 a8 3d 07 30 42 bc
       0.070130385 0.04944183 0.08233936 -0.011852271
0001c0 f3 37 6a 3c 7f 01 8b 3d 67 97 39 3d 43 03 ce 3d
       0.014295566 0.06787395 0.045310404 0.10059216
0001d0 9f a5 97 3d b6 c6 5a bd 1f 87 ad bc 08 5d fc b9
       0.074046366 -0.05341216 -0.021182595 -0.000481345
0001e0 18 d8 ab 3a e4 43 90 3d 91 ee 03 bd 3e 8f 8c 3d
       0.0013110666 0.07044199 -0.032209937 0.06863259
0001f0 77 6c a3 ba 47 46 6d bc 33 a3 f6 3d 32 06 b9 bc
       -0.0012468238 -0.014482087 0.120428465 -0.022585962
000200 34 66 84 3d 80 21 91 3d 5c 55 e7 bc 1e 66 7f 3d
       0.06464806 0.07086468 -0.028238945 0.062353246
000210 86 82 43 3c 7c e5 f9 3d 26 d4 a7 bd 36 13 35 3c
       0.011932975 0.12201974 -0.08194761 0.0110519435
000220 c3 89 b5 bd 88 3c a8 bc 4d d3 06 3d 49 37 89 bc
       -0.088641666 -0.020536676 0.032916356 -0.016749995
000230 b8 72 2d bc 9b 86 46 3d 8b 90 72 3a 5b 67 43 3c
       -0.010586433 0.048468214 0.0009253106 0.011926497
000240 1e 9b 19 3c c5 68 9d bd 91 b9 dd bc a7 87 3c bd
       0.009375362 -0.07685999 -0.027066024 -0.046027806
000250 c8 31 01 be 7e 77 f4 3d 32 31 03 be 8d 91 cf bc
       -0.12616646 0.11936854 -0.12811735 -0.025337959
000260 59 41 ee bd 37 1e 77 3c fb 7a 92 bc d4 db 58 bc
       -0.11633558 0.015082887 -0.017880907 -0.013236005
000270 f5 ff c4 bd bb af ba 3d b3 06 77 bc b1 ec e2 3d
       -0.096191324 0.09115549 -0.015077281 0.110803016
000280 59 43 31 bd 32 4a 19 bd 9b 11 98 bd b2 f6 33 bd
       -0.04327712 -0.037424274 -0.07425233 -0.04393644
000290 96 bd 0a 3d 49 42 25 bd 28 c1 20 3c 4d 96 82 3d
       0.03387221 -0.040346418 0.009811677 0.06376324
0002a0 d9 a2 16 bd b9 f4 12 3d 2f 01 43 ba 42 9f c3 bd
       -0.036776397 0.035877917 -0.0007438836 -0.095518604
0002b0 64 b6 f5 3d 7e 4e 3d be 0e 96 75 bd bc 58 5d bd
       0.11997679 -0.18486974 -0.059957556 -0.0540397
0002c0 41 32 cd 3d 0c 01 13 3c 8b 27 d1 3c ef 5e 17 bd
       0.10019351 0.008972418 0.02553155 -0.03695577
0002d0 8e 6f cd 3d 02 99 b6 3c da 04 77 3c f1 87 88 3d
       0.10031043 0.022289757 0.01507684 0.06666554
0002e0 63 d0 2f bd 59 5f ff bd 4b 2b 85 3c e9 00 e6 bc
       -0.042923342 -0.12469358 0.016255995 -0.028076606
0002f0 27 13 b2 bc 2d 0c 95 bd 0b e0 6c bd 3b e7 40 bd
       -0.021737648 -0.07277713 -0.05783085 -0.04709552
000300 37 95 d4 bc a3 40 4f 3d 4a d0 04 bd d1 41 e2 bd
       -0.025950057 0.05059875 -0.032425202 -0.1104771
000310 de b6 35 3d 35 87 e4 bc d5 01 20 bd 95 3f 0e 3d
       0.04436385 -0.027896503 -0.039064247 0.034728605
000320 7a 3d 3e be c6 3c e9 bc fe 64 f3 3c 39 70 dc 3d
       -0.18578139 -0.028471362 0.029711243 0.10763592
000330 ab 84 d1 3b f0 4f fa 3c 50 81 95 bd 78 87 29 be
       0.006393989 0.030555695 -0.07300055 -0.16555583
000340 74 32 c6 3d e7 86 61 3c 83 1e d2 bc 65 aa ea bc
       0.09677592 0.013765073 -0.025649315 -0.028645704
000350 c5 c7 5f be 0a a4 7e 3d fb fa bd 3d 0b 7c cd bd
       -0.2185355 0.06216816 0.09276386 -0.10033425
000360 27 c5 61 3b b6 fe 2c 3d 5b b2 b1 3c 7a 04 1e bc
       0.0034449787 0.0422351 0.021691492 -0.009644622
000370 2a 01 73 bd c2 b0 36 be 75 d8 70 bc 1a 4b 8a 3d
       -0.059327282 -0.17840865 -0.014700045 0.06752606
000380 96 70 b2 3d bf 76 1e be dd ba 06 3d 8b 27 48 bc
       0.0871288 -0.15474986 0.03289305 -0.012216459
000390 e7 4f 5b bd 9e af 27 bd 5d 57 4b 3d 90 20 28 bd
       -0.053542998 -0.040938966 0.049643863 -0.04104668
0003a0 3c a2 5a be cf b8 1f 3d d7 ee e7 3d b7 7c 08 be
       -0.2135095 0.038994607 0.11324852 -0.13328825
0003b0 9d 97 55 bd 33 62 00 bd 9b a9 2f 3c 9d 3d da bc
       -0.052146543 -0.03134365 0.010721589 -0.026640708
0003c0 aa 78 c7 3d 23 57 a8 3d 75 f4 e0 ba 1e 6a dd 3d
       0.09739812 0.08219745 -0.0017162698 0.10811256
0003d0 ec f1 9e bb d2 f5 4d bd cb fb 81 bd 9f 9e dd 3d
       -0.0048506167 -0.05028326 -0.06346854 0.1082127
0003e0 1c 5b a3 3c 39 80 d1 3d bf 9b b1 bd 04 10 ad bc
       0.019940905 0.10229535 -0.08672284 -0.0211258
0003f0 7c 78 4b 3d fa 59 a2 bd 68 6d 04 bd d8 3a 00 be
       0.04967545 -0.07927318 -0.0323309 -0.12522447

lstm.weight_hh_l0 f4 [512, 128]
000000 15 83 ab bd 9c fa 1f 3d 16 fe e9 bb 80 53 f5 3c
       -0.08374611 0.03905736 -0.007140885 0.029947042
000010 11 6b a1 3d dc 8c 2c 3d fd e7 d8 bd 39 97 30 bd
       0.078817494 0.04212652 -0.10591123 -0.043112967
000020 6b 6f a0 bd f5 59 1d bb b2 3b 80 3d 72 5d 0e 3d
       -0.07833751 -0.0024009917 0.06261386 0.034757085
000030 bb 8b d3 3c 3c 92 10 3d 33 fb 56 bd c3 53 c3 3c
       0.025823465 0.03529571 -0.052485656 0.023843652
000040 14 4f dc bc 97 c5 5f bd fc 2b bb bd 21 6c 74 bc
       -0.026893176 -0.054631796 -0.09139249 -0.014918358
000050 80 6a 17 bd 2c d2 6c bc 29 3d 8c bc 02 08 9f bd
       -0.0369668 -0.014454406 -0.017119007 -0.07765199
000060 94 5d 8d bd e1 d6 21 3b 90 19 c9 bc 7a 7c 6c 3d
       -0.06902614 0.0024694728 -0.024548322 0.057735898
000070 86 0b 91 bd a0 22 fc 3c 86 9c f9 bc 0c 20 a6 bd
       -0.07082276 0.03077823 -0.030470144 -0.08111581
000080 1f 68 48 bd 06 94 c5 3c 9e 12 2c 3d 4b 73 ee bc
       -0.048927423 0.024118435 0.042009942 -0.02910771
000090 aa 89 90 3d 28 6a f4 bc ec c5 99 bd 7c 70 17 3d
       0.07057507 -0.029835775 -0.07508454 0.036972508
0000a0 9b 35 4e 3d 56 5c 41 bd b6 80 80 bc bd 14 9c bd
       0.05034409 -0.0472072 -0.015686374 -0.07621143
0000b0 06 82 5f bd ab 33 d7 3b d4 72 85 3d d8 58 d0 bc
       -0.05456736 0.0065674386 0.06516042 -0.025432989
0000c0 e0 2e 4f bd ed 9b 73 bd 13 ef 8d bc 42 81 ac 3b
       -0.050581813 -0.059474874 -0.017325914 0.005264432
0000d0 17 3c a0 3d 73 2b c1 3d 64 8f 69 bd 40 54 22 bd
       0.07823961 0.094321154 -0.057021514 -0.03963113
0000e0 cb 54 d9 3c 70 96 03 3d 14 14 63 3d 63 16 d2 3c
       0.02652969 0.03212589 0.05543907 0.02564544
0000f0 42 cd ed bb 4d 90 7c bd 2e 44 dd 3c 21 d1 1e bd
       -0.0072571347 -0.061661053 0.02701005 -0.03877366
000100 84 bf 77 3d aa 09 96 bd a0 57 03 bc 2b b3 34 3d
       0.060485378 -0.07326062 -0.008016497 0.04411618
000110 d5 0d 13 3c 6c 9f e9 bc 01 ed 5b bd 10 aa 81 3c
       0.008975466 -0.028518401 -0.05369282 0.015828162
000120 f2 aa e6 3b 66 43 c3 bc 52 0e 08 bd 38 b1 32 3d
       0.0070394212 -0.023835849 -0.033216782 0.04362604
000130 59 74 4b 3d 5e d1 7a bd fd aa 9e bc c9 5b 97 3d
       0.049671505 -0.061234824 -0.019368643 0.073905535
000140 70 21 16 bc 4b 90 ca 3a c9 bb f8 3c 3c ba 7f bd
       -0.009163246 0.001545438 0.03036298 -0.062433466
000150 9a d6 9e 3c 4f 58 9b 3d 33 9f 03 bd 1e 89 a7 3d
       0.01938944 0.07585203 -0.032134246 0.0818045
000160 da 41 a8 ba b3 77 b3 bc 21 63 d1 3c b5 9e be bc
       -0.0012837008 -0.021907663 0.025559964 -0.023269037
000170 51 87 3c 3d d8 76 bc 3c 9c 00 bd 3d 05 f4 90 bd
       0.046027485 0.023005888 0.09228632 -0.07077793
000180 be 92 9a bd 5d 41 81 3d 82 03 77 bd 5f c0 e2 ba
       -0.0754752 0.06311295 -0.06030608 -0.0017299763
000190 9d c1 a4 bc d4 56 18 bd c0 16 79 3d 4e 14 2f 3c
       -0.020111853 -0.03719218 0.06081271 0.010685993
0001a0 77 fe 0e bc 39 e0 a4 bd df cd a3 3d 1a ce ee 3d
       -0.008727661 -0.080505796 0.07998251 0.116604045
0001b0 d0 dd a9 bd bf 32 aa 3d 7f 18 a1 3d 90 16 cb bb
       -0.082942605 0.0831046 0.078660004 -0.006197758
0001c0 63 d8 4e bd 93 c3 64 3d 9b 78 36 bd 91 42 6f 3d
       -0.05049933 0.055850577 -0.044548612 0.058413092
0001d0 15 d4 33 3d 3c fb 74 3d 4a 23 da 3d 29 a3 61 3d
       0.04390343 0.05980991 0.10651262 0.055087242
0001e0 30 b8 de 3a 87 ac 5a bc b0 58 4a bd ff 25 1e 3c
       0.0016992148 -0.013346798 -0.049400985 0.009652614
0001f0 37 d7 9f bd d3 01 67 bd ad 02 21 3d a5 ef 2d 3d
       -0.07804721 -0.056398224 0.039309192 0.04246487
000200 2d a2 31 3e c0 34 84 bd 00 4a d6 bd 80 10 89 bd
       0.17347021 -0.06455374 -0.10463333 -0.066926
000210 ab 1d 8b bd 5c 36 09 3d 79 e8 16 3e cb 61 4f 3d
       -0.06792768 0.033499107 0.14737119 0.050630372
000220 2f b4 39 3e ff 2a e0 bc 93 ef c6 bd a5 01 4d be
       0.18135141 -0.027364252 -0.09713664 -0.20020159
000230 20 bc fe bd d9 a9 d4 bd ca ef bb bd ef d9 ca bd
       -0.12438226 -0.10383958 -0.091765955 -0.09904849
000240 eb e2 43 3c 6d 14 cb 3d 63 4b 19 3e d2 7a 9f 3d
       0.011955957 0.09916005 0.14970164 0.07787098
000250 3d 09 cf 3d 96 39 da 3c b0 d4 d2 3c 58 21 ab 3b
       0.10109184 0.026638787 0.025736183 0.0052224807
000260 62 a7 22 3e 05 52 ee 3d 05 cc c3 3d 21 62 8e bc
       0.15884164 0.11636738 0.09560398 -0.017380776
000270 3f c8 59 3e b6 a6 b8 bb 6c dd 81 3d a8 e2 22 3e
       0.21267794 -0.005635108 0.06341061 0.15906775
000280 11 87 d0 bd 87 0d e3 bd 21 dc ad bd 1c f5 ac bd
       -0.10182012 -0.110865645 -0.08489252 -0.084451884
000290 82 ee 50 bc 92 77 cb 3d 93 07 9a 3d 42 35 46 bd
       -0.012752177 0.099349156 0.07520976 -0.048390634
0002a0 7f 17 cf bb 50 26 fa bd 60 d9 29 bd 9e c2 da bd
       -0.0063199396 -0.12214339 -0.04146707 -0.106816515
0002b0 93 33 91 bd 09 17 5b bd eb 92 9c 3d d2 f5 90 3d
       -0.07089915 -0.053488765 0.0764521 0.070781365
0002c0 ee 61 bf bd 18 d1 c1 bc 8f ab 20 3e 81 4b 98 3c
       -0.093448505 -0.023659274 0.15690444 0.01859069
0002d0 23 63 0c be 79 e9 10 3d 38 d3 61 3d 6c fd 8c 3c
       -0.13709693 0.035378907 0.055133075 0.017210685
0002e0 c3 2a 31 be fc 72 5b bd f9 40 93 3c da 06 f0 bd
       -0.17301469 -0.053576455 0.017975317 -0.11720057
0002f0 bb e5 ea bd 4f 42 28 ba 9a 8d 1b bd 2e 6f 83 3d
       -0.11469599 -0.0006418572 -0.03797684 0.0641769
000300 4f 08 9f bd 75 69 a9 bc f8 30 b8 bd 59 78 0d be
       -0.077652566 -0.020680169 -0.08993715 -0.1381544
000310 bf 47 3e bd 6e a1 ac bd ce ce 07 3d 2d 3f 1f be
       -0.04645514 -0.08429228 0.03315621 -0.15551443
000320 66 41 9a bd 4a a4 e2 bd e2 f4 0e be a1 8c bf bd
       -0.07532005 -0.11066492 -0.13960603 -0.09352995
000330 88 b9 55 3d 26 37 c2 3d 7a 11 b6 3d 4c ee 36 bd
       0.05217889 0.09483175 0.08890052 -0.04466085
000340 1e 4e 15 bd 52 e9 c5 bd 3f 7c 0a 3e d0 f4 0a be
       -0.03645145 -0.09663643 0.13523959 -0.13569951
000350 1b 23 b6 bd ff b2 48 3d 4d 42 5b 3d ce 1d ba 3c
       -0.088934146 0.04899883 0.053530026 0.02271929
000360 f6 f7 f4 3d 96 da 91 bd ff 18 e4 3b dc a8 c0 3d
       0.11961357 -0.0712177 0.0069609876 0.09407207
000370 99 d2 36 be 72 e0 0b be cd e9 84 bd cb 11 18 3d
       -0.17853774 -0.13659838 -0.064899065 0.037126344
000380 a5 8b 0c 3e d6 c6 14 be f3 60 07 3d 03 33 e3 ba
       0.13725145 -0.14528975 0.033051442 -0.0017333928
000390 1f ea a1 bd c9 6f df 3c 7f 2a e1 bc dd f3 f3 bc
       -0.07905983 0.027274983 -0.027486084 -0.029779369
0003a0 79 4b 17 be 2f 3e 88 3c 9c ee e0 3d 53 f3 64 be
       -0.14774884 0.016631214 0.10983011 -0.22358446
0003b0 8b 81 ce 3d 1c be 8f 3c 70 a6 70 bd e8 eb dc 3d
       0.10083302 0.017546706 -0.058752477 0.10787183
0003c0 e3 a8 11 3e e5 51 0f 3e 57 04 5b bc 84 14 bc bc
       0.14224581 0.13996084 -0.013367734 -0.022959001
0003d0 4f 4a 13 bd fb 92 97 bd a7 47 0b 3d 3a 3a 1e bd
       -0.035959538 -0.07401081 0.03400388 -0.038629748
0003e0 f9 d2 38 bd 0b e8 91 bd 11 09 e3 3d aa e4 6d 3b
       -0.045123074 -0.07124337 0.11085714 0.0036299624
0003f0 0a af 47 3d 00 1f d4 3d 6f 80 6b bc b3 49 9d bd
       0.048750915 0.10357475 -0.014373883 -0.07680073

lstm.bias_ih_l0 f4 [512]
000000 d7 fa 62 3d 32 47 83 3d 02 c3 8a bc c3 32 9b 3d
       0.055415 0.06410064 -0.01693869 0.075780414
000010 22 f2 88 3d d3 ea 36 3c 48 01 2c bd 58 76 1e 3b
       0.06686808 0.011164385 -0.04199341 0.0024179425
000020 41 6d 32 3d 96 4f ea 3d d0 4d 02 bd 43 13 a9 3d
       0.043561224 0.11440961 -0.03181249 0.08255627
000030 0f 1e 0e 3d 29 af 9b bd e4 39 cd bb 19 c9 84 3d
       0.034696635 -0.076017685 -0.0062630046 0.06483669
000040 dc aa c9 3d d7 18 62 3d 1c b8 46 bd 67 15 76 3d
       0.09847042 0.05519947 -0.048515424 0.060079005
000050 20 37 b4 bd cf 6e 33 3d 85 a6 5f 3d e1 87 85 3d
       -0.08799577 0.043806847 0.054602165 0.065200575
000060 72 40 6b bc e5 c4 56 3d 3d cd cc bc 29 a6 80 3d
       -0.014358627 0.052433867 -0.025000209 0.062816925
000070 b1 cc 89 bc 2e 49 be 3c 0e 73 97 3d 9a fa 32 3c
       -0.016821237 0.023228254 0.07394992 0.010924006
000080 63 03 a1 bd da b2 87 3d 46 d2 7e bd fd 1c b2 3d
       -0.07861974 0.0662591 -0.06221225 0.08696935
000090 2f df 20 bd da 60 05 bd 65 45 c4 3d ab 4c 9f 3d
       -0.039275344 -0.032563068 0.095835485 0.07778295
0000a0 36 48 05 3d 05 d3 33 3d 86 23 44 bd c4 7c 50 3e
       0.03253957 0.043902416 -0.04788544 0.20360094
0000b0 63 95 d0 3d 12 ae b2 3d da 6c 00 3e e5 24 0b 3d
       0.10184743 0.087246075 0.12541524 0.033970732
0000c0 3d 10 1e 3e 68 6e 77 3c aa bc 28 3d 64 7d 36 3c
       0.15435882 0.0151020065 0.04119555 0.011138294
0000d0 40 75 97 3d 56 9b 7c 3e 91 72 96 bc 6f b6 65 3c
       0.073954105 0.24668631 -0.018365176 0.014020546
0000e0 da e5 a1 bc 36 f9 a6 3d 51 13 9d bd 85 46 5f 3e
       -0.019762922 0.08153002 -0.076697 0.21804245
0000f0 a4 5e b2 bd 27 cf d3 bd c4 16 83 3d 54 96 00 3e
       -0.087094575 -0.103422455 0.064008266 0.12557346
000100 b7 a2 ec 3d 73 cd 8f 3e 71 89 b3 bd 68 3f d2 3c
       0.11554473 0.28086433 -0.08766449 0.025665
000110 e6 49 87 bd 1e 87 58 bd c0 1c d0 3d 22 81 e9 bc
       -0.06605892 -0.052863233 0.101617336 -0.028503958
000120 65 5d 92 3d 76 9c b5 3d 6e 99 5f 3d ab ca 58 3d
       0.0714672 0.08867733 0.05458968 0.052927654
000130 60 2e db bb ac 2a be 3d 1d 6d 2e 3c 5f 05 3a 3b
       -0.006688878 0.09285483 0.010646132 0.002838455
000140 b5 d2 06 bd 4a d0 41 3d b0 16 bf 3d 43 62 33 3c
       -0.03291579 0.04731778 0.09330499 0.01094872
000150 36 ef b2 3e 87 fe 62 3d c6 ec 05 3d ec 2c 4b bd
       0.34948128 0.055418517 0.032696508 -0.049603388
000160 09 57 8d bb 2a a6 d4 3c b1 c2 8a 3d ee 90 a0 bd
       -0.004313354 0.02595814 0.06775416 -0.07840143
000170 5d f9 2d 3d e1 ef d6 3d 93 7f ec bc 68 34 91 bd
       0.04247414 0.10494972 -0.028869426 -0.07090074
000180 2a 6f 41 3e 91 c5 ac 3c 5c d0 91 3d 6b 23 4f 3c
       0.18890062 0.0210903 0.071198195 0.012642722
000190 dc 93 c2 3d 5e b2 36 3c 53 3b e9 3c 27 e9 c4 3b
       0.09500858 0.0111509245 0.02847067 0.0060092392
0001a0 7e 77 f6 3d b6 67 b1 bd 03 e3 b7 bd e4 cb 1d 3d
       0.1203451 -0.086623594 -0.08978846 0.038524523
0001b0 5f 48 43 3d 72 35 f9 3d d8 9a 81 3d 19 ef 8a 3d
       0.04767644 0.12168397 0.06328362 0.067838855
0001c0 82 da 30 3b e0 bc ea 3c 84 bb d1 3d ae 32 0e 3d
       0.002698571 0.028654516 0.10240844 0.0347163
0001d0 f7 53 3d bb 44 3c 4a 3d 38 f0 77 3d 28 f7 fe bc
       -0.0028889158 0.04937388 0.060531825 -0.031123713
0001e0 b4 42 20 bd da 6d 71 3d 70 ee 83 3d 32 03 70 3d
       -0.039126113 0.058942653 0.06441963 0.058596797
0001f0 16 d9 c9 3c 31 71 fc 3d 88 36 51 bd 75 f4 23 3d
       0.024639647 0.12326277 -0.051077396 0.040028054
000200 be 94 90 3c fc 39 74 bd ba 56 14 3d 7e 18 5e bc
       0.01764905 -0.05962561 0.03621552 -0.013555644
000210 71 88 ae bb d8 38 1b bd c1 84 12 3d 30 4f 0d bd
       -0.0053263237 -0.037896007 0.035771135 -0.034499347
000220 58 a4 c5 bd 13 38 b1 bd 9f 1e 21 bd 22 bf f7 3c
       -0.09650487 -0.086532734 -0.039335843 0.030242506
000230 11 f3 f2 bd e2 27 da bc f1 fc e1 bb bc 97 8a 3c
       -0.118627675 -0.026630346 -0.006896608 0.016918056
000240 45 24 81 bd 4f 86 b9 bd 9f 7f 8c bd f0 67 13 3d
       -0.06305746 -0.090588205 -0.06860279 0.035987794
000250 e4 6a f9 3c cc 2d ab bd 02 69 85 bd c1 0b 29 bc
       0.030446477 -0.083583444 -0.06514169 -0.010317744
000260 a0 24 1e 3d c0 99 09 3d dc fa e2 bc 08 fd 10 3d
       0.038609147 0.033593893 -0.02770751 0.03539756
000270 aa f2 9a 3d 12 9e 88 3d 10 00 cb bc 24 55 c0 3c
       0.07565816 0.066707745 -0.024780303 0.023478098
000280 9a 03 5d 3d 44 65 b5 bd c1 b9 93 3d 33 e7 2e bc
       0.053958513 -0.088572055 0.07213164 -0.010675239
000290 64 5c 7c bd 40 99 1c bc 06 5e 8b 3d 92 d7 c4 bd
       -0.061611548 -0.009558022 0.06805043 -0.09611429
0002a0 cd a5 7b 3c a0 c5 ee bb 39 71 46 bd f1 d5 d2 bc
       0.015359354 -0.0072867423 -0.04844782 -0.02573678
0002b0 9b eb 22 bd 8d 5a 1a 3d 41 66 04 3d 54 7a b4 bc
       -0.039775472 0.037684012 0.03232408 -0.022030987
0002c0 5c ae 21 bd 5a 02 01 3d 38 63 82 3c e8 f2 c8 3d
       -0.039472923 0.031496383 0.015916452 0.09811956
0002d0 79 6b ae ba 18 5b 07 bd e8 dd be bd 3b 47 43 3c
       -0.0013307176 -0.03304586 -0.09319669 0.011918838
0002e0 28 57 39 3d ef 12 51 3d 49 ff 0e bd e4 8e 3a bc
       0.045249134 0.051043447 -0.034911428 -0.011386607
0002f0 40 f3 7a bd 7a 34 4d bc 1b 6a 77 3d 82 03 86 bd
       -0.061267138 -0.012524718 0.060403924 -0.06543638
000300 a2 c8 e3 3c 2e 2d 72 bd f9 c9 2c 3d 57 03 b2 bc
       0.02780563 -0.059125118 0.042184804 -0.021730108
000310 ae 68 94 bc 71 3a 92 bd f7 4f 7e 3d c5 7c ac bd
       -0.018116321 -0.07140053 0.06208798 -0.084222354
000320 06 6f 5c bd 78 99 a3 bd 41 d5 8f bc ef 8d a8 bd
       -0.053816818 -0.07988256 -0.017557742 -0.08230197
000330 68 4a aa bd 9d 38 9f bc 1f 67 10 bd 81 15 b8 bd
       -0.08314973 -0.019436175 -0.035254594 -0.089884765
000340 46 42 de bb d6 bf 40 3b a5 9f 10 3d 4e b4 ab bd
       -0.0067828028 0.0029411218 0.0353085 -0.08384
000350 51 57 3b bd fc e0 77 bd 17 58 0c be 8a c2 b8 bd
       -0.04573757 -0.060517296 -0.13705479 -0.090214804
000360 cc 35 42 3d 81 ec c0 bc c7 f3 0c 3d aa 77 9f 3d
       0.047414586 -0.023550274 0.03441217 0.07786496
000370 35 e6 a6 3d db c6 43 bd 3d 25 9f 3c 5b ba 2b 3c
       0.08149377 -0.047797065 0.019426936 0.010481442
000380 de 92 33 3d d5 87 40 bd 63 1e 24 3d 3c 6f c6 bc
       0.043841235 -0.04700454 0.04006804 -0.024222963
000390 f5 51 08 3d cb 75 9c bd 58 48 85 3d 24 7d 43 bc
       0.033281285 -0.07639655 0.06507939 -0.011931691
0003a0 01 be f2 bc 10 6d 1c 3c f7 f1 c8 3c 80 0d aa 3c
       -0.029631617 0.009547487 0.02452944 0.02075839
0003b0 92 11 49 3d 06 c6 76 bc 19 bd 1f 3c 76 be 1b bd
       0.049089022 -0.015061861 0.009749674 -0.038023435
0003c0 ad 5b 26 3d 6b c4 3e bd 3c 67 a9 3c 83 f7 f0 3c
       0.040614773 -0.046574038 0.020679109 0.029414898
0003d0 d8 6f 34 bc 85 48 3d 3d e5 c4 d2 3c 14 e5 60 bd
       -0.011012994 0.04621174 0.025728652 -0.054905966
0003e0 fe ca c3 bd ee 42 8c bc 8d e4 a3 3d 45 c2 85 bd
       -0.09560202 -0.017121758 0.08002577 -0.065311946
0003f0 da 9e 38 bd 7d 03 43 3b 90 06 f9 3c 55 f3 67 bd
       -0.045073368 0.0029756718 0.030398637 -0.056628544

lstm.bias_hh_l0 f4 [512]
000000 87 c3 66 3d b6 59 83 3d 34 0c 95 3d d2 5c 8e bd
       0.056338813 0.064135954 0.07277718 -0.06951298
000010 6e 71 d5 3c b0 a8 88 3d 0b 3e 5b ba e2 21 b5 3c
       0.026055064 0.066727996 -0.0008363432 0.022110883
000020 05 77 c8 bc a6 06 c3 bb 99 52 d8 bc 5d 45 8c bd
       -0.024470815 -0.0059517203 -0.026406573 -0.068491675
000030 63 4c c6 bc 30 c9 a1 3c 7b b4 01 3d b3 2d 86 3d
       -0.024206346 0.019749254 0.03166626 0.06551685
000040 02 04 48 bc 3d c9 e6 3b 79 a7 07 bd 54 34 16 3e
       -0.012207987 0.0070430324 -0.0331187 0.14668399
000050 c8 49 92 bd 85 24 b0 bd 69 88 5e bd b2 5a 96 bd
       -0.07142979 -0.086007155 -0.05432931 -0.073415175
000060 eb b2 8c bd cb 0e ae 3c 3c 55 c5 bd 50 0b 5d bd
       -0.068700634 0.021247288 -0.09635398 -0.053965867
000070 bd 93 2c 3c 52 eb 2a 3e 92 39 91 3d c7 5f 0c 3e
       0.01053327 0.1669133 0.07091059 0.13708411
000080 3c 51 bd 3c 81 6a 71 3d 37 4e 15 3d 9d 67 bd 3d
       0.023110025 0.05893946 0.036451545 0.09248278
000090 07 83 1d 3d a1 60 8e 3d 25 9c 67 bc 7a 0f 3e 3d
       0.038455036 0.06952024 -0.014136349 0.04640148
0000a0 26 73 35 3d 52 06 b2 3d 90 65 1e bd 56 fb d5 3d
       0.044299267 0.08692612 -0.038671076 0.10448329
0000b0 fe f5 27 3d 04 ec 8c 3d fc cb cb bb a8 5c a9 3b
       0.04100608 0.06880954 -0.006219385 0.005168516
0000c0 a5 38 1d 3e de 47 39 bd 16 15 e9 bc 57 83 19 3e
       0.1535364 -0.045234554 -0.028452437 0.14991508
0000d0 66 44 d5 3d 7f d0 ec 3d 51 ac 8c bd 96 a8 56 bd
       0.104134366 0.11563205 -0.06868804 -0.05240687
0000e0 04 43 71 bd e6 02 fb bb 48 c5 e7 bc 5b 44 97 3e
       -0.0589018 -0.0076602576 -0.028292313 0.2954434
0000f0 b8 8e 37 bd c3 45 1c 3c 81 e1 8f bd 73 bf f1 3c
       -0.04481384 0.009538117 -0.07025433 0.029510235
000100 26 bb fb 3d 4a d5 5f 3e 94 0c 4c 3d d8 4c 0b 3e
       0.12291555 0.21858707 0.049816683 0.13603532
000110 3f 96 31 3d b4 0d 2a bd a8 29 81 3c 3a 94 6e bd
       0.043356176 -0.041516975 0.015766934 -0.05824683
000120 e2 4f 89 bc 3c 65 c0 3d e9 78 a9 3d 1d b0 95 3c
       -0.016761724 0.09394309 0.08275015 0.018272454
000130 6b 3b 7f 3c 41 32 46 3d a7 3f 13 bd e3 1e 88 3c
       0.015578131 0.04838777 -0.035949375 0.01661629
000140 d8 74 8b bd 1e 24 fe bb 9e 3d e1 3d 79 4b 49 3d
       -0.068093956 -0.0077557703 0.10998081 0.049144242
000150 da 88 a8 3e 4b dd dc 3d d9 20 bb 3d bb e6 af bc
       0.3291691 0.10784396 0.091371246 -0.021472326
000160 4e 5f 75 bc 04 d6 8a bc 3e 54 47 3d 19 db 33 3d
       -0.014976336 -0.016947754 0.048664324 0.04391012
000170 59 a2 d4 3d bf 63 f6 3d 15 81 7a 3d db 70 54 bd
       0.10382528 0.12030744 0.06115826 -0.05186544
000180 33 ab fc 3d 38 ec 29 bd 1a 4e 9a 3d 4e f7 b8 3d
       0.12337341 -0.04148504 0.07534428 0.090315446
000190 16 ba 82 3d 5f 9a ab 3d 0b 99 39 bd 40 44 94 bb
       0.06383149 0.08379053 -0.04531197 -0.0045247376
0001a0 8a f4 77 3d d9 c1 46 bc 33 94 07 bc f6 61 3d 3d
       0.060535945 -0.012131178 -0.00827508 0.046236
0001b0 4a 3b 99 bd a2 f6 cb 3d 76 35 d7 3c 17 0a 45 bd
       -0.074820116 0.09959151 0.02627061 -0.048105326
0001c0 58 6c be bd 86 1e d8 3c 98 8b 99 3d 5e cd 08 3d
       -0.09298009 0.026381742 0.074973285 0.03339898
0001d0 8c e3 9f bc 6e ac 08 bc 79 72 ab 3d 72 4f 82 bd
       -0.019517682 -0.008341892 0.08371443 -0.06362809
0001e0 96 38 d3 b8 b6 be 2d bd 7c 81 17 3e b5 95 46 bc
       -0.00010071804 -0.042418204 0.14795488 -0.012120654
0001f0 f1 de 11 3c f1 83 1e 3d 41 2d e2 3c 5b 9e b3 3d
       0.008903251 0.038700048 0.02760947 0.08770438
000200 84 54 34 3d ee bc 03 bd be a2 1f 3d ad 86 ad bd
       0.044025913 -0.0321626 0.038973562 -0.08472953
000210 ff bf a1 bd bb 37 57 3d d4 54 e9 bd 98 31 23 bd
       -0.078979485 0.052543383 -0.11393133 -0.03984222
000220 54 54 8f bd 30 ca f7 ba 53 1f 6a 3c d3 d9 7e 3d
       -0.06998506 -0.0018904861 0.014289695 0.062219452
000230 95 16 ce 3b 90 50 8f bd ed a0 c1 bd e8 33 a5 bd
       0.006289313 -0.06997788 -0.09454522 -0.08066541
000240 68 c4 f1 3c b9 77 8e 3d 2c 2f 3a bd f9 30 8b bd
       0.0295126 0.06956429 -0.045455143 -0.0679645
000250 10 8d b4 bd ea 69 ae bd 67 1f 39 bd 34 27 50 bb
       -0.08815968 -0.08516295 -0.045195963 -0.0031761648
000260 b6 08 16 3d 02 f1 27 3d ba ab 8d bd 32 88 5a 3a
       0.0366294 0.041001327 -0.0691752 0.0008336335
000270 3c 63 b8 bd 14 66 90 bd 90 33 69 3d aa ef a1 3d
       -0.090033025 -0.0705072 0.05693394 0.079070404
000280 6b 90 a1 bd fd e6 50 3d d3 bb 50 3d cd c8 59 bd
       -0.07888874 0.051001538 0.050960373 -0.053170014
000290 7a 1f 0d bd 58 4d ed bc 8c 0b aa 3d 92 c5 67 bc
       -0.034453847 -0.028967544 0.08302984 -0.0141462255
0002a0 c7 a7 9b bc 5a c5 b6 3d c7 b3 80 bb 8c 33 54 bd
       -0.0190009 0.089243606 -0.003927681 -0.05180697
0002b0 47 d8 e2 3c 1a 93 35 bc 85 11 68 3d 62 06 03 3d
       0.02769102 -0.011082435 0.056657333 0.03198851
0002c0 0b 47 7e bc d4 95 b5 3c 5b f0 9d bd 7c 11 ac bc
       -0.015519868 0.02216617 -0.0771186 -0.021004431
0002d0 91 e8 66 bd 12 7c 24 bc 9e a6 92 3d b0 00 a6 bd
       -0.056374136 -0.010039346 0.07160686 -0.081056
0002e0 52 f7 2f 3d 49 73 84 ba 1a ff 9c bd 54 17 72 bd
       0.042960472 -0.0010105158 -0.07665844 -0.05910428
0002f0 cb 19 ea 3c 4d 93 41 bd 9a 96 84 bd 7a 48 3b bd
       0.028576752 -0.047259618 -0.064740375 -0.045723416
000300 8b 0a b2 bd ca 3d 35 bd 0c 4e a5 bc 42 d7 0c 3b
       -0.08693417 -0.04424838 -0.020178817 0.0021490608
000310 3d 94 19 3d ef 25 90 bd 2b 30 8a bd 9f eb 14 bd
       0.037494887 -0.07038485 -0.067474686 -0.03635752
000320 6a 59 7b bd 6b 03 0c 3c 0b 0d 2d 3c 7d 23 80 bc
       -0.06136457 0.008545737 0.010562192 -0.015641922
000330 b2 fd 71 bd ec 36 13 bd 74 0a e0 3b e5 38 00 3b
       -0.059079833 -0.03594105 0.0068371836 0.0019565162
000340 a1 db 32 3d e2 ea 5a bd 1c 5c ef bc 73 fa 44 3d
       0.043666486 -0.053446658 -0.029218726 0.04809041
000350 55 75 93 3c 73 7b 85 3b 59 89 03 be 21 5e 7f 3d
       0.018000284 0.004073554 -0.12845363 0.062345628
000360 a2 7f ae bc a1 9e 10 bd 73 2e 2d bd 03 2b ab bd
       -0.021301094 -0.03530753 -0.042280626 -0.08357813
000370 93 18 8c 3d 37 48 38 bd 47 48 6d 3d ff f7 b9 bd
       0.06840625 -0.044990744 0.057930257 -0.090805046
000380 88 2b 5c bd ef f3 54 bd 2f 02 ca bc 64 5b 19 bb
       -0.053752452 -0.051990446 -0.024659244 -0.002340042
000390 cd 58 a2 bd c0 b7 0d 3d 53 3c 53 3d 07 b3 50 bd
       -0.07927094 0.034599066 0.0515712 -0.050951984
0003a0 18 24 3c bd b8 f2 88 bd eb c9 2a 3c aa 0a 62 bd
       -0.04593286 -0.0668692 0.010424118 -0.05518595
0003b0 2a cf 7f ba 0d cb fd bc 22 ac c1 3a e8 26 76 3d
       -0.0009758348 -0.030980611 0.0014776031 0.060095698
0003c0 d2 59 e7 3c d4 76 c8 bd c9 93 ac bd c3 31 8e bd
       0.028241072 -0.0978829 -0.08426625 -0.06943085
0003d0 cc 8a bd bd 4c 6d 0c bd 2a 8f 89 bd 25 eb 7e bd
       -0.09254989 -0.03428392 -0.067167595 -0.06223597
0003e0 71 77 47 3d 68 75 cb 3c 8f 71 de bc ea 53 08 3d
       0.048697893 0.024836257 -0.027153758 0.03328315
0003f0 18 0b f8 bc 44 8d cf 3c 00 ed 2b 3d 29 01 ab bd
       -0.030278727 0.025335915 0.041974068 -0.08349831

lstm.weight_ih_l1 f4 [512, 128]
000000 5e a1 a7 3c 93 ca 6c 3d 2b 2e 5b 3c 47 37 c4 3d
       0.020462688 0.057810377 0.0133777065 0.09580856
000010 94 56 8a bc 32 9f eb bb 25 7d c7 bb 9b 88 d6 bd
       -0.016886987 -0.0071906084 -0.0060879164 -0.10475274
000020 12 6d 50 3c de f3 32 3d 6f c4 55 3b 69 a2 be 3d
       0.012721317 0.0436896 0.0032618304 0.09308321
000030 c8 66 b7 3c 5d 17 fc bc 53 f6 3a 3d 46 38 b1 bc
       0.022387877 -0.03077286 0.04564507 -0.021633279
000040 81 12 af 3d 88 77 04 bd 8d 7b c1 bd af fd 07 3d
       0.08548451 -0.032340556 -0.094473936 0.033200916
000050 3d 52 8b bc d7 af 14 3d 06 2b 58 bb 2c ba 6b 3d
       -0.017006988 0.036300506 -0.0032984628 0.057550594
000060 eb 9d 18 bd f9 66 81 bd 52 de 53 bd 25 e4 34 3c
       -0.037259977 -0.063184686 -0.051725693 0.011040722
000070 c0 22 58 3c 02 ae 7e 3d d7 29 c1 bd 13 dd 92 bd
       0.013191879 0.062177666 -0.094318084 -0.07171073
000080 f9 88 5e 3d 9c 53 c3 3c ae 97 2e 3b 39 71 06 bd
       0.054329846 0.023843579 0.00266407 -0.03282282
000090 f5 53 22 bc 83 81 88 3c 42 94 7e bc 0d c6 82 3c
       -0.009907712 0.016663318 -0.015538277 0.015963579
0000a0 85 e3 67 3d fd ad 9d bc 2e b6 0a 3d 7e ae 9c 3d
       0.056613464 -0.019248003 0.033865146 0.07650469
0000b0 95 de fc 3c e1 6b d3 3c a5 db 8c bd d6 64 91 bb
       0.030867854 0.025808277 -0.06877831 -0.0044370694
0000c0 76 f2 8e 3d 89 c5 1c 3d 93 d0 ac bd 6e 45 54 3d
       0.069798395 0.03827432 -0.0843822 0.051824026
0000d0 49 f2 14 bd 39 64 67 3d b0 f6 0f bc 37 99 18 3d
       -0.036363874 0.056492064 -0.008786842 0.037255492
0000e0 6e 75 30 bd 13 ae 17 3c de 2d 67 3d b3 54 9f bd
       -0.04308074 0.009257811 0.056440227 -0.07779827
0000f0 c4 0c 12 3c 04 fd bd 3c 4b 69 1b 3d 87 71 54 bd
       0.008914176 0.023191936 0.037942212 -0.05186608
000100 6b 36 40 bb 38 ff 94 bd 83 e4 18 bd 11 59 a1 bd
       -0.002932931 -0.072752416 -0.0373273 -0.07878316
000110 cd 64 ef bc 2b b3 91 3d 1f 53 8d 3d 3f 16 b4 3d
       -0.02922287 0.07114252 0.0690062 0.087933056
000120 eb d6 b4 3c 6e 92 94 bb aa e1 d4 3c 9d d8 df bc
       0.022075137 -0.0045340573 0.025986511 -0.027324969
000130 5b 04 bc bc ed 97 fe 3c 59 a2 3d 3a 81 87 4d bd
       -0.022951296 0.031078303 0.00072339695 -0.050178055
000140 bf a9 0e 3d f5 89 ce bb 34 ac a1 bd 6b 77 1e 3d
       0.03482985 -0.006303067 -0.07894173 0.038688105
000150 6a 79 c8 bc 28 c9 85 bd f0 0d 9c bd 69 7b a7 bb
       -0.024471957 -0.06532508 -0.07619846 -0.005111147
000160 da 4b 1f bd 83 77 94 3d 22 3c cb 3b 2b 95 35 3b
       -0.038890697 0.072493576 0.0062022367 0.002770732
000170 0e 0e 30 3d 40 e8 77 bd 36 c6 7c bd 40 93 1f bd
       0.042982154 -0.060524225 -0.061712466 -0.038958788
000180 1f 05 83 3d 38 46 df 3c 8f 94 01 ba ce 38 1c bd
       0.06397461 0.027255163 -0.00049430964 -0.03814011
000190 39 62 6e 3d 46 7a 75 bd 6f 1f ac bd c5 43 68 3c
       0.05819914 -0.059931062 -0.08404433 0.014176314
0001a0 f3 14 5f 3d a9 53 3e 3c c6 c1 1b bd 78 0c 96 3d
       0.054463338 0.011616626 -0.038026594 0.07326597
0001b0 f4 c4 33 bd 9a d0 8e bd b8 51 05 bd 52 38 a5 bd
       -0.043889 -0.06973381 -0.032548636 -0.08067383
0001c0 f3 8b 70 3d 36 10 8d 3c 0f 5d 51 bd 3b f6 8d 3d
       0.058727216 0.017219644 -0.05111414 0.0693173
0001d0 84 8c 39 3d 46 b3 1e 3c b3 b3 89 bd 2a 6f 9b bc
       0.04530002 0.009686297 -0.06723728 -0.018973906
0001e0 20 9a 4a bc 96 4c f0 bb 43 42 19 3d 60 2c 7d 3d
       -0.012365848 -0.0073333485 0.037416708 0.061809897
0001f0 fc c3 a5 bd 2d 5a 36 bd d0 34 df bc b8 f8 9d bd
       -0.08094022 -0.044519592 -0.027246863 -0.07713455
000200 41 f7 92 bd 4b 66 a1 bd 37 59 d4 bc d0 86 48 3d
       -0.07176066 -0.07880839 -0.025921447 0.048956692
000210 19 40 41 3d 20 4f 98 3d 02 5c 7c bd 68 fa c4 3b
       0.04718027 0.07436967 -0.061611183 0.006011296
000220 1b 4e 93 3c 8c 3c f3 bc c7 ba aa bc 08 4d c7 3d
       0.01798158 -0.029691957 -0.020841016 0.097314894
000230 0a 99 6f 3c 64 8e d6 bc 23 03 a7 bc 7b d4 2b bc
       0.01462389 -0.026190944 -0.020387238 -0.010487671
000240 67 4f 9c 3d 85 54 fa bc f4 8b d7 3b a8 13 55 3d
       0.07632332 -0.03055788 0.006577963 0.0520207
000250 96 93 7c bc 64 f3 d1 3c e3 de 70 3d aa 06 45 3c
       -0.015416047 0.025628753 0.05880631 0.012025515
000260 6f 81 39 3d 38 23 ed 3b 05 8e 8f bc 76 6b 9b 3d
       0.045289453 0.0072368644 -0.017523775 0.07588856
000270 9f c9 55 bd b9 91 20 bd 4a 95 25 bc 03 bd 0b 3d
       -0.052194234 -0.039201472 -0.010106394 0.034115802
000280 f2 13 30 3c 18 98 ad 3d c2 55 3f bb 78 3a 9f 3d
       0.010746943 0.08476275 -0.0029195403 0.07774824
000290 f4 d3 9e 3d ee 23 cb bc 24 25 96 bc ad d7 14 3c
       0.077552706 -0.024797406 -0.018328257 0.009084624
0002a0 28 67 5f 3c 7d f2 6e bc 46 f4 9a 3d 52 59 46 3d
       0.013635434 -0.014584181 0.07566123 0.048425026
0002b0 57 62 9a 3d 7d 9c 4e bd 92 f3 80 bc 3a d8 19 3d
       0.07538288 -0.050442208 -0.015741143 0.037559725
0002c0 ee 5a 92 3d 65 c7 82 bd fd 73 c0 bd fb 36 46 3d
       0.0714625 -0.06385688 -0.09397123 0.048392277
0002d0 20 6f a6 bd 9b 29 86 3d 58 56 43 3d ca 0d a2 bd
       -0.08126664 0.06550904 0.047689766 -0.07912786
0002e0 02 db 5c bc 1f 26 95 3d b2 24 aa bd 67 32 8b bd
       -0.01347995 0.07282662 -0.0830778 -0.06796723
0002f0 b0 4e ed 3c fd f1 a2 bd 5f 77 cd 3d 6e 60 b5 bd
       0.028968185 -0.07956312 0.10032534 -0.08856283
000300 a8 74 bf bd 63 a1 9e bd 8e 85 17 bd 6b 7b bd bb
       -0.09348422 -0.07745626 -0.036992602 -0.005782535
000310 2c cd 03 bc 81 3d 91 3d 90 2f c8 3c d6 c3 19 3d
       -0.008044522 0.07091809 0.024436742 0.03754028
000320 41 16 0a bd 72 24 ab 3c 69 e6 41 bd 12 e3 f7 bb
       -0.03371263 0.020891402 -0.047338877 -0.0075649107
000330 25 ab 1e 3d 24 a8 25 3d f2 d1 5a 3d a6 1c 90 bd
       0.038737435 0.040443555 0.053422876 -0.07036714
000340 05 a9 00 bd 33 4d 87 bd 98 ba 4f 3d f6 63 8f bd
       -0.03141119 -0.066065215 0.05071506 -0.07001488
000350 e0 b3 9f bc 8f 0f 00 3d af f4 98 3d 7b 1e 6a 3d
       -0.01949495 0.031264838 0.07468545 0.057157975
000360 52 6b 26 3d 81 1e e5 3b 1d 8e 93 3d 1e 91 4a 3d
       0.040629692 0.0069921617 0.0720484 0.0494548
000370 05 c2 95 3c eb 26 81 3d bf da 39 3c d9 4d 20 3d
       0.018280992 0.06306251 0.011343657 0.03913674
000380 58 1a d4 3c 2b e9 b5 bc c5 eb 30 3d d3 44 4e bd
       0.025891468 -0.02220591 0.043193597 -0.050358605
000390 cb a0 cf 3d 1a cc 98 bd d7 b3 99 3d f6 4f b9 3a
       0.10138091 -0.07460804 0.07505005 0.001413821
0003a0 10 0b bd bb bb e5 94 3c ab bb a8 bd 1d c9 e7 3d
       -0.005769141 0.01817595 -0.0823892 0.11317656
0003b0 51 85 7a 3d e5 99 9a bd 1b e6 37 bd 8c 4e 1b 3b
       0.061162297 -0.07548884 -0.04489718 0.002369794
0003c0 9e 5b a9 bd b9 29 5f 3c 4c f9 46 bc 30 cd 92 bb
       -0.08269428 0.013620787 -0.012144398 -0.0044800267
0003d0 2c 82 27 3d 52 8e 29 3c af c7 32 3d ea f5 b4 3b
       0.040895626 0.010348873 0.043647464 0.0055224793
0003e0 1d f9 8f 3d 90 a0 ad bd 50 1a dd 3b af a9 b2 3c
       0.070299365 -0.084778905 0.0067475215 0.021809427
0003f0 c8 15 96 bd 0d 32 1b bc 6d 73 87 3d 3d 0d d6 3c
       -0.07328373 -0.009472382 0.066138126 0.02612936

lstm.weight_hh_l1 f4 [512, 128]
000000 6c 72 b9 bd 8a 39 c9 bc 51 08 0d 3e bb 1d 3d 3d
       -0.09055027 -0.02456357 0.13772704 0.04617093
000010 09 e9 60 bd 23 f0 5d bb 42 08 8c 3c 7e da dd bd
       -0.05490974 -0.0033865056 0.017093781 -0.1083269
000020 25 0f e1 bc 09 53 af bd 12 a1 c0 bd 70 5d 64 bc
       -0.027473042 -0.085607596 -0.09405722 -0.013938293
000030 c4 09 b2 3c 60 0f d1 bd 9b c9 80 3b b2 fd 82 bb
       0.021733172 -0.10208011 0.0039302832 -0.003997528
000040 df 08 95 3b 7c 40 56 bd 36 8d cf bd 01 57 85 bd
       0.0045481767 -0.05230759 -0.10134356 -0.06510735
000050 85 03 b1 3d 7c fe 14 bd 2e 3e b1 bd fe c1 8a 3b
       0.086432494 -0.036375508 -0.08654438 0.0042345515
000060 05 fc a3 3d c2 70 5d bd 4b d6 a6 bd d7 e2 cd 3b
       0.08007053 -0.054062612 -0.08146342 0.006283145
000070 7a 7f 17 bd ef 68 ac bd b7 b5 16 3d 5b 9c 23 bd
       -0.036986805 -0.08418452 0.03679439 -0.039944034
000080 73 36 1e 3d a6 65 ae 3b 6c c8 8e bc 87 de bc bd
       0.038626146 0.005322176 -0.017429553 -0.09222131
000090 e0 76 ef 3c 17 4e df bb 84 22 a9 bd c9 31 3c bd
       0.029231489 -0.006814729 -0.082585365 -0.045945916
0000a0 a0 cc 4b bc ca 7b 80 3d 0b c7 81 bd a9 0e 01 3d
       -0.012438923 0.06273611 -0.063367926 0.03150812
0000b0 e6 f6 35 3d 5a 16 2d bd 59 dd 51 bc 65 79 0c bd
       0.044424914 -0.042257644 -0.012809121 -0.03429546
0000c0 55 61 98 3d 7d d0 98 bd 76 78 a3 bc 19 cc 5c 3d
       0.074404396 -0.07461641 -0.019954901 0.05390558
0000d0 ec 9e 35 3d ef 8c 94 bd a3 8e 85 bd 67 a4 aa 3d
       0.044341013 -0.072534434 -0.065213464 0.083321385
0000e0 cd c2 95 3d ed ac ba 3c 54 98 a6 bc 75 c8 a8 bd
       0.07312546 0.022787536 -0.020336308 -0.08241359
0000f0 f9 40 81 3b d2 41 24 bd 2e 69 8b bd 30 d0 0d 3e
       0.003944513 -0.040101834 -0.06807171 0.13848948
000100 fe 8a 47 3d ba e9 62 3d 3e cb 87 3d 8b 52 c0 3d
       0.048716538 0.05539868 0.06630562 0.09390744
000110 fc 63 bb bc a0 00 ef 3d 9e 8b aa bb 7b e1 5b 3d
       -0.022874825 0.11670041 -0.005204632 0.05368183
000120 2b 41 be 3d 20 89 b8 bc 17 3e 4b bd 39 26 1b 3d
       0.092897736 -0.022526324 -0.04961976 0.03787825
000130 86 b1 33 bc e8 37 00 3e c0 17 51 3b d9 d2 37 be
       -0.010967618 0.12521327 0.0031905025 -0.17951526
000140 d1 4a 98 3d 1f 3d 77 3d c7 01 e9 3c 69 86 7d bd
       0.07436145 0.060361024 0.02844323 -0.06189576
000150 42 3a 0a bd cf 44 5d bd 10 3d 0f be c0 0f c5 bd
       -0.033746965 -0.0540207 -0.13988137 -0.09622145
000160 f1 02 8d bd a5 5e 38 bd b0 26 0f be 6f 42 85 3d
       -0.06885327 -0.045012135 -0.13979602 0.06506812
000170 27 28 66 bd c9 1f 29 bd 9d 94 32 bd 6c 78 e8 bb
       -0.056190636 -0.04129008 -0.04359876 -0.0070944335
000180 87 8a 2a bc 11 e7 1f 3d f3 e7 0e bd 9d 76 a8 bb
       -0.010409004 0.03903872 -0.034889173 -0.005141093
000190 0b e9 15 bd a4 1f 48 bd 39 83 d7 bc e6 5f 1f bc
       -0.0365992 -0.0488583 -0.026307689 -0.009727454
0001a0 55 c9 3c bd 77 d5 71 3c 23 bb 6e bd b9 43 af bb
       -0.046090443 0.014760367 -0.058283936 -0.0053486493
0001b0 06 22 13 bd b5 03 41 bd 47 3b f6 bc 87 f9 9d 3d
       -0.03592112 -0.047122676 -0.030057563 0.07713609
0001c0 40 c7 ab 3d 19 ca bf bc 46 ae 80 3c 4f 95 d8 3d
       0.08387613 -0.023411797 0.0157081 0.10575353
0001d0 e4 a4 6d bc b2 14 20 3d ee 2d b2 3d 54 0f cd bb
       -0.014504645 0.039082237 0.08700167 -0.006257931
0001e0 b1 48 05 3e c5 db 9a bd 0d 4b 76 3d f1 3d 60 3d
       0.13016011 -0.07561449 0.060130168 0.054746572
0001f0 1a 06 65 3a fa f8 a0 3d f5 da 06 3c 49 ec 93 bd
       0.0008736566 0.078599885 0.008230914 -0.07222802
000200 f5 77 8d bc e2 c4 b5 3a ab cb de bc ba cb 1c bd
       -0.017269114 0.001386788 -0.027196726 -0.038280226
000210 c6 1f f5 bc 2a a0 91 bc 01 ad b5 3d f2 79 a1 bc
       -0.029922377 -0.017776567 0.088708885 -0.019711468
000220 80 50 a6 3d 53 d5 97 3d 2a b9 e1 bc ee 4c 00 bd
       0.08120823 0.07413735 -0.027554113 -0.031323366
000230 a5 45 3f bd 22 5e 46 3d c0 73 1e 3d 86 6e ac bd
       -0.046697278 0.048429616 0.038684607 -0.08419518
000240 6a 01 de bb d6 f3 2a bd 13 47 91 3c d0 20 e6 bc
       -0.006775071 -0.041736446 0.017734086 -0.028091818
000250 e2 81 ac 3d 4e d4 fa bc 85 47 0e 3d e7 d4 22 bd
       0.08423211 -0.030618813 0.034736175 -0.03975382
000260 ba 11 72 bc 47 ad 8e bd 0a 5f f3 3d 4f 1e 30 bd
       -0.014774734 -0.06966644 0.11883362 -0.042997655
000270 d1 ae a3 3d 59 f3 6a 3c f9 fb 5e 3d 9a 9f bc bc
       0.07992328 0.014340245 0.05443952 -0.023025323
000280 2f 51 ae bc 03 84 f9 ba 42 a8 e7 bb 04 7b 0f bd
       -0.021278946 -0.0019036535 -0.0070696184 -0.035029426
000290 c1 3b 71 bd 4b 16 a0 3c 8c 83 c0 3d 5a 69 2f bd
       -0.058894876 0.01954188 0.094000906 -0.04282508
0002a0 31 6c 09 bd d1 1d 62 3d cd 8d b0 3d 92 b2 0a 3d
       -0.033550445 0.055204216 0.08620796 0.033861704
0002b0 e2 11 90 3d cb 05 0a 3d 1d ab b5 3b 34 b6 8f 3c
       0.07034661 0.03369693 0.00554408 0.017542936
0002c0 32 b7 8e 3d 78 ba 60 3d dd 8f 8e 3d 76 4e 7a bc
       0.069685355 0.05486533 0.069610335 -0.015277496
0002d0 6b 5c d5 bd 78 8a 4b 3d fc 76 06 bd f2 0f 50 bd
       -0.10418018 0.0496926 -0.032828316 -0.050796457
0002e0 31 19 50 3d aa a1 8d bd 87 3e 56 3c 26 3c d4 bc
       0.050805274 -0.069156006 0.013076431 -0.025907587
0002f0 e9 58 cc 3d a1 71 42 bd 38 c6 2b 3d ec dc c6 bd
       0.09977896 -0.047471646 0.041937083 -0.09710106
000300 c1 e6 7e bd fe df a4 bd 6d da 3c 3c 90 7f a0 bc
       -0.062231783 -0.080505356 0.011526686 -0.019592077
000310 62 23 62 3d f2 c5 b8 bd 3c f1 af 3c 42 d3 4b bd
       0.055209525 -0.0902213 0.021477334 -0.049762018
000320 1d 41 6f 3d 1f 58 97 bd 9d 0a 10 be 1c 8a ac 3d
       0.058411706 -0.07389855 -0.14066549 0.0842478
000330 1d 6b 5e bd 56 0a c3 ba 42 36 58 bd f1 c6 2a bd
       -0.05430137 -0.00148804 -0.05278612 -0.04169363
000340 1d e5 bb 3d 1e 77 34 3c 97 a1 79 bc fa f8 ad bc
       0.09174559 0.011014728 -0.01523628 -0.021236885
000350 5d 46 60 3b 82 ae 4f bd a9 2e 3b bc 51 9b 3e 3d
       0.0034221627 -0.050703533 -0.011424699 0.04653484
000360 19 d8 21 3d 99 77 99 3b 2c 81 fa bc 92 8a 74 bd
       0.039512727 0.0046834466 -0.030579172 -0.059702463
000370 70 92 0d 3c 8d 34 b9 3d 34 78 2c bd ae 16 24 bd
       0.00864087 0.090432264 -0.042106822 -0.04006069
000380 a4 eb 3c bd 6a 9d 93 bc cd 44 82 3c 67 a2 7d 3d
       -0.046123162 -0.018019397 0.015901947 0.061922457
000390 62 a3 48 3c 05 28 a3 3d 33 6c b0 bb 18 23 74 bd
       0.012245985 0.079666175 -0.005383992 -0.05960378
0003a0 38 dc 9a 3b f7 0b 8c bd 8d 99 86 bd 53 6f 5a 3d
       0.004725959 -0.068382196 -0.06572256 0.053328823
0003b0 96 97 66 bc ca b0 07 3d 01 db db 3d 8a 3c 3a 3d
       -0.014074227 0.033127584 0.10735131 0.04546789
0003c0 09 bb 01 3d f8 7d 4c bd 5b 07 8e 3d 20 be 1c bd
       0.03167251 -0.04992482 0.06934997 -0.038267255
0003d0 35 b5 6b 3d 68 a8 15 3d 88 cb 93 bd 82 00 ad bc
       0.05754586 0.036537558 -0.07216555 -0.021118406
0003e0 47 41 82 3d c3 b6 dd bd bf 64 95 3c 77 a5 34 bd
       0.06360107 -0.10825875 0.018236516 -0.044103112
0003f0 ec 19 89 bd 10 2c d9 bd 7a 36 4f bd 41 f3 9f bd
       -0.06694397 -0.106041074 -0.050589062 -0.07810069

lstm.bias_ih_l1 f4 [512]
000000 b1 6e b3 bd a3 8e 97 3d 33 c8 44 ba 2b b1 d2 3d
       -0.08761347 0.07400253 -0.00075066386 0.10287698
000010 a0 3b 55 bc be b5 b3 3d 75 81 8b bc bb 0b cb 3c
       -0.013014704 0.08774899 -0.017029503 0.024785867
000020 6f c5 8f 3c 1f 1f b0 bd 63 34 87 3d 4e 38 63 3d
       0.017550198 -0.08599686 0.06601789 0.05547362
000030 9d b0 ad 3d 59 4b b5 3d 25 41 66 bd 89 10 a3 3c
       0.08480952 0.08852262 -0.05621447 0.019905346
000040 d3 8c f5 3d 22 7d 3e 3d 1f 2f 44 3d 0c de 0f 3e
       0.11989751 0.046506055 0.0478965 0.14049548
000050 87 36 c7 3d 03 52 0b 3d 54 2e 1d bc 0b 74 2b bd
       0.09727197 0.03401376 -0.009593565 -0.041858714
000060 ee c1 c5 3c 47 97 1a bd c7 c9 fb 3d 4c 85 4e bd
       0.024140324 -0.037741926 0.12294345 -0.05042009
000070 c4 17 94 bd dc 5c ca 3d 4d 0f 5f 3d d4 aa 17 3e
       -0.072310954 0.09880993 0.05445795 0.1481126
000080 85 1c fd 3c 9f 38 82 3b 7f eb 8c 3c ff 69 ad bd
       0.030897388 0.003974035 0.017202137 -0.08467483
000090 b5 b5 cf 3e e5 74 84 bb 39 7c 2f 3e ed f3 18 3d
       0.4056832 -0.004042255 0.17137231 0.037342
0000a0 ee 8e 50 3d 35 ab 5f bb f4 56 82 bc dc 69 f8 bd
       0.05091756 -0.0034129147 -0.015910603 -0.12129566
0000b0 fc 39 ea bc da 4d d6 bc 64 6b 29 bd 08 cf cc 3b
       -0.028592102 -0.02616017 -0.04136218 0.006250266
0000c0 a2 4e 2a 3d 8a d8 71 bd 3d 07 97 3d 9e ab 16 bd
       0.041578896 -0.0590444 0.073744275 -0.03678476
0000d0 d0 72 3d bd a5 21 8a bc 6c fd 84 bd 3d 85 b0 3d
       -0.04625207 -0.016861746 -0.06493649 0.08619163
0000e0 05 62 2f bd 2e 08 c5 3c 70 97 2c bd 94 1e 5a bd
       -0.042818088 0.024051752 -0.04213661 -0.053251818
0000f0 e1 ef ed bc 08 0e 72 3c 79 6c 2f bd ca f3 f4 3c
       -0.029045047 0.014773853 -0.042828057 0.029901404
000100 e8 ed 81 3b cb b6 26 3d a1 31 81 3c b1 28 6f 3e
       0.003965128 0.04070167 0.015770735 0.23355366
000110 a5 fc 69 bc fa 0e 4d 3d be 92 5c 3d 88 3d c3 3d
       -0.014281427 0.05006311 0.05385088 0.095332205
000120 ca f8 40 3d 5a 79 02 3e 2c a0 44 3d 1f 60 cd 3c
       0.047112264 0.12741604 0.048004314 0.025070248
000130 2a bc 88 3d 1f fb 10 3d b8 76 b7 bd 34 77 35 3e
       0.066765144 0.035395738 -0.08958191 0.17721254
000140 0b 03 8f 3c dc fa 88 3c d2 e6 b4 3d 1c e7 8c 3b
       0.017457506 0.016721182 0.08833088 0.0043000113
000150 0f a1 21 3c b3 24 23 bd 41 14 20 3d 61 9b 36 3d
       0.0098650595 -0.03982992 0.039081816 0.044581775
000160 c6 77 cd 3d a1 52 89 3d 0d 94 1c 3e 42 6b 6c bd
       0.100326106 0.06705213 0.15290852 -0.057719477
000170 df 4b 5c 3d a6 a3 78 bc b1 d1 09 bc 88 e5 d3 3d
       0.053783294 -0.015175736 -0.008411811 0.10346514
000180 4d 31 8c 3d 04 71 54 bd 30 a5 81 3c c2 a7 c5 3d
       0.06845341 -0.051865593 0.015825838 0.09651138
000190 d4 51 fa 3c 63 0c af 3d 4e d9 2c 3d b0 8a 60 bd
       0.030556597 0.085472845 0.042199425 -0.054819763
0001a0 e9 a3 9d 3d f4 5f ff bd 60 55 0a 3e 7b ec 92 3c
       0.07697279 -0.124694735 0.1350913 0.017935028
0001b0 ad 75 03 3d af 5c 7d 3e b6 0d 13 bd 97 a1 a5 3d
       0.032094646 0.24742387 -0.035901748 0.080874614
0001c0 a0 63 09 3d 3d fa 12 bd d7 2b 8b bd 5f 68 fd bc
       0.033542275 -0.035883177 -0.06795471 -0.030933557
0001d0 c8 fc b3 3c ba ff aa bd 02 76 4d 3d 92 a2 a3 b9
       0.021971121 -0.08349557 0.05016137 -0.00031210907
0001e0 17 6a 35 3d 1b 98 b7 3d 74 56 9b bd d3 5c be 3d
       0.04429063 0.08964559 -0.07584849 0.092950486
0001f0 6e 7b d1 bc 7e d1 76 bd e8 33 2c bd 9c 16 90 bb
       -0.025571551 -0.06025838 -0.04204169 -0.0043972265
000200 e8 55 94 bc 8a 41 49 3d 3d ee 58 3c 07 d0 d1 3c
       -0.01810737 0.04913477 0.013240394 0.02561189
000210 c8 11 b5 3b e0 89 c1 3b 38 cb 96 bd e5 88 07 3d
       0.0055258013 0.0059063286 -0.0736298 0.033089537
000220 a9 c8 5a 3d 5a 64 b4 bd 93 41 72 3d 81 af 81 bd
       0.05341402 -0.08808203 0.059144568 -0.06332303
000230 5d aa 76 3d ee cf 93 3d 28 f5 48 3d 2a ea 1b bd
       0.060221065 0.07217394 0.049061924 -0.038065113
000240 33 04 8e bd 62 bb e9 3c 1e fe fe bc 0c c1 74 bc
       -0.06934395 0.028531734 -0.031127032 -0.014938604
000250 ad a0 16 bd ad 5c 84 bd de c9 93 bd 6e 11 a7 3c
       -0.036774326 -0.06462989 -0.072162375 0.020394053
000260 78 af 58 bc 71 8f 18 bc 2e aa be 3c eb 95 95 bc
       -0.013225429 -0.009311543 0.023274507 -0.018259963
000270 61 a9 ac bd b6 0d 1b bd 19 b4 9b 3c d8 b3 bd 3d
       -0.08430744 -0.037854873 0.019006776 0.09262818
000280 a4 fb b9 3d 63 a7 fb 3a e2 a8 57 bd 83 9b 42 bd
       0.090812 0.0019199665 -0.052651294 -0.04751159
000290 07 f4 de 3d f3 dd 13 3d f3 42 1e be 56 2d e9 bd
       0.10886388 0.03610034 -0.15455227 -0.113856
0002a0 e4 eb 9c 3c 01 93 3b bd 6a 80 25 bd 13 e7 58 bd
       0.01915545 -0.04579449 -0.04040567 -0.052954745
0002b0 d5 20 e5 bc 78 15 ba 3c 4e 0a 12 3d e1 6e b5 bd
       -0.027969757 0.022715315 0.03565436 -0.08859039
0002c0 6c 01 c9 bc 85 2b 58 3d d7 45 a8 3d 09 5c b2 bd
       -0.02453681 0.05277588 0.08216446 -0.087089606
0002d0 89 11 d9 3c 1c f1 3a bd 11 69 92 bc fb c2 5e bc
       0.02649762 -0.045640096 -0.017872365 -0.013596292
0002e0 d2 5a 2e bd b2 eb 5d 3d 6c 9d 66 3d 3d e2 41 bd
       -0.04256708 0.054179855 0.056302473 -0.0473349
0002f0 70 ef 9e 3d 8c bc 82 3d 52 d9 7d 3d 04 93 d1 bd
       0.07760513 0.06383619 0.06197483 -0.10233119
000300 25 1a 9b bd 48 ed b9 bd b6 d7 fb bb 9a 2e cb bc
       -0.07573346 -0.09078461 -0.007685627 -0.024802495
000310 4f 43 96 bd 6c 0f ac bd a6 93 72 bd 20 17 41 bb
       -0.07337057 -0.08401379 -0.05922284 -0.0029463246
000320 43 99 4b bd 1d 62 93 bd e9 26 3a bd 71 5d 88 3b
       -0.04970671 -0.07196448 -0.045447264 0.0041615297
000330 72 1d 62 bd 44 46 ba bc d9 2a ac 3c ae f6 b9 3c
       -0.055203862 -0.022738583 0.021016525 0.022700634
000340 ef 66 fa bc 25 f9 9a 3d 87 c3 7f 3d 15 d9 93 3c
       -0.03056666 0.07567052 0.06244233 0.018047849
000350 37 75 93 bd b6 60 3d 3c 0a ad 81 bd d0 64 ec bc
       -0.07200091 0.011558702 -0.06331833 -0.028856665
000360 e9 5c 04 be ae 0f 8f 3c c7 17 ed bd 7d 14 51 bb
       -0.12926067 0.017463531 -0.11576801 -0.003190308
000370 f2 30 9b 3c 54 d0 01 bd 45 57 5a 3d be 25 39 3d
       0.018944237 -0.031692818 0.053305883 0.04520201
000380 de fe 62 3d a8 5a 5b 3d 1e a7 3a 3d 3d 18 65 bd
       0.05541884 0.053553253 0.04556953 -0.05593132
000390 a1 09 7c bc 49 71 a7 3c 4a 87 c5 bc c9 68 07 be
       -0.015383155 0.02043976 -0.024112362 -0.13223566
0003a0 bb 23 c5 3d 5f 08 38 bd ec a1 b4 bd 98 f7 c2 bc
       0.09625956 -0.04492986 -0.08819947 -0.023799703
0003b0 05 f7 67 bd 93 ca ef bd fb c8 d3 3c e8 8a 23 bd
       -0.05663206 -0.1170856 0.02585267 -0.039927393
0003c0 32 7e 89 bd f7 15 41 bd e6 24 48 bd 54 76 ba bd
       -0.06713523 -0.047140088 -0.048863314 -0.091046005
0003d0 0f bf fd bc 59 2a 98 bc 5b 6b a9 bc 80 31 0d bd
       -0.030974893 -0.01857488 -0.020681074 -0.034471035
0003e0 51 d7 99 bd ad d2 b7 bd 18 ce c6 3c 53 d2 f6 3b
       -0.075117715 -0.0897573 0.024268195 0.007532397
0003f0 e2 c8 7d 3d 01 d1 1e 3d d2 a9 15 3d 3d 0a 35 3c
       0.061959155 0.03877354 0.036538906 0.011049804
