saved_models/TSLA_model.pth (torch, 800866 bytes, 9 tensors)

lstm.weight_ih_l0 f4 [512, 1]
00000000: be5f e23d 82d2 073d 6065 d83d 532f a1bd
00000010: 01b2 cabc 5522 853d 1ab2 60bd 3194 e8bd
00000020: 7066 6e3d 5f29 0e3e ed38 1f3e 219c 773d
00000030: 9900 593d 865a e23d b725 ba3d 3b58 bd3d
00000040: e9fd 8cbc 4706 8a3d 64b8 babc 412b 8bbc
00000050: 83d5 84bd 2a73 1b3e 555a 0c3e f311 ffbb
00000060: b60f 6c3d 178f d03c c7cc d43d 1fbc 173d
00000070: 83dc afbd 4663 c53c a2d0 cb3c f439 fb3c
00000080: 4f46 2b3d 5500 583d 8a90 a139 256a 093e
00000090: 7ed6 2f3c cbe1 893d 0af0 ed3d 5291 54bb
000000a0: 6281 6f3c 4f78 433d 18b5 0cbd 4130 b83d
000000b0: 637d 823d 0136 15bc e37a eb3d 19c0 b03b
000000c0: f046 003e 2c04 c93d 029b 0f3e fee2 e13b
000000d0: da1c d9bc d93e 22bd 91d8 e13c 373b cd3c
000000e0: 7294 303e 57d6 fe3d 661c a53d 7a9f 87bc
000000f0: 181a 813d 7d90 5b3d 67be c83d dbd7 96bd
00000100: 89dd 093e 42de 283d 0bbd 8e3c 73e9 373e
00000110: 1649 ae3c b3e5 d93d 3572 1fbc a0ff a43c
00000120: dd6e 1b3e 1564 e33d ea36 163c 822b 333d
00000130: 5928 0abd e652 293d e665 4d3d 0cb6 893d
00000140: f6c7 8fbc e414 113e 694f e93c d7db 803d
00000150: 8401 843d 2bb0 ca3d 24b1 acbb d714 b2bc
00000160: d3ca 98bc 68ab 693d c657 d23d 5a9b cabc
00000170: d862 8fba aa29 08bd 9475 efbd 361c 863d
00000180: a0cd 4bbd 32b1 933d 9cbd 103c 713e 873d
00000190: 4ff0 9e3d 794b 91bd fc05 f3bc b894 83bd
000001a0: feb9 71bc 37ad f93d b711 303d c413 273d
000001b0: 9544 e63d 0368 6a3d c514 28bc 5b87 4fbd
000001c0: e7a0 b038 aaaa eebd 0308 86bd 277e f83c
000001d0: ff14 933d 7539 11bc d203 953d 0a3b 103d
000001e0: 5b01 f73d 39e2 e7bb 6431 dbbd 13fc 0e3e
000001f0: d1da 6f3d 4597 553e 6610 7fbc 15fa 713c
00000200: 83d4 d1bd 7cb5 153d 967d f8bb 9379 d0bd
00000210: 424b 56bd 9580 35bb 13bb 26bd 73db 533d
00000220: a9e3 11bc 1e8b 133e 1b4a 223d a913 963b
00000230: b124 953d a964 82bc 06ab e43d 16fd 9cbc
00000240: e93c b6bc 9619 283d cf5c 59bd f35c adbd
00000250: b6f4 02be ebe2 873d 5ca4 323d f4ec 903d
00000260: fc10 02bd b84a a93d 5b83 613b 7cfe 6dbd
00000270: 90c4 bd3c e1dd a13d 8d99 403c f9c8 b9bc
00000280: b22b eb3d b115 483c d6ca 77bb 98f1 dd3d
00000290: 05d6 f23d d89f 2c3d 3c53 d73d 9887 aabd
000002a0: 6006 cd3d c142 c53d 0355 eebc 87ee f53d
000002b0: 757e 783d d4f7 9cbd 3ba5 8c3c c468 b63c
000002c0: 0760 363d d991 f0bd 5c7a 21bd ad2a ba3d
000002d0: 8479 ba3d f5ab 853c 18ba c93d b082 a3bd
000002e0: 66d0 63bc e95e 01bd 65eb 913d 94f5 1cbd
000002f0: aa92 3dbd 61ff 783d c3dd 263c 890d 31bd
00000300: 9438 0c3d 308a 5a3d bdef b93b d1d1 d03d
00000310: 039e 67bd 6b5b dcbd e489 57bd c21f 863d
00000320: 51f3 8fbd 67c0 adbd 1fd4 27bd 9172 d23c
00000330: 0d83 d03c bc51 e2bd 8dd6 fa3c c6cd d6bd
00000340: 0474 0cbd 75b0 0e3e dc96 a0bd 918a e9bd
00000350: 7949 a13d a000 6ebd 3587 d1bd 825a 4dbe
00000360: ad1c f7bb 7f9f e23d 01cc b93d 8cad f63d
00000370: 3380 4d3d 5772 7f3a 205d e1bd 2ac4 fb3d
00000380: 6eea ddbc 7ab1 31bc 2be2 74bd ecbb f5bd
00000390: d1c9 463d bc1a d0bc a40a 8ebc c68b adbc
000003a0: d5d4 61bd a5e2 07be c22b f53d 1fa0 37bd
000003b0: 6f85 86bd ab28 7e3d 7311 f83d e546 b6bc
000003c0: cb36 7d3c bdbd e8bd 08cf bb3c c4ba 0a3e
000003d0: 50ec b1bd 6230 033e 20ec ae3d 5c3e be3d
000003e0: 40a0 323d 9d6b b43d b948 e5bd 46c5 903c
000003f0: 25ce 813d b913 83bd d5db 1c3d 4c1d 95bb
0.110534176 0.03315974 0.10566211 -0.078703545 -0.024743082 0.06500689 -0.05485735 -0.1135639
0.05820316 0.1388297 0.15549059 0.06045163 0.052979086 0.11052422 0.09089225 0.09245344
-0.017210918 0.067394786 -0.022793002 -0.016988399 -0.06486037 0.1518065 0.13706334 -0.007784122
0.05763217 0.025458856 0.10390621 0.03704464 -0.08586981 0.024095189 0.024879757 0.030667283
0.0418151 0.05273469 0.00030816003 0.13419397 0.010732291 0.0673252 0.116180494 -0.003243525
0.01461825 0.047722157 -0.034352392 0.08993579 0.06371572 -0.009107114 0.11498048 0.0053939936
0.1252706 0.09815249 0.14023975 0.0068935147 -0.026503015 -0.039610717 0.027569087 0.02505265
0.17244127 0.12443226 0.08062057 -0.016555537 0.06303805 0.05360459 0.09801941 -0.0736539
0.13463415 0.041227587 0.017424127 0.17960148 0.021275084 0.10639515 -0.009731819 0.020141423
0.1517901 0.111030735 0.009168366 0.043742664 -0.033729885 0.041338824 0.050146006 0.06724176
-0.017551403 0.14168125 0.028480249 0.06291931 0.064456016 0.098968826 -0.0052701402 -0.021738453
-0.018651402 0.05704823 0.10270648 -0.02473228 -0.0010939492 -0.03324286 -0.11692348 0.065483496
-0.049756646 0.07211532 0.008834269 0.06603707 0.07760679 -0.070944734 -0.02966594 -0.0642485
-0.014753817 0.12191241 0.042985644 0.040790334 0.1124355 0.0572281 -0.010258858 -0.050666194
8.4223044e-05 -0.11653645 -0.06544497 0.030333592 0.07181739 -0.0088637965 0.07276119 0.035212554
0.120608054 -0.0070765284 -0.1070278 0.13963346 0.05855829 0.20858486 -0.015567875 0.014769097
-0.102456115 0.03655003 -0.0075833304 -0.101794384 -0.052317865 -0.002769505 -0.04070575 0.051722955
-0.008904376 0.14408538 0.039621454 0.0045799804 0.07282389 -0.01591714 0.11165433 -0.01916365
-0.022245841 0.041040026 -0.053067025 -0.08464994 -0.12788662 0.06635078 0.043613777 0.07076445
-0.03175448 0.082662046 0.003441057 -0.058104023 0.023165017 0.07903648 0.011755359 -0.022678839
0.114829436 0.012212203 -0.0037810109 0.10837096 0.11857227 0.042144626 0.105139226 -0.08326644
0.100109816 0.09631873 -0.029093271 0.12008386 0.060667474 -0.07664457 0.017168632 0.022266753
0.044525173 -0.11746568 -0.03942333 0.09090171 0.091052085 0.016317347 0.09849948 -0.07983911
-0.0139046665 -0.031584654 0.07124976 -0.03832014 -0.046282448 0.060790423 0.010184708 -0.0432258
0.034233645 0.053354442 0.005674331 0.10196269 -0.056547176 -0.10759624 -0.052621737 0.06549026
-0.07028831 -0.084839635 -0.04097378 0.025689395 0.025453115 -0.11050746 0.030619884 -0.10488467
-0.03429033 0.139345 -0.07841274 -0.114033826 0.07875342 -0.058106065 -0.10230867 -0.20054057
-0.00754126 0.11065578 0.09072114 0.1204482 0.05017109 0.0009744516 -0.1100409 0.12293275
-0.027089324 -0.010845536 -0.059786003 -0.11998734 0.04853231 -0.025403373 -0.017339058 -0.021184813
-0.055134613 -0.13270052 0.11971237 -0.044830438 -0.06568419 0.062050503 0.12112703 -0.022250602
0.015454958 -0.11364315 0.022925869 0.13547808 -0.08687651 0.12811425 0.08541131 0.09289238
0.043609858 0.08809588 -0.11195511 0.017672192 0.06338147 -0.06400246 0.038295586 -0.0045506116

lstm.weight_hh_l0 f4 [512, 128]
00000000: ee93 15be 79f2 133e be38 863d b86c 023e
00000010: 6bcf 923d 0817 f83d 3d1e 75be 8f1f abbd
00000020: d6e5 a83d 7c82 553b 012d db3c 0205 9b3d
00000030: 7892 c2bd 4e9b 9abc 237f 043e 00fd 203c
00000040: 8032 ee3d 3844 19bd e987 a7bd 45b1 48be
00000050: 4dcc 51be 39c4 9a3c 271e 31bc c4f2 dc3c
00000060: 10a0 3bbd 125c 9e3c a46f 033d 9d7a d5bd
00000070: 9794 c73c 94ee cbbd 0b62 d9bd 26f2 1a3e
00000080: 1beb fe3c 170e 913c 42f1 0fbd 1885 763b
00000090: 901d ae3d 5d63 f6bc c1b0 703d 0ae7 ff3d
000000a0: 0b45 3abc bd47 75bc 6cb3 3c3d 5353 cd3c
000000b0: 56ea 8c3d 74e0 02be e0f8 1cbe a7a7 e03d
000000c0: d119 e0bd d45e 0fbe 7702 c13d 05e9 cdbd
000000d0: e38c 3e3e 2203 113e 6994 7b3c 6bd7 1abc
000000e0: 160c 22bd 9e7a 88bd 6145 5a3b 3924 a23d
000000f0: 9210 52be 9502 1c3e 8911 69bd f46a 3dbe
00000100: 6689 033d 7916 2a3d d481 a4bd 5e72 b43c
00000110: 20de 183d 9948 da3d 8fa7 e13c 01b1 e8bd
00000120: 0c08 11bd 7935 e9bd 7bc6 bb3c 72a3 acbd
00000130: 4107 503d 9cd3 50be 7ab8 cb3c 300f fa3d
00000140: 483c 96bd 7a9f 3b3c 7bc9 5dbe cdd5 163e
00000150: 4597 77bb 9d12 ec3d 296c df3d fa53 3ebe
00000160: 3ee9 2cbe 8e22 d73b 1277 fc3d 8079 9dbd
00000170: 4d90 343d acf7 32be 9060 35be 69d4 543d
00000180: e101 a8bd 4abd af3b 7e94 c6bd 3bc4 0b3d
00000190: 1c57 f7bd cefd 193e 43d8 babb 6f2f b13b
000001a0: d53f e9bd 9bd2 f4bc ad88 fc3c 5afd 6e3e
000001b0: 7022 2ebe 1a73 a53c 78de 02bc e14a a93d
000001c0: 3f20 803d 157a ec3c 0107 ff3c e18e 463d
000001d0: c903 16be e8e3 c13d 5326 19bc c89a d03d
000001e0: d41c 58bc 0903 c9bd f211 1cbe 7585 17bd
000001f0: e678 3cbd a4fa e6bd b5fd 0b3d 9400 153d
00000200: 330d 9dbc c53d 78bd c31c aabd 174d f63c
00000210: 1b3b 8d3d 9f3c 26bc 566c 51bd 54c2 7a3c
00000220: e251 263d 3259 e63b eec0 203d 62ec 6b3d
00000230: 30f6 963d fa80 8a3c 93ee 8539 efd7 45bc
00000240: cb19 82bb 2103 89bd b590 76bd 86da 123b
00000250: 6f5d e73d 4a28 773b 8133 6ebd 995b 0cbd
00000260: 7188 4bbd 27da 37bd 0779 b7bd 03ef dc3c
00000270: 00b1 e9ba eb0b dabc 8b11 103d 3105 f53c
00000280: 8fa7 9c3c 762a 9f3c 798c 803d 1264 1bbd
00000290: 39cb ad3c 6187 99bd 8914 823d 95a2 2dbd
000002a0: 3df9 40bd 01aa 2d3c a197 95bc 17a2 76bd
000002b0: b2d9 933d be34 5d3d c6c2 29bd a03a e2bc
000002c0: ddc8 ebbb da7b 91bd 1616 8ebd eb3e a83b
000002d0: 5fe5 03bd 59b0 583d 7a0b c3bc 5f12 0dbd
000002e0: bab6 4dbc bccd babd 47cb 0fbd 2b5e 9c3d
000002f0: d664 89bd 437b 04bd 0225 aabd c6d2 a13c
00000300: 3677 a53d bdc7 dfbc 1a40 a93d 6956 85bc
00000310: 62cc 443b ab42 fa3c d336 2c3c 075a b4bc
00000320: 1360 b9bd 488e 97bd b573 423d 68c4 0e3d
00000330: 2ec1 a93c 07ba 7bbc 354d 02bd 219e a9bd
00000340: 6547 763d 8a20 663d d4f7 1f3b c788 25bd
00000350: bcf3 2d3d 7798 4f3d eba4 993c f38e 06bd
00000360: 2e0b a4bd e596 823d 2b23 d6bc 117e d6bc
00000370: e98d 9f3c e4b1 753d 80c3 cc3d b55e a93d
00000380: 8805 f9bc 5567 ebbc c1f3 08bd 9b8a 6c3d
00000390: 38f4 76bd cbd9 d9bc d9bf 98bd e2d5 11bd
000003a0: 7ae5 043d bf1d be3c 3ec3 46bd 97d6 013d
000003b0: 166a 643d 320f a4bc 45e6 053d bffb b0bd
000003c0: 086b d83c 3621 0a3d a31e 4dbc ee8c ddbc
000003d0: 8be0 543d 1023 3abc 8d75 79bd 66ed 2abd
000003e0: c1d4 56bb 67ce 213d d6dc 7b3c 8307 393d
000003f0: e687 81bd bcd1 6cbd 7ecc ec3c 0e97 f63c
-0.14607212 0.14447965 0.065537915 0.12736785 0.07168468 0.12113768 -0.23937316 -0.08355629
0.08246963 0.0032578995 0.026754858 0.075693145 -0.09500593 -0.018872883 0.12939124 0.009825945
0.11630726 -0.037418574 -0.0818022 -0.19598873 -0.20488091 0.018892394 -0.010810412 0.026971228
-0.045806944 0.019331012 0.03208889 -0.10423777 0.024362845 -0.099576145 -0.10614403 0.15131435
0.031117966 0.017706914 -0.03514219 0.003761595 0.08501732 -0.030076677 0.058762316 0.12495239
-0.011369 -0.014970717 0.046069548 0.025064146 0.068806335 -0.12780935 -0.15329313 0.10969477
-0.10942424 -0.14001018 0.09424298 -0.100542106 0.18608432 0.14161351 0.015355208 -0.009450774
-0.039562307 -0.06664012 0.0033305513 0.07917065 -0.20514134 0.1523536 -0.05690149 -0.1849783
0.032113455 0.041525338 -0.08032575 0.02202719 0.03732121 0.10658378 0.027545718 -0.11361886
-0.035408065 -0.11387152 0.022921791 -0.08429612 0.050788168 -0.20393223 0.024868239 0.12209928
-0.073357165 0.011451596 -0.2165889 0.14729996 -0.0037779373 0.11526988 0.10909302 -0.18586722
-0.1688585 0.0065653985 0.12327398 -0.0768919 0.04408293 -0.17477292 -0.17712617 0.051960383
-0.082034834 0.005363141 -0.096962914 0.034122687 -0.12077162 0.15038225 -0.00570205 0.005407266
-0.11389128 -0.02988558 0.03082689 0.23338833 -0.17005324 0.020196486 -0.007987611 0.08266235
0.062561505 0.028866807 0.03113127 0.048476104 -0.14649881 0.09467298 -0.009347516 0.10185772
-0.013190467 -0.09815032 -0.1524122 -0.03699251 -0.046013735 -0.11278275 0.0341775 0.036377504
-0.019171333 -0.060605783 -0.08306267 0.030066056 0.06896039 -0.010146289 -0.051128708 0.0153051205
0.040605433 0.007029676 0.039246492 0.05759848 0.07371175 0.016907204 0.00025545488 -0.012075408
-0.00397036 -0.0669005 -0.060196597 0.0022408082 0.11297118 0.0037713223 -0.058154587 -0.03426704
-0.049690668 -0.04488578 -0.08958631 0.026969438 -0.0017829239 -0.026617011 0.03517298 0.029909702
0.019122867 0.019429427 0.06276793 -0.03793723 0.021215068 -0.074965246 0.06351573 -0.04239138
-0.047112692 0.010599614 -0.018260779 -0.060213175 0.072192565 0.054005377 -0.041445516 -0.027615845
-0.0071955756 -0.07103701 -0.06937806 0.0051344535 -0.032201167 0.052902553 -0.023809183 -0.03444135
-0.012555772 -0.09121272 -0.03510597 0.076351486 -0.06708686 -0.032344114 -0.0830784 0.019753825
0.08079378 -0.027316922 0.082641795 -0.016276555 0.0030029048 0.030549368 0.010511118 -0.022015585
-0.09051528 -0.07400185 0.047473628 0.034855276 0.020721998 -0.015364177 -0.03181191 -0.08282114
0.06012668 0.056183375 0.0024409192 -0.040413644 0.04246877 0.05068251 0.018755397 -0.03285117
-0.08009945 0.06376437 -0.026139816 -0.02618316 0.019476848 0.059984103 0.09998226 0.08270017
-0.030398145 -0.028735796 -0.033435587 0.057749372 -0.0602915 -0.02659311 -0.07458467 -0.035604365
0.03244541 0.023207543 -0.04852604 0.03169879 0.055765234 -0.020026777 0.032690305 -0.08641767
0.026418224 0.03372308 -0.012519511 -0.02704474 0.051971953 -0.011360899 -0.06090312 -0.041730307
-0.003278062 0.03950348 0.015372476 0.04517318 -0.06324749 -0.057817206 0.028906103 0.030101325

lstm.bias_ih_l0 f4 [512]
00000000: 937b 8e3d b585 7e3b dbc1 5f3c 986b d0bb
00000010: 7ef6 353e 92cb 68bd 0b78 e03b e024 5c3d
00000020: c277 c5bc e5d9 633d 3f52 95bc 4371 8a3d
00000030: 755b 023d 0665 6f3d abd6 74bb 3f2a 063c
00000040: c97b c2bd 88aa 083d 5b56 af3d 6bfd 83bc
00000050: 7388 573d be76 1e3d 80b6 4ebd c4aa 4fbd
00000060: 877d 0bbd a6d0 ca3c ab02 6b3d 8caa 423e
00000070: cda1 e93c 0e5b af3c 081b 86bd 1d57 75bb
00000080: a1a1 2dbd ab2b 6abd 53e5 623d cad1 7e3d
00000090: dfa8 023d 6533 543c 850b c9bc 947a 21bd
000000a0: 7993 d13d 606f 66bd 165e 6b3c 458f 92bd
000000b0: 8476 0f3e 83eb 8dbd ff34 83bd 56c8 4fbc
000000c0: 97e3 4ebd ad71 f93d d421 b23c f29d a7bd
000000d0: b2ad 303d 3f9e 883d 7e4b bbbc 275f c5bd
000000e0: 99f1 a03d b273 e73d 3810 bc3c d628 94bd
000000f0: 7461 173d 0672 df3d 6eb3 983d 7e16 5a3d
00000100: f740 33bc 13b4 79bd 2310 b33c d0ac 183e
00000110: be63 4abd 6f72 2f3b 9a71 bc3d ace5 2ebd
00000120: 39ac a33c e8da 713d de68 0d3d 2850 1fbd
00000130: fd97 d6bc d9ec b33d 7b25 50bd 253c 133e
00000140: 8671 843c 5056 7f3d 45a7 c0bb 5905 193c
00000150: 8c4b 8a3d 3008 243e ed3e f63d 443b 8ebc
00000160: e172 a93d 4ded b03d 3135 ec3c 3543 afbc
00000170: a882 fe3d fe53 d03d 8fc5 1c3d 1a48 083d
00000180: e08c d0bd 3b22 013d 9887 1b3d 00b3 ac3d
00000190: 1cc8 9fba 2cc2 bc3a 5b78 ec3c bdb8 e73d
000001a0: 71a9 183d d557 c83e d491 8b3d 7f8f 36bc
000001b0: bb94 4a3d 9b67 7b3c 88c2 103d 6725 aa3d
000001c0: f72a b23d 23f2 693c bf84 de3c 1f94 583d
000001d0: 5ff4 823d 675d 46bc 418b 693d 1b30 923c
000001e0: 81ac 4d3d 4941 4abc 354e 853d 58c3 823c
000001f0: a718 60bd 4f7c 2f3e b68d 0b3c 8eb8 3a3e
00000200: 16e9 60bd 3bbf 1bbc c8d1 923d 9ac6 54bd
00000210: e7da 49bc f064 853d 40a2 273d 45cf 47bc
00000220: 8a50 bcbd f414 a13c 803e 27bc 9fc8 2f3d
00000230: 2445 81bd 46b0 9e3d cc14 84bd e189 03bc
00000240: 7646 493d 6145 8e3d 8272 80bd dffb bfbd
00000250: ad7f 8d3d e894 903c 2969 753d 32b2 81bb
00000260: ad01 ae3c d5f3 abbd 3ed1 f33c 15d1 44bb
00000270: 70b1 8c3d 032d 94bd dfc6 a03b 87f4 9f3d
00000280: 8127 7f3d f60a 9d3c f1d2 72bd 1c8a 9e3c
00000290: 6399 123c 8685 743d 3dba 713d e540 cd3b
000002a0: 2ce7 9cbd 9928 1fbb 9535 c7bc efc1 90bd
000002b0: 668e 99bb 3448 88bd 0bc6 a5bd 3aed 25bd
000002c0: 672f 9f3d e219 6ebd 5f74 69bd 18fd 63bd
000002d0: ba96 33bd 9d7f 1c3d ac58 9d3d 5dfb c53c
000002e0: 4b44 52bd f9e1 2c3d 1199 9ebc 2018 b4bd
000002f0: 1d41 363d 86da 6e3d 2ed2 8b3c 7325 9bbb
00000300: e459 0fbd 26e0 4d3d 9eaa 6e3d 30b2 92bc
00000310: 0925 b8bc dc6c 203d 606f 303d f4e3 16bd
00000320: 482f 76bd 6062 c13d e494 a83d 1b5e b6bb
00000330: 4dec 4abd 9076 983d 16a6 92bd 03f8 663d
00000340: dc53 6abd 8173 b5bc 2c48 82bd 22d8 81bc
00000350: cad5 45bd 917c 95bd 2207 8dbd bb76 b53c
00000360: daf9 f2ba 3f95 af3a 9a13 7fbc b914 2f3b
00000370: fea8 20bd 9af7 863d 8cc3 97bd b26f 21bc
00000380: 7373 393d beb4 93bd a231 9bbd 7915 23bd
00000390: 23df 80bd 2dd1 b3bd 40b7 7d3c 75eb c4bd
000003a0: 09b6 913b 18c2 adbd 1583 773d 4842 5c3d
000003b0: f539 083d bd06 7ebd 75ea 67bb 47c4 43bd
000003c0: d7ed 75bd 38c5 b4bd 8857 a8bd 626a 29bd
000003d0: 59ee eebd 9b78 15bb fc34 943b e291 c2bc
000003e0: 0d10 98bc fa98 5d3c d156 d13c 9d22 a8bd
000003f0: 946c c7bc 5d14 ccbd 2e3b 133d 9ff1 8f3c
0.06957164 0.003883702 0.013657059 -0.0063604824 0.1776981 -0.056834765 0.0068502477 0.053746104
-0.024104957 0.055627722 -0.018227695 0.06759884 0.0318255 0.058445953 -0.0037359397 0.008188783
-0.094962664 0.033365756 0.08561393 -0.01611205 0.052620362 0.03868746 -0.050467014 -0.050699964
-0.03405526 0.024757694 0.05737559 0.19010371 0.028519535 0.021405723 -0.065481246 -0.0037435957
-0.04239047 -0.05717055 0.055394482 0.06221179 0.03189933 0.012951707 -0.024541626 -0.03942354
0.10233206 -0.05625856 0.014365694 -0.07156233 0.14010054 -0.06929686 -0.064065926 -0.012682041
-0.050510015 0.12179885 0.021744646 -0.081844226 0.0431344 0.06670808 -0.022863146 -0.096372895
0.07858581 0.11301364 0.022956952 -0.07234351 0.036958173 0.1091042 0.074560985 0.053244106
-0.010940782 -0.060962748 0.02185828 0.14909673 -0.049411528 0.0026771089 0.09201355 -0.0426995
0.019979583 0.059046656 0.034523837 -0.038894802 -0.02619552 0.087854095 -0.050816994 0.14378412
0.016167413 0.062338173 -0.005879315 0.009339654 0.06752691 0.16018748 0.12023721 -0.017362244
0.082738645 0.086390115 0.028833957 -0.021394351 0.124272645 0.1017227 0.038274344 0.033271886
-0.1018312 0.031526785 0.03797111 0.08432579 -0.0012190375 0.001440113 0.028865984 0.11314533
0.037270967 0.3912951 0.06814924 -0.011142611 0.049458247 0.015344526 0.03534177 0.08307915
0.08699601 0.014278921 0.027162908 0.052875634 0.06394266 -0.01210723 0.05701757 0.017845204
0.05021334 -0.012344667 0.065090574 0.015962288 -0.05471101 0.17137264 0.008517673 0.18234465
-0.054909788 -0.009506042 0.07168919 -0.051947214 -0.012320257 0.06513393 0.040926218 -0.012195413
-0.09195049 0.019663312 -0.010207772 0.042915937 -0.06312016 0.07748465 -0.06449279 -0.008028478
0.049139462 0.06946827 -0.06271841 -0.093742125 0.06909118 0.017649129 0.05991474 -0.00395801
0.021241033 -0.08396117 0.02976286 -0.003003185 0.06869781 -0.07235148 0.00490652 0.07810312
0.062293533 0.019170266 -0.0592832 0.019352965 0.008947703 0.05969765 0.0590155 0.0062638395
-0.0766128 -0.0024285673 -0.024317542 -0.0706824 -0.0046861647 -0.06654397 -0.08094414 -0.04050944
0.07772713 -0.058130153 -0.056995746 -0.05566129 -0.043844916 0.03820764 0.076829284 0.02416771
-0.05133466 0.04220769 -0.019360097 -0.08793664 0.04449569 0.05831387 0.017067995 -0.004734689
-0.034997836 0.050262593 0.058268182 -0.017907232 -0.022478597 0.039166316 0.043074965 -0.036838487
-0.060103685 0.09442592 0.08231524 -0.0055654175 -0.04954176 0.07444489 -0.07160585 0.056388866
-0.05720888 -0.022149803 -0.06361422 -0.01585013 -0.04829959 -0.0729915 -0.06886126 0.022151342
-0.0018537596 0.0013395919 -0.015568638 0.0026715233 -0.039223664 0.06590195 -0.074103445 -0.00985329
0.045276117 -0.07212208 -0.07577826 -0.0398154 -0.0629256 -0.087801315 0.015485585 -0.09615222
0.004446749 -0.08484286 0.060427744 0.05377415 0.033258397 -0.062018145 -0.003538755 -0.047794607
-0.060041275 -0.08826679 -0.0821982 -0.04136122 -0.11666555 -0.0022807482 0.004522918 -0.023751203
-0.018562341 0.013525242 0.025554093 -0.08209727 -0.024343766 -0.099648215 0.03594511 0.017571269

lstm.bias_hh_l0 f4 [512]
00000000: 28d6 0f3e aa67 083d dace 743d 3598 ebbc
00000010: 60ef a93d 8ae1 33bd 96a8 9b3c dd49 1fbd
00000020: 4b43 a2bd c444 9ebc dba8 91bc 23e7 733d
00000030: 7393 3fbd 9970 8c3d 204e b43c 5c98 d6bd
00000040: 766b 593d d19d 90bd abc9 033b a7c8 a33d
00000050: d136 a93d 9405 173d cf5d cb38 de00 1abd
00000060: 503f 303d a192 b1bd c7e1 bc3c 0f8a e03d
00000070: 5b47 9cbb 8ec2 b03c 7422 023d 20fd dc3d
00000080: e9ba 94bd c8f1 83bd 6800 48bd 24e9 97bd
00000090: 2ec2 643c 51fc 26bc 6d9f 2f3d 38b9 b03b
000000a0: 701d 973d 42f1 d3bc 1832 0e3e 1ecf 353c
000000b0: 1d5f 9c3d 27f7 893c f838 853d 6f00 c1ba
000000c0: 5301 d43c 3e17 063e 3f60 4e3d 8d8e 393c
000000d0: d2be bbbd 51a0 42bd a60b b8bc 85f1 dcbd
000000e0: b8d8 0e3e 2736 d13c 35b1 79bd 9e94 87bd
000000f0: ffdd 023c cea0 ca3d fada 753d f9a2 013d
00000100: 5043 26bd 73e1 14bd 8513 cdbc 9ca0 f6bb
00000110: 0a80 c83c 80f4 633c 5838 103d 42a9 c0bc
00000120: 14d5 a33d 5adc 063e 0366 abbd 3fc5 c1bd
00000130: 3069 60bd 7daf c43d 049f 053c 6db4 07bb
00000140: 3286 d83c d956 e23d 564c 663d 35b3 6fbc
00000150: ecc6 84bd 8815 103e 39ec 1c3e 6fbb 163d
00000160: a769 873d 21e2 bd3d a371 c83d 00db 0d3d
00000170: a35e 6d3d aa45 343e f970 8d3d dcd3 2fbd
00000180: 7675 ccbd ff8d 403d 1805 e6bc ba96 e13d
00000190: bac6 adbb ebed 163d 3f1f 36bd db58 423d
000001a0: f48b 3fbc fbbb 913e aa29 8dbd df5c 443d
000001b0: 414b d83d ed9c 35bd cb11 a93d e517 32bc
000001c0: 86fa 75bc 23ef c9bd 3f10 a5bc 60d7 f33d
000001d0: 2464 0f3e 33f7 7c3d 402c 563c 8314 c33c
000001e0: d250 5b3c ba37 f83c bbab 0cbd 7620 8b3d
000001f0: 8147 69bd 1604 1b3e a1e1 97bd 3bac fc3d
00000200: 1f3e b5bc d0fd 313d 4bc5 293d 9e96 15bd
00000210: 6ada f1bb 4a4e 893d 172c d73d 83ae 41bd
00000220: 77a0 7cbc 34f6 7cbc 62a5 0ebd 8ec3 8ebd
00000230: 792b 17bd 1340 ddbc 524f 0abd 7acd 533d
00000240: da42 8cbd 582e a7bc 4a57 b0bc 04ce 763d
00000250: c904 de3c bdd7 b03d 8403 0d3d f824 4c3d
00000260: d420 eebd 55a7 8b3d ee7c 9dbd 7f46 fcbb
00000270: bb9b 153d 42a3 55bd a2f0 363d e977 913d
00000280: 263e 973d 0c01 023c c28b a63d 9a2a dabd
00000290: 8ef9 eebc 0c30 873d 5cfe 893d cc50 ecbd
000002a0: 78c7 4d3d cf0b 4d3c eb82 e0bc 49ae 6e3c
000002b0: 6db3 dbbd a0cb 583d efea 5d3d edb6 7a3a
000002c0: d345 9f3d f85d 14bd 5f31 80bd 1b38 8abd
000002d0: c858 41bd df56 93bc fa31 6cbd d13a 103d
000002e0: 2741 d03c 1493 db3c 450e c0bc 10eb 84bc
000002f0: 0358 c1bc 5ab8 cdbb 2b29 6abd 1560 b83b
00000300: fe72 153d 1e5e 613c 86d6 acbd 323c be3d
00000310: bd56 c9bc 78f3 adbc d6a2 d5bc 4829 e8bc
00000320: 77b4 5ebb f77b 6ebc cc4d c1bc 2c67 59bd
00000330: 64b2 56ba 2bfa d53d a856 74bd 9f5a 2f3c
00000340: 517b b53c 2f88 89bc 5f7d 63bc 291d 943b
00000350: 0e92 afbd 4302 f3bc db96 dfbd d89f 353d
00000360: 66dc b1bd 80f1 51bd 8abf 8dbd 1cd3 89bc
00000370: b8b5 d5bd 2145 703d fffb e63c c257 1abd
00000380: 7992 803c 09e6 78bd 003a 833c 052a 2abd
00000390: 2df5 87bc db97 1ebc 8275 3d3d 4f32 753c
000003a0: 7dbd 583d d674 b9bd 26fb 9c3c 2da9 973c
000003b0: 21c0 6d3d a688 a43c 29de 133d e158 463d
000003c0: de74 afbc 888e a6bd 71fb df3c c44f 253d
000003d0: e857 393d 6faa 41bd b9ba 833d db1d 8fbd
000003e0: d53c 7c3d d3c2 963c 12cd 36bc b3d1 6fbc
000003f0: 646d fa3c 426a 37bd 90de d0bd c6d2 16bd
0.14046538 0.033301987 0.05976758 -0.028759101 0.0829761 -0.043916263 0.019001286 -0.0388888
-0.07922991 -0.0193199 -0.017780712 0.0595466 -0.046771478 0.06857414 0.02200991 -0.10478279
0.053081 -0.07061351 0.0020109217 0.07997256 0.082624085 0.036870554 9.6972675e-05 -0.037598483
0.04302913 -0.08670545 0.023056878 0.109638326 -0.0047692484 0.021577146 0.03177114 0.10790467
-0.07262213 -0.064426005 -0.048828512 -0.07417515 0.013962312 -0.010191993 0.04287665 0.0053931735
0.07378662 -0.025871877 0.13886297 0.011096744 0.07635329 0.016841484 0.065050066 -0.0014724861
0.025879538 0.13094804 0.050384756 0.011325491 -0.091672555 -0.04751617 -0.022466492 -0.10788254
0.13949859 0.025538517 -0.060960013 -0.06620143 0.007987498 0.09893952 0.060023285 0.031649563
-0.040591538 -0.036347818 -0.025033722 -0.0075264703 0.024475116 0.013913274 0.035209984 -0.023518208
0.07999626 0.13169995 -0.083690666 -0.0946145 -0.054787815 0.09603784 0.008155588 -0.0020706907
0.026431177 0.11051721 0.056225143 -0.014630129 -0.06483254 0.14070714 0.15324487 0.036799844
0.066119485 0.09271646 0.097872995 0.034632683 0.05795158 0.176047 0.069063134 -0.042926654
-0.099833414 0.047010418 -0.0280786 0.11015077 -0.005303231 0.03684799 -0.044463392 0.04744802
-0.011691082 0.2846373 -0.068927124 0.04794013 0.105612285 -0.04433911 0.08255347 -0.010869955
-0.015013343 -0.09860065 -0.020149348 0.11906314 0.14003044 0.061759185 0.013072073 0.023813492
0.013385968 0.03030001 -0.034343462 0.06793301 -0.056952957 0.15138277 -0.07416082 0.12337538
-0.022124348 0.043454945 0.04144792 -0.036520593 -0.0073807733 0.067043856 0.10506456 -0.047285568
-0.015419117 -0.015439559 -0.03482569 -0.06970893 -0.036906693 -0.027008092 -0.033767052 0.05170963
-0.068486884 -0.02040784 -0.021525998 0.060255066 0.027101891 0.08634899 0.03442718 0.049839944
-0.11627355 0.068190254 -0.07689844 -0.0076988335 0.03652547 -0.052157648 0.04466308 0.07102949
0.07384901 0.00793482 0.081321254 -0.10652657 -0.029171731 0.06600961 0.06737968 -0.11538848
0.050239056 0.012515022 -0.027406177 0.01456792 -0.10727582 0.052928567 0.05417913 0.0009564001
0.0777699 -0.036222428 -0.06259417 -0.067489825 -0.04720381 -0.01798576 -0.05766485 0.03521234
0.025421692 0.02680353 -0.023444304 -0.016225368 -0.023601538 -0.00627808 -0.057168167 0.0056266882
0.03648662 0.013755349 -0.084393546 0.09288825 -0.024577493 -0.021234259 -0.026078623 -0.028339997
-0.0033982077 -0.014555923 -0.023596667 -0.053076908 -0.00081900344 0.104481064 -0.059652954 0.010702758
0.022153528 -0.01678857 -0.013884871 0.0045200777 -0.085727796 -0.029664164 -0.10917445 0.044341892
-0.08684616 -0.051255703 -0.06921299 -0.016824298 -0.10435051 0.058659676 0.028196333 -0.03768135
0.015694844 -0.060766254 0.016018867 -0.04154398 -0.016596401 -0.00967976 0.046254642 0.014965608
0.052915085 -0.09055488 0.019162726 0.018513286 0.058044557 0.02008469 0.03610054 0.048424605
-0.021418031 -0.081326544 0.027341576 0.040359274 0.04524985 -0.04728168 0.06432099 -0.06988116
0.06158145 0.018403446 -0.011157291 -0.0146373985 0.03056974 -0.04477907 -0.101987004 -0.036822103

lstm.weight_ih_l1 f4 [512, 128]
00000000: 4f63 5cbd e950 15bd 77e2 d4bd b659 f33d
00000010: e1a9 483e 5358 cb3d b7a9 10be 05e0 343d
00000020: d26f 78bd 41c2 3bbd 9833 223c 3dd0 64bd
00000030: 06b8 1bbe 8da6 2a3d 2270 bebd 5f4d 643d
00000040: 3d44 463d 1bf7 9f3c 647d eabd 4a69 b1bd
00000050: d959 53be af99 9e3d ef6c ce3c 7f35 4dbd
00000060: f941 2ebd 80f9 033e 09c6 aebb de72 53be
00000070: 7ef7 10bd d6d9 aabd 8df7 35bd 5570 293e
00000080: 6f86 863d 970c 7bbd 328d d43d e053 a0bd
00000090: d529 773d 252a f6bc a92b 4b3d c66d f53d
000000a0: a68c 27be d5d4 a0bd df73 313e 7a27 133d
000000b0: 6f00 6ebe 3f8a 2ebe a163 cfbb 9183 69bd
000000c0: f337 a3bd c861 a4bd 39f9 84bd e13d 1ebd
000000d0: f4ab 463d dc5c 173e e36c b03c be74 b639
000000e0: b02d 2cbd 478e f43b f70e ce3d 0105 0c3e
000000f0: d089 87bd edf2 443e 6866 bebc 3215 6bbd
00000100: aa96 1e3b 290a 1cbe dd1b e53b 919d c6bd
00000110: bac3 8bbd 418b 4d3d 26b2 a43b 4c0b 4d3d
00000120: 3da5 1bbc 263d 05be c591 93bc b241 a8ba
00000130: 78ac 183e 6fe6 e7bd 2548 d5bd 0704 2e3e
00000140: d308 5ebe e27a f6bd 78fe 41be 9f02 093e
00000150: 9d66 0e3c a840 583e 9de3 3b3e fd61 85be
00000160: eec0 043c 6f18 d73b de42 b43d e2b5 373c
00000170: c1fa 71bd 9535 06be bcd3 93be b60a bf3d
00000180: 46bf 683d 3a8a cd3c 44d3 35be ca8f 0d3e
00000190: 78be 21bd e433 533e 4445 443d cbf6 9cbd
000001a0: f60c cd3d 16d8 20be ae4c de3c 084f 233e
000001b0: 536e 5cbd 7e5f e33c c27f 3ebd 2beb 303e
000001c0: eecd a4bc 2b05 1d3e 6c36 9cbd 3fdf 413e
000001d0: 9bac 3cbe 7b19 6cbc 35e5 87bc 8bdd 9abd
000001e0: 2eec a8bd 9336 59bd c724 7dbe b675 87bd
000001f0: 08c0 fdbd 037d 71bd 5487 6abc b65f 6dbe
00000200: e014 fc3c d2a8 863b f7bc abbd 33d3 d83d
00000210: 5ded c2bd b4a5 b8bd 2fd0 afbd 8ca4 febc
00000220: 0166 54bc 5029 9cbd 146f 9cbb 18ff 4cbd
00000230: bd49 693d 798b 88bd 08e2 563d 8689 41bc
00000240: 3d99 86bd e61c 8c3d fbf8 a13d a358 343d
00000250: e941 3fbe fecb ed3c 2008 76bd 810f 753d
00000260: a1e4 9b3d 64bd 84bd 53aa 33bc 540e 8cbd
00000270: 9bd4 d53c f317 4ebd 155f 53b9 1999 983d
00000280: 25e1 3cbd 9a56 f9bc 2524 153d 3ae5 893d
00000290: f8c7 17bd 2f40 3e3d 203b e4bc 07ca 6b3d
000002a0: 94b8 a83a 5f2d 2bbd 06cd 303e 4c57 82bc
000002b0: d55d adbd 19ec 8abd 1c40 adbd 93a2 3ebc
000002c0: 002d 82bd e8e5 9ebd 598b 3b3d 1ee0 5bbd
000002d0: a9c5 83bb 468b 323e 7de2 8cbd 10fa 3c3d
000002e0: d806 1fbd c623 a4bd b936 933b f00e 243d
000002f0: b525 7dbc 8140 b73d 2ff0 9f3d b0a0 61bd
00000300: b741 fdbc d5ee 9a3c 4f03 c73b e1aa b73c
00000310: 44f5 1a3c 8b8e 053d 8b5b 8abc a82d 04bd
00000320: 8504 14be bff2 22be 09e7 ac3d 43af d43c
00000330: 0dca ec3d 1130 10be 82b3 8d3d 2a30 113b
00000340: 84fb febc 44f4 0b3d dfa8 f7bd 6a5e c53d
00000350: 32e4 8b3b 3413 0dbd b3f6 6e3d 3c7f 44be
00000360: 8927 c6bd 68b7 31bd cc4c 613d 5570 86bd
00000370: f254 323d 0be8 70bd 17c1 e4bd 95c4 833b
00000380: 5d39 78bd 2752 563d 4c49 ddbc a4c6 df3d
00000390: 9834 883d 3810 d73d 8079 6b3d 5cd5 8b3d
000003a0: 5eea 963d 8702 473e 941b b5bd 2eea f33d
000003b0: 3603 d7bc 021c 343d 24d3 1ebd 0ff8 01bd
000003c0: d57b a23b 74b0 2c3e f6a3 b8bc c906 d63c
000003d0: 6d09 98bc d778 b43d 0704 26bc c7d1 96bd
000003e0: 7dbf 043d ea77 06be f92c 7fbd 5b73 533d
000003f0: 9157 613d 1ff9 a8bd ee05 8c3d 0d61 43bc
-0.053805646 -0.036454115 -0.10394757 0.118823454 0.19596054 0.09928956 -0.14127241 0.044158954
-0.060653515 -0.04583955 0.009899996 -0.055862654 -0.15206918 0.04166274 -0.092987314 0.05573785
0.04840492 0.019527009 -0.114496976 -0.086626604 -0.20639743 0.077441566 0.025198428 -0.050099846
-0.042543385 0.12888145 -0.005333666 -0.20649287 -0.035392277 -0.0834233 -0.044425536 0.16546758
0.0656861 -0.061291303 0.10378493 -0.07828498 0.06034263 -0.030049393 0.049602184 0.11983828
-0.16362247 -0.078530945 0.17329358 0.03592632 -0.23242353 -0.17044924 -0.0063290154 -0.057010237
-0.07969656 -0.08026463 -0.06492848 -0.03863323 0.04850383 0.14781517 0.021536296 0.00034800725
-0.04203576 0.00746325 0.10061448 0.13673784 -0.066180825 0.19233294 -0.02324219 -0.05739326
0.002419869 -0.15238251 0.006991847 -0.09698022 -0.06824441 0.05018163 0.0050261198 0.0500596
-0.009499845 -0.13011608 -0.018013844 -0.0012836962 0.14909542 -0.113232486 -0.10414151 0.16993724
-0.21683054 -0.12035157 -0.18944728 0.13379906 0.008691457 0.21118414 0.18348546 -0.26051322
0.008102639 0.006564192 0.088018164 0.011212798 -0.05907703 -0.13106377 -0.28872478 0.09328215
0.056823038 0.025090326 -0.17756373 0.13824382 -0.039488286 0.20625263 0.04791762 -0.076642595
0.10012238 -0.1570743 0.027136173 0.15948117 -0.05381615 0.027755495 -0.046508558 0.1727721
-0.020117726 0.15334003 -0.07627568 0.18932818 -0.18425219 -0.014410372 -0.016588787 -0.07561787
-0.08248173 -0.05303056 -0.2472106 -0.066142485 -0.12390143 -0.05895711 -0.014314491 -0.23181042
0.030771673 0.0041094804 -0.083856516 0.10587158 -0.0951793 -0.0901598 -0.0858463 -0.031084321
-0.012963773 -0.07625067 -0.0047739837 -0.050047964 0.056955088 -0.06667227 0.052461654 -0.011812573
-0.06572197 0.068414494 0.079088174 0.044029843 -0.18677486 0.029027935 -0.060066342 0.05982924
0.07611967 -0.06481436 -0.010965901 -0.068386704 0.026102355 -0.05031581 -0.00020157949 0.07451076
-0.046113152 -0.030436803 0.036411423 0.067331746 -0.03705594 0.04644793 -0.027860224 0.057565715
0.0012872391 -0.041791316 0.1726571 -0.015910767 -0.08465163 -0.06783313 -0.084594935 -0.01163544
-0.06356239 -0.07758695 0.04578719 -0.05368053 -0.0040213657 0.17435941 -0.06879137 0.046136916
-0.038824886 -0.08014636 0.0044926074 0.040053308 -0.015450885 0.0894785 0.07809483 -0.055084884
-0.030915124 0.018912712 0.0060733925 0.022420349 0.00945789 0.032606643 -0.016889354 -0.032270104
-0.14454849 -0.15912913 0.08442504 0.025962478 0.11561976 -0.14080836 0.06919004 0.0022153952
-0.031125791 0.034168497 -0.120927565 0.09637149 0.0042691464 -0.03444214 0.05834074 -0.19189161
-0.096755095 -0.0433878 0.05500488 -0.065643944 0.04353804 -0.058815043 -0.111696415 0.004021237
-0.06060158 0.05232444 -0.02701249 0.109265596 0.066506565 0.1050114 0.05748892 0.068278044
0.07368921 0.19434558 -0.08843151 0.119099006 -0.026246648 0.043972023 -0.03877558 -0.031730708
0.0049586096 0.16864187 -0.02253912 0.026126282 -0.018559182 0.08812111 -0.010132796 -0.073642306
0.03240918 -0.13131681 -0.06229875 0.051623683 0.05501515 -0.08250641 0.068370685 -0.011924994

lstm.weight_hh_l1 f4 [512, 128]
00000000: 87e5 253e 2772 953e 35b3 69bd e199 49bd
00000010: 1ef9 103d 4de4 ccbb b9e6 acb8 11a1 9a3d
00000020: ccfc d53d 1a65 1a3c 4b21 00be 3cd0 563e
00000030: 8ab9 f0bc 552a 1f3e 878a 983d b2f0 b03e
00000040: b1de d1bb ff7a 113c fbf3 c33c a514 89be
00000050: f14a a4bd 0b31 10be 75b0 193e db83 91be
00000060: bd8c 9f3b 554e 1d3e c524 15be c3ba c4bd
00000070: 1904 523c 18e2 913d c8cd ed3d 4626 87bc
00000080: ed74 53bd 2f90 c03d af64 973c 9a83 233d
00000090: 6e70 cdbc 0221 4a3e 0158 98bd 1b9b c93d
000000a0: 100f 4cb9 4823 afbd 316c c5bc 3b9b 303d
000000b0: 6a60 0abe 2ae7 24bd 2819 dd3d b599 8cbc
000000c0: b467 e3bc 1358 153e ae6d b43b 5a72 da3c
000000d0: 6bec 1ebd 5be0 923d 10c5 a8bd bbd2 703d
000000e0: 6b26 92bd 8fd8 103c 2034 9f3d 797d 11be
000000f0: 0306 973e f6a2 1e3d aaa8 083e 9361 5e3d
00000100: 3381 193e 76f2 753c 41d5 973e 0ae6 febd
00000110: 7bce f43c 6b5b fe3d fcf5 233d ea1c 003e
00000120: 7fc5 c9bc 4a5e 573e b8c2 083d d2fa 00be
00000130: 3c0d e63c 860b 4e3c a82c 09bd 5fd9 bd3e
00000140: 0ae0 bdbd 77ca a5bc 0e39 5fbd 9426 8fbd
00000150: ad33 133c 8e90 20be 763d 643d 4317 82bd
00000160: 260a 18bd 0b8c 263e cf44 5dbd 6098 6a3d
00000170: 0aee f83d 10e8 35bd e3bb 22bd 57b9 acbc
00000180: ed7c 6aba 8c70 00be 64a4 363d e5ff f53c
00000190: f03f a2bd 2622 1abe 6975 833c 97ea 5a3c
000001a0: d8be c93d 63a1 d43d d948 57bd dc6a 33bc
000001b0: cf96 c3bc eafb babd c8ad a7bd 0b8e 863d
000001c0: 4d57 d0bd 7a03 a63c 0b31 28bd 1173 213d
000001d0: 8c12 ee3d c2fa b6be 68ae 5fbe 154f 1a3e
000001e0: 15c7 023e d487 efbc 9bf2 d83d 98c8 213d
000001f0: 0e7b 623c 7833 4d3c 9111 aa3c 853d 063e
00000200: bd54 3d3e cbd7 f73d 2371 96bd 4d1c 943d
00000210: 287b 9c3d fd1c 3dbd 8c0f c53b 3697 a23d
00000220: 77cf 0d3d 68bf a73d 3370 01be eeef 833e
00000230: 0bba 783d a521 e33d 9dcc 993d f4e4 a13e
00000240: 5f57 bfbd 59ba 89bd a19e 463d ce13 74be
00000250: 0ee5 413d b12f 09bd 9802 953e 8cbf 2ebe
00000260: e089 993d 69a6 d03d 4732 133d 2102 ddbc
00000270: 59fe 80bc dda4 953d 8878 32bd 68ba a83d
00000280: 20a3 9f3d c591 3d3d 04b4 64bd 631b 1fbc
00000290: 5c90 a4bc 245b 0d3e ab12 d33c d04c 9d3c
000002a0: 922b da3c 6b20 42bd 2733 4e3d 7669 403d
000002b0: 6ac4 62bc 8211 a03d 17c9 953d 7ca0 80bb
000002c0: 11fa 96bd 8f50 88bc 0767 1bbd 02c2 313e
000002d0: 194c 2c3d 6a97 0ebd 2662 87bc 7ef3 f6bc
000002e0: ece3 7bbd 0195 aabc 69a7 c93d c34d 03be
000002f0: 6ca6 bc3e 6242 c7bd db81 bb3d 802c 4abd
00000300: fc6d 80bd 922f aebd 6a54 343e 80b2 873d
00000310: 2578 00bb 02cb ab3d bc53 d23d a3fc 953e
00000320: a8f4 22be 29e7 403e 9bbc 8cbd 93dc 91bd
00000330: 9847 f4bc d045 863d 8ffa 3abd 364e 8c3e
00000340: dc93 bbbd 337e 07bc ab7b a6bd 1dcc cbbb
00000350: 7c72 37bd 1d7a f4bd f371 7a3b 2e9a 743d
00000360: 90a4 8dbc e1f2 0a3e 8261 9e3d 759a 023d
00000370: ee44 25bd 0bd9 4cbe c613 11bb 2553 76bd
00000380: 99a2 f2bc db5d 16be 0a5b c73b 86a0 5d3d
00000390: 9222 bd3c 0a77 4a3c 054b 9abc 697a 20bc
000003a0: b03f d93c 3e01 8abd 0510 803d 9041 95bd
000003b0: 777a 8fbd 0260 f0bc 7ab9 fcbd a8fe 1abd
000003c0: bb12 59bd f48f 88bd 3a3e 1dbe 0040 18bd
000003d0: 4668 613e 7f9a d9be 36fe 36be 1ed7 0b3e
000003e0: c53f f43c 4ea8 9c3c 2c88 a8bc 1ebc d23d
000003f0: 5fde f8bc bde4 72bc 8d03 06bc 724f e03b
0.16200839 0.29188654 -0.05705567 -0.049219016 0.035393827 -0.0062528015 -8.2445746e-05 0.07550252
0.10448608 0.009423519 -0.125127 0.20977873 -0.029385347 0.15543492 0.07448297 0.34558636
-0.0064047207 0.008879422 0.02392005 -0.26773563 -0.080221064 -0.14081208 0.1500872 -0.2842091
0.004869072 0.15361913 -0.14564808 -0.096059345 0.01281836 0.07123202 0.11611515 -0.016497742
-0.05162518 0.09402501 0.018480627 0.039920427 -0.025078025 0.19739154 -0.074386604 0.09844037
-0.00019460567 -0.08551651 -0.024099441 0.04311679 -0.13513342 -0.040259518 0.10795814 -0.017163137
-0.02775941 0.14584379 0.005506239 0.026665855 -0.038799684 0.07171699 -0.08240712 0.05879472
-0.07136234 0.008840694 0.07773614 -0.1420802 0.29496774 0.03872963 0.1334559 0.054292273
0.14990692 0.0150114205 0.29654887 -0.1244622 0.029883614 0.1241978 0.04002951 0.1251103
-0.024630306 0.21032062 0.033388823 -0.1259568 0.028082483 0.01257599 -0.033489853 0.37079903
-0.09271248 -0.020238144 -0.05449777 -0.0698978 0.008984488 -0.15680143 0.055722676 -0.06352093
-0.037119053 0.1626436 -0.0540207 0.057274222 0.12154777 -0.044410765 -0.039729964 -0.02108447
-0.0008945007 -0.12542933 0.04459037 0.030029247 -0.07922351 -0.15052089 0.016047196 0.013361595
0.09850854 0.103823446 -0.052559707 -0.01095077 -0.023875622 -0.0913008 -0.08187443 0.06570061
-0.10172901 0.02026533 -0.041062396 0.039416377 0.11624631 -0.35738188 -0.21843874 0.1506923
0.12771256 -0.029239573 0.10593148 0.03949794 0.013823284 0.012524478 0.02076033 0.13109405
0.18489356 0.12101706 -0.07345798 0.072319604 0.07640678 -0.046170224 0.006013816 0.079389974
0.034621682 0.08190805 -0.12640457 0.2576899 0.0607243 0.110904016 0.0750973 0.3161999
-0.093428366 -0.06724996 0.048491124 -0.2383568 0.047337584 -0.033492748 0.2910354 -0.17065257
0.07497001 0.1018799 0.03593662 -0.026978554 -0.015746282 0.07306836 -0.04357198 0.08238679
0.077947855 0.046281595 -0.05583574 -0.009711119 -0.020088367 0.13804299 0.025765738 0.019201666
0.026632104 -0.047394197 0.05034175 0.046975575 -0.013840774 0.07815839 0.073137455 -0.003925381
-0.07371915 -0.016639976 -0.03794005 0.17359164 0.04206476 -0.03481237 -0.016526293 -0.030145403
-0.06149666 -0.020823004 0.09846384 -0.12822632 0.3684572 -0.097294584 0.09155627 -0.049358845
-0.06270978 -0.08505167 0.17610326 0.06625843 -0.0019602862 0.0838833 0.10269877 0.2929431
-0.15913641 0.1883818 -0.06871911 -0.07122149 -0.029819295 0.065562844 -0.045649108 0.2740342
-0.09159061 -0.008269834 -0.081290565 -0.0062194006 -0.044786915 -0.11937354 0.0038214892 0.05971735
-0.017290384 0.13569213 0.07733442 0.031885583 -0.04034894 -0.2000467 -0.002213703 -0.060137887
-0.029618548 -0.1468424 0.0060838507 0.054108165 0.023087773 0.012357483 -0.0188346 -0.00979481
0.026519626 -0.06738518 0.062530555 -0.07287896 -0.0700578 -0.029342655 -0.12340064 -0.037840515
-0.05299638 -0.06668082 -0.15355769 -0.03717041 0.22012433 -0.42500684 -0.17870411 0.1365628
0.029815564 0.019123223 -0.020572744 0.10289787 -0.030379472 -0.014825043 -0.0081795575 0.006845408

lstm.bias_ih_l1 f4 [512]
00000000: 0216 573d 10ac 003e d2f4 a23d cd9a e03d
00000010: de78 89bd 020f 8fbc 9698 313d ed7f 1fbd
00000020: c141 45bd 7a56 c7bc fed6 7bbd cff9 b9bc
00000030: 5e5d 60bd b294 533e 9e16 83bd 2d28 8e3d
00000040: ea70 1fbd 3021 64bd 25e3 583d de8c 6abb
00000050: 740d bd3d 5cec a83d 7da1 4abc 3e45 02bd
00000060: 6747 173b bae1 963e 008b 5e3d bd7d 58bd
00000070: b81e 903d 2c51 6ebd 6038 d83c 1f5a 36bd
00000080: 232a c43d 17c2 073e 27d3 96bd 8b6b 5abd
00000090: 878e b3bc 26aa 87bd 4889 463c e149 8abd
000000a0: 04fc ab3d c0ca 5f3d 624c 8b3d aff4 39bd
000000b0: 896b 70bc 11bf bc3d c1c0 6f3d 0c3b 3ebd
000000c0: 1412 8a3d 0150 43bc 6dac 993d 6d3d e23d
000000d0: 7cc7 973d 30c4 613b f4dd 773d e66f 6ebc
000000e0: 5b6d 103c f8de ca3d e9ac 553d 6a27 36bd
000000f0: 5952 d53d 3d00 553d ba79 a4bd 9115 e0bc
00000100: 954c 7b3d f35a f4bc 918a 8c3d 868f 6b3d
00000110: b559 ed3d 8afa 4fbc cffa 1abd e382 893d
00000120: 05a3 473c eb64 0d3e 6649 c13c ec2f ff3c
00000130: 1b5b a63d 4d3c 77bd ece3 3fbc ef3f 863d
00000140: b0aa c63e 8cde edbb fe56 e93c d365 37bd
00000150: d018 503d 8188 82bd 6aeb b13d 71f8 c93c
00000160: 15a2 0c3d 0330 773d 8c62 fa3c d7e6 23bd
00000170: ae74 1bbd 8619 ac3d b6d7 58bc a9c5 de3b
00000180: ba91 833e ec81 e83d 491c 57bd 154c 00bd
00000190: 4138 3ebc 90f8 7e3d 971d 01bb 03eb 343d
000001a0: aa97 29bd 9af5 4cbc a6d2 8b3d 8570 88bc
000001b0: 5b4c 763c ed9b e43b 5b71 233d 7690 773d
000001c0: 4c98 ca38 5f0a b03d 6ac7 103c 77e1 25bd
000001d0: 56a3 b0bd b091 c13e 8ed7 ec3b db3e 023d
000001e0: 497f a13c 45f2 33bc 7c2f d73c ec29 3ebd
000001f0: a12c 9cbd efea 9b3c a4ca 8a3c d6cf c43d
00000200: 73b9 99bc aa64 643d 858f 2bbd 3791 783d
00000210: 5261 bebd e881 81bd 4aa7 9a3d 6c55 d3bc
00000220: eb02 c93c a586 f63c 6bb4 d7bc da52 fdbc
00000230: c253 e3bc 82ed 7e3b dbfa b5bc f005 5fbd
00000240: 8acc f1bc 6bc9 61bd 5545 1fbd 36c1 033d
00000250: 63fc 8e3c 86ae 09bd df2e 4abd fee4 1f3c
00000260: 5fcc 70bd efe1 073d bbeb 06bd 9926 a0bd
00000270: f4fe cdbd c844 973d 6569 4c3d 56f6 9abb
00000280: 172b a7bd 3406 453d 6c9d 59bc 99aa 70bd
00000290: 1ee5 eb3a ef9f a8bd 9ac6 5dbd 60c3 b9bd
000002a0: 976a dfbd fa8a 7e3c b36e cebc 259f bebb
000002b0: 4787 40bd 4e7b 93bd 5c10 d23b 92dc 4c3a
000002c0: 91e0 a73b 8643 773d ba2e b83d 075d ebbb
000002d0: b4ee 8e3d ec59 ab3d c95d 1a3c b7f8 74bc
000002e0: b784 7f3d e585 d8bd 5e02 963d 81b3 d8bd
000002f0: 14fb 1ebd 7fd2 dbbd a39a bd3b 645d 063d
00000300: b8c6 43bd f4d0 9fbc da3e 433b a223 58bd
00000310: 6f3f acbd 9c05 d3bc 7af1 743c dc05 4c3e
00000320: 182e e53c 069f 6abd 1c86 c03c 961d 3b3d
00000330: 2351 16bd 9a4d b7bb 4c99 86ba 4e9c 38bc
00000340: 674c 2abc 44c0 0c3d 77db 4b3c bf25 c1bd
00000350: 2a2f 3bbd 235c 3c3c 841e 0cbd 5769 94bd
00000360: 9f82 36bd fe7c 963c a088 a2bc ea81 b4bd
00000370: a235 b8bd bb28 4fbb 0979 b3bd 692c 853d
00000380: 91c6 30bd e81a c7bd bb19 a3bb 01c4 fa3c
00000390: 355a 5dbd 8b33 b43d d0ff 1538 1f78 623d
000003a0: 5e70 15bd 1851 843d 0118 80bd 6d47 90bc
000003b0: 9a55 79bc f6af 2ebd 1086 ab3d 3c65 5a3c
000003c0: f251 b83c 24d4 21bd f4bd 02bd eb61 9e3d
000003d0: 2267 5b3c 4e22 e43d a90d 323d 7ffc 3dbd
000003e0: 8f4b a03c b9d9 9ebd 00e7 1bbd 0e12 7abd
000003f0: abec 713c 7ee1 843a 6f4b 7cbc 0300 263c
0.052511223 0.12565637 0.07956852 0.10967026 -0.06712507 -0.017463211 0.043358408 -0.03894036
-0.04815841 -0.024333227 -0.06148433 -0.022702126 -0.054776542 0.20662192 -0.06400798 0.06941257
-0.038926043 -0.055695713 0.052950997 -0.003578953 0.092310816 0.08248207 -0.012367603 -0.031804316
0.002308333 0.2946909 0.05433178 -0.05285429 0.07037109 -0.05818288 0.02639407 -0.04451954
0.095783494 0.13257633 -0.07364493 -0.053325217 -0.021918548 -0.0662425 0.012117691 -0.067523725
0.083976775 0.054636717 0.06801678 -0.045399364 -0.014674076 0.092161305 0.058533434 -0.04644303
0.067417294 -0.01192093 0.07503591 0.11046872 0.074110955 0.0034449212 0.060514405 -0.014553046
0.008815135 0.09905809 0.052166853 -0.044471182 0.10416097 0.05200218 -0.0803103 -0.027354034
0.06135233 -0.029828524 0.06862367 0.05750992 0.11589376 -0.0126940105 -0.037836846 0.06714418
0.012184863 0.13808028 0.02359457 0.03115078 0.08122846 -0.06036024 -0.011712056 0.06555163
0.388021 -0.0072591957 0.028483864 -0.04477484 0.050804913 -0.06373692 0.0868748 0.024654599
0.03433426 0.060348522 0.030564569 -0.040015068 -0.03795307 0.08403306 -0.013235023 0.0067984653
0.25697118 0.11352906 -0.05251721 -0.031322557 -0.011610092 0.062248766 -0.0019701475 0.044169437
-0.041404404 -0.012509728 0.068272874 -0.016655216 0.015032853 0.0069765956 0.039903026 0.060440503
9.660478e-05 0.08595728 0.0088366065 -0.040498223 -0.08624904 0.37806463 0.0072278446 0.031798225
0.019714015 -0.0109830545 0.02626776 -0.0464267 -0.076257 0.019032924 0.01694233 0.09609954
-0.018765187 0.055760063 -0.041884918 0.060685363 -0.09295906 -0.06323606 0.07551439 -0.025797568
0.024537524 0.0300935 -0.026331147 -0.030923296 -0.0277499 0.003889889 -0.022214344 -0.05444902
-0.029516477 -0.055123728 -0.03888448 0.032166682 0.017454332 -0.033613704 -0.049361106 0.009759186
-0.058788653 0.03317445 -0.032939654 -0.07819862 -0.10058394 0.07386166 0.0499052 -0.0047290726
-0.081625156 0.04810162 -0.013282161 -0.058756445 0.0017997359 -0.0823363 -0.05414448 -0.09070468
-0.10909002 0.015536064 -0.02519927 -0.0058173114 -0.04700401 -0.07201253 0.0064106416 0.000781485
0.005123206 0.06036713 0.089932874 -0.0071827206 0.06979123 0.083667606 0.009421774 -0.014951876
0.062382426 -0.10572413 0.0732467 -0.10581113 -0.038813666 -0.10733508 0.0057862564 0.032803908
-0.047796935 -0.019508816 0.00297921 -0.052768357 -0.084105365 -0.02575951 0.014950151 0.1992411
0.02797608 -0.057280563 0.023501448 0.045682512 -0.03669847 -0.0055939676 -0.0010269075 -0.011267735
-0.010394192 0.034363046 0.012442461 -0.094310276 -0.045699276 0.0114965765 -0.03420879 -0.072466545
-0.044558164 0.018370148 -0.019840539 -0.08813842 -0.08994605 -0.003160997 -0.0876332 0.06502611
-0.043158118 -0.09721929 -0.0049774325 0.03061104 -0.054041106 0.087988935 3.5762612e-05 0.055290338
-0.036484115 0.0646078 -0.062545784 -0.017612183 -0.015218163 -0.04264828 0.0837518 0.0133298
0.022500012 -0.039508954 -0.031919435 0.0773352 0.013391288 0.111393556 0.04347006 -0.046383377
0.01956728 -0.07756371 -0.038062096 -0.061052375 0.014765899 0.0010138003 -0.015398844 0.010131839
