bagging_model_0_best.pth (torch, 178876 bytes, 33 tensors)

lstm.weight_ih_l0 f4 [128, 19]
000000 b9 55 2d b9 40 c2 75 b8 39 88 b8 38 b4 74 55 b9
       -0.000165305 -5.859346e-05 8.799177e-05 -0.00020356738
000010 94 ef 0e 38 46 6a bd 38 a0 19 3b 38 f2 61 bf 38
       3.4078563e-05 9.032017e-05 4.460814e-05 9.1258335e-05
000020 02 fb cc 38 8c db 69 b8 74 7d 05 b8 ce fd fb 37
       9.774232e-05 -5.5755998e-05 -3.182651e-05 3.0039719e-05
000030 3e df 10 38 80 ce 3f 35 22 59 95 37 1a c0 e4 b7
       3.4540186e-05 7.145354e-07 1.780369e-05 -2.7269172e-05
000040 70 67 51 b8 6a cb af 37 11 f2 12 b8 90 b3 67 37
       -4.9925817e-05 2.0956348e-05 -3.5034554e-05 1.3810481e-05
000050 cf 72 95 b5 30 27 b1 35 37 04 bf b7 e2 68 75 38
       -1.1134779e-06 1.3198933e-06 -2.2770937e-05 5.851023e-05
000060 60 bc 81 37 20 92 a9 38 78 68 43 37 aa 0a 82 38
       1.5465717e-05 8.085766e-05 1.1647229e-05 6.2008694e-05
000070 37 ef 1d 39 3c ca e2 b7 b6 51 33 b8 e6 84 21 38
       0.00015061801 -2.7035472e-05 -4.2753025e-05 3.8509163e-05
000080 13 54 56 b8 e8 92 fe 36 03 09 9f 38 80 28 91 b7
       -5.1099876e-05 7.586892e-06 7.5833894e-05 -1.7304206e-05
000090 4c 0c 5d 38 a4 d5 36 38 d2 0c b2 38 36 fe 07 b8
       5.270196e-05 4.359115e-05 8.4900894e-05 -3.242326e-05
0000a0 f8 43 83 38 f0 42 4f 36 7f 1f c5 37 aa f2 c7 38
       6.259227e-05 3.0884366e-06 2.3498897e-05 9.534259e-05
0000b0 98 5f 8a 36 30 04 a9 38 a4 20 66 b7 5a e5 9a 37
       4.123849e-06 8.059328e-05 -1.3716668e-05 1.846503e-05
0000c0 1e b6 e8 37 f8 73 55 39 06 4e 00 b8 df 87 db b8
       2.774136e-05 0.00020356465 -3.0590243e-05 -0.00010468042
0000d0 48 f7 d4 34 bc c8 9e 38 aa fd 0f b8 cc b1 64 37
       3.9667998e-07 7.571417e-05 -3.43301e-05 1.3631256e-05
0000e0 65 8b a3 b8 a0 4d 76 37 10 45 f8 b6 75 5b 82 b8
       -7.79841e-05 1.4680816e-05 -7.399016e-06 -6.215918e-05
0000f0 7a 67 08 37 f3 3e 49 b8 3c fc b1 38 ac 61 0b b7
       8.130324e-06 -4.798076e-05 8.487e-05 -8.307787e-06
000100 2a 0f 82 38 e2 0b 79 b8 ae cf b8 38 6f f5 d9 38
       6.2017076e-05 -5.9377293e-05 8.812487e-05 0.00010393082
000110 7e d6 b2 b8 7e 83 8a b8 fc e5 00 b8 da 17 41 b7
       -8.527654e-05 -6.604845e-05 -3.0731768e-05 -1.150925e-05
000120 18 1f 94 37 97 a9 7f 38 b6 55 29 37 dd 25 3f b7
       1.7657454e-05 6.095468e-05 1.0093141e-05 -1.1393303e-05
000130 bd d0 e9 b8 9b c2 91 38 a7 90 36 b8 c2 48 4f b8
       -0.00011149186 6.950387e-05 -4.35269e-05 -4.9420407e-05
000140 c4 a2 d1 b7 48 4f de 38 24 a9 08 35 b8 61 83 b7
       -2.4990535e-05 0.00010600552 5.091008e-07 -1.566192e-05
000150 7b d6 5c b8 b8 f4 2b b8 f8 c6 b1 38 48 ae 28 38
       -5.2651838e-05 -4.099749e-05 8.4770785e-05 4.0216633e-05
000160 5a f2 82 38 a8 e2 d0 b8 e4 52 b3 36 33 15 3f b8
       6.2440246e-05 -9.960431e-05 5.3442654e-06 -4.5557692e-05
000170 15 fe e5 b7 44 aa d5 37 37 87 b6 37 92 ec ee 38
       -2.7417243e-05 2.5470865e-05 2.1759055e-05 0.00011392789
000180 ca 2d 0d b8 df d9 56 38 7c 2d eb b7 8c d9 29 b8
       -3.3659664e-05 5.1224484e-05 -2.8035363e-05 -4.0495346e-05
000190 ea ef 82 b8 b6 be 4e 38 3d 24 06 b8 dc 38 fa 36
       -6.2435705e-05 4.929184e-05 -3.198184e-05 7.4572e-06
0001a0 ae 0d 01 37 60 9c f3 b7 d9 b7 28 38 1c 70 cb b6
       7.692184e-06 -2.9040675e-05 4.0225543e-05 -6.0629227e-06
0001b0 7f bc 09 38 fb 06 2b b8 3e 10 84 b7 3f 7c 04 39
       3.2838896e-05 -4.0776078e-05 -1.574319e-05 0.00012634786
0001c0 e6 e1 ab b7 de 8c 30 38 4a bc 87 37 0c ab ae b7
       -2.048998e-05 4.2092863e-05 1.6180933e-05 -2.0822066e-05
0001d0 38 96 b2 b8 34 a8 98 38 1d 17 ad 38 24 c1 92 38
       -8.515682e-05 7.279255e-05 8.253588e-05 6.997798e-05
0001e0 b1 22 65 39 20 89 d3 37 4d 3e 27 b8 50 21 4e b8
       0.00021852065 2.5217014e-05 -3.9873925e-05 -4.9145252e-05
0001f0 ab 60 02 39 35 5b 42 37 bc d0 34 38 20 ed e1 b8
       0.00012433778 1.1584537e-05 4.3109743e-05 -0.00010773004
000200 7e b6 5b 38 75 e4 da b8 f6 72 bc b7 b8 8d 03 b8
       5.2383628e-05 -0.000104376035 -2.246488e-05 -3.136482e-05
000210 09 4a cf 38 33 1a 05 b7 00 81 be 36 92 38 55 b8
       9.884319e-05 -7.933518e-06 5.677459e-06 -5.0835843e-05
000220 2f b0 ee b8 6d e3 30 b8 6a b1 17 b9 6b 75 46 38
       -0.00011381541 -4.2173477e-05 -0.00014466574 4.7316233e-05
000230 5c e3 3a 38 60 29 3e 38 74 cd 99 37 5c c2 48 b8
       4.45576e-05 4.5338064e-05 1.8334693e-05 -4.7864727e-05
000240 e4 01 8e b7 c6 34 9f b8 11 59 b0 38 7c c5 0f 38
       -1.69286e-05 -7.5915406e-05 8.408924e-05 3.427778e-05
000250 98 da 9d b7 be bb 93 b8 52 77 b5 38 56 e4 42 38
       -1.881765e-05 -7.044476e-05 8.652978e-05 4.646586e-05
000260 f9 a8 d5 b6 de f9 3d b8 04 cd d9 b8 00 be c7 35
       -6.3675657e-06 -4.529382e-05 -0.000103855535 1.4881953e-06
000270 94 ae 75 b6 04 42 37 38 f6 25 a3 38 0a 64 1a b8
       -3.6609463e-06 4.369208e-05 7.7795165e-05 -3.680963e-05
000280 d8 ef 04 38 10 9b ec 36 da 4c 0b b8 f0 87 92 38
       3.1694624e-05 7.0513997e-06 -3.3211756e-05 6.987143e-05
000290 20 e9 a2 b8 20 4f db 38 c2 e0 92 b8 40 85 83 b8
       -7.768185e-05 0.00010457472 -7.003687e-05 -6.2713865e-05
0002a0 9b f4 49 38 1d f8 07 38 22 97 a3 b8 0f 84 38 38
       4.814994e-05 3.241758e-05 -7.800596e-05 4.3992008e-05
0002b0 4c 31 70 b8 c8 b3 26 38 06 5d c4 38 b0 fc 48 b7
       -5.726637e-05 3.974492e-05 9.363335e-05 -1.1979762e-05
0002c0 3d 7f 93 38 75 24 26 38 86 d2 9c 38 09 18 da 38
       7.033206e-05 3.9611437e-05 7.477873e-05 0.00010399527
0002d0 78 b3 21 38 88 24 7c b6 10 6e 96 b8 4f f5 8c b6
       3.8552535e-05 -3.757219e-06 -7.173058e-05 -4.200883e-06
0002e0 ee 8b 9f 37 6a 2f dd b8 77 35 06 38 ae 12 8d 38
       1.9019437e-05 -0.00010546933 3.1997883e-05 6.726883e-05
0002f0 4e ad 0f b9 ec c6 58 b7 6d 56 9b 37 32 b0 d6 b8
       -0.00013702104 -1.2920918e-05 1.8517685e-05 -0.00010237134
000300 d0 70 7c b6 2f 74 0b 38 17 d3 c1 37 60 51 ff 37
       -3.7616592e-06 3.3248387e-05 2.310569e-05 3.0436262e-05
000310 d5 c0 73 38 ce 99 be b7 34 01 b8 b8 ab c6 ca b7
       5.8115304e-05 -2.2721386e-05 -8.774028e-05 -2.4172788e-05
000320 f1 bb 4d 38 e2 b3 4c b8 b0 1f be b6 32 e7 07 38
       4.9050843e-05 -4.880492e-05 -5.66613e-06 3.2401826e-05
000330 9e 5a 47 38 12 28 56 39 54 5f 8d b7 81 ca c3 b7
       4.752969e-05 0.00020423558 -1.68529e-05 -2.334011e-05
000340 0e 3e 37 38 92 0b a7 b7 60 2c c3 37 72 8a 1b 38
       4.3688393e-05 -1.991334e-05 2.3266475e-05 3.7083817e-05
000350 9e 64 c0 b7 ec 58 42 38 14 e8 81 38 17 90 ff 38
       -2.2935037e-05 4.633602e-05 6.194427e-05 0.00012186186
000360 4a 0d 5d 38 60 1e d0 b7 70 93 e5 36 0f 76 21 38
       5.2702882e-05 -2.4809677e-05 6.841896e-06 3.8495342e-05
000370 8c 2d 16 b8 cc a9 87 b8 58 16 8b b4 dd 6f 4a 37
       -3.5805206e-05 -6.468929e-05 -2.5907025e-07 1.2066183e-05
000380 d7 47 08 39 98 53 4e 36 10 2c 9f 38 19 ab 05 b7
       0.00012996733 3.074505e-06 7.589918e-05 -7.9672545e-06
000390 68 23 00 37 e7 63 0c 38 e9 0b 92 38 8c ce cb b6
       7.637638e-06 3.3471642e-05 6.964041e-05 -6.0739167e-06
0003a0 1d 5b 20 39 e6 b0 cd b6 40 83 0e 39 25 92 7e b8
       0.00015292731 -6.13007e-06 0.0001359107 -6.0694427e-05
0003b0 5a 84 c9 38 48 89 b4 37 d7 1b 03 38 c7 a5 0f b9
       9.609079e-05 2.1521599e-05 3.125876e-05 -0.000136993
0003c0 54 d9 2e 38 c8 ed 30 37 ec 98 29 b9 3b 93 3d b8
       4.1687235e-05 1.054578e-05 -0.00016174064 -4.519823e-05
0003d0 40 fa 03 36 88 4b 8f 37 c8 63 ef 34 d2 f7 cc b8
       1.9666186e-06 1.70821e-05 4.458982e-07 -9.773638e-05
0003e0 5d cd b0 b8 c0 9d 92 b4 2e 58 ad 38 c8 f6 39 b8
       -8.430586e-05 -2.7309397e-07 8.2657076e-05 -4.433727e-05
0003f0 70 d6 04 b7 e8 e2 31 38 ac bc b9 b8 48 59 38 39
       -7.917741e-06 4.241141e-05 -8.85663e-05 0.00017580867

lstm.weight_hh_l0 f4 [128, 32]
000000 40 b3 5b 36 28 a5 44 b8 64 b0 b0 36 e0 4d 06 38
       3.273788e-06 -4.6883855e-05 5.2657433e-06 3.2020616e-05
000010 f1 70 79 38 76 ed 0d 37 80 57 1d 39 64 d2 ea b6
       5.947141e-05 8.459543e-06 0.00015005283 -6.998236e-06
000020 1f c2 3a 38 e5 86 c2 37 03 89 05 37 08 a2 27 b8
       4.4526645e-05 2.3189417e-05 7.959318e-06 -3.9966806e-05
000030 ee 8f b8 b7 b4 85 7f b8 88 76 10 b9 f0 3b e2 38
       -2.2001532e-05 -6.092126e-05 -0.00013777066 0.00010787684
000040 ae 2a 9d 38 fe eb 1c 38 40 50 43 b6 80 08 18 b9
       7.494293e-05 3.7413083e-05 -2.9103976e-06 -0.00014499016
000050 08 87 f5 b6 b2 15 83 38 b0 24 59 38 c0 58 93 38
       -7.3172887e-06 6.250608e-05 5.1771e-05 7.026037e-05
000060 58 ab 07 b8 d2 bb 64 38 90 69 47 36 a9 e0 ed b8
       -3.2346084e-05 5.4534357e-05 2.9714756e-06 -0.00011342887
000070 68 8e 94 b7 f8 e9 0c b8 65 2b 00 39 e0 50 38 b6
       -1.7709288e-05 -3.35965e-05 0.00012223197 -2.7465212e-06
000080 80 58 dd 35 40 c8 80 37 00 7d 9d b8 53 db e9 37
       1.649154e-06 1.5352038e-05 -7.5096264e-05 2.7877895e-05
000090 d5 35 13 38 94 c0 ba b8 70 e3 0d 38 ca d2 0b 38
       3.5097666e-05 -8.9050416e-05 3.3828837e-05 3.3336495e-05
0000a0 ba f6 bc 38 1c 7b c1 b7 fe 9f 31 38 b3 cc 18 39
       9.010495e-05 -2.306472e-05 4.2349093e-05 0.00014572106
0000b0 00 5c 10 38 ae 22 e2 38 bc 0f fc 37 8f f2 b4 b8
       3.4417957e-05 0.000107829794 3.0048068e-05 -8.628249e-05
0000c0 d0 30 bb b6 08 43 d7 b7 1c aa 3a 37 39 60 b0 37
       -5.578717e-06 -2.5661211e-05 1.1126071e-05 2.1025642e-05
0000d0 00 ac 4d b8 a1 59 ab b8 b0 02 0c 38 60 f0 31 b6
       -4.9035996e-05 -8.17061e-05 3.3381104e-05 -2.6514972e-06
0000e0 98 23 ee b8 fd 66 3b 38 48 8c 41 37 f6 85 0d b8
       -0.00011355354 4.468019e-05 1.1536358e-05 -3.374178e-05
0000f0 34 62 70 37 88 27 23 b7 5d 5e bf 38 35 c7 98 38
       1.4327979e-05 -9.724761e-06 9.125166e-05 7.28503e-05
000100 79 dc 18 b8 25 b3 a9 b8 04 67 5e b8 8f 41 02 b9
       -3.6444955e-05 -8.091916e-05 -5.3024865e-05 -0.00012422189
000110 3f b8 65 39 60 85 a5 b6 80 e4 d7 b6 fe 42 00 37
       0.00021907779 -4.93291e-06 -6.4341e-06 7.644992e-06
000120 63 df 11 b8 11 b0 c3 37 6e 2e b5 b8 d4 d5 4f b8
       -3.477874e-05 2.3327799e-05 -8.639401e-05 -4.955179e-05
000130 14 90 31 38 35 e7 11 b8 4a 1c 08 38 b0 78 77 36
       4.233427e-05 -3.4786022e-05 3.2451273e-05 3.6876118e-06
000140 3c 4d 6f 38 66 7c 12 38 fb e1 7a b8 73 fb ba 38
       5.705397e-05 3.4924968e-05 -5.9815105e-05 8.916007e-05
000150 b8 fb ce b6 b8 8c f1 38 72 41 23 38 90 09 be 38
       -6.1685823e-06 0.000115179864 3.892318e-05 9.061687e-05
000160 48 13 f7 36 7b b1 34 38 cd cb 12 b8 12 3a 0d b7
       7.3634183e-06 4.3080636e-05 -3.4998917e-05 -8.4177755e-06
000170 6a 1f fd b7 c4 17 03 38 3d 35 2c b8 f5 1e f0 b7
       -3.0174579e-05 3.1254967e-05 -4.1057578e-05 -2.8624645e-05
000180 4b 9a 57 b8 6c 37 94 38 dc 40 95 b8 94 d7 1f 35
       -5.140369e-05 7.067513e-05 -7.116955e-05 5.9545823e-07
000190 5a 27 03 b8 e5 80 3b b8 1e 4b 60 b8 cc 76 da 38
       -3.1269483e-05 -4.4704317e-05 -5.347572e-05 0.00010417178
0001a0 0c 97 94 b7 1b 81 2c 38 2e 96 cc 36 d0 18 3d 36
       -1.7713312e-05 4.1128234e-05 6.097157e-06 2.8177637e-06
0001b0 50 25 72 38 cc 48 4a 37 d5 9f 97 37 d5 88 47 b8
       5.7732046e-05 1.2057088e-05 1.807503e-05 -4.7572732e-05
0001c0 88 00 fd 37 c4 6d 8e 36 00 5a 3f b4 94 2c 08 b9
       3.0160198e-05 4.244708e-06 -1.7821003e-07 -0.00012986577
0001d0 e4 10 00 39 58 58 75 b7 00 8f 10 b4 5c 8f c7 37
       0.00012213323 -1.4623707e-05 -1.3463068e-07 2.3789406e-05
0001e0 16 d7 12 b8 f4 fd f7 b6 86 ed c9 37 10 d4 55 b9
       -3.5009427e-05 -7.3907377e-06 2.4071673e-05 -0.00020392262
0001f0 84 56 1d b9 b6 24 69 b8 3c 8b 3b 38 c0 03 6c b7
       -0.00015004916 -5.558572e-05 4.4713946e-05 -1.4067569e-05
000200 42 d8 d0 37 4e b3 c8 b5 40 d1 45 b6 de c1 d1 38
       2.4896235e-05 -1.4953346e-06 -2.9477087e-06 0.00010002007
000210 58 ef 3c b9 01 c8 6f 38 a8 c4 a1 b4 d1 93 38 38
       -0.0001801824 5.716831e-05 -3.0131673e-07 4.4006683e-05
000220 b8 09 47 36 80 ef ac 38 8e 99 65 39 67 94 95 b8
       2.9658968e-06 8.2462095e-05 0.00021896345 -7.132516e-05
000230 be fb 5d 38 81 26 05 b9 48 62 2b b7 b6 89 c9 38
       5.292496e-05 -0.00012698212 -1.0215277e-05 9.6100775e-05
000240 51 6a fa 36 c0 23 8d b7 3c 88 cf 37 55 1d 03 b8
       7.4629575e-06 -1.6825157e-05 2.4739762e-05 -3.126015e-05
000250 37 90 f3 38 98 65 9b 36 d5 da a2 37 3a f7 26 b8
       0.00011614005 4.631187e-06 1.9413807e-05 -3.980773e-05
000260 17 ec 62 38 8a ed f3 b8 2c af 95 38 56 96 99 38
       5.4102475e-05 -0.00011631388 7.137502e-05 7.323611e-05
000270 c0 6c 34 b6 b0 8e ad b8 cb dc 00 37 6d 88 23 b8
       -2.688539e-06 -8.2758605e-05 7.680802e-06 -3.8989285e-05
000280 16 86 5a b8 1c 99 14 36 f0 3b 55 36 b4 77 0c b8
       -5.2100128e-05 2.214284e-06 3.1774362e-06 -3.3490083e-05
000290 86 c1 70 38 0e 25 64 38 a6 99 e8 37 f4 62 97 38
       5.740069e-05 5.4393946e-05 2.7728103e-05 7.2186725e-05
0002a0 f6 1d 99 38 b8 16 25 b6 38 4e 58 b7 ff 1c 82 b8
       7.301189e-05 -2.460014e-06 -1.2892815e-05 -6.204284e-05
0002b0 a7 48 df b8 bf 75 dd 38 6e 8d 7e 38 00 51 22 34
       -0.00010647001 0.00010560033 6.0690036e-05 1.5116893e-07
0002c0 40 dd f4 b6 b8 bc 36 37 6e ca 96 b8 3c 2a 2e 37
       -7.2975236e-06 1.0891985e-05 -7.190263e-05 1.0381042e-05
0002d0 c2 f7 2d b8 bd 7e 32 39 35 df 9d b8 1a b3 12 38
       -4.1477157e-05 0.00017022617 -7.527919e-05 3.4975914e-05
0002e0 59 32 49 b8 4d 69 0d b8 88 75 f4 b6 c6 a7 5e 38
       -4.7969024e-05 -3.371509e-05 -7.285449e-06 5.3085176e-05
0002f0 b6 c7 ec 38 80 00 26 34 21 dd 7d b8 7e 91 a5 38
       0.00011290556 1.5460137e-07 -6.0525843e-05 7.894913e-05
000300 40 36 06 b7 ee 4c 61 b7 2a de b9 38 28 3c 83 b8
       -7.9996535e-06 -1.3428957e-05 8.862869e-05 -6.257772e-05
000310 18 2a f6 36 10 75 dc b4 98 8f 03 b8 d6 5a 10 b9
       7.3362717e-06 -4.1063367e-07 -3.1366566e-05 -0.00013766749
000320 70 fa 2b 37 05 30 95 b8 d3 8b 1e 39 70 a8 ba 36
       1.0250704e-05 -7.113818e-05 0.00015120143 5.5628407e-06
000330 00 5c 80 b6 91 4a 3a 38 85 8f 24 b8 b8 fc 57 37
       -3.8254075e-06 4.44153e-05 -3.923431e-05 1.2873839e-05
000340 4a e0 91 38 47 18 98 38 df a6 c5 b8 18 08 20 37
       6.955916e-05 7.252447e-05 -9.424774e-05 9.538628e-06
000350 24 3e 23 38 0d f4 03 38 de c7 5d b8 b6 95 8d 38
       3.89201e-05 3.1460124e-05 -5.2876647e-05 6.75129e-05
000360 ab 1b ae b8 ef d2 60 38 34 68 f2 b6 24 38 19 38
       -8.30212e-05 5.360221e-05 -7.224293e-06 3.6530328e-05
000370 c5 b9 28 38 9c 2e c8 37 07 f3 20 39 58 83 7f b6
       4.0227333e-05 2.3863562e-05 0.00015349324 -3.8074413e-06
000380 21 68 e4 b8 46 e3 f0 38 ea f4 fc 37 8e 8e cd b7
       -0.00010891283 0.00011486425 3.0154788e-05 -2.4504287e-05
000390 17 a3 36 b8 f8 7a a7 b7 64 50 5f 38 ce e4 18 b8
       -4.354407e-05 -1.9965213e-05 5.3242213e-05 -3.6452715e-05
0003a0 f0 bd bd b7 e2 7f 51 b8 c0 c9 c1 36 2c 4f ab b7
       -2.2619002e-05 -4.9948583e-05 5.775335e-06 -2.0421656e-05
0003b0 fb 57 70 38 00 a5 2f b4 27 9e 06 b8 35 fa 3e b8
       5.7302397e-05 -1.6358172e-07 -3.209538e-05 -4.5532553e-05
0003c0 32 18 3b 38 9c 19 1e 39 0e 62 d4 38 c0 37 26 35
       4.4606808e-05 0.00015077594 0.00010127212 6.1920946e-07
0003d0 05 86 79 b8 17 90 65 b8 fd 81 58 38 20 fa b6 b8
       -5.949104e-05 -5.473205e-05 5.1619474e-05 -8.725026e-05
0003e0 2a e8 39 b8 27 98 5d 38 0a 69 02 b7 68 0b 5e 38
       -4.4323657e-05 5.283221e-05 -7.77306e-06 5.2939547e-05
0003f0 80 a2 a7 38 a0 f8 f0 38 00 6d 8d b7 0c 9e 0d b8
       7.9934485e-05 0.00011490402 -1.6859267e-05 -3.3764212e-05

lstm.bias_ih_l0 f4 [128]
000000 02 97 8e b7 1c 2f fa b7 a2 8b c7 b7 46 9f c9 b8
       -1.6998038e-05 -2.982426e-05 -2.378767e-05 -9.614094e-05
000010 3e 18 06 37 d9 10 37 b8 30 e2 c9 38 a6 96 00 39
       7.992667e-06 -4.364629e-05 9.6265576e-05 0.00012263152
000020 70 70 e9 b6 7e d9 05 38 d8 fe d8 37 52 ec a3 38
       -6.9570306e-06 3.1912226e-05 2.5867877e-05 7.816464e-05
000030 00 96 f3 31 ba c3 ee b8 0c 20 83 38 37 89 ee b8
       7.089284e-09 -0.00011385181 6.252536e-05 -0.000113742826
000040 64 04 84 38 bb f0 a3 38 80 18 52 35 38 9b 93 b7
       6.295068e-05 7.817285e-05 7.826675e-07 -1.7596045e-05
000050 d0 3d 83 38 90 16 95 b7 40 76 d5 b4 a9 25 ca b8
       6.25808e-05 -1.777269e-05 -3.976038e-07 -9.639125e-05
000060 b6 fd ff 38 b3 2a ed b8 d2 2a 93 38 da 7f c0 38
       0.00012206605 -0.00011308994 7.017482e-05 9.179088e-05
000070 b6 22 0d 38 b1 db 31 38 e8 3b fa 37 90 1b 42 37
       3.3649347e-05 4.2404692e-05 2.9830218e-05 1.15697185e-05
000080 14 ad 5d 38 ea ee c4 b7 0c 89 03 39 19 47 a1 38
       5.2851698e-05 -2.3476274e-05 0.00012544187 7.690321e-05
000090 39 4a 61 37 dd 61 34 b8 dc d1 b7 37 c5 f2 82 b8
       1.3428326e-05 -4.3006487e-05 2.1913023e-05 -6.2441024e-05
0000a0 67 80 81 b8 58 95 0f 37 79 03 36 b8 c6 bd 22 38
       -6.175116e-05 8.558236e-06 -4.3395416e-05 3.880055e-05
0000b0 b6 18 02 38 40 f1 4b 36 0c 20 23 36 fe 6e 50 b8
       3.101743e-05 3.0389783e-06 2.4307546e-06 -4.9694434e-05
0000c0 2a 8a 50 b8 b4 7d 84 b8 70 96 47 38 d5 c5 02 b7
       -4.971974e-05 -6.3176645e-05 4.7585403e-05 -7.794665e-06
0000d0 e4 e7 a2 38 50 0a 7f 38 86 44 55 39 a2 68 a2 37
       7.767955e-05 6.0806342e-05 0.0002033879 1.9360628e-05
0000e0 ec 22 10 39 30 7a a6 b7 77 f2 0b 38 d0 d8 30 b6
       0.0001374592 -1.984564e-05 3.3365995e-05 -2.6352245e-06
0000f0 8f cc b0 38 76 70 10 38 8f 34 29 b8 c6 6c e8 b7
       8.430436e-05 3.4437013e-05 -4.034169e-05 -2.7707207e-05
000100 94 15 82 37 9c a8 f3 b8 98 e5 31 b8 d0 c2 37 36
       1.5507256e-05 -0.00011618549 -4.2413914e-05 2.738252e-06
000110 c8 28 2c b9 b7 bd 42 37 9a 66 03 38 08 0c 49 38
       -0.0001641839 1.16074725e-05 3.132839e-05 4.793334e-05
000120 99 3e b3 37 48 8f b8 b8 ec 7d 82 38 32 58 06 37
       2.1367612e-05 -8.800492e-05 6.222338e-05 8.007557e-06
000130 23 38 58 38 cf d1 2f 38 11 85 af b8 f5 2e 49 38
       5.1550694e-05 4.191865e-05 -8.369436e-05 4.7965867e-05
000140 2a 9e 2a 38 cc 84 11 b8 96 31 f7 37 4a d9 89 b8
       4.067846e-05 -3.469437e-05 2.9467785e-05 -6.573142e-05
000150 c9 05 b4 b8 88 4b 59 38 08 31 01 b8 fe 1a d2 38
       -8.5841464e-05 5.1807176e-05 -3.080166e-05 0.00010018608
000160 1c 65 37 b7 ba 1b 83 b8 d7 86 9c 38 50 b5 f4 b8
       -1.0931191e-05 -6.251731e-05 7.4637755e-05 -0.00011668599
000170 96 b1 87 36 12 d0 29 b9 e2 55 c9 38 ff d0 0a 38
       4.0439872e-06 -0.00016194608 9.600424e-05 3.3096407e-05
000180 58 67 9a 37 6c 5f a6 38 a0 f9 16 38 60 79 ce 35
       1.8406354e-05 7.9332705e-05 3.599527e-05 1.5383521e-06
000190 c4 48 97 b7 0c 6e e1 b7 74 46 35 38 c0 a6 9c b7
       -1.8034487e-05 -2.6873335e-05 4.3219377e-05 -1.8674298e-05
0001a0 78 13 10 37 c3 ae 31 38 87 a9 d1 38 7a e7 10 b8
       8.587602e-06 4.2362848e-05 9.9974735e-05 -3.4547855e-05
0001b0 c4 19 b2 38 ad 17 31 b8 70 fc 43 b7 59 88 5b b7
       8.492501e-05 -4.222214e-05 -1.1681681e-05 -1.3085163e-05
0001c0 c1 af 09 39 5d 67 86 b8 28 23 13 b8 bc e3 d6 36
       0.00013130812 -6.408871e-05 -3.5080273e-05 6.4042088e-06
0001d0 36 4c e1 b8 30 06 ad b6 56 bc 82 b8 7b d2 e0 b8
       -0.000107430315 -5.156522e-06 -6.233963e-05 -0.000107203574
0001e0 f3 d6 05 b8 50 51 50 b8 a2 d6 12 37 58 73 87 b7
       -3.1909858e-05 -4.9666793e-05 8.752251e-06 -1.6146965e-05
0001f0 a8 2c e1 37 b4 f0 b9 38 30 1b 46 38 00 c5 68 b7
       2.6842885e-05 8.866322e-05 4.72322e-05 -1.3874145e-05

lstm.bias_hh_l0 f4 [128]
000000 4b 3d d0 37 ae ae 03 b8 73 f3 20 38 fc 77 b3 b8
       2.4824074e-05 -3.1395517e-05 3.8373702e-05 -8.557734e-05
000010 c4 fc 6f b8 52 bf 83 b7 05 f6 5c 38 9e ad 1e b7
       -5.7217447e-05 -1.5705507e-05 5.268121e-05 -9.457957e-06
000020 02 ae 96 b7 42 b4 de 37 b5 2e df 38 cc 79 7b 38
       -1.7962422e-05 2.6548401e-05 0.000106421685 5.9956496e-05
000030 ea 5d 10 38 93 d9 02 b8 52 50 3d b8 f0 6c cd 37
       3.441974e-05 -3.1197047e-05 -4.5135916e-05 2.4488632e-05
000040 92 4c cc b8 a8 15 f0 b8 e6 92 7f 38 67 4c ad b8
       -9.74174e-05 -0.000114481256 6.0933548e-05 -8.263514e-05
000050 f8 0e 6e b6 68 ef ce b6 a9 42 ff b7 c0 56 b1 36
       -3.5473477e-06 -6.167149e-06 -3.042941e-05 5.28511e-06
000060 f8 d3 aa b6 0c 7b e1 b7 bf 08 5d 38 65 aa 38 38
       -5.091071e-06 -2.6879388e-05 5.269865e-05 4.402771e-05
000070 c4 fb ec b8 71 ef 0d b7 df cd b7 b8 3c f1 f0 38
       -0.00011300252 -8.460004e-06 -8.7644665e-05 0.00011489025
000080 e2 7b 1d b9 6c ac 65 b9 80 e1 5b b7 96 02 e5 37
       -0.00015018837 -0.00021903374 -1.31059205e-05 2.7300131e-05
000090 82 ea 94 38 00 e8 50 b7 33 4e 57 b8 20 40 b8 38
       7.1008704e-05 -1.2451783e-05 -5.1332823e-05 8.785748e-05
0000a0 c2 35 99 36 bc b6 1d b9 da 85 27 b8 be f4 99 38
       4.5660136e-06 -0.0001504076 -3.994056e-05 7.341195e-05
0000b0 80 2e b0 38 b5 55 91 38 64 a4 20 39 bc 8e 30 b9
       8.400995e-05 6.930103e-05 0.0001532003 -0.0001683784
0000c0 c2 7b 17 39 e3 24 df 38 a8 59 2c 37 f8 9e 0b 38
       0.00014446586 0.00010640339 1.0272874e-05 3.3288234e-05
0000d0 24 d3 4c b7 04 90 b2 b8 38 bd b7 38 2a c3 d5 38
       -1.22085075e-05 -8.5145264e-05 8.761365e-05 0.000101929836
0000e0 4e 81 c4 37 e0 84 30 b3 bb c7 c9 38 3c 9a e2 b7
       2.3425233e-05 -4.1099042e-08 9.6216296e-05 -2.701312e-05
0000f0 d9 73 07 b8 94 25 8b b8 7e 28 95 b7 06 7c 94 38
       -3.22944e-05 -6.635036e-05 -1.778104e-05 7.080291e-05
000100 1f 93 25 38 40 d0 ef 35 ee 5c 2e 38 6c 4d 05 b7
       3.9476083e-05 1.7867496e-06 4.157138e-05 -7.945444e-06
000110 de f8 17 38 ee 76 a4 b8 39 8a 2e b8 ad 4c 44 b7
       3.623298e-05 -7.842282e-05 -4.1613563e-05 -1.1700363e-05
000120 98 24 3d b8 b6 85 93 38 18 f6 8e 37 a1 cb 0d b8
       -4.5095192e-05 7.034412e-05 1.7042315e-05 -3.3806664e-05
000130 20 47 9a 36 7b 4a 54 b8 a8 a6 67 38 44 ca 2b b9
       4.5978377e-06 -5.0614104e-05 5.5229903e-05 -0.0001638318
000140 e0 d2 a2 b7 8f 93 99 b6 38 22 a0 38 20 55 3f b8
       -1.9410101e-05 -4.5769334e-06 7.635768e-05 -4.5617227e-05
000150 a8 19 7f 37 42 5b d9 b7 e0 dc 1d 38 d1 be d1 38
       1.5205158e-05 -2.5910911e-05 3.7637423e-05 0.00010001439
000160 ce 33 0e 39 f0 26 57 36 89 60 c6 38 40 b4 46 37
       0.00013561474 3.2060161e-06 9.459357e-05 1.1843687e-05
000170 85 f2 f1 37 a8 22 88 b7 00 17 5f b5 a8 39 e9 b8
       2.884237e-05 -1.6228601e-05 -8.3107443e-07 -0.00011121045
000180 2b 95 ab 37 44 95 81 b8 fe 13 a8 b8 ea 80 a4 37
       2.045425e-05 -6.179002e-05 -8.014588e-05 1.9610354e-05
000190 99 9d 29 b8 62 00 86 b8 c4 f8 c0 36 5c 24 73 b7
       -4.0439514e-05 -6.389689e-05 5.751006e-06 -1.4492394e-05
0001a0 11 73 da b8 9c e9 f4 b6 dc 4e d2 37 8c b6 87 38
       -0.00010416483 -7.2989624e-06 2.5070673e-05 6.471304e-05
0001b0 fc f8 21 39 49 3b 96 b8 30 6c 5f 37 5c f1 0f b7
       0.0001544691 -7.1636e-05 1.3317025e-05 -8.57966e-06
0001c0 02 a8 ff 37 9b f8 10 38 56 74 2f 38 80 99 cd b6
       3.0476604e-05 3.4563807e-05 4.1831598e-05 -6.127346e-06
0001d0 1c 21 27 b8 de 31 9a b8 e3 6d ac b7 d2 db 47 b8
       -3.984674e-05 -7.352581e-05 -2.0555168e-05 -4.765002e-05
0001e0 29 58 34 38 eb 2c 2e b8 62 92 83 b7 ad c2 9b b8
       4.299745e-05 -4.1526666e-05 -1.5684582e-05 -7.427237e-05
0001f0 68 98 69 b8 14 a2 35 b8 d3 22 ec b8 f2 bd 0f b8
       -5.569347e-05 -4.330471e-05 -0.000112598434 -3.4270757e-05

lstm.weight_ih_l0_reverse f4 [128, 19]
000000 78 63 06 38 64 b1 b4 b8 71 b7 c9 b7 00 6d 46 b6
       3.2040727e-05 -8.6161104e-05 -2.4046489e-05 -2.9567746e-06
000010 8b 42 89 b8 43 20 27 b8 a0 c4 ff 36 b1 14 9a 38
       -6.545064e-05 -3.984595e-05 7.6224824e-06 7.347146e-05
000020 58 6c 7e b7 c2 02 a9 b8 30 a0 54 37 06 2b 08 b8
       -1.51648055e-05 -8.059062e-05 1.2673481e-05 -3.2464995e-05
000030 ec 6c 7e b8 30 b2 93 38 cf 2d a8 38 05 00 20 b9
       -6.065976e-05 7.042696e-05 8.019397e-05 -0.00015258796
000040 cd 22 0e b8 97 fd bc b8 a6 9c 80 37 20 01 09 b6
       -3.388785e-05 -9.011773e-05 1.5331734e-05 -2.0415246e-06
000050 54 2d 79 b7 b4 2f ca b8 58 36 a2 b8 c4 89 b8 b8
       -1.485211e-05 -9.640996e-05 -7.734884e-05 -8.7994646e-05
000060 80 11 06 b8 00 63 e0 35 fc f2 8a b6 e4 ad 75 b8
       -3.1964388e-05 1.6718113e-06 -4.1410076e-06 -5.85745e-05
000070 ea 53 a2 b5 5b 87 21 38 7c 8c 1d b7 f5 fa 66 b8
       -1.2094363e-06 3.851145e-05 -9.390638e-06 -5.5069995e-05
000080 76 cc 68 b8 08 ae 50 37 5d 3e 58 38 50 5c a8 36
       -5.550353e-05 1.2438286e-05 5.1556493e-05 5.0175368e-06
000090 e2 80 1d 39 b0 95 2e 38 8a 64 8a b7 ff cd e8 b7
       0.000150207 4.162424e-05 -1.64977e-05 -2.775248e-05
0000a0 7c fb 67 37 4c 40 4a b8 ef 34 3a 38 c2 0b 05 b9
       1.3827226e-05 -4.8220434e-05 4.4395154e-05 -0.00012688249
0000b0 b1 92 03 b9 d8 0f ff b7 4c e2 e8 36 b5 02 45 37
       -0.0001254778 -3.0405747e-05 6.940483e-06 1.1742745e-05
0000c0 04 4d 51 38 2c 97 2d b7 ca 24 57 b7 08 26 b0 b8
       4.990121e-05 -1.0346801e-05 -1.2823564e-05 -8.399418e-05
0000d0 68 39 fe b4 2e b4 be b7 90 b9 3c 36 b9 51 fc b6
       -4.7352955e-07 -2.2733668e-05 2.8122195e-06 -7.519699e-06
0000e0 7f 53 e0 38 42 91 fa 37 42 ea fe 37 d4 fa 11 37
       0.00010696705 2.9869963e-05 3.0388244e-05 8.701074e-06
0000f0 da 76 ec 38 e0 dc 49 b7 df f2 c9 b8 5c db de 38
       0.00011275495 -1.203196e-05 -9.629665e-05 0.00010626644
000100 50 f0 fe 37 4a 9d 7e 38 87 24 38 38 a5 a9 ee 37
       3.0391064e-05 6.0704806e-05 4.3903037e-05 2.8450808e-05
000110 46 25 10 38 c0 b5 25 b8 58 cd 3a b8 17 13 5e 38
       3.436699e-05 -3.9508333e-05 -4.4537097e-05 5.2946703e-05
000120 ab d7 26 38 fa 81 8d b8 1e ff 05 b8 05 b8 c4 37
       3.977834e-05 -6.747614e-05 -3.1947267e-05 2.3450712e-05
000130 22 68 1e b8 65 a0 fe 37 fc 63 4b 38 7d d2 6b b8
       -3.7767117e-05 3.0353849e-05 4.849209e-05 -5.62244e-05
000140 08 9d 71 36 3a 67 1e 39 73 d2 37 38 4a c5 5c 38
       3.6003203e-06 0.00015106509 4.3826596e-05 5.2635827e-05
000150 62 9c d0 36 ae 69 2d b7 e3 a4 12 38 c3 6e a8 b8
       6.2170884e-06 -1.0336209e-05 3.4962675e-05 -8.031495e-05
000160 88 61 10 38 59 90 be b8 e0 48 26 37 54 d8 0b 38
       3.442311e-05 -9.086793e-05 9.911339e-06 3.3341654e-05
000170 c0 91 3e 37 2e cc 48 38 7e 99 d4 38 4d 97 4d b8
       1.1358818e-05 4.7873873e-05 0.00010137538 -4.901672e-05
000180 7e 43 9b b8 aa 12 03 39 60 33 8e 38 96 c9 b0 b8
       -7.403547e-05 0.00012500086 6.780657e-05 -8.429882e-05
000190 12 f6 af b7 80 03 06 35 40 b8 2b b6 17 ad 55 39
       -2.0976211e-05 4.9923983e-07 -2.5588233e-06 0.00020377744
0001a0 a8 1f 08 39 f9 71 84 38 52 83 e5 b7 9f c6 de 38
       0.00012981764 6.3154795e-05 -2.7360078e-05 0.00010622781
0001b0 5b 3e 06 38 a9 20 a7 38 e1 7f fd 38 d8 c7 18 39
       3.2006163e-05 7.969264e-05 0.000120877994 0.00014570297
0001c0 7b b0 e8 b7 70 96 e6 b6 e1 c5 80 b7 0a 01 c3 b8
       -2.7738735e-05 -6.8720474e-06 -1.5350934e-05 -9.298518e-05
0001d0 47 f6 ed b8 7e 67 06 b7 80 48 db b6 1c e8 58 b8
       -0.000113469134 -8.011119e-06 -6.5351487e-06 -5.171458e-05
0001e0 56 29 e5 37 b2 c8 a8 37 cc 50 d1 38 fe 9c d5 b7
       2.7318176e-05 2.0120617e-05 9.980946e-05 -2.5464684e-05
0001f0 8e 68 da b8 60 39 3f b6 69 02 ba 38 e0 ee 8c 38
       -0.00010414525 -2.8494615e-06 8.86962e-05 6.720214e-05
000200 10 a7 24 b6 42 58 0f 37 40 61 c8 35 83 8b 7c 38
       -2.4535148e-06 8.544013e-06 1.4929465e-06 6.0211412e-05
000210 58 6b bd 37 f2 2a ca 38 e0 50 23 b7 70 ab a4 b8
       2.2580542e-05 9.64011e-05 -9.734387e-06 -7.852062e-05
000220 68 f6 2d 38 38 cd b3 36 30 07 4a b8 44 29 a4 37
       4.1475898e-05 5.3585063e-06 -4.8167247e-05 1.956954e-05
000230 31 df b1 38 da 96 4f 38 24 34 cb b8 9c aa 99 36
       8.48159e-05 4.9493137e-05 -9.689506e-05 4.579617e-06
000240 b4 95 8d 38 a0 a5 00 b6 e6 fc 21 b8 64 a1 90 b8
       6.751288e-05 -1.9169893e-06 -3.862092e-05 -6.8965164e-05
000250 e5 4c 03 b8 60 7c c4 36 20 08 bc 38 d8 cd 01 37
       -3.1304447e-05 5.8557343e-06 8.966052e-05 7.736926e-06
000260 cd 64 3a 38 c8 83 68 b7 f7 b7 98 b8 0f 45 82 b7
       4.4439734e-05 -1.385896e-05 -7.282191e-05 -1.5529366e-05
000270 f0 62 12 36 28 61 38 39 3c b3 c9 b8 2c 12 4e b8
       2.1813285e-06 0.00017583801 -9.617812e-05 -4.913115e-05
000280 8a ad 55 b8 97 3d 63 38 dd cb 1b b9 4c 46 76 b8
       -5.094478e-05 5.4178377e-05 -0.00014857897 -5.871644e-05
000290 6b 7f 75 38 be 23 bd b7 6e 6c b5 38 1c 01 e3 b7
       5.853122e-05 -2.25472e-05 8.650949e-05 -2.7061025e-05
0002a0 0d f7 ec 38 c3 84 31 b8 a6 88 d0 b8 37 c1 71 39
       0.00011299374 -4.2323732e-05 -9.943666e-05 0.00023055529
0002b0 40 b4 15 b9 c8 dc 22 b8 f3 d9 0a b8 74 cb 12 38
       -0.00014276896 -3.882943e-05 -3.3104745e-05 3.4998593e-05
0002c0 d0 af 1e b7 b0 7d ae 38 db 6e c7 b7 9c bb 46 b8
       -9.458468e-06 8.320378e-05 -2.377427e-05 -4.7381604e-05
0002d0 1b 93 32 b8 93 02 22 38 28 27 2f b7 68 fc 9a b7
       -4.257551e-05 3.8626207e-05 -1.043993e-05 -1.8475766e-05
0002e0 f1 85 b7 37 5b 68 ef 38 1e 88 43 b8 e0 d3 ce b4
       2.1877671e-05 0.00011415846 -4.6618392e-05 -3.852465e-07
0002f0 89 e7 4c 37 bd fb 72 b8 7e a1 c4 37 10 6d b2 b8
       1.2213256e-05 -5.7931746e-05 2.3440221e-05 -8.508016e-05
000300 a8 5f c4 36 b8 ac 06 38 30 ef 04 39 de bf cc 37
       5.852391e-06 3.2108946e-05 0.00012677605 2.440804e-05
000310 1a bf 04 37 ac bc b4 b8 09 33 be 37 0e 43 10 b9
       7.912307e-06 -8.618212e-05 2.267353e-05 -0.0001375789
000320 6c ac 9f b8 68 1e 25 38 1c 64 c3 b7 b0 d3 47 34
       -7.613827e-05 3.9367384e-05 -2.3292429e-05 1.861033e-07
000330 dc b7 5b 38 88 04 f1 b8 40 1c 19 38 db 57 5a 38
       5.23849e-05 -0.000114926195 3.6504352e-05 5.2057072e-05
000340 f0 a5 ea b8 12 64 52 37 80 09 44 b6 50 9e 53 b6
       -0.00011188898 1.2540275e-05 -2.9211806e-06 -3.15336e-06
000350 dc 51 83 b7 18 e4 55 b7 64 46 e5 b7 bd 61 ad b8
       -1.5654536e-05 -1.2748897e-05 -2.7331705e-05 -8.267488e-05
000360 28 d3 bb 37 67 c8 7f 38 4c 9b 0b 38 68 f6 81 37
       2.2390464e-05 6.0983377e-05 3.3284814e-05 1.549274e-05
000370 fa 36 ed b8 00 87 0d 35 d8 15 50 b8 fc 11 f9 38
       -0.00011311281 5.2723044e-07 -4.9611408e-05 0.00011876595
000380 e0 9b 52 38 c4 f4 60 b6 d0 8c fe 38 38 30 b5 b6
       5.021307e-05 -3.3521073e-06 0.00012137892 -5.3998338e-06
000390 14 25 47 38 da 03 04 38 b0 80 da 36 de b1 93 b8
       4.747983e-05 3.147484e-05 6.5118875e-06 -7.0426366e-05
0003a0 6c 79 a6 b6 9d 39 1e 39 a6 37 06 38 58 9a ee 37
       -4.961321e-06 0.00015089517 3.1999916e-05 2.8443683e-05
0003b0 a2 a1 5b 38 1d c6 c9 b8 8a 5a a1 38 2c aa b2 b8
       5.23642e-05 -9.621328e-05 7.6939425e-05 -8.5193984e-05
0003c0 a2 43 ba b8 56 fb b4 b7 07 e7 07 b8 ca 7a 0d b8
       -8.881769e-05 -2.157471e-05 -3.240167e-05 -3.3731376e-05
0003d0 5e 94 c3 b7 c0 8d d2 b5 12 28 97 37 00 30 60 34
       -2.33149e-05 -1.5687474e-06 1.8019262e-05 2.0879088e-07
0003e0 91 9f c4 b8 b8 6d 1e b9 1b 31 d0 37 d0 a4 e3 34
       -9.37573e-05 -0.00015108928 2.4818399e-05 4.2401962e-07
0003f0 a0 05 3f 36 6c bc 54 b8 0d 0c 38 b8 0c 27 2a 39
       2.8464492e-06 -5.072022e-05 -4.388024e-05 0.0001622701

lstm.weight_hh_l0_reverse f4 [128, 32]
000000 db 29 76 38 98 4c b6 37 84 f1 55 38 36 34 06 38
       5.868995e-05 2.1731757e-05 5.1008086e-05 3.1996715e-05
000010 c1 ac 7f b8 4c 1d 82 37 70 94 09 36 6a 79 2d b7
       -6.0957627e-05 1.551085e-05 2.0500993e-06 -1.03398725e-05
000020 30 4d d0 b4 80 36 c6 b6 96 de 0f 39 20 da d9 b5
       -3.879918e-07 -5.9072045e-06 0.00013720462 -1.6231243e-06
000030 7c 53 be 37 5a 2b df 38 31 f8 05 38 48 48 9d b7
       2.268864e-05 0.000106415435 3.1940817e-05 -1.8749517e-05
000040 ba d1 b8 b8 f5 b9 be b7 80 06 3f b5 82 a2 96 b8
       -8.812868e-05 -2.2736358e-05 -7.1162503e-07 -7.182827e-05
000050 a8 00 37 38 fd 7b de b7 5f 77 5d b8 cb 76 82 38
       4.363121e-05 -2.6522199e-05 -5.280168e-05 6.22101e-05
000060 10 01 e1 38 00 99 f8 38 82 82 da 38 07 53 83 38
       0.00010729034 0.0001185406 0.00010419359 6.262032e-05
000070 10 08 23 37 20 24 cf b8 14 9b 27 38 9a af 5c 38
       9.717434e-06 -9.877258e-05 3.996033e-05 5.261563e-05
000080 70 5f 01 36 60 1c 88 36 e4 33 32 b8 9a 9c f8 36
       1.927805e-06 4.056419e-06 -4.2486834e-05 7.409207e-06
000090 28 db 77 b8 92 35 af 38 d4 47 b7 37 0c 65 1e b9
       -5.9093494e-05 8.3546285e-05 2.1848748e-05 -0.00015105697
0000a0 37 cd 56 b8 f4 21 13 b8 b0 22 ee 38 50 cb 5c 37
       -5.1212697e-05 -3.5079152e-05 0.000113551854 1.3160359e-05
0000b0 3d e0 81 38 98 8b bf b8 fc 01 52 b8 60 55 91 b6
       6.192967e-05 -9.133591e-05 -5.006975e-05 -4.3312757e-06
0000c0 00 12 9a 36 10 92 26 b8 e4 ec 4f b7 e4 96 a7 38
       4.591653e-06 -3.9713515e-05 -1.2393317e-05 7.991286e-05
0000d0 96 c4 37 b8 44 97 c0 b6 25 75 d2 b8 00 f9 fa b5
       -4.3813685e-05 -5.7396555e-06 -0.000100354 -1.869892e-06
0000e0 b8 35 e6 b6 83 b7 19 b8 3f 1d 24 38 dd 61 82 b8
       -6.860788e-06 -3.664895e-05 3.9127885e-05 -6.2171115e-05
0000f0 86 a5 7e 38 e0 05 ef b7 40 d2 b5 38 b0 1e ed 38
       6.0712475e-05 -2.8493756e-05 8.669915e-05 0.00011306757
000100 cc 45 28 b8 04 94 a5 b8 ec 44 22 b7 1e 23 86 38
       -4.0119325e-05 -7.895383e-05 -9.672e-06 6.396159e-05
000110 e6 7a 8b b7 80 b6 e3 35 c0 73 38 38 5c af 82 b7
       -1.662732e-05 1.6965932e-06 4.397682e-05 -1.5578866e-05
000120 30 b6 fc b7 c1 0c d4 38 f4 e7 69 38 91 1c 08 b8
       -3.0125579e-05 0.00010111323 5.5767552e-05 -3.245153e-05
000130 b0 c0 21 36 62 ce ac b6 6e 7c 22 38 24 b8 55 b8
       2.4103028e-06 -5.1500256e-06 3.8739694e-05 -5.095465e-05
000140 38 41 50 37 d8 80 25 b8 cb 1b b0 37 b9 59 a5 38
       1.2412951e-05 -3.945906e-05 2.0993777e-05 7.884525e-05
000150 be 0d 50 38 98 b8 f6 b6 00 4b 6c b4 04 50 2e 38
       4.9603863e-05 -7.352861e-06 -2.2006498e-07 4.1559353e-05
000160 e2 34 83 38 00 fd 6f b9 5c 6c ef b8 6d d1 a7 38
       6.256417e-05 -0.00022887066 -0.000114165916 8.002189e-05
000170 af 93 3f b8 c4 d8 2e b7 a8 d7 82 b7 70 8b a9 b7
       -4.567549e-05 -1.0421678e-05 -1.559763e-05 -2.02113e-05
000180 56 bf 93 b8 44 b9 64 37 f5 9b 3a 39 76 85 03 38
       -7.045145e-05 1.36329945e-05 0.00017796441 3.135713e-05
000190 5f 03 03 39 be 1f e1 37 c8 19 58 b7 9d 81 2a 37
       0.0001249439 2.6836871e-05 -1.2880606e-05 1.0162968e-05
0001a0 9c 44 91 b7 c2 f8 ec b8 f8 0d 95 38 ce a2 e8 37
       -1.7317296e-05 -0.00011299692 7.1074755e-05 2.7732367e-05
0001b0 df de 6c 38 18 b6 31 b8 56 cc 87 b8 e0 98 90 b6
       5.647435e-05 -4.2369677e-05 -6.475362e-05 -4.3093314e-06
0001c0 62 a0 4c b7 4d 44 08 39 12 6a 2f b8 34 1b ef 37
       -1.219669e-05 0.00012995415 -4.1822037e-05 2.8503688e-05
0001d0 c4 0b 69 b8 78 b2 06 38 2e 0c c6 b8 50 97 0d b8
       -5.5562487e-05 3.21143e-05 -9.4436444e-05 -3.375794e-05
0001e0 ae 4e 19 b8 5d 5a 47 38 88 d6 be b8 81 da 07 b9
       -3.655132e-05 4.7529455e-05 -9.0998656e-05 -0.00012956002
0001f0 fc de 81 37 d2 df e4 37 51 55 2e b8 8a 0b 52 38
       1.5481834e-05 2.7283942e-05 -4.156429e-05 5.007865e-05
000200 be 9d 0e b8 ae 78 9e 37 94 a9 10 38 b3 e1 a1 35
       -3.4002347e-05 1.8891264e-05 3.4490207e-05 1.2061122e-06
000210 cc 77 f4 36 ba 61 9f b8 23 14 19 b9 76 0f 47 b8
       7.285713e-06 -7.599914e-05 -0.00014598719 -4.7459696e-05
000220 e8 fc 9a b7 aa 91 b0 37 28 05 d3 b8 11 1b 09 b7
       -1.8476e-05 2.1048665e-05 -0.000100622245 -8.172138e-06
000230 b0 4a b9 b6 41 39 ed 38 8a db a1 38 a0 87 3e 38
       -5.5221244e-06 0.00011311705 7.7179706e-05 4.542584e-05
000240 20 a8 c3 b6 d4 29 76 38 14 04 b5 38 cf 03 ca b7
       -5.831025e-06 5.8689926e-05 8.631512e-05 -2.408205e-05
000250 c3 d7 ca 37 fc b7 a2 36 8c 29 fb 38 fc 9a 82 b7
       2.4180748e-05 4.849395e-06 0.000119763514 -1.5569378e-05
000260 26 02 cc 36 6a 9f df b7 97 a8 49 b8 c8 39 22 b7
       6.079924e-06 -2.6657905e-05 -4.8079146e-05 -9.669406e-06
000270 ba 09 c1 b7 04 b9 f0 b8 b4 84 d6 b6 ad 54 dd b8
       -2.3011922e-05 -0.00011478554 -6.3931457e-06 -0.00010553873
000280 14 17 01 39 58 b4 ad 36 10 57 07 38 c0 e2 a6 b5
       0.00012310996 5.1767965e-06 3.226759e-05 -1.2433957e-06
000290 f2 78 83 b8 dc eb d0 38 5c 14 1e b9 f0 29 6b b7
       -6.2690946e-05 9.962145e-05 -0.00015075639 -1.4016856e-05
0002a0 d1 99 02 38 00 bc 00 35 14 09 05 b7 76 98 1c 39
       3.1137668e-05 4.795729e-07 -7.929531e-06 0.00014934115
0002b0 2d 2f 0d 37 37 7f f5 b7 88 cb 0f 39 90 ce 4f b7
       8.415239e-06 -2.9265515e-05 0.00013713364 -1.2386256e-05
0002c0 00 16 11 35 dd d7 ac 38 9c 71 af 36 13 bf 0f b9
       5.4048724e-07 8.241807e-05 5.2286323e-06 -0.00013708723
0002d0 87 91 1b b8 be f3 21 38 97 3d 8c 38 dc 7a da b8
       -3.7090413e-05 3.8612394e-05 6.687192e-05 -0.000104179344
0002e0 e1 4c 76 b8 87 f7 92 b7 da 37 42 b7 e8 84 da 38
       -5.872257e-05 -1.751982e-05 -1.1576305e-05 0.00010419806
0002f0 1c 2d 9a 37 9b 19 a2 b5 71 81 95 38 08 a6 f3 b8
       1.8379236e-05 -1.2077393e-06 7.128984e-05 -0.00011618069
000300 80 fa f6 35 b1 73 27 38 ac 1c df 38 f4 4a a5 38
       1.8401333e-06 3.992365e-05 0.00010638809 7.881774e-05
000310 b6 ee b5 b8 fe 85 d3 b7 b7 d2 2f 38 b6 3e da 38
       -8.675216e-05 -2.5215555e-05 4.1919495e-05 0.00010406731
000320 78 07 fc b7 20 e9 0e 37 e8 b7 62 b9 2d f6 9c 38
       -3.0044219e-05 8.518138e-06 -0.0002162155 7.4845135e-05
000330 dd 02 07 38 b6 d7 83 b7 b4 20 09 b6 c0 75 9a b4
       3.2189175e-05 -1.5716865e-05 -2.0433627e-06 -2.877041e-07
000340 6e 3b ee 37 71 81 83 b8 94 b5 d4 38 2f 3e d8 b6
       2.8399485e-05 -6.270677e-05 0.00010142769 -6.4445408e-06
000350 60 a6 bb 36 89 27 44 38 54 5b d4 b8 32 de 63 b7
       5.592403e-06 4.676686e-05 -0.00010125959 -1.3581988e-05
000360 08 f5 e1 b8 38 2b 70 b8 3e 81 56 b7 a0 e0 4c b8
       -0.00010774477 -5.726071e-05 -1.27854855e-05 -4.884659e-05
000370 46 87 a3 b8 7a 87 7d b8 54 cd 5a b8 34 af e1 b7
       -7.797642e-05 -6.0446073e-05 -5.2166477e-05 -2.6903675e-05
000380 d8 9d 2f b7 e4 d9 0e 37 94 4c 2f 38 5c 79 f3 b6
       -1.0467564e-05 8.514591e-06 4.179457e-05 -7.2560924e-06
000390 a0 84 db b5 25 25 92 38 b2 d9 1b 39 34 26 f8 36
       -1.635537e-06 6.968741e-05 0.0001486305 7.3954234e-06
0003a0 b0 ca 84 b8 f8 de 0d 38 c5 71 d2 38 31 33 a7 38
       -6.332004e-05 3.3824675e-05 0.000100347715 7.972716e-05
0003b0 69 fc c3 b7 46 55 50 b8 8a 5f eb b7 a0 96 40 b4
       -2.336335e-05 -4.967048e-05 -2.8058672e-05 -1.793619e-07
0003c0 b8 6b 0b b6 9f 52 67 b8 97 62 66 b8 80 4c d9 34
       -2.0775315e-06 -5.515164e-05 -5.4928092e-05 4.047506e-07
0003d0 f9 ee 36 38 c8 2e 54 37 40 6e 34 35 95 de 0d 38
       4.3614742e-05 1.2647077e-05 6.721566e-07 3.3824315e-05
0003e0 80 82 63 b8 e3 c1 64 38 d8 dc 27 38 34 e4 00 b7
       -5.4242555e-05 5.4540007e-05 4.002158e-05 -7.682527e-06
0003f0 4f 85 1b 38 b4 5d 9e 37 79 35 48 b8 f8 52 1e b9
       3.7079033e-05 1.8878702e-05 -4.7733516e-05 -0.00015098962

lstm.bias_ih_l0_reverse f4 [128]
000000 f4 e6 4f b8 3d aa 31 38 9a 86 81 b7 10 30 3a 38
       -4.9567738e-05 4.2358635e-05 -1.5440677e-05 4.4390617e-05
000010 ec fa 02 35 14 8a 40 b7 b6 80 11 b8 92 f7 a3 38
       4.8793913e-07 -1.1476241e-05 -3.4690565e-05 7.818559e-05
000020 40 ed 16 35 2f 9c b5 38 90 7e fa 36 80 fc 29 b5
       5.62246e-07 8.659844e-05 7.4653144e-06 -6.332484e-07
000030 4e 67 5e 38 b2 19 b2 38 24 63 50 b8 0e a3 ad 38
       5.3025135e-05 8.4924875e-05 -4.9683396e-05 8.279654e-05
000040 d9 7c 39 b8 86 ec 8b 38 fc e9 c9 b8 10 ba cb 36
       -4.422371e-05 6.6720924e-05 -9.62801e-05 6.071532e-06
000050 7e 6a de 37 a8 6f 06 38 96 75 a2 b7 19 40 0f b8
       2.6514052e-05 3.2052078e-05 -1.936666e-05 -3.4153552e-05
000060 a0 7c 99 36 d8 6c 01 b7 f3 b3 15 b9 59 ac 2d b6
       4.5742636e-06 -7.714341e-06 -0.00014276784 -2.5879328e-06
000070 eb 85 40 37 63 0d 98 38 25 e0 0b b8 c3 81 84 b8
       1.1475272e-05 7.250418e-05 -3.3348933e-05 -6.3184205e-05
000080 20 f6 12 b8 df db 43 38 68 a4 6f 38 f0 17 44 b7
       -3.5038334e-05 4.6696394e-05 5.7135156e-05 -1.1688084e-05
000090 27 35 b7 37 43 c5 cc 37 e0 2d b8 b6 04 41 f7 b7
       2.1840051e-05 2.4410552e-05 -5.488968e-06 -2.947497e-05
0000a0 04 35 a3 37 6a 76 e1 b7 9d 45 95 b8 fe 8d 87 b8
       1.9455802e-05 -2.6877231e-05 -7.11784e-05 -6.46375e-05
0000b0 bc 4c 84 38 92 bd 37 38 c8 b6 d3 b6 12 91 9d 38
       6.3085434e-05 4.380715e-05 -6.3095686e-06 7.513365e-05
0000c0 e4 21 08 b7 52 01 4e 38 64 43 2a b8 e8 9f 10 39
       -8.1141225e-06 4.9115457e-05 -4.059392e-05 0.0001379248
0000d0 64 b7 5d 38 fa 19 f9 38 fc 49 82 37 0a 5d cb 37
       5.28613e-05 0.00011878084 1.553166e-05 2.424281e-05
0000e0 28 02 0e b7 00 ea 37 b5 5b 44 35 38 cf 9d 36 38
       -8.464362e-06 -6.851333e-07 4.3217424e-05 4.3539152e-05
0000f0 24 79 ab 38 71 6f 8b 38 76 aa 37 b8 04 38 37 38
       8.1764796e-05 6.648794e-05 -4.3789354e-05 4.368277e-05
000100 a2 ca de 37 c0 4b 55 b7 53 82 10 b8 6a 58 d5 b8
       2.655882e-05 -1.2713426e-05 -3.445365e-05 -0.000101731
000110 36 e5 ff b7 62 93 06 b8 83 05 8c 38 90 9a 91 b8
       -3.0505103e-05 -3.208535e-05 6.676747e-05 -6.942928e-05
000120 ed 11 5f 38 33 34 80 37 f8 f5 3b 38 1c b6 00 38
       5.3184038e-05 1.5283096e-05 4.481335e-05 3.068718e-05
000130 90 78 30 b7 f5 dd 6a 38 e8 52 22 37 11 7a 02 b8
       -1.0518488e-05 5.599666e-05 9.675256e-06 -3.11081e-05
000140 ae cd ec b8 12 21 0b b8 64 51 68 b8 08 e0 bb b7
       -0.00011291668 -3.317098e-05 -5.538891e-05 -2.239646e-05
000150 10 a9 9f 36 02 73 b6 b8 40 d1 86 b5 40 c4 04 35
       4.7582507e-06 -8.699858e-05 -1.0044678e-06 4.9459413e-07
000160 6c 26 33 39 61 2a e2 37 e8 99 fb 36 be 9a 03 b8
       0.00017085084 2.6961034e-05 7.4983e-06 -3.137695e-05
000170 fd 9a a4 b8 60 f6 3b b7 b2 c4 11 38 0f 0d ad 38
       -7.848998e-05 -1.1203432e-05 3.475388e-05 8.251715e-05
000180 ca 4e 83 38 66 e4 ae 38 fb ae c5 b8 3c be bd 37
       6.2612424e-05 8.339509e-05 -9.426285e-05 2.261914e-05
000190 a0 37 2c b8 6f 7a de 38 a2 3d 6f 38 6c ff 80 b7
       -4.10598e-05 0.0001060859 5.703944e-05 -1.537773e-05
0001a0 38 90 b0 36 91 c0 b2 b8 60 63 ba 38 d8 14 0d b7
       5.261998e-06 -8.52357e-05 8.887681e-05 -8.409108e-06
0001b0 d6 14 69 b8 80 cd b1 35 3f 0c 9c b8 77 2c 8c b8
       -5.5570934e-05 1.3247336e-06 -7.440941e-05 -6.6840024e-05
0001c0 16 c4 cd 38 48 b7 c3 37 ac 8b 0d b8 65 d3 17 b9
       9.8116856e-05 2.3331158e-05 -3.37471e-05 -0.00014479233
0001d0 2c 71 95 38 b0 37 97 b3 a1 c6 12 b8 41 81 02 b8
       7.1259536e-05 -7.041615e-08 -3.49941e-05 -3.1114792e-05
0001e0 93 66 da 38 c2 f5 23 b8 42 54 10 39 ee 2a c6 38
       0.00010414156 -3.909111e-05 0.00013764299 9.449372e-05
0001f0 73 3a 50 38 40 29 c7 35 a8 5b 0f b7 a0 15 ae b5
       4.96455e-05 1.4838661e-06 -8.544805e-06 -1.2970304e-06

lstm.bias_hh_l0_reverse f4 [128]
000000 f9 91 08 b8 1e 41 8b 36 d6 e5 ae b8 b6 d5 e1 b8
       -3.2560874e-05 4.1501035e-06 -8.339777e-05 -0.00010768643
000010 e8 94 77 38 28 46 8d b6 62 97 94 37 b6 b0 ec 38
       5.902807e-05 -4.2102947e-06 1.7713468e-05 0.00011286272
000020 30 e3 bd b6 10 5a f3 b6 1b 6d 1a b8 16 8f ed 38
       -5.659087e-06 -7.252449e-06 -3.6818074e-05 0.000113276925
000030 36 8a d3 b7 30 9a 8c 37 12 94 9c b7 90 7f 9a b4
       -2.521752e-05 1.67611e-05 -1.86656e-05 -2.877755e-07
000040 aa 6f 6d b7 33 8c c0 b8 ba 03 3a b8 9c 1d d4 b8
       -1.41523e-05 -9.1813876e-05 -4.4349326e-05 -0.00010114463
000050 60 d4 21 b6 40 c8 0b b5 86 80 bf b8 17 2b a8 38
       -2.4114488e-06 -5.207294e-07 -9.131529e-05 8.0188904e-05
000060 b8 88 03 38 24 a4 8c 38 f6 27 e6 37 e3 10 a2 38
       3.1360163e-05 6.706294e-05 2.7436745e-05 7.727907e-05
000070 b2 5b 36 38 70 33 10 38 c5 34 27 38 f5 95 aa 38
       4.347758e-05 3.438018e-05 3.9865048e-05 8.134163e-05
000080 62 b2 51 b8 97 94 aa 38 de 52 f1 b8 00 5b c1 b4
       -4.9995615e-05 8.133909e-05 -0.00011507211 -3.6015263e-07
000090 4d 4d 7e 38 10 81 ba 38 06 33 0d b7 00 ce 40 34
       6.063031e-05 8.893211e-05 -8.416135e-06 1.7956336e-07
0000a0 c0 0c 68 b5 fa 81 08 b8 2e f4 11 38 d8 c5 b4 b8
       -8.644529e-07 -3.2545977e-05 3.4798104e-05 -8.61992e-05
0000b0 4e ac 5d 38 f1 f3 49 38 70 5d 0b 39 3e fa ec 38
       5.2850977e-05 4.8149323e-05 0.00013290881 0.00011299968
0000c0 01 c5 db b7 b6 4b 0d b8 86 38 7f 38 fc 0f b2 38
       -2.6198572e-05 -3.368753e-05 6.084938e-05 8.490679e-05
0000d0 ba 0d b1 38 98 79 2c 37 e2 73 02 39 a1 17 0e b8
       8.4425745e-05 1.028031e-05 0.00012440936 -3.3877444e-05
0000e0 aa 0e ee b8 06 4c 77 38 2b 62 4d 38 a2 6c c0 b8
       -0.00011351456 5.896019e-05 4.8967235e-05 -9.175508e-05
0000f0 4c ba 12 38 40 8f 3a b8 32 9f 4e b7 ac b0 c3 b7
       3.4982615e-05 -4.4479268e-05 -1.2315622e-05 -2.332808e-05
000100 bf 62 ac b8 90 a8 43 36 4c 45 21 b8 86 c7 5c b8
       -8.219992e-05 2.915538e-06 -3.844993e-05 -5.2637908e-05
000110 b4 ff 9f b8 e0 94 97 36 dc 4f fc b6 7d df e9 b8
       -7.629339e-05 4.517482e-06 -7.519482e-06 -0.00011151934
000120 ce be 10 38 ae 8c 46 b8 0c 43 21 b7 1b 8a 7c b8
       3.4509976e-05 -4.7337897e-05 -9.611958e-06 -6.0210103e-05
000130 10 f5 9a 38 10 6f 43 38 a2 8f 84 37 13 7b 82 b8
       7.388939e-05 4.6595058e-05 1.580251e-05 -6.2218074e-05
000140 5f 37 46 38 ef ec 39 38 4a 4d 39 39 10 3c 54 b9
       4.7258447e-05 4.43281e-05 0.00017671767 -0.0002024027
000150 8e a0 44 38 f4 1d 4d 38 f7 6b 04 39 94 f0 0e b8
       4.687957e-05 4.8903705e-05 0.00012628721 -3.4079494e-05
000160 40 c3 6f b7 bd 01 b9 38 de 27 9e 38 26 fa 5b b8
       -1.429097e-05 8.821811e-05 7.541453e-05 -5.2446638e-05
000170 3b e3 73 37 2e cc 07 b9 25 a9 ce b8 e0 f7 05 b7
       1.4536835e-05 -0.00012950666 -9.854351e-05 -7.985131e-06
000180 a6 c2 f3 38 06 47 7d 38 e2 f2 21 38 30 43 23 b7
       0.00011623399 6.0386046e-05 3.8611593e-05 -9.7312e-06
000190 a0 06 fe 36 99 b9 1c 38 46 19 30 b9 cc 6d 17 b8
       7.570561e-06 3.736615e-05 -0.00016794083 -3.610346e-05
0001a0 63 be 9e b8 b0 11 b0 36 f0 54 e5 36 45 7e be 37
       -7.5694894e-05 5.247268e-06 6.83462e-06 2.2708564e-05
0001b0 45 4d 9f 38 2a 07 12 b8 90 79 53 b6 24 ea 64 37
       7.5961034e-05 -3.4815785e-05 -3.1512209e-06 1.3644374e-05
0001c0 04 1a 02 37 60 11 bc b6 60 e2 04 37 6c 6e 8d b8
       7.754661e-06 -5.6048593e-06 7.92052e-06 -6.7439716e-05
0001d0 51 34 99 b8 4e 0a 95 38 00 9c 5f b4 e4 68 6b b7
       -7.305353e-05 7.106793e-05 -2.0825246e-07 -1.4031513e-05
0001e0 d0 8a c4 b6 35 e8 af 38 40 d4 51 36 96 cb 18 b9
       -5.857415e-06 8.387902e-05 3.1266973e-06 -0.00014571691
0001f0 9a 1c 4a 38 31 54 d2 b8 dc ec 03 b8 26 a7 f3 38
       4.818719e-05 -0.00010029262 -3.1453426e-05 0.00011618277
