bagging_model_1_best.pth (torch, 628476 bytes, 33 tensors)

lstm.weight_ih_l0 f4 [256, 19]
000000 11 a5 45 33 d3 44 9d b3 8c a3 2e b2 80 fd be 30
       4.6017764e-08 -7.323401e-08 -1.0165319e-08 1.3896369e-09
000010 14 29 1f b3 6c b8 8a b3 52 d3 0b 34 20 2c 0c b4
       -3.7057433e-08 -6.459672e-08 1.3022262e-07 -1.3054569e-07
000020 f4 f2 69 34 34 8f 9d b3 46 cd 13 33 72 16 14 34
       2.1788202e-07 -7.336931e-08 3.44128e-08 1.379174e-07
000030 38 31 ca 33 aa dd 39 b4 7e 9d 9a b4 e2 1e f6 b3
       9.415311e-08 -1.7310109e-07 -2.8799326e-07 -1.1460885e-07
000040 3e b7 a2 33 5c 4d 43 b4 00 a1 ae af f8 b5 08 b4
       7.5770444e-08 -1.8188933e-07 -3.1764813e-10 -1.2732187e-07
000050 eb 65 89 b4 43 99 2d b3 ea 05 30 33 c5 cc 39 34
       -2.5592394e-07 -4.0419092e-08 4.0983572e-08 1.7303962e-07
000060 3b c8 94 33 40 79 8c b4 cb 9f 21 b4 b2 d4 24 b4
       6.928209e-08 -2.6165253e-07 -1.5052426e-07 -1.5351068e-07
000070 69 a5 42 34 08 ba a0 b1 00 09 7a 34 4f 6d d3 b3
       1.8127834e-07 -4.677762e-09 2.3286339e-07 -9.845336e-08
000080 23 3a a3 32 24 1e 29 b4 ec bf 71 b3 f3 e1 40 34
       1.9002135e-08 -1.5750317e-07 -5.6286737e-08 1.7963593e-07
000090 c6 25 94 b4 72 f0 ad 34 4a b0 75 33 de e7 42 34
       -2.7594632e-07 3.2398708e-07 5.720384e-08 1.8152011e-07
0000a0 a5 21 2e b4 dc 1d 31 34 1f ed 8f 33 48 94 1a 34
       -1.6217253e-07 1.6495272e-07 6.7020885e-08 1.4396312e-07
0000b0 71 76 6d b4 4d 8b 0f b4 70 db 74 32 f6 37 cd 34
       -2.2115434e-07 -1.336859e-07 1.4252564e-08 3.8224943e-07
0000c0 18 ab cf 31 23 ad 92 b3 bf a4 cd b3 4f 9b 78 34
       6.043944e-09 -6.830148e-08 -9.5760235e-08 2.3153301e-07
0000d0 f0 55 ab b3 c0 fd 3b b2 e4 cf d9 32 30 f9 14 34
       -7.97844e-08 -1.0942529e-08 2.5356663e-08 1.3874228e-07
0000e0 2d 63 52 33 20 dd 30 b3 15 7d 4f 34 8c e1 08 b3
       4.8984635e-08 -4.1179305e-08 1.9323882e-07 -3.18701e-08
0000f0 ac 5f 0d 33 d8 1a d6 b3 8e 46 0f b4 1c 40 68 33
       3.2916134e-08 -9.9700344e-08 -1.334358e-07 5.4075016e-08
000100 7e 2d 45 b4 9a 80 44 b3 9e 9a 9d 33 bc a9 13 b4
       -1.8363605e-07 -4.575177e-08 7.339007e-08 -1.3752191e-07
000110 76 65 73 b3 dc c8 cb 33 2e 66 6c b4 44 8a 8a b3
       -5.6670125e-08 9.48946e-08 -2.2016386e-07 -6.451276e-08
000120 69 07 1f b4 90 85 2c b2 d8 de 7c b4 f4 48 1d b3
       -1.4810725e-07 -1.0042086e-08 -2.3550399e-07 -3.662076e-08
000130 20 48 85 b4 40 f2 ec b3 f9 f3 d0 b3 22 59 f9 33
       -2.4825658e-07 -1.10336714e-07 -9.730133e-08 1.1611179e-07
000140 8e 43 8f b4 60 8b 03 b3 8c d8 20 34 51 8a 2f b3
       -2.6684978e-07 -3.0627575e-08 1.497994e-07 -4.087116e-08
000150 80 ff 2b b4 88 d9 69 34 e8 25 ba b2 f0 85 51 32
       -1.6018566e-07 2.1778953e-07 -2.1670488e-08 1.2195855e-08
000160 53 cc d7 b3 46 69 33 b4 f6 fc 1f b4 c0 a4 58 b3
       -1.0048884e-07 -1.6708972e-07 -1.4900056e-07 -5.044126e-08
000170 58 d6 f1 b2 7c f4 7e 34 31 4d 8f b3 87 8d b9 33
       -2.8153565e-08 2.3744536e-07 -6.6729974e-08 8.6404775e-08
000180 ba 90 28 33 cb 27 11 b4 94 81 93 b4 c0 af 81 32
       3.9247176e-08 -1.3518654e-07 -2.7475164e-07 1.5097498e-08
000190 39 fc 80 b4 c2 83 0e 34 e8 af 91 b4 61 fa a7 b4
       -2.4025374e-07 1.3272714e-07 -2.7136343e-07 -3.128835e-07
0001a0 18 93 97 b3 f3 88 0c 34 63 08 1b b4 18 3d 1b b3
       -7.0582416e-08 1.3088338e-07 -1.4438551e-07 -3.6144314e-08
0001b0 4c c9 d5 b2 da db 43 34 0c ab a1 33 fe 9e 2b b4
       -2.4888003e-08 1.8240772e-07 7.52826e-08 -1.5983457e-07
0001c0 50 b1 07 34 06 5a 23 34 6d 25 33 b4 02 18 5c 34
       1.263736e-07 1.5213308e-07 -1.668429e-07 2.049783e-07
0001d0 30 97 db b3 02 80 d1 33 04 32 b7 33 26 f6 08 b4
       -1.0225483e-07 9.7556054e-08 8.530699e-08 -1.2755535e-07
0001e0 97 cd 50 b4 e6 b8 5c 34 9a 4b 02 b4 f2 b0 e9 b3
       -1.9446303e-07 2.0556362e-07 -1.2134697e-07 -1.0882094e-07
0001f0 62 0f 2f b4 dc 68 a4 b3 9f 13 b8 34 b8 d9 33 b3
       -1.6303741e-07 -7.655919e-08 3.4286947e-07 -4.18747e-08
000200 3a 08 10 34 f7 37 83 34 65 52 8b b4 e0 f7 3d 32
       1.3414038e-07 2.444137e-07 -2.5950717e-07 1.1057608e-08
000210 02 d1 e0 b4 68 f4 2f b3 84 ce 34 34 df cd 44 b3
       -4.1875325e-07 -4.096765e-08 1.6838936e-07 -4.5822045e-08
000220 c7 92 8f 34 69 e6 99 33 fa 11 ee 33 a0 3d de b4
       2.674262e-07 7.166529e-08 1.10860086e-07 -4.139556e-07
000230 28 0c cb b3 b1 4f 32 34 80 27 5b b2 56 6c 4d 33
       -9.455135e-08 1.6606533e-07 -1.2756459e-08 4.7828813e-08
000240 c8 ae 85 b2 b4 fa 9a 33 3a b4 17 b3 22 89 88 b4
       -1.556272e-08 7.2167865e-08 -3.5321342e-08 -2.543175e-07
000250 6e 23 18 34 46 b9 73 34 96 47 7a b4 f5 7f de 33
       1.4168992e-07 2.269854e-07 -2.3309107e-07 1.0360956e-07
000260 d6 02 92 33 82 03 92 34 4b fc 91 b3 a2 0c 9e b3
       6.799171e-08 2.7197171e-07 -6.7979805e-08 -7.359746e-08
000270 66 46 6c 34 4e dd 8c 33 c8 af bf 32 e3 d5 25 34
       2.2004824e-07 6.559513e-08 2.2315263e-08 1.5444634e-07
000280 84 df 12 b3 46 5b 18 34 d4 06 b9 33 26 18 88 b4
       -3.419656e-08 1.4189308e-07 8.615976e-08 -2.5349544e-07
000290 c4 fc 6e b4 7a 9d 8b b4 d6 16 d7 33 f8 3d 5e 33
       -2.2257433e-07 -2.6005347e-07 1.00158715e-07 5.1744763e-08
0002a0 a8 96 89 b3 15 6f 4a 33 a2 46 31 b3 fc 3b 54 34
       -6.406964e-08 4.713282e-08 -4.1275264e-08 1.9765861e-07
0002b0 04 c4 e5 32 ea ce 1f b4 f0 7a 84 31 d0 d2 12 b2
       2.6748246e-08 -1.4883304e-07 3.855682e-09 -8.546252e-09
0002c0 ec 29 5c 34 cb 80 b1 b3 ee ad 9e b3 45 e6 8b 33
       2.0504348e-07 -8.265632e-08 -7.389086e-08 6.514578e-08
0002d0 f6 cf b2 33 86 19 03 b4 99 2a ee 33 44 30 40 b4
       8.326599e-08 -1.2209611e-07 1.1090487e-07 -1.7898952e-07
0002e0 18 7c 17 33 27 27 c2 33 43 27 61 34 ae 5a 0d 34
       3.527029e-08 9.040951e-08 2.0969041e-07 1.3164637e-07
0002f0 10 f4 51 b2 08 e5 c4 31 a7 45 9a 33 6a 0d ab b3
       -1.22208945e-08 5.7303886e-09 7.1838535e-08 -7.965248e-08
000300 16 9b 24 34 ce 58 d9 33 20 63 5e b3 74 fc 10 34
       1.533011e-07 1.01210034e-07 -5.1778557e-08 1.3502887e-07
000310 18 a2 ca 33 5e ab 8d b4 2d 4c 18 b4 a8 52 a8 b3
       9.435843e-08 -2.6387983e-07 -1.4183816e-07 -7.838145e-08
000320 68 00 e8 34 6f 72 ce b3 c0 f8 b6 32 81 96 86 b3
       4.3213663e-07 -9.613438e-08 2.1300707e-08 -6.267238e-08
000330 4c 60 26 34 10 71 ee b3 92 83 93 34 fe da 42 b2
       1.5494987e-07 -1.11033046e-07 2.7476614e-07 -1.1342079e-08
000340 7d 93 06 34 ec e4 9a b3 14 08 e9 33 48 7a 3f 32
       1.2533378e-07 -7.2128245e-08 1.08513774e-07 1.1145467e-08
000350 eb 66 27 34 20 5c 2e 32 f0 8a cb 31 40 6a 8f b1
       1.5590528e-07 1.014908e-08 5.923873e-09 -4.173927e-09
000360 1f d5 72 b4 ad 5d aa 33 c0 d5 42 34 86 c0 90 b4
       -2.261554e-07 7.9332814e-08 1.814542e-07 -2.696217e-07
000370 d0 ac 82 b4 00 57 2b b4 d4 0a fa b3 eb 3f 10 35
       -2.4340125e-07 -1.5957266e-07 -1.1643502e-07 5.3737193e-07
000380 de 51 37 33 10 29 3e 34 36 bc d6 33 8e d9 10 b3
       4.2682466e-08 1.7710067e-07 9.999387e-08 -3.3725478e-08
000390 9f 50 67 33 c0 9a 03 b1 b4 ec 5e b4 bb 25 09 34
       5.3857203e-08 -1.9150974e-09 -2.0761473e-07 1.2772846e-07
0003a0 c0 7b 65 b2 30 13 b7 b3 30 fb 14 34 b8 42 7a 33
       -1.3357692e-08 -8.525092e-08 1.3874956e-07 5.826834e-08
0003b0 6e 45 79 b3 1c 90 14 b3 17 f8 2f 34 01 00 90 34
       -5.8037976e-08 -3.4590002e-08 1.63884e-07 2.6822093e-07
0003c0 40 17 d8 34 57 fe 28 34 5d 83 5e b3 38 ad f8 b1
       4.0250052e-07 1.5738748e-07 -5.1807877e-08 -7.2374426e-09
0003d0 50 0f 93 33 f0 db c6 33 b0 54 a4 b3 6c 96 14 b3
       6.848006e-08 9.2601e-08 -7.65225e-08 -3.4595743e-08
0003e0 9a 4c 4d 33 18 31 82 b4 ce a6 95 b4 a0 95 99 b4
       4.779995e-08 -2.4250107e-07 -2.787478e-07 -2.8607337e-07
0003f0 b3 68 4f b4 3c 40 65 34 7c c4 08 33 64 26 23 b2
       -1.9316467e-07 2.1350655e-07 3.184367e-08 -9.496578e-09

lstm.weight_hh_l0 f4 [256, 64]
000000 3a 78 7a 34 0e 43 d6 33 e8 75 43 33 04 9f 27 32
       2.3326803e-07 9.977349e-08 4.550921e-08 9.756835e-09
000010 10 1f 42 32 3c 8e ad 33 1e ab c2 b2 a7 2d a0 33
       1.1299349e-08 8.0818126e-08 -2.2662388e-08 7.458885e-08
000020 c1 29 4a b4 da 7c 2c b3 36 56 44 b4 a7 6f 18 b3
       -1.8827906e-07 -4.0160423e-08 -1.8285286e-07 -3.5491805e-08
000030 fa 8f 35 b4 95 23 14 b4 00 66 c5 b3 0b 7f 89 b3
       -1.6909317e-07 -1.3796519e-07 -9.192081e-08 -6.4026686e-08
000040 68 12 8a b2 f2 f5 27 b4 93 4c 07 b3 6c c6 88 b4
       -1.6073685e-08 -1.5642561e-07 -3.150178e-08 -2.5476345e-07
000050 5c ae b5 b3 a8 58 12 b4 58 b1 07 b2 eb ae 43 b4
       -8.460185e-08 -1.3629563e-07 -7.8983575e-09 -1.8224425e-07
000060 bf 74 ea 33 b6 e9 16 b3 46 7d c0 b3 04 92 2e 34
       1.091771e-07 -3.5137155e-08 -8.963484e-08 1.6258133e-07
000070 2e fd 15 b4 a0 08 ae 33 b8 ea ca 32 c2 8a ad b4
       -1.3968813e-07 8.104075e-08 2.3622633e-08 -3.232472e-07
000080 c0 01 96 b4 b8 44 66 b4 ea 71 66 b3 12 86 ec b3
       -2.794095e-07 -2.1445419e-07 -5.3654652e-08 -1.10139936e-07
000090 f4 df 34 b4 89 eb ce b3 96 54 a8 33 8b e9 4e b4
       -1.684528e-07 -9.635466e-08 7.838496e-08 -1.9270207e-07
0000a0 3d 70 9b 33 f0 e7 65 32 6f bc 94 34 9c 30 1e b3
       7.238166e-08 1.3382291e-08 2.7704252e-07 -3.683145e-08
0000b0 ae b0 69 b4 ac 2a 13 b3 a6 fa e0 b3 68 86 83 34
       -2.1764092e-07 -3.4264914e-08 -1.04764055e-07 2.4498445e-07
0000c0 73 00 2e b4 20 36 78 34 06 33 f6 33 7d 35 eb b3
       -1.6205176e-07 2.311649e-07 1.1464549e-07 -1.095277e-07
0000d0 ce 1b 0d 34 da cf 92 b4 d8 69 70 33 75 b9 4a b4
       1.3141764e-07 -2.734585e-07 5.597562e-08 -1.8880185e-07
0000e0 c0 3d 8d b0 91 4e ce b3 e8 63 72 33 30 0c d8 b3
       -1.0276651e-09 -9.606914e-08 5.643588e-08 -1.0060501e-07
0000f0 96 8e 85 33 80 61 03 b3 09 e1 15 34 70 89 42 31
       6.219231e-08 -3.058949e-08 1.3958574e-07 2.830884e-09
000100 00 8a ac b1 f6 a7 2f 34 a8 0e 3a b3 10 f9 37 b3
       -5.0215476e-09 1.6359249e-07 -4.331983e-08 -4.283453e-08
000110 02 d2 a0 b3 92 00 3a b3 fd 6d c9 33 f8 37 2d b3
       -7.488781e-08 -4.330702e-08 9.3797986e-08 -4.0330605e-08
000120 fc 93 ce 32 95 ea c7 b3 47 18 44 b4 94 25 87 33
       2.4048852e-08 -9.30933e-08 -1.8262755e-07 6.293263e-08
000130 e8 b6 23 b4 37 05 4e 33 b6 7d f4 33 ac a3 30 34
       -1.5247099e-07 4.7967855e-08 1.1385002e-07 1.6450821e-07
000140 a9 91 1f b3 a7 09 96 b4 0c 0a 36 b4 30 60 c6 34
       -3.715255e-08 -2.79467e-07 -1.6953726e-07 3.695036e-07
000150 30 5d 00 b3 06 f9 c6 34 ca 2e 57 b3 e4 6b a6 b3
       -2.9887076e-08 3.7061562e-07 -5.0101143e-08 -7.7496026e-08
000160 40 4a 31 b1 10 51 71 b3 20 d1 45 b1 1f 7a 39 b4
       -2.5799096e-09 -5.618591e-08 -2.8786147e-09 -1.7273895e-07
000170 50 20 f1 32 5a e4 c4 34 2c f5 93 b4 69 ae d2 b3
       2.8070787e-08 3.6673993e-07 -2.755927e-07 -9.810612e-08
000180 61 70 0e 34 88 fa d7 33 5a 69 c9 33 2c c6 60 34
       1.3265664e-07 1.0057289e-07 9.378955e-08 2.093372e-07
000190 50 60 d7 b2 79 54 0a b4 28 4f 17 33 1a f9 d9 33
       -2.5073092e-08 -1.2882983e-07 3.522942e-08 1.0150161e-07
0001a0 92 7b b5 33 ec c8 ed 33 ec f6 28 b4 c8 74 19 b3
       8.4509466e-08 1.107272e-07 -1.5736049e-07 -3.57293e-08
0001b0 40 3f b2 b1 ce ed 63 b4 9f bb 96 b4 84 4e 92 b4
       -5.1876725e-09 -2.1227535e-07 -2.807619e-07 -2.7251747e-07
0001c0 aa e7 68 b4 e6 f2 59 33 56 78 e3 32 64 bd ed b3
       -2.1690963e-07 5.0745165e-08 2.6481e-08 -1.10706225e-07
0001d0 a0 6b 0c b2 2c 47 84 34 12 99 34 34 4c 65 31 b3
       -8.173544e-09 2.46387e-07 1.6819493e-07 -4.1303153e-08
0001e0 0a 5b ce b4 08 3e 45 33 6b a8 64 33 26 f9 07 b4
       -3.843673e-07 4.5924054e-08 5.3238562e-08 -1.2663494e-07
0001f0 6c eb 80 34 8f fe 08 b5 fe 8b 02 34 50 f0 d9 33
       2.401315e-07 -5.103438e-07 1.2158122e-07 1.01485625e-07
000200 a0 33 97 31 14 12 74 33 9d db 54 b4 84 f2 d1 33
       4.4005475e-09 5.682712e-08 -1.9823933e-07 9.776434e-08
000210 55 8a c1 b3 f4 09 75 34 82 56 a7 b3 e2 d2 09 32
       -9.012425e-08 2.2821024e-07 -7.792279e-08 8.022399e-09
000220 f0 a1 83 b4 b0 a4 a4 33 f5 58 6b 32 99 e3 44 33
       -2.4518476e-07 7.6668016e-08 1.3699027e-08 4.5841805e-08
000230 26 0c f7 b3 0d 21 25 b3 50 d8 06 b2 46 cc 69 b4
       -1.15040436e-07 -3.8447116e-08 -7.84901e-09 -2.177413e-07
000240 7b f2 30 33 39 a9 08 34 a8 4f 19 33 e4 23 f0 b3
       4.1198728e-08 1.272755e-07 3.5695535e-08 -1.11823994e-07
000250 38 18 a8 b3 4a 41 6c 34 7e 03 cd b4 10 17 fb 32
       -7.827515e-08 2.2002965e-07 -3.8186766e-07 2.9230733e-08
000260 e5 40 c6 b4 39 f8 e2 33 7c 41 8f b4 00 1e 05 b1
       -3.692759e-07 1.05690965e-07 -2.6683472e-07 -1.93711e-09
000270 9c 8f e8 b3 f8 22 8f 33 58 d3 46 34 3c 21 da 33
       -1.0829464e-07 6.665317e-08 1.8517073e-07 1.01574614e-07
000280 30 71 ea b1 8a ee 3e 33 87 da 13 b4 0c 9b ba b2
       -6.8231643e-09 4.4454772e-08 -1.3769942e-07 -2.1723757e-08
000290 1a 14 b5 b3 ee 69 8a 34 80 b5 af 30 a6 1f 67 34
       -8.432126e-08 2.5781577e-07 1.2784511e-09 2.1525065e-07
0002a0 20 90 05 b4 d7 47 7b 34 0b b1 b7 33 70 c7 e1 33
       -1.2439023e-07 2.3402332e-07 8.5538055e-08 1.05136564e-07
0002b0 fb 81 34 34 d7 61 62 b3 87 63 23 b5 64 1b fc 32
       1.6811093e-07 -5.270871e-08 -6.0867063e-07 2.9349117e-08
0002c0 d0 76 86 33 89 5a c0 b4 38 13 97 b2 f0 11 5e b2
       6.261473e-08 -3.582866e-07 -1.7587453e-08 -1.2926179e-08
0002d0 d8 db 63 b4 ce b1 0e 34 cc 52 ab b2 5a fb 47 34
       -2.1221001e-07 1.3289466e-07 -1.9944672e-08 1.862476e-07
0002e0 14 54 3e b4 a6 f8 28 b5 fd cf 06 34 66 3d 91 33
       -1.7725716e-07 -6.294671e-07 1.2555388e-07 6.763257e-08
0002f0 14 1c 1c b4 7a e4 16 33 e8 93 e0 33 4c e2 56 33
       -1.4538847e-07 3.5132395e-08 1.0457717e-07 5.0031574e-08
000300 81 c9 57 34 f8 88 3b b3 1c bc a9 33 18 4f 33 b2
       2.0096742e-07 -4.3663903e-08 7.903893e-08 -1.0437155e-08
000310 59 6d 84 34 94 d4 43 b4 92 75 d9 33 56 d0 d5 32
       2.4666477e-07 -1.8238126e-07 1.0126236e-07 2.4891204e-08
000320 cd 9c eb 33 2c 82 fb b3 5e 97 c9 b3 14 d4 1d b4
       1.0971562e-07 -1.17117764e-07 -9.3873254e-08 -1.4698918e-07
000330 17 c1 8d b4 4f 53 60 34 63 10 a7 b4 43 a5 e7 33
       -2.6403788e-07 2.0891933e-07 -3.1118097e-07 1.0786837e-07
000340 5f 6e 02 34 12 e5 fc b3 ec d4 75 b4 8d 88 02 34
       1.2147346e-07 -1.1776332e-07 -2.2894864e-07 1.215687e-07
000350 c0 17 be 33 c8 b5 52 b4 0a 13 0f b4 8a 4c 4a 34
       8.8518846e-08 -1.9623906e-07 -1.3324839e-07 1.8840561e-07
000360 1a 9e 6c 34 1a 68 56 b3 82 1b 25 34 cf 5d 9e 32
       2.203673e-07 -4.9920438e-08 1.537683e-07 1.843628e-08
000370 01 48 b8 32 56 18 20 33 70 66 f4 31 bd bb 25 34
       2.1453163e-08 3.7275036e-08 7.1129804e-09 1.5435121e-07
000380 47 bd 36 33 09 55 0c 34 a8 73 d0 33 f4 93 68 b4
       4.2547324e-08 1.3069452e-07 9.7067925e-08 -2.1660509e-07
000390 60 af f8 32 97 df 11 b4 a4 a0 3f 34 64 da dd b3
       2.8950751e-08 -1.3585519e-07 1.7846702e-07 -1.03308395e-07
0003a0 5a a5 a1 b3 76 32 34 b4 d0 ea 64 b4 8c 65 47 34
       -7.527224e-08 -1.6782164e-07 -2.1319579e-07 1.8570262e-07
0003b0 82 a2 ca 34 f0 ce 9d b3 26 f6 86 33 ea a2 62 b4
       3.7743672e-07 -7.348524e-08 6.2846354e-08 -2.1107158e-07
0003c0 64 ec 06 34 a0 3a f1 31 b2 ee 8f 34 a0 ee 8b 32
       1.2565721e-07 7.020688e-09 2.68095e-07 1.6290244e-08
0003d0 f4 cc 7a 33 94 b7 aa b3 ae 46 37 34 78 7a 28 34
       5.8394065e-08 -7.9496346e-08 1.7068916e-07 1.5690773e-07
0003e0 34 42 b6 33 22 85 6b 33 db 24 73 34 ac ff 91 b4
       8.487078e-08 5.4836285e-08 2.2644547e-07 -2.719438e-07
0003f0 e0 0b 76 b3 30 11 51 33 33 da 24 34 80 d4 80 31
       -5.728714e-08 4.8677236e-08 1.535307e-07 3.7494488e-09

lstm.bias_ih_l0 f4 [256]
000000 90 dc 8d 33 e8 bd 54 33 00 89 7e 33 50 37 cb 33
       6.605944e-08 4.9532815e-08 5.9263584e-08 9.4629854e-08
000010 e0 f3 29 33 e3 ee 88 b4 29 22 a4 b3 a8 7d 71 33
       3.9570182e-08 -2.5505787e-07 -7.643059e-08 5.622647e-08
000020 f8 90 0b 33 73 84 22 33 20 59 ff b2 64 38 09 34
       3.2495308e-08 3.7839026e-08 -2.9726436e-08 1.2779634e-07
000030 b4 91 45 33 8c 69 14 b4 6a 14 ec 33 31 c1 0e 34
       4.6000153e-08 -1.3821972e-07 1.099332e-07 1.3295063e-07
000040 58 03 e1 33 2e 23 08 b3 96 31 9c b4 5c 55 71 b4
       1.0477987e-07 -3.1696963e-08 -2.9093343e-07 -2.2475928e-07
000050 f6 42 d7 33 d0 71 92 b1 df 52 5d b4 6c e8 13 b1
       1.0023898e-07 -4.2620982e-09 -2.0612377e-07 -2.1523432e-09
000060 ae cc a8 b3 e8 d7 45 b3 ae f1 f5 33 e6 0d cf b3
       -7.860341e-08 -4.6064002e-08 1.1452663e-07 -9.641717e-08
000070 64 22 01 34 91 22 d3 b3 94 87 14 b3 aa 0b 3c 34
       1.2026572e-07 -9.831741e-08 -3.4582243e-08 1.7513108e-07
000080 78 b6 7b b4 20 de 16 32 b2 15 00 b4 d9 db 11 34
       -2.3442578e-07 8.7816545e-09 -1.1928822e-07 1.3584157e-07
000090 10 7d 3f 34 3c e4 5c b3 b0 87 fc 32 29 30 e0 b4
       1.7833759e-07 -5.143032e-08 2.9398365e-08 -4.1758292e-07
0000a0 97 34 67 b4 ca 10 de b3 4a a0 82 34 eb b3 0b 34
       -2.1532684e-07 -1.03407345e-07 2.4331013e-07 1.3010838e-07
0000b0 0c 3f d5 33 8d a9 e0 b3 1c 3c 8f 33 02 ad 66 b3
       9.9300536e-08 -1.0461654e-07 6.66989e-08 -5.3708398e-08
0000c0 a4 03 80 b4 15 47 12 b4 a0 59 8c 34 48 76 a7 b2
       -2.3844507e-07 -1.3623169e-07 2.6142243e-07 -1.9495147e-08
0000d0 a6 79 f3 b3 be d5 85 b3 00 28 9c 2e 12 40 7f b4
       -1.1337697e-07 -6.2321746e-08 7.101164e-11 -2.3772034e-07
0000e0 33 fc 8f b4 37 01 86 32 d0 64 a0 31 bf 05 4a 34
       -2.6819325e-07 1.5600206e-08 4.668074e-09 1.8814806e-07
0000f0 f7 8c 55 b4 7c 33 49 b4 c5 24 1b 34 f6 b5 13 33
       -1.9888454e-07 -1.8738314e-07 1.4448877e-07 3.4391597e-08
000100 c2 87 4a 34 53 7c f0 b3 fd bc 44 b4 d6 aa 4e 34
       1.8862104e-07 -1.1198485e-07 -1.8322676e-07 1.9247395e-07
000110 6c d5 4a 34 6c cf cc b2 7d de 8e 33 10 57 2a 35
       1.8890358e-07 -2.384305e-08 6.652861e-08 6.345663e-07
000120 c6 f4 ab 33 69 61 b1 32 ea 50 56 33 a6 da 69 34
       8.007332e-08 2.0649809e-08 4.989935e-08 2.177936e-07
000130 10 0b 43 b2 72 99 2b 33 c6 8c b7 b3 08 e7 92 34
       -1.1353009e-08 3.9953598e-08 -8.547208e-08 2.7362717e-07
000140 f5 28 71 b4 45 68 91 b3 cc c0 10 33 70 05 c3 b2
       -2.2459774e-07 -6.771055e-08 3.370296e-08 -2.270346e-08
000150 48 ac ac 33 f6 67 3c b4 b8 7e 71 b3 20 b2 05 31
       8.040712e-08 -1.7546685e-07 -5.6227435e-08 1.94553e-09
000160 8c 3c 91 b4 2a 52 da b3 30 69 48 32 3c fa cc 34
       -2.7052408e-07 -1.01663616e-07 1.1665449e-08 3.818003e-07
000170 84 ad 03 33 db dd 84 33 d0 99 65 33 0b e6 3e 34
       3.0658626e-08 6.187084e-08 5.345811e-08 1.7778818e-07
000180 20 18 bc 31 e2 9e 78 34 b8 cf f6 32 24 f1 66 b4
       5.474263e-09 2.3154601e-07 2.8732629e-08 -2.1508146e-07
000190 1a e4 85 33 8c c5 3f 34 c0 a7 ca 31 f6 1c 20 34
       6.2347866e-08 1.7860128e-07 5.8980447e-09 1.4911697e-07
0001a0 3e 49 3a 34 d8 1a 83 b1 90 02 51 32 44 19 45 b3
       1.7349245e-07 -3.8156536e-09 1.2165984e-08 -4.5890616e-08
0001b0 e0 e9 60 b1 46 fc 14 34 38 1e da b2 a0 5d 5d b1
       -3.2729233e-09 1.387535e-07 -2.5392282e-08 -3.2212952e-09
0001c0 00 2f 66 b2 0e e8 2b b2 0f 20 05 b4 88 07 08 34
       -1.3398449e-08 -1.0006273e-08 -1.2398253e-07 1.2668727e-07
0001d0 05 4f 53 34 a6 98 78 34 f0 4c 63 33 b0 83 0a b2
       1.9679653e-07 2.3152333e-07 5.292253e-08 -8.0625995e-09
0001e0 6e 42 ac b4 8a 44 88 b3 50 47 f8 31 3b 65 08 b4
       -3.208583e-07 -6.345461e-08 7.2258572e-09 -1.2702814e-07
0001f0 83 86 6f b4 82 48 2b 33 2e ec 17 b3 a4 5d 80 32
       -2.2307545e-07 3.9879986e-08 -3.537223e-08 1.4943744e-08
000200 1a ad cf b3 b5 35 ed 33 1e bc 03 33 7b e1 90 33
       -9.6706756e-08 1.1045942e-07 3.0671906e-08 6.746537e-08
000210 26 e4 35 b4 f6 29 d5 33 51 5d 1d b3 d0 e4 4d b2
       -1.6939939e-07 9.926218e-08 -3.6639282e-08 -1.1984596e-08
000220 58 25 ae b2 e0 d4 a8 32 f8 2b 47 b4 64 2f 07 34
       -2.0273248e-08 1.9654578e-08 -1.8549315e-07 1.2590095e-07
000230 28 31 0a b4 4e 55 09 35 6e 01 f8 b3 1f 49 05 b4
       -1.2870134e-07 5.116061e-07 -1.154866e-07 -1.2413192e-07
000240 79 79 37 34 28 82 71 31 3b 23 8c b4 01 a4 96 b4
       1.7087395e-07 3.51441e-09 -2.6102666e-07 -2.8059006e-07
000250 38 b2 3c 33 24 9f ff b3 8e 30 6b b4 19 94 f4 b3
       4.393425e-08 -1.190331e-07 -2.1903745e-07 -1.1389074e-07
000260 47 53 9a b3 b1 1a 84 33 58 2e 87 32 58 6e 1a b2
       -7.186332e-08 6.151584e-08 1.5737143e-08 -8.989069e-09
000270 ea 61 c1 33 8f 4f 87 34 ec ca 09 b4 b7 dc 82 33
       9.005073e-08 2.5203596e-07 -1.2832942e-07 6.0937445e-08
000280 6c 13 6e b4 21 2c 8a b4 ea 2b 26 b4 9e cf d4 b2
       -2.2172543e-07 -2.573661e-07 -1.547593e-07 -2.4774462e-08
000290 22 7a 24 b4 ef 4a 94 b4 2a be a6 34 a2 04 4d 34
       -1.5318122e-07 -2.762167e-07 3.1058272e-07 1.9093798e-07
0002a0 00 24 8c b3 dc 82 9e b3 0d cc 2d 34 e3 da 03 34
       -6.5258064e-08 -7.3812515e-08 1.6186114e-07 1.2279956e-07
0002b0 63 9e 38 b4 70 17 3c 32 54 73 57 33 a0 c4 10 b1
       -1.7193956e-07 1.0948369e-08 5.016348e-08 -2.1066526e-09
0002c0 28 df 11 33 80 bd 34 b1 50 97 56 b1 34 b2 5f 33
       3.3963403e-08 -2.6301166e-09 -3.122711e-09 5.208331e-08
0002d0 14 f2 87 34 85 a8 1a b3 24 c7 71 b3 f8 fb f7 b2
       2.5321845e-07 -3.6009187e-08 -5.6293302e-08 -2.8869167e-08
0002e0 f1 77 41 34 4c e9 41 b4 ee 90 fb 33 f5 78 e1 34
       1.801816e-07 -1.8059399e-07 1.1714461e-07 4.1997524e-07
0002f0 4c 79 9a 33 0d 99 1f 34 1f 64 91 34 ce 6f bd b3
       7.1932476e-08 1.4863708e-07 2.7081202e-07 -8.8213355e-08
000300 b9 95 3c 34 f6 34 96 33 ce 13 1a 34 14 7a 5e 34
       1.7563333e-07 6.994553e-08 1.4349573e-07 2.0719773e-07
000310 22 8d 0d b3 41 e2 a5 b3 b8 10 5e 33 90 ff e8 32
       -3.295748e-08 -7.7245666e-08 5.170361e-08 2.7124571e-08
000320 7c 3a 68 33 ba ae 59 34 69 d7 8a 34 a8 05 9b 31
       5.40699e-08 2.0273265e-07 2.5861235e-07 4.5117368e-09
000330 a5 e3 60 b3 8f 8c 15 34 09 a1 0e 34 15 a8 40 b4
       -5.2361106e-08 1.3927841e-07 1.3283365e-07 -1.7942541e-07
000340 66 51 91 33 fb 83 02 b4 a6 53 16 b3 e7 60 d2 b3
       6.766895e-08 -1.2155208e-07 -3.5000674e-08 -9.7965135e-08
000350 40 f8 c7 32 96 cd d7 b3 a5 f0 23 b4 9e 4c fe 33
       2.327954e-08 -1.00491135e-07 -1.5268104e-07 1.1841733e-07
000360 80 e3 f9 2f 7f 84 95 33 b4 ef 94 32 72 5c 82 b4
       4.5454485e-10 6.962454e-08 1.7338472e-08 -2.428165e-07
000370 c0 de f6 32 9a 40 62 b3 3b 78 4f b4 f3 81 bc 33
       2.8739464e-08 -5.267848e-08 -1.9322117e-07 8.77807e-08
000380 34 af 64 b3 d4 64 88 33 50 2e 47 b4 44 e6 4f b2
       -5.3244733e-08 6.351334e-08 -1.8550168e-07 -1.2101342e-08
000390 22 58 99 34 37 de 98 b4 50 31 b8 b3 22 26 50 34
       2.8562596e-07 -2.847389e-07 -8.5771376e-08 1.9385382e-07
0003a0 d6 f3 b7 33 70 a7 dc b2 aa a2 be 33 30 25 93 b3
       8.565955e-08 -2.5687513e-08 8.877153e-08 -6.851985e-08
0003b0 80 55 18 34 aa f1 84 33 73 46 5d 34 c9 2f 50 b4
       1.4187208e-07 6.1906874e-08 2.0607858e-07 -1.9388894e-07
0003c0 48 08 8b 34 26 da 72 34 7c 4b 82 b4 c0 09 8b b3
       2.5896793e-07 2.2617368e-07 -2.426931e-07 -6.4744654e-08
0003d0 60 35 8b 34 d3 70 12 b4 a2 52 17 b4 74 73 86 34
       2.5929603e-07 -1.3638355e-07 -1.4093033e-07 2.5043448e-07
0003e0 94 28 a7 32 55 20 9d 34 dc cb 92 34 1c e7 a2 b4
       1.9459812e-08 2.9267053e-07 2.7342946e-07 -3.0343006e-07
0003f0 7c 07 9b 33 10 2e 12 b2 73 15 7a b4 ea ca 01 b2
       7.219111e-08 -8.508792e-09 -2.3290868e-07 -7.554926e-09

lstm.bias_hh_l0 f4 [256]
000000 3e a5 8c 34 65 dd 98 b4 80 ca fd 32 02 80 93 34
       2.6197262e-07 -2.8473292e-07 2.9545163e-08 2.7474022e-07
000010 2c bc 8f 34 0a 1a ce b3 5c c7 f0 b3 6a db c8 34
       2.677274e-07 -9.597359e-08 -1.1212134e-07 3.7412548e-07
000020 38 d3 a0 b3 70 00 3f 34 1d 1b 6a b4 e2 b7 8a b3
       -7.489001e-08 1.778842e-07 -2.1802812e-07 -6.459574e-08
000030 ce 27 08 b4 56 2c ba b3 2e e4 9c 34 ca 99 05 33
       -1.2680468e-07 -8.6693646e-08 2.9223287e-07 3.1106346e-08
000040 58 30 a3 b4 84 37 c1 b2 78 0d 66 34 22 af d2 b2
       -3.039629e-07 -2.2493403e-08 2.1425319e-07 -2.4526859e-08
000050 ac 67 2a b4 45 c1 33 33 7f 7d 93 b4 18 67 68 34
       -1.58702e-07 4.1852463e-08 -2.7472194e-07 2.1644189e-07
000060 18 78 89 b3 14 5f 2a b3 89 2f 54 34 2c 3d 58 34
       -6.4014046e-08 -3.9667682e-08 1.9761332e-07 2.0138822e-07
000070 fe 85 64 b4 c0 d1 11 33 60 a1 12 b2 79 e8 04 b4
       -2.1282901e-07 3.395121e-08 -8.535011e-09 -1.2378031e-07
000080 36 ce d2 b3 ae 76 9a 34 67 17 e7 34 da 41 61 b3
       -9.8163966e-08 2.8771086e-07 4.304413e-07 -5.2446786e-08
000090 1c 73 25 34 f1 96 89 34 fb e2 22 34 20 cf 3b 32
       1.5408699e-07 2.5628063e-07 1.5170001e-07 1.0931927e-08
0000a0 67 d7 8b 34 d9 e7 63 b3 5c fa 4e b4 f0 ab 57 b2
       2.6047493e-07 -5.306342e-08 -1.9276325e-07 -1.2553741e-08
0000b0 35 f6 33 b3 24 79 a5 b2 78 24 ae 32 ec 73 37 b4
       -4.190061e-08 -1.9263616e-08 2.027285e-08 -1.7085375e-07
0000c0 70 aa e2 33 79 0a 16 33 1a de c9 33 80 c3 3b b1
       1.05549475e-07 3.493412e-08 9.400192e-08 -2.732321e-09
0000d0 0e 14 94 b4 de b6 8a 33 0d f0 c5 33 f8 7d e6 b2
       -2.758174e-07 6.459389e-08 9.217192e-08 -2.6832808e-08
0000e0 10 4e 50 33 bd c2 d6 33 21 2f 40 34 40 31 1d b1
       4.849977e-08 1.0000574e-07 1.7898539e-07 -2.2874502e-09
0000f0 69 1c c1 b3 80 96 69 b1 c8 e6 c7 33 c2 4f c9 33
       -8.9924306e-08 -3.3991512e-09 9.3086385e-08 9.3743e-08
000100 6c fe 6a 33 46 21 89 32 72 92 08 b3 a4 39 8c b4
       5.4713766e-08 1.596403e-08 -3.179816e-08 -2.611897e-07
000110 48 07 22 34 bd 5e 82 b3 29 11 6e b2 91 b1 c3 33
       1.5090075e-07 -6.0708295e-08 -1.3857325e-08 9.112694e-08
000120 0e a3 13 34 ce b9 32 b4 dc f1 43 b3 7c f4 8c b4
       1.3749761e-07 -1.6645137e-07 -4.5621945e-08 -2.6254918e-07
000130 7c a7 7f 33 07 9a 0f 34 cb 07 18 33 c2 fb 1c 34
       5.952414e-08 1.3373948e-07 3.5397345e-08 1.4620221e-07
000140 46 06 d1 b3 57 26 8f 33 5a ba d1 32 44 f3 1a 34
       -9.733462e-08 6.6659304e-08 2.4415545e-08 1.4430867e-07
000150 f7 05 13 34 32 f8 a7 33 5d 21 d6 33 f1 19 8b b3
       1.3692612e-07 7.82169e-08 9.97122e-08 -6.4774106e-08
000160 82 25 06 b4 7d da 19 34 d0 18 f3 b3 20 2c 39 34
       -1.2493368e-07 1.4328721e-07 -1.1320083e-07 1.724552e-07
000170 31 cb 42 34 34 d5 89 b4 54 00 5e b3 d0 f2 8f b3
       1.8141579e-07 -2.5673364e-07 -5.16887e-08 -6.703124e-08
000180 3c 8b 88 b4 c8 a2 af b4 2b 3f 00 34 b9 48 d4 b2
       -2.543328e-07 -3.271473e-07 1.194391e-07 -2.4713119e-08
000190 78 e2 aa 32 e6 54 7f b3 0a 8c ed b3 60 9c 3f b2
       1.989359e-08 -5.944903e-08 -1.10616455e-07 -1.1153219e-08
0001a0 e8 23 67 34 40 ef cf b1 78 59 02 b3 70 f4 2a b3
       2.1526614e-07 -6.0516925e-09 -3.0349355e-08 -3.9803524e-08
0001b0 90 ad 74 b4 a1 1a 31 b4 9e b7 6c 34 2a 3d 65 b3
       -2.2787412e-07 -1.6494097e-07 2.2046012e-07 -5.3373846e-08
0001c0 3d fa 21 33 c8 e1 ad 33 ab 1e 23 b4 80 34 9a b0
       3.7713324e-08 8.0970096e-08 -1.5191715e-07 -1.1219896e-09
0001d0 0a 56 90 b3 f2 8a 44 33 c0 3f 6e 32 61 bd 5f b4
       -6.721173e-08 4.5761176e-08 1.3867918e-08 -2.0837389e-07
0001e0 28 0a 5c 34 9e c6 c8 b3 15 14 34 33 95 c8 98 33
       2.0492791e-07 -9.349354e-08 4.192778e-08 7.114537e-08
0001f0 c6 54 ba b3 7c a5 71 b3 8c 0b 0f b3 d0 6a d8 32
       -8.67672e-08 -5.6262692e-08 -3.3305284e-08 2.5194282e-08
000200 c4 62 5d b3 d1 ea df 34 c2 73 76 34 a3 e1 6e 32
       -5.15454e-08 4.1707838e-07 2.2952648e-07 1.3904727e-08
000210 a6 13 69 33 64 26 5e 32 87 2d 6e b4 cb a5 44 b3
       5.426741e-08 1.293083e-08 -2.218204e-07 -4.5785594e-08
000220 7c 4a 79 34 81 a4 78 b4 62 72 02 33 d6 b7 8f b4
       2.321703e-07 -2.3156646e-07 3.0372014e-08 -2.6769584e-07
000230 30 9c 41 34 23 6a 61 b4 ee b8 46 b4 de 2e 2b b4
       1.8031346e-07 -2.099337e-07 -1.8507464e-07 -1.5942666e-07
000240 60 b3 e7 b1 cd f1 a7 b3 2e 79 ea b2 90 ed 81 33
       -6.7433774e-09 -7.820527e-08 -2.7296291e-08 6.050243e-08
000250 85 37 80 33 b5 d2 83 b3 f6 c6 85 b3 6a 7f 5c b3
       5.9705634e-08 -6.13849e-08 -6.229486e-08 -5.1338624e-08
000260 59 24 21 34 61 77 a7 b3 50 77 ca b2 ff a7 05 b4
       1.5007517e-07 -7.7982584e-08 -2.3570152e-08 -1.2447707e-07
000270 0e 1c 0d b4 c7 f3 de b3 f9 c2 86 b4 d3 ae 7e b4
       -1.3141855e-07 -1.03820234e-07 -2.5101306e-07 -2.3719194e-07
000280 d6 7c e6 33 c8 4d 63 32 4f 46 25 34 46 f0 29 34
       1.0732917e-07 1.3230824e-08 1.53924e-07 1.5826762e-07
000290 8d 9d 91 33 55 43 b7 34 4e cf 01 b4 de c5 b6 33
       6.780747e-08 3.4135397e-07 -1.2089478e-07 8.511027e-08
0002a0 62 87 1a b4 7b 66 91 b4 30 e1 5d 33 3c 66 01 b4
       -1.439162e-07 -2.708292e-07 5.166038e-08 -1.2051254e-07
0002b0 c3 c2 47 34 94 c4 a5 33 c6 7e 4a b4 5c b6 2b b5
       1.8604173e-07 7.7191686e-08 -1.8858836e-07 -6.396783e-07
0002c0 a8 d9 e1 b3 bc d2 70 33 4c c7 73 b3 7f 75 b3 b3
       -1.05169704e-07 5.6071016e-08 -5.6759106e-08 -8.3567095e-08
0002d0 fc fe c0 b3 f2 73 b1 33 d7 33 9b 33 a5 80 8a b4
       -8.987078e-08 8.263295e-08 7.2271796e-08 -2.5798104e-07
0002e0 ca a6 5e b3 c0 a9 dd b0 a2 86 e2 34 32 18 13 34
       -5.1840097e-08 -1.6128112e-09 4.219374e-07 1.3699244e-07
0002f0 a8 5d 9c 32 be 0d 85 b4 b6 fd 68 34 1a 84 39 b4
       1.820338e-08 -2.478318e-07 2.1698983e-07 -1.7277526e-07
000300 84 52 54 b3 80 01 89 b2 5b 79 74 b4 3d 37 4b 34
       -4.9435144e-08 -1.5949581e-08 -2.276842e-07 1.8925944e-07
000310 20 9d 42 32 7c 1f 87 34 02 4c 95 33 be 4c c5 b3
       1.1328012e-08 2.5168617e-07 6.952179e-08 -9.187487e-08
000320 14 d3 73 34 93 52 84 b2 f6 16 2f 34 de 23 2c 34
       2.2707928e-07 -1.5404373e-08 1.6306498e-07 1.6031797e-07
000330 88 6a 20 32 50 6b e0 34 87 de 06 34 c6 6c a0 33
       9.337448e-09 4.1801331e-07 1.2560677e-07 7.4703664e-08
000340 d4 a5 3b b3 70 26 47 b2 40 46 4f b1 55 75 58 34
       -4.369015e-08 -1.1592064e-08 -3.0162397e-09 2.0159253e-07
000350 be a7 da b2 08 c9 bd 33 c0 92 3a b2 c2 0a 07 b4
       -2.545482e-08 8.837566e-08 -1.0859992e-08 -1.2576768e-07
000360 10 e1 94 32 58 3c aa 32 9c 51 ce 33 98 42 67 b3
       1.7331814e-08 1.9818046e-08 9.607467e-08 -5.3844445e-08
000370 af 79 1f 34 ce 25 10 34 d8 3a 76 b4 be d6 41 34
       1.4852297e-07 1.3424798e-07 -2.2931943e-07 1.8052648e-07
000380 ab cc ad b3 c5 0d 8c b3 a8 a7 19 32 28 f5 27 b3
       -8.093169e-08 -6.521763e-08 8.943893e-09 -3.9105686e-08
000390 f3 1a 35 b4 6b 8f 80 34 48 e8 cc b4 16 c5 8a 34
       -1.6866743e-07 2.3946208e-07 -3.8166968e-07 2.5847902e-07
0003a0 71 a1 d2 b3 1a ee 97 b3 72 79 e6 b3 90 30 93 b2
       -9.808253e-08 -7.074796e-08 -1.07323004e-07 -1.7135136e-08
0003b0 b3 d1 4b 34 2d 26 79 b4 59 e6 cf 33 b8 7e 3f b4
       1.8982136e-07 -2.320382e-07 9.6810886e-08 -1.7834361e-07
0003c0 8c b2 2e 32 28 ed 25 b2 e3 5d 92 b4 28 78 cf 32
       1.016873e-08 -9.658187e-09 -2.726293e-07 2.4152612e-08
0003d0 f8 dd 8f 34 88 98 ab 33 59 95 46 b4 78 0d d8 34
       2.679733e-07 7.990553e-08 -1.849452e-07 4.0242935e-07
0003e0 80 77 03 34 2e 32 df b4 f8 8c 72 32 b8 78 13 b4
       1.22438e-07 -4.1573497e-07 1.41183065e-08 -1.3734359e-07
0003f0 8a f7 d6 b2 da e9 99 34 26 98 43 34 98 07 33 b3
       -2.5025447e-08 2.866862e-07 1.8216141e-07 -4.168359e-08

lstm.weight_ih_l0_reverse f4 [256, 19]
000000 5c 8d 09 34 cb 19 a7 33 11 62 83 b4 7e bb 0f b4
       1.2810546e-07 7.781235e-08 -2.4472004e-07 -1.3386122e-07
000010 18 7c bb 33 fc be 5f b4 d0 0d 8c 31 de bb 5e b4
       8.7304386e-08 -2.0837973e-07 4.0761066e-09 -2.0743707e-07
000020 7c 0d cb b3 98 63 98 34 b5 06 54 34 56 2d 8a 33
       -9.455377e-08 2.838467e-07 1.9746479e-07 6.434372e-08
000030 69 db 48 34 a0 5b 0d 34 64 ca df b3 09 12 27 b3
       1.8706272e-07 1.3164981e-07 -1.0421061e-07 -3.889912e-08
000040 fc 7e 4e 32 c0 b4 37 31 26 64 30 b3 97 33 ff 33
       1.2019651e-08 2.673275e-09 -4.1069278e-08 1.1883747e-07
000050 9a 79 10 34 91 df dd b3 c6 67 c8 b3 40 c6 19 b1
       1.3455283e-07 -1.0331781e-07 -9.332102e-08 -2.2377122e-09
000060 c9 c9 96 b4 fa 85 94 33 de 28 80 b4 75 1b 8b b4
       -2.8086495e-07 6.916157e-08 -2.3871593e-07 -2.5910745e-07
000070 a8 5d be 33 88 41 cc b2 de 7f 43 34 7d 5c fb b3
       8.8646004e-08 -2.3778526e-08 1.8207308e-07 -1.1704922e-07
000080 79 70 f0 b3 dc 46 af 33 0c 7b 58 34 91 ca 0b 34
       -1.11963296e-07 8.161962e-08 2.0161332e-07 1.3019077e-07
000090 48 cb 98 b4 fe 55 16 b3 7c d5 9b b4 7c 5c f9 b3
       -2.8460113e-07 -3.5002806e-08 -2.902633e-07 -1.1611789e-07
0000a0 76 d3 8e b3 60 7c 6b b4 72 2c f9 33 36 f5 b1 34
       -6.650855e-08 -2.1931328e-07 1.16030506e-07 3.3147234e-07
0000b0 f4 ff 0c b4 c4 9b 58 33 30 93 58 33 09 96 91 b3
       -1.3131631e-07 5.0433087e-08 5.0425285e-08 -6.77938e-08
0000c0 7a e7 ea b3 00 cd 6d 30 cb bf 71 33 e2 48 ea b3
       -1.09385795e-07 8.651142e-10 5.628662e-08 -1.09097314e-07
0000d0 0a db 15 34 18 57 e2 33 b0 fe 43 b4 50 6b cc b2
       1.3956392e-07 1.0539787e-07 -1.8253445e-07 -2.3797526e-08
0000e0 6d e6 35 b3 a2 ff 03 b4 66 cd f3 b3 66 21 48 b3
       -4.2351918e-08 -1.2293324e-07 -1.1352931e-07 -4.6596504e-08
0000f0 ac b3 cc b4 2a 4e 14 33 d3 75 b6 b3 f6 74 b3 33
       -3.812869e-07 3.4530025e-08 -8.4964675e-08 8.356612e-08
000100 d4 cd d4 b3 74 0b d2 33 88 59 99 34 8d 62 2f b4
       -9.909459e-08 9.78097e-08 2.8563613e-07 -1.6333998e-07
000110 28 b7 85 b4 ca 86 8a 34 de 5a 91 b4 c5 a5 96 b3
       -2.4906444e-07 2.5802575e-07 -2.707447e-07 -7.0150726e-08
000120 07 45 85 33 00 31 95 33 18 e0 51 b1 d0 b2 aa b3
       6.205851e-08 6.947266e-08 -3.0540885e-09 -7.948768e-08
000130 80 a7 cc 30 e2 a1 34 b4 50 ad d3 33 7c 3e e2 32
       1.489056e-09 -1.6822699e-07 9.8569785e-08 2.6338277e-08
000140 03 d1 00 b4 45 a2 91 b3 f4 a2 47 34 02 e2 66 33
       -1.1996967e-07 -6.781605e-08 1.8592601e-07 5.37566e-08
000150 30 60 00 33 d2 9b 1a 34 55 25 a0 34 33 ab 29 34
       2.9889804e-08 1.4399055e-07 2.9829485e-07 1.5801633e-07
000160 55 2a c9 33 b5 75 49 34 ce 31 d0 b3 46 01 14 b4
       9.367492e-08 1.8762405e-07 -9.694814e-08 -1.3784037e-07
000170 e1 f4 8c b3 e0 ea 19 34 a0 3c 58 b3 d4 d4 de b4
       -6.563801e-08 1.4334682e-07 -5.0346557e-08 -4.1505575e-07
000180 c5 67 1a b3 3b 10 82 b3 70 35 b7 b3 82 ad 16 33
       -3.5950297e-08 -6.056549e-08 -8.531322e-08 3.50824e-08
000190 9e 72 16 34 a2 8a 81 b4 9a 56 e2 33 e8 46 f8 32
       1.4011536e-07 -2.412899e-07 1.0539698e-07 2.8903244e-08
0001a0 b6 94 a9 b1 56 8d 37 b3 86 ce 0a b4 a7 0a 10 b4
       -4.935454e-09 -4.2736552e-08 -1.2927384e-07 -1.341492e-07
0001b0 80 f5 0b 31 d9 a0 9a b4 d5 27 f5 33 7c 40 08 b4
       2.0366713e-09 -2.8801767e-07 1.1415947e-07 -1.2689446e-07
0001c0 bd 18 e2 33 37 f8 b5 33 dc 47 96 34 aa 35 74 b3
       1.0528445e-07 8.473619e-08 2.7991962e-07 -5.6859484e-08
0001d0 ee 5a ec 33 1d f3 62 33 92 47 c3 b3 6e 8e 74 b3
       1.10061464e-07 5.2840836e-08 -9.093414e-08 -5.6940216e-08
0001e0 c5 0b 22 b4 55 84 32 b4 23 6c 63 34 e0 d3 0d 34
       -1.5091707e-07 -1.6625684e-07 2.1180362e-07 1.3208728e-07
0001f0 ed 0f be b3 3a 4b 35 b4 7c a9 02 b4 1c 40 38 33
       -8.850461e-08 -1.6884306e-07 -1.2168852e-07 4.2899146e-08
000200 1a 8a 31 34 85 99 30 34 b3 91 ff b3 b4 47 61 34
       1.653465e-07 1.6447127e-07 -1.19008654e-07 2.0980843e-07
000210 08 b6 8b 31 e4 cb ca 33 1e 43 8a 33 f6 f5 69 34
       4.066127e-09 9.4434455e-08 6.438334e-08 2.1789296e-07
000220 ff 0a ba b3 6f dc 08 b3 72 46 63 b4 d9 9b 04 34
       -8.6633e-08 -3.186545e-08 -2.116665e-07 1.2350155e-07
000230 14 e9 86 b3 c5 84 9a b3 14 2d 7c 34 b1 72 84 34
       -6.282258e-08 -7.1953345e-08 2.3485728e-07 2.4670365e-07
000240 e0 e4 70 31 da 94 ba b3 e1 30 d4 b3 46 d7 e1 b3
       3.5054697e-09 -8.688376e-08 -9.88091e-08 -1.0516537e-07
000250 4e 0d a8 b3 fa 12 dd 33 43 ef 81 34 f4 e9 b0 33
       -7.82553e-08 1.0294566e-07 2.4202208e-07 8.2381945e-08
000260 36 0d 36 b4 c0 7f de b3 c4 16 14 b2 24 9c 87 b4
       -1.6954877e-07 -1.0360918e-07 -8.61991e-09 -2.5259317e-07
000270 40 75 c2 32 c9 5c 07 b4 fe a8 74 b4 f4 56 51 34
       2.2637892e-08 -1.260661e-07 -2.278575e-07 1.9496275e-07
000280 00 35 c3 b3 2a 6a 6a 33 2e 75 bd 33 4f f2 90 34
       -9.090036e-08 5.4578926e-08 8.822313e-08 2.6998393e-07
000290 e0 c5 a9 31 f1 b3 1b 34 b0 6f 6e 32 48 d1 a0 b4
       4.941043e-09 1.4500962e-07 1.3878818e-08 -2.9954595e-07
0002a0 b9 d9 20 b4 a0 b8 6c b2 6f d8 a0 33 0c ba b1 32
       -1.4980368e-07 -1.3778987e-08 7.4899496e-08 2.0690116e-08
0002b0 80 34 fe 32 10 a8 24 b4 71 5a 5c b4 8a c4 09 b4
       2.9593366e-08 -1.5334831e-07 -2.0521999e-07 -1.283062e-07
0002c0 47 cb 9e 33 38 d7 a5 32 b4 32 85 b3 50 9e 24 b2
       7.394424e-08 1.9306398e-08 -6.202518e-08 -9.5820525e-09
0002d0 30 14 40 31 90 0d 4f b4 90 b1 40 b4 02 d5 93 33
       2.7951153e-09 -1.9283311e-07 -1.794599e-07 6.883967e-08
0002e0 1d ae 8a 34 cf 7e 50 b4 35 34 13 b4 7b c0 bd 33
       2.5831187e-07 -1.9417642e-07 -1.3709435e-07 8.83601e-08
0002f0 90 87 77 b4 80 fa 83 b1 b9 c8 38 34 bb d0 ff b3
       -2.3052985e-07 -3.8410803e-09 1.7209358e-07 -1.1912331e-07
000300 14 7e ac 34 0b ce 74 b3 40 17 e8 b0 5e e0 30 34
       3.212923e-07 -5.6998072e-08 -1.688683e-09 1.6472902e-07
000310 88 b8 67 b3 87 2b 27 b5 80 b6 d6 30 a8 6d 6c 34
       -5.395171e-08 -6.227569e-07 1.5622419e-09 2.2019105e-07
000320 0e 65 b9 33 68 a9 07 b4 22 32 09 b3 27 e6 90 34
       8.6331156e-08 -1.2634484e-07 -3.1943394e-08 2.6989548e-07
000330 7c 6c 87 33 74 9d 01 b4 40 4e 5b b1 1f bc bf 33
       6.3061606e-08 -1.2071342e-07 -3.1913174e-09 8.9283496e-08
000340 11 95 ec 33 f0 e4 e0 33 0d 24 30 34 33 05 d5 b4
       1.10167214e-07 1.0472456e-07 1.6404393e-07 -3.9678125e-07
000350 c1 75 02 b3 e7 71 2f b4 2a 09 81 b4 ae ef bd 33
       -3.037508e-08 -1.6339582e-07 -2.403479e-07 8.844596e-08
000360 2c db 58 b3 82 51 30 33 80 1d fb 32 fe b8 dc 33
       -5.0490755e-08 4.1052324e-08 2.923366e-08 1.0278198e-07
000370 62 b2 16 b4 da 41 94 33 36 ad 52 34 ab 42 4b 34
       -1.4034734e-07 6.9037654e-08 1.9620788e-07 1.8930102e-07
000380 fa 22 0b b4 c7 d8 51 b4 10 44 ae b2 1f fa 99 32
       -1.2958108e-07 -1.9543505e-07 -2.0287217e-08 1.7925286e-08
000390 e0 63 18 34 df 19 7a b4 c0 56 59 b1 2a d2 7f 33
       1.4192437e-07 -2.3292476e-07 -3.1626968e-09 5.9562957e-08
0003a0 98 98 89 34 97 10 00 b4 70 81 6a 33 f4 38 d9 34
       2.5629265e-07 -1.1926964e-07 5.4600093e-08 4.046084e-07
0003b0 40 ce e6 b3 c0 01 9f 30 90 fb 9c 33 cc ef a2 31
       -1.0747726e-07 1.156927e-09 7.310075e-08 4.7420823e-09
0003c0 7e 8d d5 b2 c0 6e bd b1 80 2b d0 b3 20 ec 4a 34
       -2.4860807e-08 -5.5132148e-09 -9.6936674e-08 1.8898618e-07
0003d0 91 30 41 33 a9 cb 6e b4 62 22 1e 33 f6 3f 1f 32
       4.4980485e-08 -2.2239568e-07 3.6818513e-08 9.269561e-09
0003e0 eb 92 81 b3 00 2c 55 33 5b 20 01 b5 3a 2d c9 b3
       -6.033755e-08 4.9632945e-08 -4.810333e-07 -9.3680185e-08
0003f0 3c 3a 2c 33 18 7a 72 33 50 59 6f b2 2c 69 77 b3
       4.0099835e-08 5.645606e-08 -1.3931938e-08 -5.7604822e-08

lstm.weight_hh_l0_reverse f4 [256, 64]
000000 52 91 11 b4 3a 75 42 33 96 7a b9 b4 ca c1 25 b4
       -1.3557045e-07 4.5275762e-08 -3.4548128e-07 -1.5437323e-07
000010 bc 33 26 33 50 7a ac 31 c0 ae 6c 32 e3 ae fd b3
       3.869694e-08 5.019764e-09 1.37767415e-08 -1.1813042e-07
000020 e0 28 b8 30 04 b5 56 34 46 ec a6 34 30 00 78 b4
       1.3399379e-09 1.9996156e-07 3.109182e-07 -2.3096868e-07
000030 dd 1e 0e b4 80 db 2b b3 88 4f c7 32 0e 18 86 33
       -1.3236009e-07 -4.0013674e-08 2.3202816e-08 6.244237e-08
000040 f9 2d 26 33 ae eb 77 b4 16 27 36 34 c6 bc 55 b3
       3.86917e-08 -2.3089407e-07 1.696429e-07 -4.9764616e-08
000050 35 6f 2f b4 04 2b d5 33 3a 62 d8 33 f1 de e3 b3
       -1.6338602e-07 9.92641e-08 1.0076151e-07 -1.0611064e-07
000060 58 11 fd b3 ff 79 27 33 46 78 81 b3 16 d0 50 34
       -1.17843854e-07 3.8993672e-08 -6.028908e-08 1.9447211e-07
000070 0a d6 33 33 c4 90 1f 32 d8 ba f7 32 84 a8 17 33
       4.1871353e-08 9.287934e-09 2.8839551e-08 3.531069e-08
000080 4d 73 60 34 93 04 c8 33 d8 ea 2a b4 10 11 c3 b2
       2.0903572e-07 9.314058e-08 -1.591792e-07 -2.2708747e-08
000090 ee 8d 4f b4 92 85 43 34 c2 15 75 b4 c8 78 1f b2
       -1.9330011e-07 1.8209383e-07 -2.2825319e-07 -9.282481e-09
0000a0 4c bf ca b3 1e 22 4d b3 15 15 83 b4 d7 01 05 b4
       -9.441155e-08 -4.776131e-08 -2.441599e-07 -1.238726e-07
0000b0 b1 53 97 34 19 99 f4 b3 d4 59 7e 32 4e cb fc b3
       2.8186835e-07 -1.1389984e-07 1.480517e-08 -1.1771645e-07
0000c0 98 a7 56 34 54 bd 81 b0 24 5a 0f b4 c6 ee 55 b3
       1.9991273e-07 -9.439796e-10 -1.3350706e-07 -4.981009e-08
0000d0 b6 53 22 35 60 dd 2d b4 f7 89 06 34 6b c2 4e b4
       6.047152e-07 -1.6192416e-07 1.2529914e-07 -1.9255974e-07
0000e0 e0 7a a7 33 10 d7 38 b2 2e 18 22 b4 2c 07 38 34
       7.798894e-08 -1.0759109e-08 -1.5096222e-07 1.7138944e-07
0000f0 19 6e 4e b4 fd 6a 07 34 58 57 0b b2 36 81 29 b3
       -1.9225298e-07 1.2611777e-07 -8.1107245e-09 -3.9465895e-08
000100 8a df a4 33 8c ec 01 31 aa b5 56 34 4c fc fb 33
       7.6775066e-08 1.8906432e-09 1.9996392e-07 1.1733991e-07
000110 20 86 48 b1 6c af 91 b4 56 52 cc 33 f1 df be b4
       -2.9180072e-09 -2.713599e-07 9.514467e-08 -3.5553197e-07
000120 36 ba df b3 60 31 49 b3 94 a8 2c 33 33 da 73 b4
       -1.0418118e-07 -4.6843866e-08 4.020019e-08 -2.2710519e-07
000130 39 f6 34 b4 94 c4 ca b1 9e cf 46 b3 10 50 3d 32
       -1.6853382e-07 -5.901322e-09 -4.6289294e-08 1.1019452e-08
000140 30 ef 9a 32 00 b5 1f 2f e4 60 74 33 e8 42 01 b5
       1.803673e-08 1.452527e-10 5.68988e-08 -4.8153606e-07
000150 7e a0 fb b2 88 d8 de 33 33 96 6d b3 aa 58 12 34
       -2.929323e-08 1.03770674e-07 -5.5317468e-08 1.3629565e-07
000160 f1 8c cb b4 fa b6 07 33 30 da 93 b4 36 f5 08 34
       -3.7914245e-07 3.1598553e-08 -2.7539636e-07 1.2755194e-07
000170 92 9a 31 33 af 42 27 b3 30 76 df 33 b7 4b d4 33
       4.1351605e-08 -3.8943366e-08 1.0405745e-07 9.885792e-08
000180 e2 d4 7e 34 33 dc 21 b3 c8 99 a6 b1 f8 73 8c 34
       2.373304e-07 -3.7686004e-08 -4.8487188e-09 2.616141e-07
000190 bd 13 ca 33 32 60 27 33 ee d4 97 b4 77 09 05 b4
       9.4099484e-08 3.8970207e-08 -2.8280868e-07 -1.2390034e-07
0001a0 80 a1 d4 30 c2 40 bf b3 7c e1 04 33 7d ae 01 34
       1.5470931e-09 -8.90591e-08 3.0938722e-08 1.207754e-07
0001b0 80 58 ed 30 ca a6 70 b4 fc c7 86 33 04 32 f3 b3
       1.7269173e-09 -2.241242e-07 6.276238e-08 -1.1324667e-07
0001c0 ca 3f 2b b4 96 d9 cf 33 0b 2b 0e b4 a5 00 95 34
       -1.5948822e-07 9.678767e-08 -1.324044e-07 2.7753882e-07
0001d0 61 c5 12 33 b0 93 7e b2 f8 bf 39 34 6e 8f 7a 34
       3.417279e-08 -1.4818326e-08 1.7299305e-07 2.3335244e-07
0001e0 1e 28 65 b3 e5 1d e1 34 6c d3 91 b4 b1 a3 19 b4
       -5.3354704e-08 4.1931267e-07 -2.7162184e-07 -1.4308786e-07
0001f0 e2 bf 3a b4 60 55 3c b2 e8 ce a2 33 58 75 8d 32
       -1.7392406e-07 -1.0962452e-08 7.581349e-08 1.6467922e-08
000200 96 e9 d7 b2 a1 fc fe b3 5a 24 46 b4 59 ed b9 33
       -2.5135517e-08 -1.18737496e-07 -1.8453412e-07 8.657907e-08
000210 38 7b c3 b1 89 64 5a 33 60 f5 45 31 82 38 21 34
       -5.6892553e-09 5.0848517e-08 2.8806753e-09 1.5014851e-07
000220 f8 95 28 b5 70 6f 43 b3 bd 7f b2 33 de c1 fc b3
       -6.280311e-07 -4.5503327e-08 8.3120064e-08 -1.1769929e-07
000230 50 ab 0e 31 0a 2d 22 b4 db 4b 75 34 bc dd 20 b3
       2.07611e-09 -1.5103811e-07 2.2844999e-07 -3.745457e-08
000240 b9 a8 15 34 49 d4 11 34 8a b0 fe b3 da 51 98 b3
       1.3938087e-07 1.3581406e-07 -1.1859909e-07 -7.09294e-08
000250 7b 58 41 b4 9b 41 0c 33 08 a5 23 b4 5a d8 81 b3
       -1.8006715e-07 3.2655958e-08 -1.5240596e-07 -6.046385e-08
000260 22 6f 99 b3 1c 6c f4 33 18 7b ad b3 f9 03 b8 33
       -7.1448326e-08 1.13818004e-07 -8.078331e-08 8.56889e-08
000270 d5 77 73 b4 f5 82 47 b4 9a b6 b9 b4 31 d1 e2 b3
       -2.2674733e-07 -1.8580961e-07 -3.4591795e-07 -1.0561997e-07
000280 fd 3b 58 b3 e6 8b 38 b3 1c 78 25 b4 6e c1 5a 34
       -5.0345978e-08 -4.2968075e-08 -1.5410518e-07 2.0373201e-07
000290 d2 65 3f 34 e2 0d fb b3 2f 7e 10 34 64 af 9a b4
       1.7825303e-07 -1.16906236e-07 1.345695e-07 -2.881235e-07
0002a0 08 88 1d b2 8c 54 86 33 88 a2 8d b1 aa e1 fe 33
       -9.169533e-09 6.25524e-08 -4.1221178e-09 1.1868845e-07
0002b0 8b ee 8c b3 16 cf 85 32 34 bb b0 33 20 97 95 30
       -6.562649e-08 1.557741e-08 8.229691e-08 1.0884129e-09
0002c0 a7 f7 e0 33 d0 99 16 34 9a 89 38 34 bc 3c 8d b2
       1.04758605e-07 1.4025795e-07 1.7186395e-07 -1.644218e-08
0002d0 16 55 38 34 25 4c 99 b4 48 69 87 34 bc ed df b4
       1.716729e-07 -2.8553873e-07 2.5222312e-07 -4.170996e-07
0002e0 3c 34 11 b4 e2 ab d4 33 36 d3 ed 33 08 20 54 b1
       -1.352318e-07 9.9032846e-08 1.10745916e-07 -3.0868268e-09
0002f0 05 22 76 b3 e0 b5 c6 b4 44 77 35 b3 38 d6 25 34
       -5.730728e-08 -3.7012705e-07 -4.2250818e-08 1.5444755e-07
000300 20 ac 1d 34 e3 26 b7 33 56 82 1a b3 19 34 ee 34
       1.4684383e-07 8.528675e-08 -3.597446e-08 4.436886e-07
000310 d2 c2 25 34 d6 77 6d 34 ae b1 3b 34 22 7c 41 b4
       1.5437698e-07 2.2115941e-07 1.7480372e-07 -1.8019685e-07
000320 f5 e1 29 34 3f 26 90 b4 68 60 0b b4 82 e2 19 34
       1.5821554e-07 -2.6849918e-07 -1.2980456e-07 1.4331638e-07
000330 b4 74 41 b4 80 d4 d0 b1 d2 64 d1 b3 08 af 9f b4
       -1.8016982e-07 -6.077755e-09 -9.75066e-08 -2.974341e-07
000340 7c 63 3d b4 ee b4 43 33 f1 67 10 34 bc 0b d4 33
       -1.7638189e-07 4.556653e-08 1.3448859e-07 9.874154e-08
000350 ce 25 86 33 9d df d6 33 88 7a 31 b4 1a 71 45 33
       6.246738e-08 1.00058266e-07 -1.6528986e-07 4.5970502e-08
000360 7d 0f c4 b3 20 41 f0 30 54 71 eb b3 1f 8d 05 b4
       -9.1297785e-08 1.7480808e-09 -1.09636545e-07 -1.243793e-07
000370 89 22 0d 34 9a 1c 92 b3 3c 2c 88 b4 47 73 e8 b3
       1.3144212e-07 -6.8038574e-08 -2.536416e-07 -1.0824311e-07
000380 d3 c1 14 34 40 3f 06 b3 00 7a 19 b1 8b 2f a4 b4
       1.3854087e-07 -3.1256832e-08 -2.233378e-09 -3.0581973e-07
000390 99 6a 0a b4 8e 9d f6 33 08 31 06 32 92 ec ec b3
       -1.2891032e-07 1.1483927e-07 7.810975e-09 -1.1032638e-07
0003a0 ac df 83 b3 7f 1c 42 b4 ed ac 11 b4 d3 7a cf 33
       -6.1408485e-08 -1.8078025e-07 -1.3567087e-07 9.66153e-08
0003b0 16 4a 36 b3 54 21 e0 33 d6 9a 4e b4 f5 d5 d6 33
       -4.2442558e-08 1.0436875e-07 -1.9241574e-07 1.000407e-07
0003c0 43 09 48 b4 da 08 69 b4 50 34 25 b4 82 9b f3 b3
       -1.8629821e-07 -2.1703036e-07 -1.5385854e-07 -1.1343856e-07
0003d0 20 28 1e 34 94 bb 70 34 b0 b0 34 34 fb a7 41 b4
       1.4729494e-07 2.2419982e-07 1.6828085e-07 -1.8035637e-07
0003e0 04 c5 2a b3 d0 18 62 b2 61 39 90 b4 77 8f 01 b4
       -3.9760394e-08 -1.3160573e-08 -2.686384e-07 -1.2066253e-07
0003f0 3c d2 39 33 04 54 dd 33 88 58 93 31 52 59 d3 33
       4.3264876e-08 1.0306397e-07 4.288328e-09 9.8417004e-08
