bagging_model_3_best.pth (torch, 178876 bytes, 33 tensors)

lstm.weight_ih_l0 f4 [128, 19]
0	0x36e90df0	6.9455637e-06
1	0x398b27ee	0.00026541896
2	0xb85a8a94	-5.210431e-05
3	0x37c4a3f7	2.3441373e-05
4	0xb91c219b	-0.00014889838
5	0xb707a08c	-8.084007e-06
6	0xb8d09d92	-9.947563e-05
7	0xb70d625c	-8.427156e-06
8	0x380152f7	3.0833264e-05
9	0xb82997ea	-4.043422e-05
10	0xb95234d3	-0.00020046839
11	0x3882865c	6.2239094e-05
12	0xb8e34c18	-0.00010838377
13	0x39065cf0	0.00012813858
14	0xb82d13b0	-4.126475e-05
15	0xb88564a5	-6.360681e-05
16	0xb8c825ed	-9.5438074e-05
17	0xb7047eb0	-7.89731e-06
18	0xb74f9a20	-1.23740465e-05
19	0xb88bc830	-6.665324e-05
20	0xb91fb4b6	-0.00015230742
21	0x38342f90	4.295964e-05
22	0xb8fd3e58	-0.000120755925
23	0x39798c96	0.00023798863
24	0x34a42280	3.0572483e-07
25	0x391fe9a3	0.00015250458
26	0x38744059	5.823406e-05
27	0x391fd692	0.00015243355
28	0xb7b6ef9a	-2.1807664e-05
29	0xb7d6eb37	-2.5620318e-05
30	0xb811b3ea	-3.4738252e-05
31	0x38eabc7a	0.00011193096
32	0x38dfb429	0.00010667026
33	0xb86950c1	-5.5626737e-05
34	0xb88e5992	-6.7877714e-05
35	0x38dc8cfd	0.000105166786
36	0x38f82b0f	0.00011833582
37	0x36845a08	3.9443876e-06
38	0x3901d9bc	0.00012383511
39	0x3701754e	7.716311e-06
40	0xb8112add	-3.4610614e-05
41	0x37a8dea8	2.0130843e-05
42	0x389958d0	7.312151e-05
43	0xb902e38a	-0.00012482531
44	0xb8fd5234	-0.000120792916
45	0x3690e3b0	4.3180407e-06
46	0x38820eec	6.2016625e-05
47	0x38f78eb6	0.0001180446
48	0x37bf8570	2.2831111e-05
49	0xb8d587e3	-0.00010181942
50	0x36a5de10	4.9432347e-06
51	0xb927aedc	-0.00015991501
52	0x3716b4f0	8.9828245e-06
53	0xb82e2495	-4.1518902e-05
54	0xb8b89228	-8.8010274e-05
55	0x39298f88	0.00016170566
56	0x37c813cc	2.3851077e-05
57	0x38476a38	4.754422e-05
58	0xb89e95df	-7.561943e-05
59	0x3641b6b0	2.886558e-06
60	0x37faeb8e	2.9912011e-05
61	0x375c8452	1.314383e-05
62	0xb827fc29	-4.0050745e-05
63	0xb8ac3c66	-8.212849e-05
64	0x388848df	6.498559e-05
65	0xb7534f48	-1.2595039e-05
66	0x38833b09	6.257563e-05
67	0x3787f094	1.6205282e-05
68	0xb7b1c6bc	-2.1192587e-05
69	0xb81691b9	-3.58985e-05
70	0xb896cdb3	-7.190872e-05
71	0xb82652b0	-3.9654493e-05
72	0x3798dda0	1.8223014e-05
73	0x3839fc24	4.434226e-05
74	0x37dce7ac	2.6333924e-05
75	0xb6372f3c	-2.729662e-06
76	0xb82de660	-4.1460968e-05
77	0x3831af9e	4.2363645e-05
78	0x38d30d1e	0.00010063707
79	0xb6696070	-3.477584e-06
80	0x38159524	3.5663266e-05
81	0x3681d508	3.8692997e-06
82	0xb8b7ef44	-8.770687e-05
83	0x38ff6f1c	0.00012180043
84	0x3784f88c	1.5851365e-05
85	0x37afddbc	2.0964879e-05
86	0x37532cf9	1.2587051e-05
87	0x388ec88d	6.808443e-05
88	0x38e83652	0.0001107274
89	0x38a62a37	7.92336e-05
90	0x38d7d4a1	0.00010291604
91	0xb98bf5c3	-0.00026695253
92	0x38792fd3	5.9410766e-05
93	0xb83398d7	-4.281927e-05
94	0x360522c0	1.9838772e-06
95	0xb6945fac	-4.4218814e-06
96	0xb91d37c6	-0.00014993464
97	0x3913ce20	0.000140958
98	0x385a9123	5.211042e-05
99	0x37955ca4	1.7805323e-05
100	0xb9290b94	-0.00016121409
101	0x392cca72	0.00016478615
102	0xb92e5595	-0.00016625815
103	0x39272c34	0.00015942828
104	0xb6e2f9f0	-6.7644214e-06
105	0x381bae4b	3.7117203e-05
106	0x3822f916	3.885579e-05
107	0x372d4db4	1.0329695e-05
108	0x34e55780	4.2718239e-07
109	0x355ef600	8.305942e-07
110	0x398d10dd	0.0002690618
111	0xb8a85590	-8.0268015e-05
112	0x380f8535	3.4217916e-05
113	0xb8e87abe	-0.000110854846
114	0x3925af94	0.00015801034
115	0xb76de770	-1.4180187e-05
116	0x33820c00	6.0557795e-08
117	0xb85b67b8	-5.2310264e-05
118	0xb90aca0e	-0.00013235977
119	0xb829cade	-4.0481675e-05
120	0x37d08fda	2.4862518e-05
121	0x39007a82	0.00012252669
122	0x3907ef93	0.00012963852
123	0x38a63058	7.9245016e-05
124	0xb8fe990c	-0.00012140171
125	0x37ab54a0	2.0424195e-05
126	0x38b75dda	8.743601e-05
127	0x382f6923	4.1821168e-05
128	0x37c615ea	2.3613644e-05
129	0x36c082d0	5.7372745e-06
130	0xb7b19e04	-2.1173626e-05
131	0xb8583f00	-5.1557086e-05
132	0x381a1657	3.6737267e-05
133	0xb790d044	-1.7263119e-05
134	0x3898fdee	7.295223e-05
135	0xb98db747	-0.00027030168
136	0x3885c423	6.3784675e-05
137	0xb8715965	-5.7542133e-05
138	0xb88763ca	-6.455889e-05
139	0xb90902a3	-0.0001306632
140	0xb7cc7d7d	-2.437713e-05
141	0x398d2dd9	0.00026927775
142	0xb4d754e0	-4.0108625e-07
143	0xb7bf524d	-2.2807299e-05
144	0xb7bbfd4c	-2.2410088e-05
145	0xb8bd7ede	-9.035853e-05
146	0xb8147e90	-3.540382e-05
147	0x387b6f4b	5.9946713e-05
148	0x38788384	5.925029e-05
149	0xb8db852d	-0.0001046754
150	0x39295d14	0.0001615177
151	0x380ab062	3.3066033e-05
152	0xb98b5f7b	-0.00026583284
153	0xb8c11766	-9.2073155e-05
154	0xb7bc913a	-2.2478973e-05
155	0x37ea1d47	2.7908607e-05
156	0xb80c5d31	-3.3465392e-05
157	0x38c3d21a	9.337459e-05
158	0xb8ad7833	-8.271672e-05
159	0x38e2799e	0.00010799173
160	0xb9244da9	-0.0001566919
161	0xb85375c4	-5.0415998e-05
162	0x3921bf3c	0.00015425397
163	0xb813ac13	-3.5207788e-05
164	0xb8aa8510	-8.1310165e-05
165	0x37a6769c	1.9843974e-05
166	0xb7d69deb	-2.5584324e-05
167	0xb73fe64c	-1.1438107e-05
168	0x378a196a	1.6462716e-05
169	0x3958203b	0.00020611372
170	0xb8e2a86a	-0.00010807889
171	0x375cee90	1.31685665e-05
172	0x37ed5690	2.829291e-05
173	0xb8536d32	-5.0408016e-05
174	0x35c81c94	1.4909479e-06
175	0x387fd1ae	6.0992017e-05
176	0xb8823eca	-6.2105784e-05
177	0x38ccd0dc	9.766381e-05
178	0xb7e0e8a2	-2.6811209e-05
179	0xb6da371a	-6.503321e-06
180	0xb8e7efc8	-0.00011059601
181	0x380325ea	3.1268144e-05
182	0xb939ab5f	-0.00017706816
183	0x37ca2434	2.4097135e-05
184	0x3827d538	4.0014478e-05
185	0x3759f58c	1.2991379e-05
186	0xb7229a40	-9.691867e-06
187	0xb8e002c1	-0.00010681665
188	0x386df297	5.6731133e-05
189	0xb86e3d70	-5.680084e-05
190	0x385b644a	5.230707e-05
191	0x38104093	3.4392415e-05
192	0x38a6e782	7.9586185e-05
193	0xb89f6f84	-7.602482e-05
194	0xb90d30c0	-0.00013464969
195	0xb932fbf4	-0.00017069263
196	0x38e760d8	0.00011032977
197	0x38d94897	0.00010360887
198	0x37e19484	2.6891248e-05
199	0x38ef80e6	0.00011420417
200	0x37b9b7cc	2.2139306e-05
201	0xb50fbf80	-5.355032e-07
202	0x385c6aee	5.2551673e-05
203	0xb7249b68	-9.811345e-06
204	0x391bf8b4	0.00014874601
205	0xb8437c1a	-4.66072e-05
206	0x37dc7b61	2.6283496e-05
207	0xb8955a0d	-7.121647e-05
208	0xb88f2445	-6.825527e-05
209	0x37dece24	2.6560454e-05
210	0x386b8a5f	5.6157234e-05
211	0x384868f4	4.778146e-05
212	0x38399a58	4.425118e-05
213	0x3907b113	0.00012940569
214	0x37b02ce4	2.1001739e-05
215	0xb886d2fc	-6.428917e-05
216	0xb7c9505a	-2.3998484e-05
217	0x362f6d36	2.6140601e-06
218	0xb8d9aa6d	-0.000103791106
219	0x37f4606a	2.9131963e-05
220	0x386ef82f	5.697476e-05
221	0x344c7200	1.9040453e-07
222	0xb503d3c0	-4.910944e-07
223	0xb818ab77	-3.6399313e-05
224	0xb88f6e0a	-6.839268e-05
225	0xb82d42b0	-4.130852e-05
226	0x39113df2	0.00013851354
227	0x388bae14	6.660461e-05
228	0xb816318c	-3.580893e-05
229	0xb860cc54	-5.3596057e-05
230	0x378fb64a	1.7131813e-05
231	0xb86222e1	-5.3915082e-05
232	0x378266c4	1.5545062e-05
233	0x38bcf40e	9.009997e-05
234	0xb8952bdb	-7.1130424e-05
235	0x39048c69	0.00012640808
236	0x37b34e94	2.1375054e-05
237	0xb88b0935	-6.6297514e-05
238	0xb8cf217c	-9.876766e-05
239	0x3901d768	0.00012382644
240	0xb8b7f061	-8.770894e-05
241	0xb8a3d767	-7.8125675e-05
242	0x38cc108b	9.7305594e-05
243	0x39121998	0.0001393318
244	0xb8ec2ca2	-0.000112616704
245	0xb69c9340	-4.6663044e-06
246	0x384ce9b0	4.885503e-05
247	0xb7050cc6	-7.930392e-06
248	0xb8caee11	-9.676454e-05
249	0xb842bfb2	-4.6431735e-05
250	0x38912072	6.920182e-05
251	0x3903429d	0.00012517949
252	0xb89df3a9	-7.5317286e-05
253	0x37cd1e29	2.4451949e-05
254	0x38f417a1	0.00011639228
255	0x371bd408	9.288087e-06

lstm.weight_hh_l0 f4 [128, 32]
0	0x38e06a5d	0.00010700964
1	0x39241cb6	0.00015650954
2	0x387c1ab5	6.0106355e-05
3	0x3844a4a0	4.688336e-05
4	0xb6b0f7e0	-5.274065e-06
5	0x392a35e4	0.00016232539
6	0xb896bd5b	-7.1878276e-05
7	0xb866c470	-5.501922e-05
8	0xb7958dec	-1.7828272e-05
9	0x398f023f	0.0002727676
10	0xb8da88da	-0.00010420541
11	0x364a8a80	3.0180963e-06
12	0xb7e2d280	-2.7039321e-05
13	0x3641ff20	2.8907743e-06
14	0xb98efcfa	-0.00027272833
15	0x36a05574	4.7783196e-06
16	0xb8991d34	-7.301048e-05
17	0xb78ea2ee	-1.700359e-05
18	0x385c58bf	5.253474e-05
19	0x38a51df9	7.873396e-05
20	0x38306d76	4.2063613e-05
21	0xb7956188	-1.78076e-05
22	0xb8ef7de4	-0.00011419857
23	0x38c5aa32	9.4253934e-05
24	0xb8246594	-3.919525e-05
25	0x3829926d	4.042911e-05
26	0xb77c34c4	-1.5032656e-05
27	0x38a122f0	7.683586e-05
28	0x37a244a4	1.9343868e-05
29	0x373f02a8	1.1385106e-05
30	0xb816249e	-3.579689e-05
31	0xb8e05991	-0.000106978354
32	0x386e7281	5.6850262e-05
33	0xb9226043	-0.00015485384
34	0xb910d494	-0.00013812102
35	0x38250b36	3.9349507e-05
36	0xb8abfe7e	-8.201318e-05
37	0x3875b6ae	5.8582686e-05
38	0x38cb6ab9	9.699673e-05
39	0xb82dd490	-4.144438e-05
40	0x3915e96b	0.00014296702
41	0x389beee0	7.43547e-05
42	0xb7d9da56	-2.5970086e-05
43	0xb888ab87	-6.516935e-05
44	0x37e1cce0	2.6917493e-05
45	0x3888fcc3	6.532066e-05
46	0xb89af6e1	-7.389277e-05
47	0xb8d9f658	-0.000103932514
48	0xb8ccae24	-9.759914e-05
49	0x38dfbc8e	0.0001066859
50	0xb5cbfb20	-1.5197766e-06
51	0xb8f91873	-0.00011877799
52	0xb89a0ae2	-7.345319e-05
53	0xb784cbe8	-1.5830577e-05
54	0x38e825d9	0.00011069672
55	0xb8bc99ec	-8.993209e-05
56	0xb7e14458	-2.6853915e-05
57	0xb894ea65	-7.100849e-05
58	0x36327850	2.6594098e-06
59	0x38213bea	3.844119e-05
60	0x397433f5	0.00023289009
61	0x374dc3e4	1.22645615e-05
62	0xb81a49a7	-3.6785055e-05
63	0xb892eb90	-7.0056994e-05
64	0x369b1f78	4.6230234e-06
65	0x38762273	5.8683054e-05
66	0xb92e2667	-0.00016608239
67	0xb92155a2	-0.00015386057
68	0xb742f794	-1.1620945e-05
69	0xb8c3eb08	-9.3421026e-05
70	0xb76e3e24	-1.4200374e-05
71	0x381cf465	3.742091e-05
72	0xb66d123c	-3.5326366e-06
73	0x3839c543	4.429115e-05
74	0xb8a24efd	-7.739475e-05
75	0xb74a06f8	-1.2041761e-05
76	0x39141ca8	0.00014125055
77	0x3917d5d8	0.00014480145
78	0x3697b88c	4.5216348e-06
79	0x37ae5680	2.0782696e-05
80	0x357bca00	9.3798735e-07
81	0xb7638170	-1.3560391e-05
82	0xb88aaf92	-6.613055e-05
83	0xb75a3518	-1.3006174e-05
84	0x3819044b	3.648204e-05
85	0xb822e85a	-3.8840204e-05
86	0xb909339b	-0.00013084563
87	0x3862debb	5.4090033e-05
88	0xb7939b38	-1.7596045e-05
89	0x38cb67be	9.699118e-05
90	0xb88d5bef	-6.740528e-05
91	0x39281f67	0.00016033427
92	0xb5ddf6a0	-1.653756e-06
93	0x386d4e89	5.6578345e-05
94	0x39274657	0.00015952565
95	0xb8442c3f	-4.677125e-05
96	0x36f39ea8	7.2604344e-06
97	0x38bc8312	8.988952e-05
98	0x38999e2f	7.3250725e-05
99	0xb8ff9656	-0.0001218735
100	0x3916aff6	0.00014370665
101	0x36f388d8	7.257895e-06
102	0x3990bd9c	0.0002760709
103	0x3843bb78	4.6666217e-05
104	0xb71ac9f4	-9.226136e-06
105	0x39160436	0.00014306683
106	0xb64667a0	-2.9564617e-06
107	0xb8a6f4f1	-7.961121e-05
108	0xb91ce4b9	-0.00014962525
109	0xb5912280	-1.0813383e-06
110	0x3810f84f	3.456353e-05
111	0x38227633	3.873389e-05
112	0xb7c6878c	-2.3666558e-05
113	0xb88adccf	-6.6214816e-05
114	0xb7aafbde	-2.0382864e-05
115	0x3964dcea	0.00021826071
116	0xb7527f70	-1.2546647e-05
117	0xb8a75b8c	-7.9802325e-05
118	0xb78e6720	-1.697574e-05
119	0x37cfcc8a	2.4771569e-05
120	0x37b03282	2.1004354e-05
121	0xb73d8074	-1.1295186e-05
122	0x3964206d	0.00021755854
123	0x388377d4	6.2688865e-05
124	0x38913925	6.924783e-05
125	0x379337ac	1.754969e-05
126	0x383a8dbe	4.4477863e-05
127	0x384fde0e	4.955945e-05
128	0xb839a5f6	-4.4262e-05
129	0xb7509604	-1.2432694e-05
130	0xb7feb712	-3.0364408e-05
131	0x3800ca1a	3.07058e-05
132	0x38cd7483	9.796864e-05
133	0xb93e8c3e	-0.00018172056
134	0xb7e06b6e	-2.6752907e-05
135	0xb93f20ec	-0.00018227444
136	0x39918490	0.00027755322
137	0x3800e232	3.072824e-05
138	0x36a14fe0	4.8074726e-06
139	0xb90d65ea	-0.00013484774
140	0xb88a2f03	-6.5891094e-05
141	0xb92eb312	-0.00016660642
142	0xb7e51a07	-2.7311047e-05
143	0x378de330	1.6914302e-05
144	0x3915944e	0.00014264995
145	0x38747f05	5.829243e-05
146	0x38c3d9f5	9.338922e-05
147	0xb8ffba18	-0.0001219401
148	0xb7f9431d	-2.9714365e-05
149	0x38bacef2	8.907718e-05
150	0xb8b4bd2c	-8.618305e-05
151	0xb7f9f436	-2.9796833e-05
152	0x388eb8de	6.805522e-05
153	0x386aa4a6	5.594329e-05
154	0xb7d9533d	-2.5907177e-05
155	0x38c4dffa	9.387727e-05
156	0x38834345	6.259097e-05
157	0xb90dc0de	-0.00013518656
158	0x396419ac	0.00021753338
159	0x383f3e42	4.559593e-05
160	0xb990c752	-0.00027614326
161	0xb90eb60f	-0.00013609997
162	0x38dc06bc	0.00010491672
163	0x38eea997	0.00011380313
164	0x38cf51b1	9.8857454e-05
165	0x35f84f60	1.8500541e-06
166	0x38a5c19e	7.903877e-05
167	0xb7d780cb	-2.5689971e-05
168	0x37d2fcc8	2.5151661e-05
169	0x36aa24c8	5.0706767e-06
170	0x37e958c6	2.7817103e-05
171	0xb58575a0	-9.943506e-07
172	0xb90b9f82	-0.00013315494
173	0xb8255dac	-3.9426304e-05
174	0x37df5632	2.662381e-05
175	0x39289db6	0.0001608048
176	0x38881938	6.489683e-05
177	0x37a5e6f8	1.9777086e-05
178	0xb847f4ca	-4.7673275e-05
179	0xb807e644	-3.240096e-05
180	0xb82529cd	-3.9377996e-05
181	0xb8997218	-7.31686e-05
182	0xb93c9b48	-0.00017986924
183	0x3943ef9e	0.00018685914
184	0x3880ac88	6.135652e-05
185	0x374d22c4	1.2227047e-05
186	0xb7daa930	-2.606641e-05
187	0x3600f4f0	1.9216059e-06
188	0x3932fc64	0.00017069426
189	0x3933357f	0.00017090699
190	0x37e5c28a	2.7389517e-05
191	0xb7e41fe8	-2.7194576e-05
192	0x3868d70e	5.5513396e-05
193	0x3688d640	4.078058e-06
194	0xb7d680f2	-2.5570833e-05
195	0x38cb8d02	9.706059e-05
196	0x38109d0e	3.4478544e-05
197	0x37f71096	2.9452418e-05
198	0xb98e9333	-0.00027194023
199	0x3747ac00	1.1901371e-05
200	0xb90666d4	-0.00012817542
201	0xb92f4196	-0.00016713733
202	0x3862a252	5.403377e-05
203	0x3830c52f	4.214531e-05
204	0xb931bca9	-0.00016950317
205	0x38f786e7	0.00011803005
206	0x374ae734	1.2093969e-05
207	0xb924fca7	-0.00015734379
208	0x376bf38d	1.4063798e-05
209	0xb8858752	-6.3671396e-05
210	0x3837c8d4	4.3817636e-05
211	0x385577a2	5.0894574e-05
212	0x382d84be	4.137004e-05
213	0xb7b979c4	-2.211042e-05
214	0x37d1c2b7	2.5005413e-05
215	0x37d6ac7a	2.5591104e-05
216	0x36da6420	6.5085624e-06
217	0x390eaca2	0.00013606486
218	0x36e3e3e0	6.7916553e-06
219	0xb905e630	-0.0001276962
220	0xb8217613	-3.8495356e-05
221	0xb93ee076	-0.0001820343
222	0x3991cea0	0.00027810503
223	0x3900e300	0.00012291595
224	0xb93f6c18	-0.00018255448
225	0xb7def516	-2.657859e-05
226	0xb87a2e2e	-5.9647653e-05
227	0xb6066290	-2.0024927e-06
228	0x38a0034c	7.6300086e-05
229	0xb747ad30	-1.1901648e-05
230	0x38768ad9	5.8780282e-05
231	0x3816c2e9	3.594431e-05
232	0xb835a6ba	-4.330904e-05
233	0xb91637ad	-0.00014325856
234	0xb8681ed9	-5.534184e-05
235	0xb882dcd7	-6.240018e-05
236	0xb7ccbaa2	-2.4405603e-05
237	0xb7ab9400	-2.0453706e-05
238	0xb92a99d3	-0.00016269767
239	0xb92f2fe6	-0.00016707144
240	0xb824c5ad	-3.9284747e-05
241	0xb88d18c9	-6.7280205e-05
242	0x38f3b219	0.00011620316
243	0xb8f858ba	-0.00011842088
244	0x36659840	3.421228e-06
245	0xb87a0f8c	-5.9619124e-05
246	0xb903c7b8	-0.00012567535
247	0x3923a9a2	0.00015608085
248	0xb960165e	-0.00021370637
249	0x38422ac6	4.629304e-05
250	0xb69846e0	-4.538204e-06
251	0x38ea735a	0.000111794754
252	0xb8a1b59e	-7.710907e-05
253	0x387a2e0c	5.964753e-05
254	0xb98f160a	-0.00027291506
255	0x37fbaeac	3.000287e-05

lstm.bias_ih_l0 f4 [128]
0	0xb93a9058	-0.00017792115
1	0x374247d8	1.15800285e-05
2	0xb8fb2c29	-0.00011976838
3	0xb87b0c34	-5.985443e-05
4	0xb8ae8311	-8.3213796e-05
5	0xb7da4a19	-2.602213e-05
6	0xb8d06502	-9.937027e-05
7	0x38fa82ad	0.00011945269
8	0x38fe54d5	0.00012127465
9	0xb887e017	-6.4790416e-05
10	0x384b3c3f	4.845508e-05
11	0xb89682fc	-7.176955e-05
12	0x38719a5c	5.7602636e-05
13	0x37b6c5ba	2.1788164e-05
14	0xb87f10c4	-6.0812352e-05
15	0xb8334528	-4.2741332e-05
16	0xb85657d1	-5.110336e-05
17	0xb9306d7a	-0.00016825451
18	0xb8f71117	-0.00011781061
19	0xb9040680	-0.00012590922
20	0xb8909349	-6.893889e-05
21	0xb80a6d1f	-3.300339e-05
22	0x38f04d9a	0.00011458546
23	0x35e176f8	1.6798431e-06
24	0xb8d2a4e9	-0.00010044297
25	0x36ea4388	6.981605e-06
26	0xb92f605c	-0.00016725197
27	0xb9044c40	-0.00012616906
28	0x37d2eac2	2.5143268e-05
29	0x3878bc3f	5.9303125e-05
30	0xb811927c	-3.4707118e-05
31	0xb77a6f7c	-1.4927118e-05
32	0x38255aa5	3.9423485e-05
33	0xb7ddc4f1	-2.6436961e-05
34	0xb928fd0f	-0.00016116
35	0x37ea1ee6	2.7909362e-05
36	0xb7aeb9e4	-2.0828978e-05
37	0x38b039a8	8.403073e-05
38	0x3786f538	1.6088234e-05
39	0xb888dbf5	-6.5259555e-05
40	0x36ac2d90	5.1313036e-06
41	0xb929cca9	-0.00016193338
42	0x391c6d28	0.00014917983
43	0x38cc2a90	9.735406e-05
44	0x38a3468a	7.7855846e-05
45	0xb8afc0da	-8.380572e-05
46	0x37c7386a	2.3748918e-05
47	0x35b60540	1.3561585e-06
48	0xb6684310	-3.460973e-06
49	0xb88dffc0	-6.771041e-05
50	0x3298f000	1.7804268e-08
51	0x37c143ca	2.303896e-05
52	0xb934e6e6	-0.00017252154
53	0x382b030e	4.0772422e-05
54	0xb771b350	-1.4406469e-05
55	0xb4aa8ef0	-3.1768968e-07
56	0xb8f941ba	-0.00011885488
57	0x3989b14e	0.0002626278
58	0xb8098b30	-3.2792974e-05
59	0x38792433	5.939994e-05
60	0xb79080a0	-1.7226033e-05
61	0xb8223c36	-3.8679886e-05
62	0xb459e600	-2.0293373e-07
63	0x37ca735a	2.4133991e-05
64	0x38206712	3.8242964e-05
65	0x38978252	7.224515e-05
66	0x38617ac4	5.3758515e-05
67	0xb7ded37d	-2.6562944e-05
68	0x37889691	1.6282576e-05
69	0xb8b2df7f	-8.529331e-05
70	0xb74bd390	-1.2149001e-05
71	0x38a08fab	7.656155e-05
72	0x37652d94	1.3660076e-05
73	0x3869d171	5.5746586e-05
74	0xb8869b55	-6.418551e-05
75	0xb9270f14	-0.00015931978
76	0xb8d04a4a	-9.93205e-05
77	0xb8c224e8	-9.257515e-05
78	0x387358b1	5.8018315e-05
79	0xb81e5aa7	-3.7754562e-05
80	0x37e06900	2.6751775e-05
81	0x38808123	6.127569e-05
82	0x382653ba	3.965546e-05
83	0x3765ee42	1.3704937e-05
84	0x390c9e19	0.00013410336
85	0x383d6818	4.5158056e-05
86	0x380aaac2	3.3060795e-05
87	0xb831d576	-4.239889e-05
88	0xb88d1d15	-6.728821e-05
89	0xb7c54a3a	-2.3518794e-05
90	0xb8e4283e	-0.00010879383
91	0xb8fc272c	-0.00012023593
92	0xb8a24b98	-7.7388424e-05
93	0xb72edbc6	-1.0422378e-05
94	0xb8c05b78	-9.172311e-05
95	0xb83e84ba	-4.542314e-05
96	0x39531aea	0.00020132554
97	0xb93558e4	-0.0001729462
98	0xb7e531a8	-2.732205e-05
99	0x37b5c125	2.1666821e-05
100	0x39512aba	0.0001994771
101	0xb95b5ef3	-0.00020920839
102	0x3872d8cd	5.7899208e-05
103	0x35a8a960	1.256627e-06
104	0x392a37a2	0.00016233188
105	0xb8857c88	-6.36513e-05
106	0x36a279f0	4.8421716e-06
107	0xb93fb1ee	-0.00018281463
108	0x37446a18	1.1707212e-05
109	0xb8f88f1f	-0.0001185222
110	0xb721e8c4	-9.650543e-06
111	0x37c502e8	2.3485583e-05
112	0x3924d530	0.00015719677
113	0xb586fbc0	-1.0057047e-06
114	0x38d83b70	0.00010310754
115	0xb9200198	-0.00015259383
116	0x380f505b	3.4168694e-05
117	0x3818a6fd	3.6395144e-05
118	0xb8aa4780	-8.1195496e-05
119	0xb799c278	-1.8329578e-05
120	0xb78e6c30	-1.6978098e-05
121	0x37f3fb8f	2.9084998e-05
122	0xb6f3a82c	-7.261542e-06
123	0x388540c3	6.353997e-05
124	0x37445f90	1.170476e-05
125	0xb7340fc0	-1.0732503e-05
126	0xb72f4898	-1.0447715e-05
127	0x382b7887	4.0881827e-05

lstm.bias_hh_l0 f4 [128]
0	0xb65dbd40	-3.3041724e-06
1	0x377e2c90	1.5149955e-05
2	0xb69548c0	-4.4490153e-06
3	0x3904b5b1	0.00012656186
4	0x3882dd96	6.240157e-05
5	0xb7b1b2e0	-2.118334e-05
6	0xb7b2c690	-2.1311716e-05
7	0xb8c91a77	-9.589356e-05
8	0x38967051	7.173478e-05
9	0xb7ff14d4	-3.0408068e-05
10	0xb89e0db5	-7.53658e-05
11	0x3786aa48	1.6053338e-05
12	0xb8d756b5	-0.00010268149
13	0xb5917b20	-1.0839176e-06
14	0x38c253af	9.266228e-05
15	0x3899a30b	7.325978e-05
16	0xb8fc0526	-0.00012017255
17	0x38db7b44	0.00010465694
18	0xb85ef983	-5.31613e-05
19	0x37bfd1a0	2.2866589e-05
20	0x36e87f80	6.9289817e-06
21	0x38b47d48	8.606404e-05
22	0xb8e649ca	-0.00010980999
23	0xb98d1fb0	-0.00026917225
24	0xb965bba4	-0.00021909043
25	0x388b704e	6.648955e-05
26	0x345e4d80	2.0703555e-07
27	0x36a240f8	4.8355396e-06
28	0x37793618	1.4854151e-05
29	0x391f36a0	0.00015183771
30	0xb797c212	-1.8090974e-05
31	0xb7d7efb4	-2.5741618e-05
32	0xb83cec9f	-4.5043063e-05
33	0x3903e68d	0.0001257902
34	0x395645e7	0.00020434671
35	0xb85e8529	-5.305294e-05
36	0x37d62b3c	2.553092e-05
37	0x38f6093c	0.00011731914
38	0x380334e2	3.1282085e-05
39	0x3906befd	0.00012850385
40	0xb92b77ce	-0.00016352462
41	0x385cd82e	5.265342e-05
42	0xb8378dbc	-4.37626e-05
43	0x391831f9	0.00014514466
44	0xb88ce39f	-6.718118e-05
45	0x3470e200	2.243396e-07
46	0xb7174838	-9.017116e-06
47	0x3810fb87	3.456653e-05
48	0x38d09489	9.94588e-05
49	0x3654c388	3.1704276e-06
50	0x3695b520	4.4616318e-06
51	0x3931abbc	0.00016944011
52	0x382ba390	4.0921906e-05
53	0xb87eb40a	-6.0725994e-05
54	0xb880a3e4	-6.1340426e-05
55	0x38dbeb8e	0.00010486609
56	0xb7a948bc	-2.018024e-05
57	0x38562c8c	5.1063063e-05
58	0x38fbe969	0.00012012089
59	0xb928f7aa	-0.0001611399
60	0xb8bb2c9d	-8.925165e-05
61	0x375023a8	1.2406068e-05
62	0xb9398fda	-0.00017696564
63	0x38b0dcb0	8.43344e-05
64	0x3902ff16	0.00012492793
65	0xb6aafc68	-5.0957788e-06
66	0xb834fb40	-4.314934e-05
67	0xb6cf3584	-6.175311e-06
68	0xb88ea614	-6.802022e-05
69	0x368faf00	4.282105e-06
70	0xb8cec008	-9.858614e-05
71	0x38240aaa	3.911058e-05
72	0x360f31ac	2.1337573e-06
73	0x36d5c524	6.370845e-06
74	0xb8ad3b80	-8.2603656e-05
75	0xb7420be8	-1.1566073e-05
76	0x37d6c22c	2.5601206e-05
77	0x37dea536	2.6541395e-05
78	0x38b3c024	8.571174e-05
79	0x37444f55	1.1700981e-05
80	0xb8655a39	-5.468188e-05
81	0xb6940c80	-4.412199e-06
82	0x38c9b149	9.617449e-05
83	0x388b864f	6.6530534e-05
84	0x38f2254f	0.000115464085
85	0x3813700b	3.515188e-05
86	0xb83e66d9	-4.5395314e-05
87	0xb85266db	-5.0163693e-05
88	0xb73a2f68	-1.1097502e-05
89	0x37b9362d	2.2078946e-05
90	0xb89797c5	-7.2285104e-05
91	0xb7c2ebc4	-2.323639e-05
92	0xb945e77c	-0.00018873619
93	0x380055c6	3.059746e-05
94	0x383dc720	4.524656e-05
95	0x38d9bb7d	0.00010382289
96	0xb8f912c4	-0.000118767406
97	0xb7892120	-1.6347098e-05
98	0x38fa634b	0.00011939424
99	0x38e954e6	0.00011126119
100	0x377623a8	1.46710445e-05
101	0xb95cf4e5	-0.00021072065
102	0x38005229	3.0594096e-05
103	0xb90fd5e4	-0.00013717223
104	0xb8850a5b	-6.343863e-05
105	0xb8ab5cab	-8.171176e-05
106	0x3905af6c	0.00012749218
107	0x383471f8	4.3021486e-05
108	0xb63523c4	-2.699192e-06
109	0x379b2b34	1.8497558e-05
110	0xb7e264bc	-2.6988208e-05
111	0x391c4653	0.00014903517
112	0x3932bf37	0.00017046636
113	0xb9342438	-0.0001717963
114	0xb71d8d78	-9.3908675e-06
115	0x380a93ed	3.303953e-05
116	0xb87bcdd9	-6.0034774e-05
117	0xb7e57038	-2.7351183e-05
118	0xb8cee9ac	-9.86637e-05
119	0x37a5c9ac	1.9763444e-05
120	0x381de44c	3.7644335e-05
121	0x386ffc7f	5.7217196e-05
122	0xb930076c	-0.00016787433
123	0xb8832903	-6.254206e-05
124	0xb726cc34	-9.941916e-06
125	0xb927410a	-0.0001595059
126	0x37895964	1.6373298e-05
127	0x37ae27a4	2.0760875e-05

lstm.weight_ih_l0_reverse f4 [128, 19]
0	0xb7dc4fdc	-2.6263231e-05
1	0x3691f710	4.3500986e-06
2	0xb7b7a81a	-2.1893578e-05
3	0xb7fc251c	-3.0058021e-05
4	0xb7d6c8f4	-2.5604364e-05
5	0x37a33e49	1.9460118e-05
6	0xb6e2d0e0	-6.759641e-06
7	0xb831fa63	-4.243328e-05
8	0x387a726e	5.9711216e-05
9	0xb82cb29b	-4.1174335e-05
10	0xb8ebd506	-0.00011245352
11	0xb8c71ebf	-9.494786e-05
12	0x38cf830a	9.894937e-05
13	0x385e9354	5.3066135e-05
14	0xb8d17004	-9.986761e-05
15	0xb6a65a90	-4.9577284e-06
16	0xb6aa2ed0	-5.0718445e-06
17	0xb5dc4f60	-1.6414378e-06
18	0xb9049734	-0.00012644829
19	0x399174ea	0.00027743663
20	0xb7e79326	-2.7605867e-05
21	0xb847af6c	-4.760867e-05
22	0xb98bd498	-0.0002667054
23	0x381a722b	3.682279e-05
24	0xb846fb0e	-4.744069e-05
25	0xb7427854	-1.1591317e-05
26	0x389d4bf1	7.5004886e-05
27	0xb5116aa8	-5.4171915e-07
28	0xb931dd06	-0.00016962373
29	0x3822d1ae	3.881909e-05
30	0x38cb71d2	9.700995e-05
31	0x38e72250	0.000110213296
32	0x38e1114f	0.0001073206
33	0xb923b53a	-0.00015612404
34	0x384c841c	4.8760427e-05
35	0x37c941cf	2.3991712e-05
36	0xb7546380	-1.2659351e-05
37	0xb7b6dc40	-2.1798653e-05
38	0x38e4f48a	0.00010917436
39	0xb8231ed4	-3.889094e-05
40	0xb898e5b3	-7.2907096e-05
41	0x38af5348	8.3601626e-05
42	0xb7fdb50d	-3.0244259e-05
43	0xb8c8527e	-9.5521085e-05
44	0xb8d7e62e	-0.00010294873
45	0x37e1bbbf	2.6909516e-05
46	0x380f816b	3.4214387e-05
47	0xb92cd2b2	-0.00016481688
48	0xb93c5a06	-0.00017962613
49	0xb7c22386	-2.3143144e-05
50	0xb9589341	-0.00020654222
51	0x38f62dcd	0.00011738725
52	0x37e12d8e	2.6843303e-05
53	0x39014094	0.00012326456
54	0x34583400	2.0135485e-07
55	0x3670c230	3.587582e-06
56	0xb89e4b68	-7.5480726e-05
57	0xb7993660	-1.8264342e-05
58	0xb88113f5	-6.1549166e-05
59	0xb8b3e424	-8.5778796e-05
60	0xb5c15410	-1.4404086e-06
61	0xb770d772	-1.4355277e-05
62	0x37872cf8	1.6114194e-05
63	0x38535ed4	5.0394636e-05
64	0xb927055a	-0.00015928355
65	0xb7dc8dea	-2.6292128e-05
66	0x38c112b2	9.2064394e-05
67	0x3864d0ba	5.4553828e-05
68	0xb91ef881	-0.00015160629
69	0xb88409f5	-6.296105e-05
70	0x3897835f	7.224711e-05
71	0x38771506	5.890897e-05
72	0x3938fd87	0.00017642054
73	0x3880690f	6.123084e-05
74	0x37d59efe	2.5465615e-05
75	0xb8f330c4	-0.00011596226
76	0x38dca4bd	0.000105211024
77	0xb70e78e8	-8.49201e-06
78	0xb843641c	-4.6584857e-05
79	0x38115a94	3.465505e-05
80	0x383e6f09	4.540294e-05
81	0x3871902e	5.7593155e-05
82	0xb8a07f6f	-7.653131e-05
83	0xb76897d8	-1.38636315e-05
84	0xb78ab87f	-1.6536795e-05
85	0x3902bba3	0.00012467666
86	0x388a00d2	6.5805056e-05
87	0x37808020	1.5318452e-05
88	0x3908d32c	0.00013048638
89	0x36a2e094	4.8541206e-06
90	0x385cc065	5.263127e-05
91	0x3936a10a	0.00017416864
92	0xb7dee961	-2.6573138e-05
93	0xb8e993a6	-0.000111378075
94	0x39350abc	0.00017265504
95	0xb78946e8	-1.6364691e-05
96	0x391e9e1c	0.00015126955
97	0xb8689bf4	-5.5458353e-05
98	0x3886edda	6.433921e-05
99	0x37c1b8c7	2.3093437e-05
100	0xb6e1af10	-6.7259025e-06
101	0x37d1e172	2.5019723e-05
102	0x37701f7c	1.4312445e-05
103	0xb83a52ca	-4.442296e-05
104	0xb79209e8	-1.740917e-05
105	0xb951e064	-0.00020015385
106	0xb80b54ea	-3.3219265e-05
107	0xb86d4a2c	-5.657428e-05
108	0xb8d7ad93	-0.000102843296
109	0x37d7c0e4	2.5719819e-05
110	0x38e57ad5	0.0001094245
111	0x38dfbd49	0.00010668726
112	0x37c5c776	2.3577111e-05
113	0xb9915c30	-0.0002772524
114	0xb837ddc6	-4.3837143e-05
115	0xb78e1c10	-1.6940787e-05
116	0xb763a9e0	-1.35698065e-05
117	0xb82cbed4	-4.1185718e-05
118	0xb8a57738	-7.890019e-05
119	0xb900db09	-0.00012288628
120	0xb884c1cc	-6.330348e-05
121	0x3543f968	7.3006095e-07
122	0x38b07f00	8.4159896e-05
123	0x38347984	4.3028514e-05
124	0x37ff9130	3.0465977e-05
125	0xb8737c42	-5.805144e-05
126	0xb852a73b	-5.0223647e-05
127	0x3827f076	4.003985e-05
128	0x38865dfc	6.407124e-05
129	0x37371f98	1.0915006e-05
130	0xb90413a1	-0.00012595813
131	0xb78cd1f4	-1.6787068e-05
132	0x372ea37c	1.0409272e-05
133	0x3922a61b	0.00015511403
134	0x38196190	3.6568905e-05
135	0xb7e9ac6b	-2.7856053e-05
136	0xb85dcd1e	-5.2881536e-05
137	0xb863000e	-5.412107e-05
138	0xb8cf54a4	-9.886295e-05
139	0xb81f7f2b	-3.802699e-05
140	0xb9011892	-0.00012311552
141	0x3762b328	1.3512363e-05
142	0xb8c28e9d	-9.277205e-05
143	0xb8fefc50	-0.00012158661
144	0x38623229	5.3929314e-05
145	0x3757d490	1.286449e-05
146	0xb6c6a631	-5.920207e-06
147	0xb8996c5c	-7.315792e-05
148	0xb915aecf	-0.00014274869
149	0xb9013ceb	-0.00012325092
150	0xb7592100	-1.2941891e-05
151	0xb8db3ba9	-0.00010453846
152	0xb7c62cdb	-2.3624327e-05
153	0x3904237f	0.00012601724
154	0x3928f4da	0.00016112943
155	0xb969c58c	-0.00022294204
156	0xb7e72ee4	-2.7559181e-05
157	0xb81cd8e1	-3.7395283e-05
158	0x37fd81ce	3.0220395e-05
159	0x37421b18	1.1569609e-05
160	0xb8fefaba	-0.00012158365
161	0xb7e3c4b2	-2.7152102e-05
162	0x37319438	1.0584532e-05
163	0x38c1b8cd	9.237379e-05
164	0x37e7d25f	2.7635308e-05
165	0xb793cad4	-1.7618215e-05
166	0x38eefaf0	0.00011395465
167	0xb840de0b	-4.598316e-05
168	0x38624183	5.394361e-05
169	0x38979720	7.22839e-05
170	0xb777f1dc	-1.47786595e-05
171	0xb830fb86	-4.219592e-05
172	0x38e389f8	0.00010849902
173	0x36259da0	2.4678666e-06
174	0xb8f6fcef	-0.00011777307
175	0xb9287570	-0.00016065477
176	0x37ecb398	2.8217022e-05
177	0xb893d8df	-7.0499016e-05
178	0x38a80452	8.011669e-05
179	0x386074e5	5.351463e-05
180	0xb8b93b38	-8.832518e-05
181	0x374b7504	1.2126988e-05
182	0x36f32000	7.2456896e-06
183	0x38c61b11	9.446417e-05
184	0xb61ff040	-2.383269e-06
185	0xb789bcd8	-1.641961e-05
186	0x37b2315c	2.1242238e-05
187	0x388973fa	6.5542714e-05
188	0xb8b5291e	-8.638411e-05
189	0xb6da4c78	-6.5058084e-06
190	0x39154e91	0.00014239016
191	0xb862d175	-5.407767e-05
192	0xb8c474cc	-9.3677634e-05
193	0x388322be	6.253038e-05
194	0x38ce942e	9.850446e-05
195	0x3990d0c4	0.00027621363
196	0xb78d3ea0	-1.6837672e-05
197	0x38c305be	9.299394e-05
198	0x38167513	3.587182e-05
199	0xb897a7a9	-7.23147e-05
200	0x37944889	1.7676752e-05
201	0xb6edb3d8	-7.084087e-06
202	0xb9357636	-0.00017305542
203	0xb80009a4	-3.0526557e-05
204	0xb6117bd0	-2.1678752e-06
205	0x3825d2ff	3.953557e-05
206	0x3809551d	3.2742613e-05
207	0x37967ee4	1.7940481e-05
208	0xb73644c8	-1.086406e-05
209	0x38332f1f	4.272081e-05
210	0xb8ded5b8	-0.00010625593
211	0x3909daa0	0.00013146782
212	0xb8d06a64	-9.93803e-05
213	0x38925944	6.9784495e-05
214	0x372ce028	1.0304189e-05
215	0x372960cc	1.0095722e-05
216	0xb8475a97	-4.7529666e-05
217	0x38579438	5.1398034e-05
218	0xb80f88c3	-3.4221226e-05
219	0x354a9fc0	7.548333e-07
220	0x37ebeb35	2.812371e-05
221	0xb45d2000	-2.059387e-07
222	0xb51b0c20	-5.7759644e-07
223	0xb96b6a65	-0.00022450981
224	0xb7e65628	-2.7458256e-05
225	0x3850d3c7	4.9788297e-05
226	0x340d7f00	1.317785e-07
227	0x38525a58	5.015204e-05
228	0xb8264a7d	-3.9646857e-05
229	0x3826ff6f	3.9815375e-05
230	0xb93e5a04	-0.00018153345
231	0xb8c638b1	-9.451935e-05
232	0xb80ee889	-3.4072003e-05
233	0x38721382	5.7715464e-05
234	0xb9289777	-0.00016078154
235	0xb8ebf189	-0.00011250663
236	0x39056110	0.00012720027
237	0x38e3d176	0.000108632186
238	0x36828708	3.8900216e-06
239	0x3880c313	6.139851e-05
240	0x38613488	5.3693104e-05
241	0xb8361dba	-4.3419866e-05
242	0x38c24c98	9.2649076e-05
243	0x36d99068	6.483915e-06
244	0xb637e260	-2.7400893e-06
245	0x371bd168	9.287476e-06
246	0xb88a781e	-6.602726e-05
247	0x38aca16c	8.231666e-05
248	0x38eafd0c	0.00011205123
249	0x38781b1f	5.9153066e-05
250	0x361b75ea	2.3165435e-06
251	0x3928d26b	0.00016100115
252	0xb83aa836	-4.4502514e-05
253	0x391ca971	0.00014940441
254	0x391be401	0.0001486689
255	0x3869be0f	5.5728535e-05

lstm.weight_hh_l0_reverse f4 [128, 32]
0	0xb6701920	-3.5777412e-06
1	0x386325fc	5.4156393e-05
2	0x386f1bda	5.700798e-05
3	0xb7ba42e3	-2.2204074e-05
4	0xb8890db1	-6.535219e-05
5	0xb91163cb	-0.00013865453
6	0xb7eed82c	-2.8472474e-05
7	0x370e7188	8.490293e-06
8	0xb66b3b60	-3.505229e-06
9	0x393431f4	0.00017184747
10	0xb82c830c	-4.1130043e-05
11	0xb915d91b	-0.00014290625
12	0x3893343a	7.019234e-05
13	0xb8f414ac	-0.00011638677
14	0x39064f44	0.00012808765
15	0xb8ec8510	-0.00011278142
16	0xb8df1510	-0.00010637392
17	0x3963b139	0.00021714428
18	0x39094278	0.000130901
19	0x38bcd54d	9.004269e-05
20	0x390a958c	0.00013216416
21	0xb8be5990	-9.076588e-05
22	0x364bffa4	3.039816e-06
23	0xb6110f50	-2.1615597e-06
24	0x38f87608	0.000118475466
25	0x369eb4a8	4.729798e-06
26	0x379940d0	1.8269202e-05
27	0x382edd57	4.169097e-05
28	0xb748baf0	-1.1964454e-05
29	0x396a813c	0.00022364123
30	0xb88e4621	-6.78415e-05
31	0xb96eb504	-0.00022764882
32	0xb8a68566	-7.940344e-05
33	0xb8f7cb51	-0.000118157484
34	0x38777c58	5.9005193e-05
35	0x393c72d0	0.00017971848
36	0xb839150c	-4.412704e-05
37	0x38294105	4.0353294e-05
38	0x3731f0b0	1.0606062e-05
39	0x38b430aa	8.592133e-05
40	0x3840ee2c	4.5998182e-05
41	0x38eb5a06	0.000112224414
42	0xb91c4b74	-0.00014905428
43	0xb8db1cd2	-0.00010448102
44	0x37e77104	2.7589973e-05
45	0xb4d64500	-3.991081e-07
46	0x387b3b09	5.9898044e-05
47	0x382b4bff	4.0840354e-05
48	0x39912ea0	0.00027691294
49	0x393347a2	0.00017097456
50	0xb8ac5356	-8.217122e-05
51	0x38a6ca98	7.953233e-05
52	0xb811678c	-3.466713e-05
53	0xb7b091c4	-2.1048712e-05
54	0xb89d3d4a	-7.497759e-05
55	0xb8e830e7	-0.00011071731
56	0xb8018f15	-3.0889252e-05
57	0xb64d8690	-3.0625706e-06
58	0xb86d13fc	-5.6523815e-05
59	0x390ed1c6	0.00013620322
60	0x3938ba2b	0.0001761696
61	0xb84b62ba	-4.8490918e-05
62	0xb92a778b	-0.00016256997
63	0x383f46e9	4.560399e-05
64	0x37a2bfa1	1.9401139e-05
65	0xb7d32090	-2.5168323e-05
66	0xb7a47a1e	-1.9607189e-05
67	0xb88461b9	-6.312453e-05
68	0x373afc80	1.1145254e-05
69	0x3825e538	3.9552542e-05
70	0x3799e188	1.8344042e-05
71	0x391b04e8	0.0001478378
72	0xb7923ce8	-1.7432918e-05
73	0x37fcd444	3.0139585e-05
74	0xb939cb12	-0.00017718624
75	0x395ddd30	0.00021158601
76	0xb8b5cf61	-8.66938e-05
77	0x384055ac	4.5856155e-05
78	0xb7d1538a	-2.4953642e-05
79	0x383eb3f4	4.5467124e-05
80	0x3874cf6f	5.836732e-05
81	0x38233238	3.8909e-05
82	0x38b47cd0	8.606317e-05
83	0x3936a324	0.00017417647
84	0x3806b762	3.2118878e-05
85	0x37650844	1.3651388e-05
86	0x376659c0	1.3729965e-05
87	0x38800ec4	6.106266e-05
88	0xb8dfd58e	-0.00010673246
89	0xb80de7b9	-3.383283e-05
90	0xb899c7a2	-7.332793e-05
91	0x3837be6d	4.3807948e-05
92	0x392fca24	0.00016764604
93	0xb8977d37	-7.223564e-05
94	0xb82ca731	-4.1163705e-05
95	0xb56b7b00	-8.772331e-07
96	0x396a9c06	0.00022374102
97	0x38afb3c2	8.378133e-05
98	0x388e6e3c	6.7916204e-05
99	0x35c664e0	1.4781508e-06
100	0xb909fdd4	-0.00013159896
101	0x3652d010	3.1413547e-06
102	0xb8194fa1	-3.6552203e-05
103	0xb8498f2a	-4.8055466e-05
104	0xb5c9d640	-1.5038022e-06
105	0xb5ceeec0	-1.5417681e-06
106	0xb8e26529	-0.00010795362
107	0xb84652ad	-4.7283876e-05
108	0xb7e44af0	-2.7214614e-05
109	0x3916d132	0.00014383046
110	0x389357e2	7.025876e-05
111	0xb93306f8	-0.00017073366
112	0xb8db6b7c	-0.00010462754
113	0x38cf450d	9.883391e-05
114	0xb8d6034c	-0.00010204929
115	0xb4329000	-1.6629929e-07
116	0x388bd909	6.6684624e-05
117	0xb7c6ee44	-2.371439e-05
118	0x38cf1f85	9.8764e-05
119	0x38e2674c	0.0001079576
120	0x39058c2e	0.0001273609
121	0xb88aa8e3	-6.6118104e-05
122	0x38cbcdf0	9.718153e-05
123	0xb82a8b92	-4.0661143e-05
124	0x392f3618	0.00016709452
125	0xb7bad1b3	-2.2270577e-05
126	0xb84b3566	-4.8448703e-05
127	0x395937f2	0.00020715574
128	0x3966dd3e	0.00022016928
129	0x3909ddcd	0.00013147965
130	0x3788d538	1.6311751e-05
131	0xb874b536	-5.83429e-05
132	0xb8a04100	-7.641502e-05
133	0x38977195	7.2213974e-05
134	0x379774d0	1.8054998e-05
135	0x36da44d8	6.5049207e-06
136	0xb9160dcc	-0.00014310254
137	0xb82c0284	-4.101034e-05
138	0x3991d960	0.00027818512
139	0x3793ae7c	1.7605016e-05
140	0xb8dd7928	-0.00010560668
141	0x38b44131	8.595212e-05
142	0xb777ea90	-1.4776961e-05
143	0x382fcec8	4.191583e-05
144	0xb80d2709	-3.3653374e-05
145	0xb77d7910	-1.5108162e-05
146	0x36334d30	2.6718008e-06
147	0xb8ec503e	-0.00011268303
148	0x3858d4c1	5.1696556e-05
149	0x38fdb1ba	0.00012097084
150	0x36e56be0	6.83729e-06
151	0x3985fbfd	0.00025555483
152	0x3884fe78	6.341649e-05
153	0xb8380dc2	-4.388183e-05
154	0xb733e0f4	-1.0721607e-05
155	0x3991320d	0.00027693846
156	0xb5966200	-1.1204393e-06
157	0xb7e0da60	-2.680457e-05
158	0x398ede85	0.0002725014
159	0xb963eb30	-0.00021736021
160	0x390560aa	0.00012719879
161	0x38a521fb	7.8741425e-05
162	0xb518ce40	-5.6924546e-07
163	0x3905adf6	0.00012748674
164	0x38390180	4.4108834e-05
165	0x3809c2bc	3.2844706e-05
166	0x382d8207	4.136751e-05
167	0xb8ac3d90	-8.213066e-05
168	0x38c5fc4f	9.440688e-05
169	0x37209650	9.5717405e-06
170	0x38764632	5.8716345e-05
171	0xb7d4c1c0	-2.5362591e-05
172	0x38384eae	4.3942295e-05
173	0x3887bd8e	6.472609e-05
174	0xb8249806	-3.924223e-05
175	0x36e3c564	6.7881065e-06
176	0xb7c60a92	-2.3608362e-05
177	0x37f6bd58	2.9413655e-05
178	0xb87e47eb	-6.0625298e-05
179	0xb9330b84	-0.0001707506
180	0x38c8b9cc	9.5713505e-05
181	0x378a5970	1.649253e-05
182	0xb8fba66a	-0.0001199961
183	0xb821bdfd	-3.856233e-05
184	0xb88e41c1	-6.783335e-05
185	0x37b9c2b2	2.214438e-05
186	0xb74cb844	-1.220225e-05
187	0x389166c6	6.933282e-05
188	0x388beff5	6.672732e-05
189	0x367b08e0	3.740708e-06
190	0xb8a68b97	-7.9414975e-05
191	0x3864cd00	5.4550357e-05
192	0x38ae46f8	8.3101855e-05
193	0xb75e9728	-1.3267425e-05
194	0xb798f628	-1.8234437e-05
195	0x3433d540	1.6748254e-07
196	0xb5d92400	-1.6178237e-06
197	0x37dde55e	2.645206e-05
198	0x38e95ffb	0.000111281835
199	0x378e01f8	1.6928636e-05
200	0x385b8493	5.233714e-05
201	0x39268b3c	0.00015882862
202	0x38781fac	5.9157304e-05
203	0x34654a00	2.1354208e-07
204	0xb8bed3e4	-9.099374e-05
205	0x35860e80	9.987998e-07
206	0x38dd38d0	0.00010548683
207	0x37e95183	2.7813721e-05
208	0xb88acdad	-6.618663e-05
209	0x380eec4e	3.4075514e-05
210	0xb83cef34	-4.5045468e-05
211	0x38df87db	0.00010658774
212	0xb842623a	-4.6344685e-05
213	0x37bfbc24	2.2856584e-05
214	0x384bfb23	4.863286e-05
215	0xb8855550	-6.357825e-05
216	0x372796a4	9.989049e-06
217	0x3963bb8f	0.00021718278
218	0x36e31120	6.767121e-06
219	0x381f66cf	3.8004302e-05
220	0x38c87ae2	9.559632e-05
221	0x382ce486	4.1220825e-05
222	0xb5e8bb80	-1.7339917e-06
223	0xb84473ea	-4.6837995e-05
224	0xb7d10900	-2.4918932e-05
225	0xb7e5064c	-2.730186e-05
226	0x37eb835c	2.8075352e-05
227	0xb8bf44c2	-9.120397e-05
228	0xb73564d4	-1.0811917e-05
229	0x37bc3e24	2.2440283e-05
230	0x38cb1c9f	9.6851254e-05
231	0x38e6d37d	0.000110066474
232	0x38d002fc	9.918769e-05
233	0x380f951c	3.4232726e-05
234	0x37ab9a76	2.0456715e-05
235	0xb96add77	-0.00022398481
236	0xb8185bdd	-3.632518e-05
237	0xb73e0870	-1.1326847e-05
238	0x39261462	0.00015838587
239	0x3826a1d5	3.9728202e-05
240	0xb8c603c6	-9.4420786e-05
241	0xb817a70a	-3.6156773e-05
242	0x3896c335	7.1889175e-05
243	0x38b004a2	8.393197e-05
244	0xb5e7a680	-1.7259299e-06
245	0xb6072060	-2.0135412e-06
246	0x376541f0	1.3664816e-05
247	0x38d14b51	9.9799254e-05
248	0xb7713156	-1.4376206e-05
249	0xb8e89f15	-0.000110922534
250	0x37929da8	1.747797e-05
251	0xb7dc1f72	-2.6240687e-05
252	0xb8c016ff	-9.159557e-05
253	0xb88acadf	-6.6181405e-05
254	0xb7603b20	-1.33652065e-05
255	0xb8348a78	-4.3044303e-05

lstm.bias_ih_l0_reverse f4 [128]
0	0xb7478b00	-1.1893688e-05
1	0xb8c25948	-9.267271e-05
2	0xb93b7d96	-0.00017880494
3	0xb75a0cd0	-1.2996796e-05
4	0xb7d03766	-2.482133e-05
5	0x38dccdff	0.00010528787
6	0xb82bb4d2	-4.093798e-05
7	0xb82a18fa	-4.055442e-05
8	0xb6b9364c	-5.5197506e-06
9	0xb900a587	-0.00012268695
10	0x382168d8	3.8483035e-05
11	0x3776d908	1.4713274e-05
12	0xb8013670	-3.0806696e-05
13	0xb9265b75	-0.00015865064
14	0x3830b7a2	4.213269e-05
15	0x364eb860	3.0803712e-06
16	0xb78621ec	-1.598984e-05
17	0xb7c6a67e	-2.3680968e-05
18	0x383a2fe6	4.4390465e-05
19	0xb7e6ad3c	-2.7498805e-05
20	0x38e9d46d	0.00011149873
21	0xb6a9d6b8	-5.061589e-06
22	0x391ab60b	0.00014754401
23	0x38ee491c	0.00011362342
24	0xb85ebfc6	-5.3107527e-05
25	0x36271780	2.4898618e-06
26	0xb7a66b34	-1.9838662e-05
27	0x390f5a71	0.00013671235
28	0x37609d00	1.3387995e-05
29	0x3795acc0	1.7842627e-05
30	0x39905d81	0.00027535486
31	0xb71708bc	-9.002335e-06
32	0x38e35308	0.00010839669
33	0x388012da	6.107027e-05
34	0x391f6fac	0.00015205023
35	0xb80f2c68	-3.4135213e-05
36	0x388a2f57	6.5891705e-05
37	0xb889699b	-6.5523396e-05
38	0x378d4710	1.68416e-05
39	0x37dc946b	2.6295156e-05
40	0x38d0a0a9	9.948138e-05
41	0xb8b47b0c	-8.605988e-05
42	0x39231cee	0.00015555669
43	0xb882c2ad	-6.235144e-05
44	0x395936fa	0.00020715213
45	0x3880e80f	6.14674e-05
46	0xb91b9484	-0.00014837278
47	0x3873962a	5.8075566e-05
48	0x37d82012	2.576414e-05
49	0xb58c9660	-1.0474578e-06
50	0x35da2200	1.6252161e-06
51	0xb6d2efa8	-6.2863874e-06
52	0xb8397234	-4.4213797e-05
53	0xb92963a0	-0.00016154209
54	0x36862460	3.997746e-06
55	0x393b525a	0.00017864388
56	0x37e878a4	2.7712733e-05
57	0x3810c97c	3.4519922e-05
58	0x386bb73f	5.6199027e-05
59	0x379f3510	1.8978986e-05
60	0xb9518aab	-0.00019983451
61	0xb7eef45a	-2.8485596e-05
62	0xb8e228cc	-0.00010784119
63	0xb9296d09	-0.00016157715
64	0x39073eb7	0.00012897966
65	0x38ee00ec	0.00011348896
66	0xb7d0442c	-2.4827277e-05
67	0x35bfe1a0	1.4296274e-06
68	0x38da87a4	0.00010420315
69	0x38c376a4	9.320423e-05
70	0x378a6264	1.6496699e-05
71	0x382186ea	3.851104e-05
72	0xb593b140	-1.100394e-06
73	0xb8adad03	-8.281509e-05
74	0x3830c20e	4.2142397e-05
75	0xb7b11f5f	-2.1114653e-05
76	0x3723ccf0	9.763273e-06
77	0x3800a652	3.0672476e-05
78	0xb5c585f8	-1.4716634e-06
79	0x38f963f4	0.00011891863
80	0xb617af70	-2.2602871e-06
81	0x37a2c35d	1.9402878e-05
82	0x380c7739	3.3489636e-05
83	0x380f9410	3.423175e-05
84	0xb8b107ca	-8.4414685e-05
85	0x385c0e6c	5.246552e-05
86	0xb8533664	-5.0356975e-05
87	0xb7c7d10e	-2.3819997e-05
88	0xb74e32d4	-1.2290391e-05
89	0xb623d9b0	-2.4415604e-06
90	0xb86dabcf	-5.6665212e-05
91	0xb82165af	-3.848009e-05
92	0xb81929c2	-3.6516933e-05
93	0xb5d938c0	-1.6184276e-06
94	0xb86f8a04	-5.7110577e-05
95	0x379b8044	1.8537168e-05
96	0x38d9fde2	0.00010394656
97	0xb687ba88	-4.0450286e-06
98	0x37b722a4	2.183143e-05
99	0x3839ba8e	4.428118e-05
100	0x3794af6c	1.7724662e-05
101	0xb7a8ef82	-2.013869e-05
102	0x37ecb70d	2.8218632e-05
103	0xb7781f10	-1.4789184e-05
104	0x38536424	5.0399583e-05
105	0xb8aae9a6	-8.149752e-05
106	0xb8de595e	-0.00010602431
107	0x3857391b	5.1313178e-05
108	0x38314f60	4.2274012e-05
109	0x3837a812	4.3787128e-05
110	0xb74a7ec8	-1.2069657e-05
111	0xb96a187f	-0.00022325105
112	0x35f76080	1.8431019e-06
113	0xb8835412	-6.262226e-05
114	0xb4bdbb00	-3.5340054e-07
115	0x37a7f1fc	2.0020634e-05
116	0xb61b0730	-2.3100984e-06
117	0xb8907d7f	-6.8898305e-05
118	0x3916bde7	0.00014375859
119	0x3951ab29	0.00019995555
120	0x380b46e8	3.320622e-05
121	0x3605eea0	1.9957442e-06
122	0xb881d8c3	-6.191574e-05
123	0xb81ce90a	-3.7410333e-05
124	0xb878cc39	-5.9318005e-05
125	0x3837474b	4.3696997e-05
126	0xb7e9ecf1	-2.7886099e-05
127	0xb913b566	-0.00014086589

lstm.bias_hh_l0_reverse f4 [128]
0	0xb5b3b000	-1.3387762e-06
1	0xb92a4a40	-0.00016240124
2	0xb7f3629a	-2.9013772e-05
3	0x37bc3f94	2.2440952e-05
4	0x37724382	1.4440042e-05
5	0xb836e2f3	-4.3603544e-05
6	0x3926c7f3	0.0001590548
7	0x385eafef	5.3092775e-05
8	0xb4ad42e0	-3.227242e-07
9	0xb9659fde	-0.00021898697
10	0xb8a4bf4e	-7.855763e-05
11	0x3849f6be	4.815193e-05
12	0x360deb60	2.1147644e-06
13	0x389189d7	6.9398135e-05
14	0x391f2dbe	0.00015180462
15	0x385f68f0	5.3265074e-05
16	0xb927e982	-0.0001601335
17	0x3786f9fb	1.6090451e-05
18	0x38ca1d12	9.637525e-05
19	0xb730e3c8	-1.0543452e-05
20	0x38e8e630	0.00011105498
21	0xb5eb3a40	-1.7525817e-06
22	0xb87d56f0	-6.0400867e-05
23	0xb8622093	-5.3912936e-05
24	0xb8c1234b	-9.209531e-05
25	0x396b2380	0.00022424571
26	0xb7c9a280	-2.4036737e-05
27	0x3819bbe2	3.6653022e-05
28	0x3393c800	6.881601e-08
29	0xb853db85	-5.0510764e-05
30	0xb70ef729	-8.521406e-06
31	0x37631f80	1.35375885e-05
32	0x37e4f4c0	2.7293689e-05
33	0x38dfd314	0.00010672785
34	0x384d3fe2	4.8935304e-05
35	0x38631e9e	5.4149532e-05
36	0xb9019e74	-0.00012361427
37	0x3795531c	1.7800885e-05
38	0x382d96ac	4.138674e-05
39	0xb925f462	-0.00015826666
40	0xb8c08b97	-9.181274e-05
41	0x38f57fa4	0.00011706285
42	0x38831810	6.251049e-05
43	0x372806f8	1.0015203e-05
44	0xb79a6a08	-1.8407605e-05
45	0x38bde3da	9.054663e-05
46	0xb89cabb1	-7.47064e-05
47	0xb87ea09f	-6.070791e-05
48	0xb8e85a33	-0.00011079423
49	0x38c43c48	9.3572366e-05
50	0x37a5237c	1.9686056e-05
51	0x387ed417	6.0755843e-05
52	0x38102288	3.4364435e-05
53	0xb74c9b36	-1.2195485e-05
54	0xb7cfba32	-2.4763027e-05
55	0xb705de38	-7.979157e-06
56	0x38f06b17	0.00011464039
57	0xb8d69b16	-0.00010233202
58	0x38b1319a	8.449257e-05
59	0x3842de18	4.6460045e-05
60	0xb7e3892d	-2.7124386e-05
61	0xb7de0876	-2.6468402e-05
62	0xb8c548e3	-9.407268e-05
63	0x378327ec	1.5635007e-05
64	0x384677e8	4.731855e-05
65	0x39046a57	0.00012628116
66	0xb8c89f43	-9.566408e-05
67	0x3819bb34	3.665239e-05
68	0xb98079b9	-0.00024504753
69	0xb94c662a	-0.00019493015
70	0x36c58938	5.887032e-06
71	0xb950598e	-0.00019869788
72	0x3921f200	0.00015444309
73	0xb73eee10	-1.1380311e-05
74	0x37b893b8	2.2003296e-05
75	0x38bbfc82	8.963888e-05
76	0xb88cd9b5	-6.716271e-05
77	0x38a56d18	7.8881334e-05
78	0x389124be	6.9209826e-05
79	0xb74a2d80	-1.2050732e-05
80	0x39360afe	0.00017360967
81	0x389e99b0	7.5626536e-05
82	0xb8a831c8	-8.020137e-05
83	0xb8001f7a	-3.0546893e-05
84	0x386285d7	5.4007247e-05
85	0xb6a04b40	-4.777132e-06
86	0xb733dc8c	-1.07205815e-05
87	0x395d842c	0.0002112544
88	0xb888b0a0	-6.517884e-05
89	0xb89f2e96	-7.590388e-05
90	0xb90fa6f9	-0.00013699745
91	0xb84c140e	-4.8656068e-05
92	0x382b1222	4.0786465e-05
93	0xb8cbaf84	-9.712487e-05
94	0xb84a9cce	-4.830659e-05
95	0x38e105a1	0.000107298845
96	0x3905bda7	0.0001275452
97	0x3884c95d	6.331757e-05
98	0xb928406d	-0.00016045729
99	0xb901e52f	-0.00012387776
100	0x380e480d	3.392254e-05
101	0x38f1064e	0.0001149295
102	0xb86b9dd0	-5.617534e-05
103	0xb483bf00	-2.4539622e-07
104	0x38524089	5.0128005e-05
105	0xb756c498	-1.2801167e-05
106	0x37b5d040	2.1673855e-05
107	0x36a2f170	4.8560833e-06
108	0x38c5948a	9.4213596e-05
109	0x37f4f878	2.9202769e-05
110	0xb8decc52	-0.000106238425
111	0x379a8780	1.8421328e-05
112	0xb5c8fd80	-1.4974939e-06
113	0xb8db5d78	-0.00010460144
114	0x392a666a	0.00016250616
115	0x387c437b	6.0144328e-05
116	0x38458e22	4.710083e-05
117	0x361c4b00	2.3289467e-06
118	0xb7502340	-1.2405973e-05
119	0x3985ffe5	0.00025558393
120	0x36ecf740	7.0621318e-06
121	0x3829cb06	4.048182e-05
122	0xb7c61ef4	-2.3617853e-05
123	0xb3259800	-3.85553e-08
124	0x38137587	3.5156987e-05
125	0xb8eb5022	-0.00011220599
126	0x38b0ad85	8.4246545e-05
127	0x38da71a1	0.00010416215
