bagging_model_2_best.pth (torch, 594828 bytes, 41 tensors)

lstm.weight_ih_l0 f4 [192, 19]
0	0x3434e3f5	1.6846737e-07
1	0xb3d5d713	-9.957707e-08
2	0x3414590f	1.3815973e-07
3	0x349df076	2.9418487e-07
4	0xb3c8af9b	-9.345168e-08
5	0xb342f0ee	-4.538827e-08
6	0x334a8227	4.7150163e-08
7	0xb43b59f4	-1.7448457e-07
8	0xb35656b6	-4.990462e-08
9	0xb387eed5	-6.329871e-08
10	0x3409a616	1.2819541e-07
11	0xb381a3f3	-6.036853e-08
12	0xb3907a8c	-6.727814e-08
13	0xb2a2e180	-1.8961828e-08
14	0x3381e749	6.049101e-08
15	0xb4236a58	-1.5219246e-07
16	0x3442ef1d	1.8154647e-07
17	0x3434a720	1.6824606e-07
18	0xb4a1899f	-3.008872e-07
19	0xb45ffc6e	-2.0860327e-07
20	0x341c3ed7	1.4551493e-07
21	0xb3eb8d37	-1.0968727e-07
22	0x34a9a70b	3.1600243e-07
23	0xb33fc088	-4.464576e-08
24	0x31cc9e64	5.9551883e-09
25	0x33c7b6bb	9.299898e-08
26	0xb302b687	-3.043399e-08
27	0xb0bd8c90	-1.379151e-09
28	0xb49ceefd	-2.923115e-07
29	0xb2d5d3e6	-2.4892824e-08
30	0x33c37e2f	9.103348e-08
31	0xb2ef896b	-2.7885752e-08
32	0x3496df88	2.8102318e-07
33	0xb4c4e89d	-3.6677093e-07
34	0x31d940db	6.3229044e-09
35	0xb3fbe7ae	-1.17302406e-07
36	0x343fcc05	1.7862483e-07
37	0x332e63e9	4.06034e-08
38	0xb384546e	-6.162087e-08
39	0xb395efaf	-6.9819514e-08
40	0xb3f58d34	-1.1434386e-07
41	0xb3f7d546	-1.1540628e-07
42	0x3412f138	1.3685064e-07
43	0x33933d54	6.8563764e-08
44	0x3480987f	2.3952813e-07
45	0xb3cf9752	-9.666714e-08
46	0xb411dc35	-1.3584288e-07
47	0xb43e2727	-1.7709372e-07
48	0x326ff2d0	1.396684e-08
49	0xb49da630	-2.9364446e-07
50	0x344e2802	1.91998e-07
51	0xb2b3b5f0	-2.0921078e-08
52	0x3371d300	5.630409e-08
53	0xb49cf3f2	-2.9234758e-07
54	0x345b300b	2.0413442e-07
55	0x32839880	1.5319756e-08
56	0x34164b4f	1.3997236e-07
57	0xb2730932	-1.4146552e-08
58	0x34582fdc	2.0133979e-07
59	0x341eab8c	1.4777305e-07
60	0xb383e10e	-6.1411e-08
61	0x346f3378	2.2277334e-07
62	0xb3b9406e	-8.6264535e-08
63	0x33735630	5.6656233e-08
64	0x34488746	1.8675664e-07
65	0x348c0a76	2.6084643e-07
66	0xb4988b38	-2.84135e-07
67	0x33db38ee	1.02083376e-07
68	0x3381e785	6.049144e-08
69	0x32b49df0	2.102658e-08
70	0xb4703bba	-2.237347e-07
71	0xb11c2080	-2.2719462e-09
72	0xb21d99a0	-9.173533e-09
73	0x34b2f9e9	3.3336917e-07
74	0xb3cf3b13	-9.649934e-08
75	0xb0cef300	-1.5057537e-09
76	0xb445922d	-1.8400233e-07
77	0xb312730c	-3.409791e-08
78	0xb42a7358	-1.5874446e-07
79	0x3415986e	1.393216e-07
80	0xb310564f	-3.360611e-08
81	0xb45a22c8	-2.0315485e-07
82	0xb3944ba8	-6.905549e-08
83	0x3288a062	1.5905417e-08
84	0xb4817df9	-2.411978e-07
85	0x3381d289	6.045327e-08
86	0xb322b730	-3.7885172e-08
87	0x33d2bc04	9.813087e-08
88	0xb40cd996	-1.3117673e-07
89	0x3458b78e	2.0183344e-07
90	0xb40816a0	-1.2674218e-07
91	0x33b55114	8.443217e-08
92	0xb3174654	-3.522139e-08
93	0x3307d4ff	3.1625856e-08
94	0x33c803d9	9.3139256e-08
95	0x34f07467	4.4788177e-07
96	0xb50ba138	-5.201614e-07
97	0x334b57cd	4.7344475e-08
98	0xb42ae348	-1.5915168e-07
99	0x3424a8a0	1.5335036e-07
100	0xb44fe49c	-1.9361545e-07
101	0x338e0e50	6.614994e-08
102	0xb31d4aac	-3.6622325e-08
103	0x337d6d6a	5.9005664e-08
104	0xb40971f0	-1.280057e-07
105	0x33e3c15f	1.0605685e-07
106	0x34329408	1.6631395e-07
107	0xb2ab7354	-1.9959465e-08
108	0x339c8f70	7.290407e-08
109	0xb38cea88	-6.561919e-08
110	0x349cf160	2.9232888e-07
111	0xb432b796	-1.664433e-07
112	0x33fcbfa8	1.17695265e-07
113	0xb4373ed6	-1.7066063e-07
114	0x335d794e	5.1565898e-08
115	0x32fe42ac	2.959981e-08
116	0x32a77cd4	1.9498124e-08
117	0x349235f7	2.7233884e-07
118	0x33ff5fca	1.1891787e-07
119	0x325cfe80	1.2863552e-08
120	0x33bebc6a	8.881837e-08
121	0x344b6080	1.8940955e-07
122	0xb337b4a2	-4.2772292e-08
123	0xb281727a	-1.5069634e-08
124	0xb307b323	-3.159506e-08
125	0xb4afe9ef	-3.27665e-07
126	0xb388f7cb	-6.378067e-08
127	0x347eecda	2.374176e-07
128	0x33c9f1de	9.403787e-08
129	0xb3f276f8	-1.12906434e-07
130	0xb310ca3c	-3.3711544e-08
131	0x341eeac5	1.4800305e-07
132	0x324e61c8	1.2013011e-08
133	0x34066cdc	1.2519325e-07
134	0x34133157	1.3708392e-07
135	0x3485333b	2.4810456e-07
136	0xb306eb8d	-3.141354e-08
137	0xb2d81756	-2.5156321e-08
138	0x3386eaf8	6.282602e-08
139	0x33fd0e88	1.1783874e-07
140	0xb48d01fb	-2.6264738e-07
141	0xb42926d6	-1.575348e-07
142	0x3291a35e	1.6954512e-08
143	0xb4c16761	-3.602427e-07
144	0x31f47cf0	7.1155384e-09
145	0x342d5a68	1.614477e-07
146	0xb3a21e11	-7.549182e-08
147	0x34948e98	2.76709e-07
148	0xb45b954f	-2.0450283e-07
149	0x33b3238e	8.3418044e-08
150	0xb31c5ba4	-3.6404927e-08
151	0xb3d592ff	-9.945324e-08
152	0xb3bf6153	-8.911834e-08
153	0xb412c185	-1.3667712e-07
154	0xb4c329e6	-3.6352066e-07
155	0xb413860a	-1.3739205e-07
156	0x33b75a96	8.538079e-08
157	0xb330cd9e	-4.11652e-08
158	0xb49d1dea	-2.9265294e-07
159	0x32a37881	1.9030496e-08
160	0xb42a1ac2	-1.5842218e-07
161	0x3411b768	1.35709e-07
162	0xb3ea736b	-1.09174685e-07
163	0x331a48a8	3.5922e-08
164	0x34154f12	1.3905472e-07
165	0x33f73419	1.151131e-07
166	0x34a6b122	3.104879e-07
167	0xb3c447ae	-9.14e-08
168	0x348be3ee	2.6056608e-07
169	0x346758d6	2.154587e-07
170	0x3314fa26	3.4686444e-08
171	0xb38bc0fb	-6.507795e-08
172	0xb3a2b2ca	-7.5762344e-08
173	0x34102890	1.3425802e-07
174	0xb2d07a28	-2.4269937e-08
175	0x34b3aa5f	3.346531e-07
176	0xb40100a0	-1.2014289e-07
177	0xb4a100ac	-2.9989076e-07
178	0x337d7865	5.901565e-08
179	0x34326d5d	1.6617328e-07
180	0xb3bbf9f2	-8.753331e-08
181	0x33fcf5f2	1.17794016e-07
182	0xb4832262	-2.4425668e-07
183	0x33746489	5.6902113e-08
184	0xb433ab4d	-1.6732993e-07
185	0xb274adac	-1.4242158e-08
186	0xb3a7624e	-7.794425e-08
187	0x331cb4c1	3.6485975e-08
188	0x33190656	3.562885e-08
189	0xb3975466	-7.0468374e-08
190	0x34192813	1.4263814e-07
191	0x33820290	6.054063e-08
192	0xb48cff29	-2.6262686e-07
193	0x33db25fc	1.02048915e-07
194	0x3405c80c	1.2459367e-07
195	0x330f1f61	3.332332e-08
196	0xb4928018	-2.728782e-07
197	0x3490343c	2.6860096e-07
198	0xb3d2b57d	-9.8118996e-08
199	0xb40199fc	-1.207008e-07
200	0xb3b3409b	-8.347089e-08
201	0xb43b4db9	-1.7444007e-07
202	0xb42b1df2	-1.593651e-07
203	0x3314c2af	3.4636e-08
204	0xb4836bf6	-2.4479203e-07
205	0x33fb5e72	1.1705278e-07
206	0x32ff70e0	2.9737237e-08
207	0x3382bb76	6.087696e-08
208	0x349d08a2	2.924981e-07
209	0x33eada24	1.0936154e-07
210	0x332f1032	4.0760092e-08
211	0x33acb6b8	8.0426105e-08
212	0x32e7f02c	2.7001157e-08
213	0xb341aea4	-4.509515e-08
214	0x34140517	1.3785426e-07
215	0xb3e977ac	-1.0871676e-07
216	0x33074eee	3.1503923e-08
217	0xb3a4cec8	-7.6744584e-08
218	0x33bccf73	8.792167e-08
219	0xb432227e	-1.659009e-07
220	0x33c1d65f	9.026257e-08
221	0xb3d90744	-1.01061715e-07
222	0x3482c613	2.4358505e-07
223	0xb3852a78	-6.20102e-08
224	0x3496f6da	2.8119285e-07
225	0x331bfd25	3.6318983e-08
226	0xb28a202e	-1.6079948e-08
227	0xb2320b98	-1.03636e-08
228	0x3405f945	1.2477274e-07
229	0xb4aabe5a	-3.1803467e-07
230	0x3431cf48	1.6559818e-07
231	0xb3cad9e8	-9.445995e-08
232	0x33098e60	3.2027287e-08
233	0x340de734	1.321576e-07
234	0x339f2835	7.411328e-08
235	0x34141d4a	1.379423e-07
236	0x32e538ac	2.668488e-08
237	0x340bc41a	1.3016725e-07
238	0x339ed87e	7.396828e-08
239	0xb3cbcf8b	-9.490676e-08
240	0x33c34062	9.092106e-08
241	0xb1e25920	-6.587598e-09
242	0xb2a4cf04	-1.9186253e-08
243	0xb3d92ea4	-1.0113334e-07
244	0x34d60015	3.9860666e-07
245	0x33560f26	4.9839535e-08
246	0xb3aee150	-8.1434905e-08
247	0xb2b5d420	-2.1167637e-08
248	0x33fa6ffc	1.1661902e-07
249	0xb4252462	-1.5380058e-07
250	0x322ad418	9.943527e-09
251	0x3418b6ea	1.4222647e-07
252	0x33e4ae1a	1.0648746e-07
253	0x3310e929	3.373967e-08
254	0x327d32e4	1.4738109e-08
255	0xb289a42a	-1.6023552e-08

lstm.weight_hh_l0 f4 [192, 48]
0	0x33b0a4d4	8.225621e-08
1	0x32d82a62	2.5164983e-08
2	0xb2dfd4ac	-2.6057329e-08
3	0x34abe5b0	3.2018352e-07
4	0xb3fb8526	-1.1712318e-07
5	0xb460811e	-2.0908598e-07
6	0xb1b6a660	-5.315812e-09
7	0x3395202f	6.944207e-08
8	0xb34f8adc	-4.8322235e-08
9	0xb4143134	-1.3801474e-07
10	0xb3212334	-3.751775e-08
11	0x32bcaf10	2.196569e-08
12	0x33f8178f	1.1552685e-07
13	0x33627774	5.2728367e-08
14	0x343f0fec	1.7794054e-07
15	0x33df938e	1.0411087e-07
16	0x336a5f0c	5.4568815e-08
17	0x33cce21a	9.540618e-08
18	0x30afe540	1.2798083e-09
19	0xb4290dbb	-1.5744347e-07
20	0xb2e91db8	-2.7138285e-08
21	0x33cd2f76	9.5546895e-08
22	0xb432aa6f	-1.6639545e-07
23	0x33c60d7b	9.2225456e-08
24	0x34465c74	1.8473821e-07
25	0xb364d201	-5.3276384e-08
26	0xb3af1550	-8.152949e-08
27	0x3313b85c	3.439378e-08
28	0xb3dc932c	-1.0271319e-07
29	0xb438acd4	-1.719921e-07
30	0xb3e11906	-1.0481931e-07
31	0x32a005f0	1.8629152e-08
32	0x33e599ca	1.06916175e-07
33	0xb452b689	-1.962418e-07
34	0x33c455cb	9.142567e-08
35	0x33e87bcc	1.08258604e-07
36	0x31f56fc0	7.143143e-09
37	0x3320522e	3.7327645e-08
38	0xb42a4246	-1.5856594e-07
39	0x33c259a8	9.050137e-08
40	0x34099ce5	1.2816197e-07
41	0x341273a0	1.3639374e-07
42	0x347eceab	2.3730779e-07
43	0xb494446b	-2.761693e-07
44	0x33f8b5b3	1.1581451e-07
45	0xb438c42d	-1.7207704e-07
46	0xb41c4eb6	-1.4557267e-07
47	0x341eaa32	1.4776813e-07
48	0x33b44d23	8.395934e-08
49	0xb22e0f00	-1.0131544e-08
50	0x33d6a6e7	9.995511e-08
51	0xb290085a	-1.6767604e-08
52	0x341417ef	1.3792281e-07
53	0x31ddecc0	6.458862e-09
54	0x347f9cb8	2.380574e-07
55	0x3324bdfc	3.8357015e-08
56	0xb34761e0	-4.6422315e-08
57	0x3471c4b2	2.2516431e-07
58	0x33beef1e	8.8910596e-08
59	0x3363bc99	5.3024085e-08
60	0xb40998f4	-1.2814763e-07
61	0x342d4c77	1.6139698e-07
62	0xb29a3d28	-1.795577e-08
63	0x3396b7ba	7.018339e-08
64	0x342bd943	1.6004655e-07
65	0xb340d2f6	-4.489535e-08
66	0xb3f1c956	-1.125906e-07
67	0x34465c46	1.8473756e-07
68	0xb0ff0d94	-1.8557551e-09
69	0x3432f588	1.6666866e-07
70	0x32e02c5c	2.6097204e-08
71	0xb309f640	-3.212176e-08
72	0xb40f6077	-1.3353007e-07
73	0xb3704300	-5.594029e-08
74	0xb447b586	-1.8599357e-07
75	0x3384597a	6.163005e-08
76	0x31ccba8c	5.9583893e-09
77	0x33b4b550	8.414884e-08
78	0x34102639	1.342495e-07
79	0xb3a9d53b	-7.908462e-08
80	0x317a0d60	3.638739e-09
81	0x32eda4a8	2.7665308e-08
82	0xb3e31aad	-1.05753635e-07
83	0xb3a198cf	-7.5249424e-08
84	0x33639a3c	5.299283e-08
85	0x33b8714a	8.588775e-08
86	0x3411b9c4	1.3571758e-07
87	0xb3bf29db	-8.901744e-08
88	0xb32b7718	-3.9922355e-08
89	0x33fc26ab	1.1741698e-07
90	0xb3a3abce	-7.62153e-08
91	0x33a9669b	7.8883396e-08
92	0xb44faa5e	-1.9340357e-07
93	0x33b957f6	8.630734e-08
94	0x33bda6a6	8.8313115e-08
95	0x331e4f34	3.6859277e-08
96	0xb4463b52	-1.8461768e-07
97	0x3444d28a	1.8330516e-07
98	0x31f2f1e0	7.070625e-09
99	0x34122c6e	1.3613473e-07
100	0x32cdd89c	2.3963644e-08
101	0x3499db60	2.8658087e-07
102	0x33aeb58c	8.1355296e-08
103	0x344d29c0	1.9107301e-07
104	0x33b5d985	8.468036e-08
105	0x3428a75c	1.5707104e-07
106	0x32374570	1.066779e-08
107	0x32fb8894	2.9282354e-08
108	0x33ed5568	1.1051708e-07
109	0xb1fc6ae8	-7.346319e-09
110	0xb3cb7910	-9.474945e-08
111	0xb41c5c11	-1.4562126e-07
112	0x330b073e	3.2370046e-08
113	0xb384cd43	-6.184066e-08
114	0x3442a476	1.8127488e-07
115	0xb3b5b86e	-8.462017e-08
116	0xb3112748	-3.379617e-08
117	0x31378a40	2.670859e-09
118	0xb412dc28	-1.3677402e-07
119	0xb299e0f0	-1.7913834e-08
120	0xb33920d2	-4.310352e-08
121	0xb28a1670	-1.6075518e-08
122	0xb3cbfbb1	-9.4987065e-08
123	0x344c15ac	1.9006865e-07
124	0xb305a119	-3.1112993e-08
125	0x348d7eb3	2.6355482e-07
126	0x3355832e	4.9712234e-08
127	0x330a1a90	3.2154787e-08
128	0xb334921c	-4.20424e-08
129	0xb40fed29	-1.3404191e-07
130	0xb42a83a2	-1.5880372e-07
131	0xb45214c0	-1.9565323e-07
132	0xb42bf07f	-1.6013108e-07
133	0xb2f9b8a7	-2.9071385e-08
134	0x34b5660f	3.3788135e-07
135	0xb3d5d8ec	-9.958043e-08
136	0x33b7239e	8.52808e-08
137	0x322a5470	9.914501e-09
138	0xb38c4991	-6.53264e-08
139	0x3344d111	4.582495e-08
140	0x34955ad8	2.781951e-07
141	0x33cd521a	9.5609906e-08
142	0xb409c8bb	-1.2832145e-07
143	0xb45b2b01	-2.0411609e-07
144	0x32bab852	2.1737069e-08
145	0x31c20ce0	5.647607e-09
146	0x3454dfb4	1.9825421e-07
147	0x348344fb	2.445084e-07
148	0xb487f1e4	-2.5321708e-07
149	0x34342f0f	1.6780926e-07
150	0x33a9d6bb	7.908735e-08
151	0x33fdaf17	1.1813079e-07
152	0x331e4eb2	3.6858815e-08
153	0xb409850a	-1.2807519e-07
154	0xb24d9d40	-1.1968325e-08
155	0x341b573a	1.4467233e-07
156	0x343f3fff	1.7811543e-07
157	0xb348af24	-4.6725418e-08
158	0xb42bbb8e	-1.5993848e-07
159	0xb4375da5	-1.7077271e-07
160	0xb398849e	-7.1021745e-08
161	0xb3eea78a	-1.1113214e-07
162	0x3393b2eb	6.877766e-08
163	0x33fc676e	1.1753478e-07
164	0x3457ecf6	2.0109641e-07
165	0x3496e764	2.8108036e-07
166	0x34121642	1.3605407e-07
167	0xb38252d6	-6.0686645e-08
168	0x33ed2809	1.1043455e-07
169	0xb402432f	-1.2131635e-07
170	0x340db381	1.3196951e-07
171	0xb2ad3a00	-2.0166226e-08
172	0xb41fea1f	-1.4893202e-07
173	0x3323c410	3.8129713e-08
174	0x33805b89	5.9771146e-08
175	0xb38d406a	-6.577541e-08
176	0x3310e1ec	3.3733087e-08
177	0x33d7cb18	1.004866e-07
178	0xb40259ac	-1.2139816e-07
179	0x33b2b6ca	8.32202e-08
180	0x339cb820	7.297808e-08
181	0x3451c99a	1.9537984e-07
182	0x3411927d	1.355747e-07
183	0xb0f66080	-1.7926283e-09
184	0xb25cdd90	-1.2856063e-08
185	0xb449f3d3	-1.8808286e-07
186	0xb23f16d0	-1.112285e-08
187	0x3453a1d1	1.9709775e-07
188	0x33f4e776	1.1404238e-07
189	0xb2a0da0c	-1.8725608e-08
190	0x3433de95	1.6751649e-07
191	0xb3ec14a7	-1.0993363e-07
192	0xb3fa6f9d	-1.16618345e-07
193	0xb490cb92	-2.6970207e-07
194	0xb4495ea5	-1.8754015e-07
195	0xb3fef72a	-1.18727556e-07
196	0xb411c4cb	-1.357577e-07
197	0xb3041f8a	-3.076233e-08
198	0xb2783eb0	-1.4449753e-08
199	0xb3d42402	-9.878569e-08
200	0xb39e6197	-7.3752e-08
201	0xb3170490	-3.5161577e-08
202	0x34126dbb	1.363723e-07
203	0xb41c51a2	-1.455833e-07
204	0x31758840	3.5729641e-09
205	0xb42cf527	-1.6107934e-07
206	0xb2b15594	-2.0644428e-08
207	0xb427b246	-1.5617942e-07
208	0xb3c3d454	-9.1190174e-08
209	0xb49d8893	-2.93429e-07
210	0x3493cd5c	2.7530302e-07
211	0x31106330	2.101114e-09
212	0xb4110b08	-1.350819e-07
213	0x3457b4e8	2.0089249e-07
214	0x30d2fbd0	1.535108e-09
215	0xb0cd6180	-1.4943424e-09
216	0x33a2b3f0	7.576443e-08
217	0xb419239e	-1.4262193e-07
218	0x31849e60	3.8597108e-09
219	0xb380f86e	-6.0056536e-08
220	0xb2dd8884	-2.5789866e-08
221	0x33664004	5.360927e-08
222	0xb34e9c46	-4.8105242e-08
223	0xb230d0f8	-1.0292062e-08
224	0x33c74af1	9.2802914e-08
225	0x33346ef5	4.201043e-08
226	0x32c44f50	2.285347e-08
227	0x34292fb4	1.5756706e-07
228	0xb496d36c	-2.8093507e-07
229	0x32833f54	1.5279205e-08
230	0x33bf7095	8.914609e-08
231	0xb3c1f0bc	-9.031052e-08
232	0xb4b34bd7	-3.339653e-07
233	0x33518880	4.878575e-08
234	0x33b7b7e2	8.55505e-08
235	0x338c725a	6.5400585e-08
236	0xb4854a66	-2.4827312e-07
237	0x34abd834	3.200854e-07
238	0xb23cdaf0	-1.0992821e-08
239	0x3425a18a	1.542559e-07
240	0xb2f3f6b2	-2.8401107e-08
241	0x33ad1e48	8.0614484e-08
242	0x32c1ebe6	2.2575431e-08
243	0xb3fcaf99	-1.17666055e-07
244	0x333dead0	4.4218552e-08
245	0xb211f3f0	-8.495576e-09
246	0xb4ea6b6f	-4.3664065e-07
247	0x33c11d2a	8.992568e-08
248	0xb4817505	-2.4113265e-07
249	0xb34df30c	-4.7951332e-08
250	0xb33d9e08	-4.414872e-08
251	0xb43ba77e	-1.7476665e-07
252	0x340478be	1.2337384e-07
253	0x34131c7c	1.3700804e-07
254	0xb37d409b	-5.896491e-08
255	0xb4a668b6	-3.0996097e-07

lstm.bias_ih_l0 f4 [192]
0	0xb4336c32	-1.6710035e-07
1	0x348f0cc8	2.6645125e-07
2	0x3169ece0	3.404061e-09
3	0x3434aeb2	1.682736e-07
4	0x3397d18a	7.0696004e-08
5	0xae1d7000	-3.5797143e-11
6	0xb4953ff5	-2.7799948e-07
7	0x33c3ce2c	9.1178975e-08
8	0x3311dedc	3.3963133e-08
9	0xb3b77e1c	-8.544541e-08
10	0x32c39304	2.2767843e-08
11	0x33b4019c	8.382196e-08
12	0x3436efc8	1.7037303e-07
13	0xb366de7a	-5.375339e-08
14	0x345ba4fb	2.0455984e-07
15	0xb32a28e0	-3.9618385e-08
16	0xb426904b	-1.5512448e-07
17	0x34544962	1.9770735e-07
18	0xb4c43538	-3.6546567e-07
19	0x31e6b450	6.71438e-09
20	0x341f2546	1.4821589e-07
21	0xb4a1da3a	-3.0147368e-07
22	0x33d7bd38	1.00461364e-07
23	0x338fa6e5	6.689314e-08
24	0xb48e5e82	-2.6518325e-07
25	0xb3426bc2	-4.526715e-08
26	0xb3bb012a	-8.708078e-08
27	0x3283acc8	1.5328979e-08
28	0xb34f9c76	-4.8338244e-08
29	0x33e7dbff	1.0796793e-07
30	0x33fc99d6	1.1762647e-07
31	0xb48064fc	-2.3915334e-07
32	0xb2ece19c	-2.7576611e-08
33	0xb3e7fe50	-1.0803035e-07
34	0xb44ca031	-1.9057258e-07
35	0xb4456f0b	-1.8387452e-07
36	0x3411e3bf	1.3587031e-07
37	0x341f53eb	1.4838558e-07
38	0x3306c5e0	3.1379273e-08
39	0xb3db77bc	-1.0219762e-07
40	0x3433b95d	1.6738109e-07
41	0x33a21878	7.548164e-08
42	0xb3b6b39a	-8.507705e-08
43	0x328f8de7	1.671192e-08
44	0xb31a70cf	-3.5958518e-08
45	0xb365f348	-5.353948e-08
46	0x34341754	1.6772293e-07
47	0xb2f85030	-2.8907465e-08
48	0xb4017132	-1.2055241e-07
49	0x32cf7324	2.4150332e-08
50	0xb3355db0	-4.2227555e-08
51	0xb3414744	-4.500113e-08
52	0xb476abf6	-2.2973094e-07
53	0x3407f492	1.2661829e-07
54	0x341cc86c	1.4601545e-07
55	0x341953bc	1.4279698e-07
56	0xb43b28d0	-1.743058e-07
57	0x3428176b	1.5654739e-07
58	0xb320f0a3	-3.747176e-08
59	0xb41f4acf	-1.4835244e-07
60	0xb366dc27	-5.3751275e-08
61	0xb40fa5fb	-1.3378296e-07
62	0xb3cdd758	-9.585227e-08
63	0x3442919e	1.8120633e-07
64	0xb437572d	-1.7074917e-07
65	0xb403198b	-1.2209618e-07
66	0xb4522554	-1.9571354e-07
67	0xb43728f5	-1.7058103e-07
68	0xb3df8031	-1.04075646e-07
69	0x330a9f90	3.227575e-08
70	0xb2f74964	-2.8787959e-08
71	0xb3816590	-6.025505e-08
72	0xb411ab48	-1.3566489e-07
73	0x33e85d9a	1.0820368e-07
74	0x341f8f44	1.4860149e-07
75	0x340a5f1b	1.288685e-07
76	0xb4527f34	-1.960405e-07
77	0xb446b20f	-1.8504964e-07
78	0xb3b04afe	-8.20928e-08
79	0x32d0aa40	2.4291808e-08
80	0xb10defe8	-2.0654571e-09
81	0xb3c3c96a	-9.117032e-08
82	0xb4c26bc3	-3.6213723e-07
83	0x340d925d	1.3184895e-07
84	0x31c4e380	5.7302145e-09
85	0x33c22b6a	9.041726e-08
86	0xb383d845	-6.139502e-08
87	0x339d13a4	7.314455e-08
88	0xb3fca50a	-1.1764685e-07
89	0xb499c092	-2.8638584e-07
90	0x3467bb33	2.1581654e-07
91	0x3448f867	1.871682e-07
92	0x34988d3b	2.8414965e-07
93	0x343297de	1.6632791e-07
94	0xb3e8c42b	-1.08390246e-07
95	0xb1d5a61c	-6.2180003e-09
96	0x32ac0428	2.0025325e-08
97	0x33e6bef2	1.07449424e-07
98	0xb2df53ac	-2.5998666e-08
99	0xb3a45467	-7.652198e-08
100	0x33c09450	8.9676746e-08
101	0xb40eb72e	-1.3291421e-07
102	0x33eb8a94	1.09682475e-07
103	0x33da4ab2	1.0165003e-07
104	0xb49dc59c	-2.938731e-07
105	0xb479e7e9	-2.32743e-07
106	0xb26e93e0	-1.3887046e-08
107	0x31cfeaf0	6.051202e-09
108	0xb2acc404	-2.0112573e-08
109	0xb42980c4	-1.5786196e-07
110	0x33d54f82	9.933048e-08
111	0xb45ae860	-2.038737e-07
112	0xb3d7d522	-1.0050486e-07
113	0x3467d99c	2.1592717e-07
114	0xb3b6d908	-8.514513e-08
115	0xb480d64b	-2.3997777e-07
116	0x3394591c	6.907996e-08
117	0x30bdf280	1.3820483e-09
118	0xb43bf5c8	-1.7505147e-07
119	0xb437958d	-1.709761e-07
120	0xb41c883b	-1.4578193e-07
121	0xb451bbfe	-1.9533033e-07
122	0x3470af01	2.2415408e-07
123	0xb4446a6d	-1.829264e-07
124	0xb4082942	-1.2680997e-07
125	0xb2dcf102	-2.5720968e-08
126	0x335e1c2e	5.1714032e-08
127	0x349bf6a4	2.9050454e-07
128	0xb39f83fa	-7.428021e-08
129	0x335acb55	5.094201e-08
130	0xb45bb744	-2.0462636e-07
131	0xb3542aa9	-4.9398896e-08
132	0x3340aee0	4.486253e-08
133	0xb43277f5	-1.6621182e-07
134	0xb41a156c	-1.4350161e-07
135	0xb39ce423	-7.305814e-08
136	0x34895d16	2.5585967e-07
137	0x31bf6d60	5.571266e-09
138	0xb3b41ca6	-8.387114e-08
139	0x32bcf6f8	2.1998389e-08
140	0xb35560a0	-4.9680807e-08
141	0x349093c0	2.6929592e-07
142	0xb433c4b8	-1.674224e-07
143	0x32ad8208	2.0198982e-08
144	0xb3ce74b6	-9.613852e-08
145	0xb3c866bb	-9.331912e-08
146	0xb46fa64f	-2.2319112e-07
147	0x330b8314	3.2482674e-08
148	0x335e7cae	5.18018e-08
149	0xb1f2b080	-7.0631927e-09
150	0x33e5ff4d	1.07100824e-07
151	0xb42723c1	-1.5566094e-07
152	0x341cd0cf	1.4604596e-07
153	0xb3cee891	-9.634926e-08
154	0xb1acd140	-5.029648e-09
155	0x33f957fe	1.1610972e-07
156	0x3412020a	1.3598051e-07
157	0x32eaf384	2.7351923e-08
158	0x34202a03	1.4916445e-07
159	0x34112c5b	1.3520314e-07
160	0xb372160c	-5.6365067e-08
161	0xb43b6583	-1.7452662e-07
162	0x32702954	1.39792355e-08
163	0x33c6823f	9.243785e-08
164	0xb408b8dd	-1.273324e-07
165	0xb30a3458	-3.2178235e-08
166	0xb2f0ade8	-2.801876e-08
167	0x33a4de7b	7.677314e-08
168	0x349f429b	2.966452e-07
169	0x349a3cc6	2.8728954e-07
170	0x32edda78	2.768978e-08
171	0xb44ca836	-1.9060175e-07
172	0x341fdcf1	1.4888407e-07
173	0xb35fa088	-5.2067236e-08
174	0xb403627f	-1.2236158e-07
175	0xb4006930	-1.1959196e-07
176	0xb49d7312	-2.9327254e-07
177	0x33868c9a	6.2654365e-08
178	0x3399350a	7.1342654e-08
179	0x34115f5e	1.3538872e-07
180	0x3320e60c	3.746213e-08
181	0xb3f885e6	-1.1572756e-07
182	0x33029ae7	3.0408867e-08
183	0xb37c4a23	-5.874075e-08
184	0xb3cf1312	-9.6426575e-08
185	0x32d11a10	2.4342654e-08
186	0x3386f91b	6.285173e-08
187	0x33df534c	1.0399398e-07
188	0x3321cd8a	3.767267e-08
189	0x33f45030	1.13767214e-07
190	0x328c943e	1.6365558e-08
191	0xb46684b8	-2.1468702e-07

lstm.bias_hh_l0 f4 [192]
0	0xb4900fb4	-2.6833516e-07
1	0xb4509e6f	-1.9429147e-07
2	0xb1f28e30	-7.059292e-09
3	0x34270097	1.5553302e-07
4	0x3483bd85	2.4538545e-07
5	0xb43da9b0	-1.7663729e-07
6	0x34377f83	1.7089592e-07
7	0x348cf0a0	2.625211e-07
8	0xb40c8861	-1.308813e-07
9	0x32ce3ece	2.4010117e-08
10	0x34142c81	1.3799765e-07
11	0x3497d7fb	2.8283088e-07
12	0xb42a8c64	-1.5883558e-07
13	0x32d083b0	2.4274271e-08
14	0xb21b5590	-9.041642e-09
15	0xb41e2cfa	-1.4731259e-07
16	0x34ad46a9	3.2275173e-07
17	0x33d38365	9.849354e-08
18	0x3429267d	1.5753353e-07
19	0xb311b635	-3.392616e-08
20	0xb4a4c962	-3.0693906e-07
21	0x3380bb23	5.9945044e-08
22	0x349d1f64	2.9266369e-07
23	0x327706a8	1.4378806e-08
24	0xb3463f7a	-4.61582e-08
25	0xb3f7d658	-1.1540823e-07
26	0x341461b4	1.3819118e-07
27	0x34faf303	4.6742943e-07
28	0x3494867f	2.7665007e-07
29	0xb409206c	-1.2770914e-07
30	0x33d2369c	9.7888204e-08
31	0xb2a2bc30	-1.894486e-08
32	0x33eff512	1.1173883e-07
33	0x338a7340	6.4470896e-08
34	0x33b79041	8.547841e-08
35	0x33c1d165	9.0253515e-08
36	0x33e40c07	1.0619265e-07
37	0xb2cd2494	-2.3881775e-08
38	0x344bcf4f	1.8981267e-07
39	0x337887ef	5.786563e-08
40	0xb454da14	-1.9823375e-07
41	0xb30b9c7b	-3.2505778e-08
42	0x33b447ad	8.394941e-08
43	0xb4a96a91	-3.155624e-07
44	0xb405cf16	-1.2461928e-07
45	0x326e5d90	1.3874697e-08
46	0xb41164e3	-1.354088e-07
47	0x338bcb2e	6.50965e-08
48	0xb403bc2d	-1.2268784e-07
49	0x334f4842	4.826166e-08
50	0x32b861c0	2.146487e-08
51	0x33aeffa4	8.149007e-08
52	0x342b392b	1.5946414e-07
53	0x31819580	3.7713903e-09
54	0x33e151ae	1.04922364e-07
55	0x33224120	3.7777795e-08
56	0xb409d470	-1.2836404e-07
57	0x3210c3d8	8.426433e-09
58	0x32236288	9.510252e-09
59	0xb450e4bc	-1.9454723e-07
60	0x343cc39f	1.7580031e-07
61	0x330ba7b8	3.2516e-08
62	0xb33f3930	-4.4522665e-08
63	0xb40e5cf0	-1.3258591e-07
64	0xb471a55e	-2.2505034e-07
65	0xb4368478	-1.6998263e-07
66	0x33d5455e	9.931203e-08
67	0xb303dc89	-3.070139e-08
68	0xb3a726db	-7.783611e-08
69	0x33a5383c	7.69364e-08
70	0x341f9652	1.4862715e-07
71	0x33023fbc	3.032595e-08
72	0xb3a8bb64	-7.857196e-08
73	0xb1d96cc0	-6.3278947e-09
74	0x3490b127	2.6950985e-07
75	0xb3540dc8	-4.937263e-08
76	0x3498dbf6	2.847225e-07
77	0x332146fe	3.75503e-08
78	0xb459fffa	-2.0302824e-07
79	0xb4d68888	-3.9959946e-07
80	0xb2fc9bfc	-2.9407595e-08
81	0x32e7fed8	2.7007829e-08
82	0xb2d19b60	-2.4401459e-08
83	0x32a317ee	1.898658e-08
84	0xb2b50f5e	-2.1078161e-08
85	0xb380faf9	-6.006116e-08
86	0xb2271188	-9.7246655e-09
87	0xb4faf09a	-4.674119e-07
88	0xb0847100	-9.636381e-10
89	0x341ae45d	1.4425446e-07
90	0xb3be7c4e	-8.870175e-08
91	0x32815040	1.505407e-08
92	0xb47f3062	-2.3766327e-07
93	0xb426efe1	-1.5547222e-07
94	0xb4aa2fc4	-3.1699722e-07
95	0xb4092385	-1.2772041e-07
96	0xb435ef98	-1.6944102e-07
97	0xb1f6dac6	-7.184414e-09
98	0x349dbae1	2.93795e-07
99	0x33bd894d	8.825973e-08
100	0xb4c3e73b	-3.6489823e-07
101	0xb3a30c85	-7.592556e-08
102	0xb49399c2	-2.7492757e-07
103	0x3383d4a5	6.138843e-08
104	0x34023314	1.2125776e-07
105	0x3466a2ec	2.147969e-07
106	0x32126de0	8.523301e-09
107	0x33b980f4	8.63819e-08
108	0x333d6edf	4.410583e-08
109	0xb4444d1a	-1.8281972e-07
110	0x33d1ae57	9.764033e-08
111	0xb2ec3a70	-2.750059e-08
112	0x33cf8331	9.663052e-08
113	0x33957797	6.9601064e-08
114	0x33ebd696	1.0982073e-07
115	0xb3b37c7e	-8.357982e-08
116	0xb39b7c1e	-7.240327e-08
117	0xb2981250	-1.7703456e-08
118	0x343cbbed	1.7577231e-07
119	0x34004c48	1.194868e-07
120	0xb303036d	-3.050393e-08
121	0x2edaa800	9.943335e-11
122	0x33820037	6.053636e-08
123	0xb4969189	-2.8045568e-07
124	0xb2b80870	-2.1424256e-08
125	0x33cde224	9.587191e-08
126	0xb1ac0cd0	-5.0073155e-09
127	0x3420465d	1.4926759e-07
128	0x34b5247b	3.374042e-07
129	0x33808383	5.984386e-08
130	0x33e91780	1.08541826e-07
131	0x3447f9b8	1.8624166e-07
132	0xb3955895	-6.954466e-08
133	0x344c938a	1.9052655e-07
134	0x33da71b4	1.01720985e-07
135	0x341adcfa	1.4422758e-07
136	0xb3d57218	-9.939339e-08
137	0x339548ac	6.951572e-08
138	0x32c60790	2.3053673e-08
139	0xb380b6d4	-5.993721e-08
140	0xb413634d	-1.3726567e-07
141	0x33f4314d	1.1371103e-07
142	0xb3945c61	-6.908591e-08
143	0xb4275491	-1.5583852e-07
144	0x3381a76e	6.037486e-08
145	0x341a0022	1.4342416e-07
146	0xb488517e	-2.5391267e-07
147	0xb305b872	-3.1134228e-08
148	0x33099512	3.2033377e-08
149	0x3414b07e	1.3847782e-07
150	0x3488db89	2.5491707e-07
151	0x3401fe41	1.2106558e-07
152	0xb2f31068	-2.8296384e-08
153	0x34e781e3	4.3121608e-07
154	0x32ab68c0	1.9954655e-08
155	0xb27f39c4	-1.4856088e-08
156	0xb1237f10	-2.3791848e-09
157	0xb1581530	-3.144418e-09
158	0x3394c940	6.928394e-08
159	0x337cac7c	5.8830196e-08
160	0x3055d580	7.779235e-10
161	0x338fa966	6.68977e-08
162	0x32eb2b18	2.7377197e-08
163	0x340b8550	1.2993883e-07
164	0x337aca70	5.8391777e-08
165	0xb3fe3e34	-1.18391114e-07
166	0x33a67c75	7.752616e-08
167	0x334ab64b	4.7197585e-08
168	0x3482d48c	2.4369035e-07
169	0x34536b7a	1.9690006e-07
170	0x34096b65	1.2798189e-07
171	0xb3758dcc	-5.717247e-08
172	0xb2b7c532	-2.1393678e-08
173	0x33ea5e41	1.0913619e-07
174	0xb300c60d	-2.998245e-08
175	0x3425af96	1.54307e-07
176	0xb2895126	-1.5985801e-08
177	0xb3df9dda	-1.041296e-07
178	0x345d8f2c	2.0634315e-07
179	0xb3801819	-5.964848e-08
180	0x347047c8	2.2377856e-07
181	0xb393fe0f	-6.891434e-08
182	0x32ed4d2c	2.7625525e-08
183	0xb41778d0	-1.4106922e-07
184	0x34590be7	2.021403e-07
185	0xb412d473	-1.3674598e-07
186	0xb43cd397	-1.758584e-07
187	0xb338b4e6	-4.3005365e-08
188	0xb444ddcb	-1.833461e-07
189	0x33953e58	6.9496934e-08
190	0xb344ced4	-4.5822915e-08
191	0x34677118	2.1554695e-07

lstm.weight_ih_l0_reverse f4 [192, 19]
0	0x33bbd261	8.746134e-08
1	0xb438db18	-1.7216041e-07
2	0x3447945a	1.8587289e-07
3	0xb3878fd0	-6.312587e-08
4	0x335154dc	4.8738784e-08
5	0xb293ccd4	-1.7206197e-08
6	0x33617e08	5.250152e-08
7	0x34306ddf	1.6431248e-07
8	0xb3a935aa	-7.879437e-08
9	0xb20035b9	-7.462796e-09
10	0xb44319c2	-1.8170161e-07
11	0x3391e0d1	6.7929825e-08
12	0xb2cf9980	-2.4167775e-08
13	0x331a7e5c	3.5970842e-08
14	0xb45a87d8	-2.0352252e-07
15	0x343243fa	1.6602272e-07
16	0x347075b7	2.2394566e-07
17	0x32fe08d2	2.9573503e-08
18	0x341b3d49	1.4457795e-07
19	0xb42175c8	-1.5037142e-07
20	0x32be77dc	2.2173417e-08
21	0xb3b073a1	-8.2166714e-08
22	0xb4792209	-2.3202314e-07
23	0xb4107275	-1.3452684e-07
24	0xb4b2e22e	-3.331965e-07
25	0xb30f0478	-3.3298846e-08
26	0x32153f30	8.687309e-09
27	0xb4d3dda4	-3.9463077e-07
28	0xb430524a	-1.6421214e-07
29	0xb40678d8	-1.2523685e-07
30	0x34461013	1.8446035e-07
31	0xb3883e5a	-6.344335e-08
32	0xb449a922	-1.8781114e-07
33	0x33ad1890	8.060408e-08
34	0xb4949d9b	-2.768182e-07
35	0x33a854e4	7.838551e-08
36	0x33b36b36	8.3548386e-08
37	0x34850d67	2.4782932e-07
38	0x34b7eb25	3.4257496e-07
39	0xb30306b8	-3.0506925e-08
40	0x3427c1fe	1.5623661e-07
41	0xb3d65a5e	-9.981589e-08
42	0x348247b2	2.4266552e-07
43	0x33a2e021	7.584482e-08
44	0x3289d4d4	1.6045682e-08
45	0xb3f27ab8	-1.12913256e-07
46	0x3381ffe2	6.0535754e-08
47	0x34101c82	1.3421416e-07
48	0xb2227838	-9.456976e-09
49	0x33450458	4.5871587e-08
50	0x3413df30	1.3771637e-07
51	0x33f1d606	1.1261368e-07
52	0x33b26ee2	8.3089404e-08
53	0x3382bd56	6.088037e-08
54	0xb4f738cc	-4.604866e-07
55	0x335d8298	5.1574347e-08
56	0x32d5c4ca	2.4885953e-08
57	0xb2b25266	-2.0759398e-08
58	0xb1040dc0	-1.9216344e-09
59	0x34259923	1.5422533e-07
60	0x3427265a	1.5567039e-07
61	0xb3e34184	-1.05824284e-07
62	0xb3b43d0f	-8.39301e-08
63	0xb3a90010	-7.869687e-08
64	0x3371e624	5.6321497e-08
65	0xb49f4e5c	-2.9673072e-07
66	0xb33823d0	-4.287341e-08
67	0xb4021ac7	-1.2116935e-07
68	0x33b437c0	8.392044e-08
69	0xb3633cce	-5.2907858e-08
70	0x34ad4a12	3.2277654e-07
71	0x31d419e8	6.1729573e-09
72	0x33d4c14c	9.90718e-08
73	0xb2cc7c1e	-2.3805168e-08
74	0x32df7b5a	2.601671e-08
75	0xb45ceba2	-2.057482e-07
76	0x330a8194	3.224848e-08
77	0x32e52a90	2.6678464e-08
78	0xb42ad222	-1.590893e-07
79	0x33feeb28	1.18705714e-07
80	0x3443cc9b	1.8235225e-07
81	0xb317ce88	-3.5345266e-08
82	0x32bd9be8	2.2073394e-08
83	0xb49c1673	-2.9073598e-07
84	0xb3a2fb1c	-7.5893894e-08
85	0xb32325f8	-3.7985927e-08
86	0xb4340947	-1.6767181e-07
87	0xb49d0853	-2.9249586e-07
88	0x32ebd9a6	2.7456576e-08
89	0x34826e7a	2.429477e-07
90	0x34095bae	1.2792472e-07
91	0x32d2d3e0	2.4543567e-08
92	0xb345f5b0	-4.609109e-08
93	0x34253009	1.5384298e-07
94	0x31aa7214	4.9606204e-09
95	0xb425cd82	-1.5441586e-07
96	0xb3cacfe2	-9.444172e-08
97	0x33a640d1	7.7417674e-08
98	0x333f09c1	4.4479524e-08
99	0xb1610680	-3.2745504e-09
100	0xb3878dc9	-6.312218e-08
101	0x340118ed	1.2023129e-07
102	0xb412e4b7	-1.3680516e-07
103	0xb20d7a00	-8.23502e-09
104	0x3411cb66	1.3578173e-07
105	0x33c5df48	9.214142e-08
106	0x32cdbcb8	2.395096e-08
107	0xb418a5ee	-1.4216468e-07
108	0xb429e934	-1.582419e-07
109	0x340d6eca	1.3171953e-07
110	0xb3a2ff24	-7.590123e-08
111	0xb305d35c	-3.1158706e-08
112	0x33921db9	6.804061e-08
113	0xb2232ad0	-9.497583e-09
114	0x31b770a0	5.338805e-09
115	0xb3941ce6	-6.897044e-08
116	0xb3d6731e	-9.986091e-08
117	0x33b933d4	8.624161e-08
118	0xb23e41f8	-1.1074455e-08
119	0x34d3863c	3.939948e-07
120	0xb3b395f3	-8.362613e-08
121	0x34082266	1.2678501e-07
122	0xb23c4288	-1.0958168e-08
123	0x349039aa	2.6864046e-07
124	0xb42ae4b0	-1.591568e-07
125	0x33461280	4.6117293e-08
126	0xb38e8538	-6.6366226e-08
127	0xb2fb5498	-2.9258715e-08
128	0x34a72c06	3.1138205e-07
129	0xb4c34a95	-3.6375846e-07
130	0x33da25f2	1.0158318e-07
131	0xb408093d	-1.2669348e-07
132	0x340f88f4	1.3367736e-07
133	0xb2dea2d0	-2.591824e-08
134	0x3408a573	1.2726177e-07
135	0xb426ce2a	-1.5534957e-07
136	0xb3769d07	-5.7419154e-08
137	0xb42610d6	-1.546608e-07
138	0x34cddbe0	3.8344206e-07
139	0xb490be14	-2.696039e-07
140	0x34448df8	1.830557e-07
141	0xb44bdea8	-1.898685e-07
142	0xb3972a00	-7.039125e-08
143	0x334554c4	4.594473e-08
144	0x332a8d02	3.9709455e-08
145	0x33b9a2e3	8.644363e-08
146	0x349112f7	2.7022153e-07
147	0xb3032de8	-3.0542566e-08
148	0x3401d4e6	1.2091513e-07
149	0x33879a7e	6.314529e-08
150	0xb44076df	-1.7924638e-07
151	0x33bc7564	8.7757854e-08
152	0x32e77550	2.6945287e-08
153	0x34a14662	3.0039797e-07
154	0xb33f3b5a	-4.4524633e-08
155	0xb3346a40	-4.200615e-08
156	0x33c7b2af	9.299162e-08
157	0xb40c7b0a	-1.3083277e-07
158	0xb32f06e9	-4.0751647e-08
159	0xb4008912	-1.1970795e-07
160	0x33bb9e10	8.7366175e-08
161	0x3310e0b0	3.3731965e-08
162	0xb3ea0a88	-1.089839e-07
163	0xb2467800	-1.1552402e-08
164	0x341dd609	1.469963e-07
165	0x32d0874c	2.4275913e-08
166	0xb452810e	-1.9604724e-07
167	0x340ab114	1.2916672e-07
168	0x33457528	4.597419e-08
169	0xb415de74	-1.3957634e-07
170	0xb37e5dae	-5.9224185e-08
171	0xb27bf67c	-1.4666167e-08
172	0x32dca485	2.5686186e-08
173	0xb48999ca	-2.5630135e-07
174	0xb4054a25	-1.2413564e-07
175	0x33709e23	5.602318e-08
176	0xb1e402b0	-6.635979e-09
177	0xb433270d	-1.668488e-07
178	0xb4905422	-2.6883305e-07
179	0xb44c7d02	-1.9044458e-07
180	0x3161b4f0	3.284466e-09
181	0x349a9e83	2.8800068e-07
182	0xb4327963	-1.6621702e-07
183	0xb4155636	-1.390807e-07
184	0x33e75310	1.0771885e-07
185	0xb407e1d5	-1.2655012e-07
186	0xb4859353	-2.4880373e-07
187	0xb2830ce0	-1.5256262e-08
188	0xb3f91440	-1.15986495e-07
189	0x34611244	2.0961403e-07
190	0xb38c8498	-6.543377e-08
191	0xb33ca972	-4.392627e-08
192	0xb426de29	-1.5540776e-07
193	0x33f0904b	1.12021176e-07
194	0xb3a27609	-7.565183e-08
195	0xb2886e78	-1.588272e-08
196	0xb43d2b71	-1.76178e-07
197	0xb3ccb060	-9.531573e-08
198	0xb4368c9f	-1.7001229e-07
199	0x3215c650	8.7180325e-09
200	0xb499e22e	-2.8663038e-07
201	0x3171a518	3.516396e-09
202	0x3436a472	1.7009896e-07
203	0xb44d2e56	-1.910897e-07
204	0x34abc942	3.1997666e-07
205	0x3309a84c	3.2050863e-08
206	0x339f3e42	7.415339e-08
207	0x334bcbd3	4.7449998e-08
208	0xb45179b5	-1.9508919e-07
209	0x33898d19	6.405225e-08
210	0xb2ed1290	-2.7598873e-08
211	0x333f53ec	4.454698e-08
212	0xb40a3ee7	-1.2875135e-07
213	0x344a9066	1.8865248e-07
214	0xb18005e0	-3.725958e-09
215	0x33d87e27	1.0081231e-07
216	0xb4579c66	-2.0080333e-07
217	0xb49b2ae8	-2.8902218e-07
218	0xb4029f54	-1.2165157e-07
219	0x34457274	1.8388693e-07
220	0xb2799240	-1.4526961e-08
221	0x34325f98	1.6612319e-07
222	0xb3e2e95e	-1.0566394e-07
223	0xb3b4dbfc	-8.421918e-08
224	0x3451a592	1.9524876e-07
225	0x30e5f200	1.6730723e-09
226	0xb498084d	-2.8318246e-07
227	0x32a9a6bc	1.9750011e-08
228	0xb322b63e	-3.7884313e-08
229	0xb3f52dc1	-1.1417024e-07
230	0xb33d1b2d	-4.4029708e-08
231	0xb32aab6c	-3.9737117e-08
232	0x329bf154	1.8154118e-08
233	0x340ec5a0	1.3296676e-07
234	0xb3879e4c	-6.3152214e-08
235	0x340abcc9	1.2920931e-07
236	0xb495efac	-2.7927797e-07
237	0xb3a0ea8f	-7.4932466e-08
238	0x33ecd722	1.1028739e-07
239	0x3480c582	2.3985564e-07
240	0xb4aaba5c	-3.1800562e-07
241	0xb3e614a9	-1.0713968e-07
242	0xb1fec570	-7.414819e-09
243	0xb3fa6fb9	-1.16618544e-07
244	0x338dfd33	6.611881e-08
245	0x336ad18a	5.4672945e-08
246	0x343322b4	1.6683299e-07
247	0x33ac0ee4	8.012083e-08
248	0xb41e51e5	-1.474469e-07
249	0xb42d3a91	-1.6133187e-07
250	0xb3b02834	-8.2029516e-08
251	0xb2d4348a	-2.470394e-08
252	0x340c6dcd	1.3078461e-07
253	0x330b0a90	3.2373066e-08
254	0x31ddebe6	6.458765e-09
255	0xb1e7a360	-6.7415584e-09

lstm.weight_hh_l0_reverse f4 [192, 48]
0	0x3437863f	1.7092042e-07
1	0x3286a64c	1.5675276e-08
2	0x34514634	1.9490182e-07
3	0x31154c94	2.1725883e-09
4	0x3462b7f3	2.111481e-07
5	0xb455f23c	-1.9925295e-07
6	0x33949f22	6.920733e-08
7	0x338eb5fd	6.645494e-08
8	0x320b6ff8	8.116324e-09
9	0xb4375c51	-1.7076788e-07
10	0x31838f10	3.828866e-09
11	0xb2b49f20	-2.102712e-08
12	0x341766cb	1.4100367e-07
13	0xb4510b70	-1.9468803e-07
14	0xb34fc88c	-4.837834e-08
15	0x338e2a0a	6.620037e-08
16	0xb309d3ac	-3.2090313e-08
17	0xb44bf371	-1.8994412e-07
18	0xb3a88783	-7.847759e-08
19	0xb48de595	-2.643034e-07
20	0xb28c18c4	-1.6309407e-08
21	0xb415a81b	-1.3937863e-07
22	0x33f7f8c7	1.1547086e-07
23	0x32d903b4	2.5263809e-08
24	0x349937e0	2.8539125e-07
25	0x33192820	3.5659582e-08
26	0x33bebfce	8.8824535e-08
27	0x32c9360c	2.3424057e-08
28	0xb3346950	-4.2005297e-08
29	0x322e46e8	1.0144255e-08
30	0x33ec2710	1.0996712e-07
31	0x33c8a5cb	9.343383e-08
32	0x3400dcb6	1.2001223e-07
33	0xb33b4d00	-4.360936e-08
34	0x345a3962	2.0323708e-07
35	0xb489dea1	-2.5680222e-07
36	0xb35732da	-5.0104838e-08
37	0x33b5b951	8.462178e-08
38	0x32f05120	2.7976569e-08
39	0xb337c729	-4.2789143e-08
40	0xb4274760	-1.5579053e-07
41	0xb499d677	-2.8654514e-07
42	0x33ed79b6	1.10583116e-07
43	0xb30b326c	-3.2409318e-08
44	0xb4b380c1	-3.343503e-07
45	0x349a60a9	2.8755065e-07
46	0x348f7919	2.6723936e-07
47	0xb3a33386	-7.599651e-08
48	0x3483653b	2.4474306e-07
49	0x3341b32e	4.5099277e-08
50	0x3490333a	2.6859362e-07
51	0xb30a2684	-3.216566e-08
52	0xb28b829c	-1.6241124e-08
53	0x34c1184e	3.5966735e-07
54	0x3214d138	8.662305e-09
55	0xb219daac	-8.955492e-09
56	0x33ac8866	8.034185e-08
57	0xb3c528bd	-9.1809376e-08
58	0x3377beb6	5.768262e-08
59	0x33f318c1	1.1320072e-07
60	0xb4456917	-1.8385286e-07
61	0xb4b02acf	-3.2813702e-07
62	0x334047c6	4.476876e-08
63	0xb18a97f0	-4.033602e-09
64	0xb3fa40f5	-1.1653348e-07
65	0xb3cb10d7	-9.455987e-08
66	0xb45bd1a2	-2.0472228e-07
67	0x3316a654	3.507587e-08
68	0xb2fc1916	-2.9348069e-08
69	0x33804568	5.9730894e-08
70	0x3425435c	1.5391328e-07
71	0xb337faa8	-4.283598e-08
72	0xb4135ff6	-1.3725352e-07
73	0x3404bba6	1.2361724e-07
74	0xb3ea049c	-1.08973126e-07
75	0x340b576b	1.2977186e-07
76	0x348278fe	2.430242e-07
77	0xb4a77f29	-3.1198695e-07
78	0xb4399fa3	-1.7287543e-07
79	0xb2822d9c	-1.5154733e-08
80	0x33c24fd1	9.0483475e-08
81	0x33b79191	8.54808e-08
82	0xb446c79d	-1.8512806e-07
83	0xb3ee21e5	-1.1088904e-07
84	0xb4a672ce	-3.100344e-07
85	0xb45979ac	-2.0253964e-07
86	0x339b1381	7.221298e-08
87	0x33e3daa4	1.0610282e-07
88	0xb3c7b97b	-9.300398e-08
89	0xb4098862	-1.2808735e-07
90	0x32ec8f9c	2.7539322e-08
91	0x33743524	5.6859008e-08
92	0x34d3c242	3.9443154e-07
93	0x32d568cc	2.484412e-08
94	0x33be9837	8.875252e-08
95	0x32f03330	2.7962955e-08
96	0x34589fb8	2.0174673e-07
97	0xb44bb43a	-1.8971414e-07
98	0x33b57dc5	8.451347e-08
99	0xb46585e8	-2.1376002e-07
100	0xb3acd817	-8.048681e-08
101	0xb3d99554	-1.01320126e-07
102	0x34146ba2	1.382273e-07
103	0xb3603480	-5.2201813e-08
104	0xb4130f84	-1.3696086e-07
105	0xb3d43e6e	-9.883375e-08
106	0xb48d0a4d	-2.627079e-07
107	0x3446906f	1.8492732e-07
108	0xb3c157ba	-9.00322e-08
109	0x32bdaa6c	2.2079995e-08
110	0x340363c4	1.223662e-07
111	0xb433f2e8	-1.6759043e-07
112	0x32de7484	2.5897187e-08
113	0xb429073d	-1.5741985e-07
114	0xb3e9b8fc	-1.08835565e-07
115	0x3381acc2	6.038455e-08
116	0xb34500b4	-4.5868276e-08
117	0x33c3ff6f	9.126858e-08
118	0xb4fcb454	-4.7069864e-07
119	0xb414ab8a	-1.384598e-07
120	0xb2fb8654	-2.9281331e-08
121	0xb2e5be70	-2.674571e-08
122	0x3415acd5	1.3939582e-07
123	0xb29cab10	-1.823858e-08
124	0x34550bd2	1.9841471e-07
125	0x3427e86f	1.5637646e-07
126	0x330fa4d8	3.3444707e-08
127	0xb4011ca7	-1.2024485e-07
128	0xb320e4a0	-3.7460836e-08
129	0x32ed6f5a	2.7641068e-08
130	0x3496e19a	2.8103824e-07
131	0x33e8fdec	1.084953e-07
132	0x330e19bf	3.3085367e-08
133	0xb4087f89	-1.2712384e-07
134	0xb3ac6566	-8.0278184e-08
135	0x33be0078	8.84765e-08
136	0x330dbcb8	3.300076e-08
137	0xb25bacdd	-1.2786782e-08
138	0x34d5ea1c	3.984468e-07
139	0x337d925e	5.9039273e-08
140	0xb3f38c6e	-1.1341113e-07
141	0xb419bfb6	-1.431898e-07
142	0x349391e2	2.7487027e-07
143	0x33012a76	3.007377e-08
144	0x340969a2	1.2797548e-07
145	0xb4b1163a	-3.298499e-07
146	0xb32a0b86	-3.959169e-08
147	0x34277efc	1.5599284e-07
148	0x34a69121	3.1025505e-07
149	0x33b2a324	8.318446e-08
150	0xb30282d8	-3.0386985e-08
151	0x3415d300	1.3953468e-07
152	0x34063ed0	1.2502574e-07
153	0xb314bcdc	-3.4630702e-08
154	0x34822943	2.424441e-07
155	0xb4a76648	-3.1180593e-07
156	0xb20d3618	-8.21958e-09
157	0x347aa6bd	2.3343723e-07
158	0x3335cd32	4.232897e-08
159	0xb39cfef8	-7.3106946e-08
160	0x343409d7	1.6767386e-07
161	0x34910490	2.7011674e-07
162	0x333d420b	4.4065057e-08
163	0xb33744ca	-4.267057e-08
164	0xb39a4ca5	-7.1851254e-08
165	0x32e728c0	2.691047e-08
166	0xb472f8f7	-2.2628579e-07
167	0x349a9ab3	2.8797294e-07
168	0xb1c68550	-5.7777143e-09
169	0xb3cfd12d	-9.6772375e-08
170	0xb40ff0c6	-1.3405506e-07
171	0xb48639ce	-2.5001503e-07
172	0x331b90fd	3.6220616e-08
173	0xb45646d3	-1.9956069e-07
174	0x30c94400	1.4644002e-09
175	0x33743660	5.686013e-08
176	0x34637f4a	2.118733e-07
177	0xb3f45225	-1.13770774e-07
178	0x34028950	1.2157147e-07
179	0xb3e985fa	-1.0874278e-07
180	0xb4822603	-2.4242044e-07
181	0xb2d63970	-2.4938998e-08
182	0xb2b6301e	-2.120947e-08
183	0xb4832454	-2.4427084e-07
184	0xb3b42474	-8.388534e-08
185	0xb4212781	-1.5008665e-07
186	0x33eef4f7	1.11272975e-07
187	0xb27b378c	-1.4622753e-08
188	0xb1871238	-3.9310883e-09
189	0x34255981	1.5399384e-07
190	0xb305eed5	-3.1183692e-08
191	0xb4a0e877	-2.9971463e-07
192	0x34025888	1.2139401e-07
193	0x342799d8	1.5609055e-07
194	0xb4374508	-1.7068317e-07
195	0x3385957b	6.2204855e-08
196	0xb3d67547	-9.986484e-08
197	0x3482c3de	2.43569e-07
198	0xb3bcc59e	-8.7903786e-08
199	0xb4155ec4	-1.3911182e-07
200	0x32db6bd7	2.5543995e-08
201	0x33973dfa	7.042759e-08
202	0x33fd73c2	1.1802287e-07
203	0x341e7b90	1.4759848e-07
204	0xb28510d6	-1.5490894e-08
205	0x3414b240	1.3848421e-07
206	0xb409db33	-1.2838863e-07
207	0x3412adf6	1.3660596e-07
208	0x31bec524	5.55214e-09
209	0x33ed49c5	1.1049591e-07
210	0x32d140e8	2.4360318e-08
211	0x330feba8	3.350911e-08
212	0xb3a84379	-7.835383e-08
213	0xb3e3124c	-1.05738394e-07
214	0xb3883a4f	-6.3436e-08
215	0xb3ca992c	-9.43422e-08
216	0x338d0ee3	6.568532e-08
217	0x33c8900c	9.339428e-08
218	0xb28c464a	-1.6330109e-08
219	0x339d7dc1	7.333757e-08
220	0x329634ae	1.7486254e-08
221	0x32f50d5a	2.8527825e-08
222	0x3303e434	3.0708364e-08
223	0xb2e4468e	-2.6574778e-08
224	0xb3e4b291	-1.06495584e-07
225	0x33fd9ef9	1.18101475e-07
226	0x346504ba	2.1329006e-07
227	0xb417754a	-1.410564e-07
228	0xb394c7fb	-6.928163e-08
229	0xb49119d3	-2.7027144e-07
230	0xb3eb588f	-1.0959149e-07
231	0x344eec5c	1.9271232e-07
232	0x33fbe0ac	1.1728966e-07
233	0xb2cc99a8	-2.38186e-08
234	0x33316d1a	4.131025e-08
235	0x339b115b	7.220907e-08
236	0x331c2550	3.6355516e-08
237	0x32e0e2d4	2.6180182e-08
238	0xb42c1782	-1.60273e-07
239	0xb39abc47	-7.205431e-08
240	0x338686f1	6.264407e-08
241	0x338d9200	6.5923814e-08
242	0x32eb8790	2.7419247e-08
243	0xb152b1c0	-3.0660061e-09
244	0x3408f920	1.2756618e-07
245	0xb3244d8a	-3.8254747e-08
246	0xb3fd038f	-1.1781878e-07
247	0x33ca8029	9.42967e-08
248	0xb3582ad0	-5.0330357e-08
249	0xb3129ac5	-3.4134036e-08
250	0xb4943df9	-2.761224e-07
251	0x33ea4ad3	1.09100846e-07
252	0x3424b6f9	1.5340255e-07
253	0xb35d8caa	-5.1583505e-08
254	0xb3919e9c	-6.7809395e-08
255	0x339aa7da	7.201716e-08

lstm.bias_ih_l0_reverse f4 [192]
0	0xb3e1c28b	-1.0512766e-07
1	0xb38a14a1	-6.429878e-08
2	0x34a3ed11	3.0533604e-07
3	0x338a84b1	6.450262e-08
4	0xb3496708	-4.6892666e-08
5	0x340a4207	1.2876272e-07
6	0xb4474b2c	-1.8560667e-07
7	0xb409751a	-1.280172e-07
8	0x33b416cc	8.38605e-08
9	0x338d24c9	6.572515e-08
10	0x33cbc804	9.489307e-08
11	0xb403ee92	-1.2287117e-07
12	0xb350c5ca	-4.8608662e-08
13	0x34198b0c	1.429982e-07
14	0xb4450bf4	-1.8351403e-07
15	0xb2f4516c	-2.8442365e-08
16	0xb3f86630	-1.1566988e-07
17	0xb2a7d53c	-1.9538327e-08
18	0xb35d0102	-5.145649e-08
19	0x33973df6	7.042756e-08
20	0x3268cbcb	1.35505145e-08
21	0xb4208146	-1.494819e-07
22	0xb28d7db0	-1.6471716e-08
23	0x3261aa56	1.3135454e-08
24	0xb44d304d	-1.9109685e-07
25	0xb45ba24f	-2.0455012e-07
26	0xb482946f	-2.4322387e-07
27	0x33437af8	4.5513815e-08
28	0xb400a67b	-1.1981494e-07
29	0xb38c5e3b	-6.5363984e-08
30	0x348e8462	2.6545882e-07
31	0xb48212e3	-2.422813e-07
32	0x320eb6e4	8.307072e-09
33	0x33e72ba2	1.07647125e-07
34	0x347b67f1	2.341401e-07
35	0xb409f4d4	-1.2848187e-07
36	0xb0cfe350	-1.5125838e-09
37	0x336a4e56	5.4553617e-08
38	0x333ede0c	4.4439773e-08
39	0xb4910670	-2.7013039e-07
40	0x31b91d50	5.387541e-09
41	0x3406ef55	1.2566791e-07
42	0xb49a233c	-2.8710372e-07
43	0xb463386d	-2.116155e-07
44	0x3484dfad	2.4749662e-07
45	0xb4090e93	-1.2764421e-07
46	0x321b2f80	9.032988e-09
47	0xb28359e0	-1.5291278e-08
48	0x3449c20e	1.879018e-07
49	0x333c7a88	4.3883603e-08
50	0xb1d07950	-6.0673884e-09
51	0x33fa461a	1.16542836e-07
52	0x31ac70cc	5.0186824e-09
53	0xb4490fa6	-1.8725277e-07
54	0x32d74640	2.506124e-08
55	0xb3b223c7	-8.295279e-08
56	0x3410a93c	1.3472612e-07
57	0xb21e57a0	-9.216734e-09
58	0x341d9a62	1.4677929e-07
59	0x34663ec6	2.1443256e-07
60	0x34a96684	3.1553293e-07
61	0x30c61200	1.4411512e-09
62	0xb3a42324	-7.643237e-08
63	0x3291fa47	1.6994035e-08
64	0xb1bd19b0	-5.5035443e-09
65	0xb36115b8	-5.2406648e-08
66	0x347b3631	2.3395911e-07
67	0xb22c7980	-1.0039344e-08
68	0x3379a7d6	5.8127476e-08
69	0xb43b6658	-1.7452965e-07
70	0xb41cd68c	-1.4606684e-07
71	0xb365091e	-5.332651e-08
72	0xb2e732d0	-2.6915046e-08
73	0xb3a9498e	-7.883055e-08
74	0x335895f0	5.0427786e-08
75	0x342bbf0c	1.5995118e-07
76	0xb420f8a1	-1.4991612e-07
77	0x34723c46	2.2559934e-07
78	0x32b3be64	2.0924922e-08
79	0xb43b4f5d	-1.7444604e-07
80	0x339d0ae7	7.312865e-08
81	0xb24fa280	-1.2085934e-08
82	0xb292dc90	-1.7096937e-08
83	0x33c44198	9.138893e-08
84	0xb4abe9cc	-3.2021342e-07
85	0x349aa1ad	2.880237e-07
86	0xb3b53f40	-8.4399744e-08
87	0x340d39fe	1.3152746e-07
88	0xb1c6bfc0	-5.784358e-09
89	0xb49ec5b0	-2.957363e-07
90	0xb36c224c	-5.4979225e-08
91	0x344addd4	1.8893417e-07
92	0xb4093ba5	-1.2780818e-07
93	0x329077c2	1.6818266e-08
94	0x342e5660	1.6236436e-07
95	0xb1cea200	-6.0138063e-09
96	0x33823784	6.063695e-08
97	0xb4328985	-1.6627571e-07
98	0xb3f4a042	-1.1391286e-07
99	0xb3d24338	-9.791114e-08
100	0x3426fce2	1.5551953e-07
101	0x33d1f7e4	9.777412e-08
102	0x33bc3a2d	8.765014e-08
103	0x32ec1208	2.7482216e-08
104	0x33438236	4.55204e-08
105	0x33e0f363	1.04750846e-07
106	0x328d4a6c	1.6448404e-08
107	0xb4463899	-1.8460777e-07
108	0x344ab1cc	1.8877398e-07
109	0x33d44cb2	9.88597e-08
110	0xb40b9c26	-1.300219e-07
111	0x336293b2	5.2754054e-08
112	0xb415980a	-1.3932018e-07
113	0x32c64c40	2.3084908e-08
114	0x33707858	5.5988806e-08
115	0x31760400	3.5799985e-09
116	0xb4a24d20	-3.0230967e-07
117	0xb484ebc3	-2.4758455e-07
118	0x330da850	3.29822e-08
119	0x32dbe709	2.5600018e-08
120	0xb3a9064a	-7.87082e-08
121	0x32935674	1.7152367e-08
122	0x3332f21c	4.166405e-08
123	0xb35ee0fc	-5.1893025e-08
124	0xb43cb4a6	-1.7574584e-07
125	0xb34b0786	-4.7271463e-08
126	0x3389c298	6.414956e-08
127	0x3383c346	6.135683e-08
128	0x33ff2b20	1.1882207e-07
129	0x334e949c	4.8098272e-08
130	0xb35496e1	-4.949732e-08
131	0x33dd7884	1.0313036e-07
132	0x3319355d	3.5671622e-08
133	0xb4b2b54c	-3.3286994e-07
134	0x3392a2dd	6.8282795e-08
135	0xb3eab44a	-1.09292685e-07
136	0x33f7fa52	1.1547367e-07
137	0xb4524422	-1.958256e-07
138	0xb456bb98	-1.999855e-07
139	0x3274a23c	1.4239557e-08
140	0x3444f060	1.834137e-07
141	0x3412dbab	1.3677224e-07
142	0x348db8a0	2.639763e-07
143	0x32edb424	2.767235e-08
144	0xb36d66bb	-5.5274295e-08
145	0xb4847f69	-2.467962e-07
146	0xb3eae14f	-1.09374575e-07
147	0x349a32d5	2.872172e-07
148	0x32f9d3cc	2.908373e-08
149	0xb419af4e	-1.4313011e-07
150	0x32806e6b	1.4951373e-08
151	0xb3bf5de2	-8.911208e-08
152	0xb40853a4	-1.2696415e-07
153	0x33e37a7d	1.0592792e-07
154	0xb19aa2d0	-4.5004995e-09
155	0x320006d0	7.45213e-09
156	0xb32546d4	-3.8481474e-08
157	0xb49f9ba2	-2.9729296e-07
158	0x34a2146f	3.018972e-07
159	0xb29d1d18	-1.8290436e-08
160	0xb42bba40	-1.5993373e-07
161	0xb410cdb3	-1.3485878e-07
162	0xb3e637c6	-1.0720355e-07
163	0xb27233f0	-1.4098063e-08
164	0xb41407d2	-1.3786419e-07
165	0xb4523156	-1.9575722e-07
166	0x338de7ce	6.607989e-08
167	0xb47d351d	-2.3581784e-07
168	0x34068488	1.2527937e-07
169	0x33fd2e32	1.17896334e-07
170	0x3457857a	2.0071994e-07
171	0xb3b266db	-8.30748e-08
172	0x3381b2cb	6.039553e-08
173	0xb3bae0b9	-8.702177e-08
174	0x3470c8a7	2.2424739e-07
175	0x33f0108c	1.1178881e-07
176	0xb355a5f8	-4.9743875e-08
177	0x342b7d8a	1.5971287e-07
178	0x3283b8ac	1.5334386e-08
179	0x338df312	6.6100384e-08
180	0xb3d713a0	-1.00152874e-07
181	0x34085ee8	1.2700514e-07
182	0x3412b2d8	1.3662373e-07
183	0xb35bf97e	-5.1216823e-08
184	0x33c5a988	9.204365e-08
185	0xb41cb63f	-1.4594933e-07
186	0x34a50d3a	3.0743269e-07
187	0xb4aa7d5d	-3.175618e-07
188	0xb43b5e98	-1.7450145e-07
189	0x33d8b8d0	1.0091901e-07
190	0x31e71f70	6.726559e-09
191	0xb49dbbd7	-2.93802e-07
