bagging_model_4_best.pth (torch, 628476 bytes, 33 tensors)

lstm.weight_ih_l0 f4 [256, 19]
0	0x33dce21b	1.0285677e-07
1	0x341b5257	1.4465455e-07
2	0xb319073c	-3.5629668e-08
3	0x33e0c84e	1.0467248e-07
4	0x33328b84	4.1570743e-08
5	0x32f078e0	2.7994645e-08
6	0xb426d88f	-1.5538738e-07
7	0xb48b0416	-2.589374e-07
8	0xb3747eb3	-5.692591e-08
9	0xb32fc462	-4.092397e-08
10	0xb12275c0	-2.3641036e-09
11	0xb24d2c10	-1.1942589e-08
12	0xb4415c92	-1.8008203e-07
13	0xb242b250	-1.133283e-08
14	0xb49a2401	-2.8710932e-07
15	0xb391046e	-6.7528944e-08
16	0xb486305b	-2.4994628e-07
17	0x33999206	7.151179e-08
18	0xb38fdb2e	-6.698825e-08
19	0x33f1de55	1.1262879e-07
20	0x33893cb6	6.390603e-08
21	0x344f1972	1.9287634e-07
22	0x33b9d064	8.65264e-08
23	0x32f640a0	2.8667557e-08
24	0xb45e8f72	-2.0727546e-07
25	0xb2436120	-1.13725775e-08
26	0x338ce3ac	6.560671e-08
27	0x339c325c	7.2734764e-08
28	0xb3f709c2	-1.1503609e-07
29	0x3485d2a8	2.4926453e-07
30	0x32b73301	2.1327198e-08
31	0x33bab5a4	8.69434e-08
32	0xb49ab25a	-2.8814503e-07
33	0xb315d142	-3.4882085e-08
34	0x339250ed	6.813375e-08
35	0x34013084	1.2031711e-07
36	0x33a45f3a	7.654167e-08
37	0xb287d72c	-1.5813917e-08
38	0x33bfcb15	8.931071e-08
39	0xb24634a0	-1.1537082e-08
40	0x33a7b410	7.809297e-08
41	0x32019e90	7.544841e-09
42	0xb3d6c756	-1.00014105e-07
43	0x341c5d9a	1.4562684e-07
44	0xb3bbfaba	-8.753473e-08
45	0x32c5a387	2.3008182e-08
46	0xb48be25b	-2.6055463e-07
47	0xb44e0350	-1.918645e-07
48	0xb43b387e	-1.7436284e-07
49	0xb391ce30	-6.789594e-08
50	0x31aac4be	4.970018e-09
51	0x3418d03e	1.4231861e-07
52	0x32680bd8	1.350687e-08
53	0xb39f87cc	-7.428716e-08
54	0xb21154b9	-8.4593745e-09
55	0x340d0dea	1.313671e-07
56	0xb3d27cf4	-9.801616e-08
57	0xb42d4b64	-1.6139307e-07
58	0xb4824139	-2.4261843e-07
59	0xb32b5602	-3.9892264e-08
60	0xb406a569	-1.2539898e-07
61	0x34105085	1.3440338e-07
62	0xb3eb334a	-1.095237e-07
63	0x318864b2	3.9695687e-09
64	0x3315e743	3.4902097e-08
65	0x33b17bd6	8.2647304e-08
66	0xb41189d3	-1.3554317e-07
67	0xb13be038	-2.7339535e-09
68	0x341ee9df	1.4799978e-07
69	0xb426bb0c	-1.5528002e-07
70	0xb439ee24	-1.7316103e-07
71	0x33a2f8e3	7.588985e-08
72	0x3327f950	3.9109466e-08
73	0xb32ba20c	-3.996142e-08
74	0xb2025d30	-7.588184e-09
75	0xb3c50a85	-9.175441e-08
76	0x32f64cf8	2.867317e-08
77	0xb2133ef0	-8.5708365e-09
78	0x3264140a	1.3275903e-08
79	0xb4008f02	-1.1972955e-07
80	0x338792f1	6.313156e-08
81	0x33388321	4.29601e-08
82	0xb4370af3	-1.7047186e-07
83	0xb3a47346	-7.657813e-08
84	0x346f6017	2.2293567e-07
85	0x334b2605	4.72992e-08
86	0xb399e8d0	-7.166966e-08
87	0xb38de4f7	-6.6074726e-08
88	0x337d0904	5.8914353e-08
89	0xb423106d	-1.5186534e-07
90	0x33b27f14	8.311886e-08
91	0x333cfb5e	4.4000778e-08
92	0x3448b0c9	1.8690766e-07
93	0x32819118	1.5083558e-08
94	0xb427e495	-1.5636245e-07
95	0xb413d854	-1.3769142e-07
96	0x33d92844	1.0112174e-07
97	0xb42505fe	-1.5369002e-07
98	0xb26f4734	-1.3927821e-08
99	0x3486d2a9	2.511272e-07
100	0x33d36e10	9.8454734e-08
101	0x33f80d54	1.1550824e-07
102	0xb40b7fdb	-1.2991897e-07
103	0x32e3abba	2.650437e-08
104	0x3275d698	1.430967e-08
105	0x3385c3e9	6.228931e-08
106	0x33d2fae3	9.824523e-08
107	0x323f5360	1.11366205e-08
108	0xb41a8cce	-1.4393592e-07
109	0x3348d184	4.6756682e-08
110	0xb406b8bc	-1.2546928e-07
111	0xb39c083f	-7.265816e-08
112	0xb36ce84f	-5.5159315e-08
113	0x3384a04e	6.175888e-08
114	0xb498fc60	-2.8495833e-07
115	0xb3f02c5c	-1.118394e-07
116	0x341455f5	1.3814845e-07
117	0x321501b4	8.673329e-09
118	0x339457ff	6.9077934e-08
119	0xb41c2e98	-1.4545583e-07
120	0xb40ef455	-1.3313668e-07
121	0xb2155760	-8.692808e-09
122	0x340811ca	1.2672459e-07
123	0x33acd95d	8.048912e-08
124	0xb4601c30	-2.087188e-07
125	0xb411ee6f	-1.3590919e-07
126	0xb3930936	-6.8468964e-08
127	0xb4154d1c	-1.3904759e-07
128	0xb41e994d	-1.4770667e-07
129	0x343b334b	1.7434392e-07
130	0x340de2ba	1.3214131e-07
131	0xb39e6097	-7.375018e-08
132	0x346f58c6	2.2290905e-07
133	0x341ec199	1.4785327e-07
134	0xb402061e	-1.2109419e-07
135	0xb3b8c836	-8.604586e-08
136	0xb4029b4f	-1.2163694e-07
137	0xb2ab50d4	-1.9943776e-08
138	0xb403e91a	-1.2285128e-07
139	0x34146d7d	1.3823406e-07
140	0x348608d1	2.496586e-07
141	0xb42ba1d2	-1.5984486e-07
142	0xb23c2300	-1.0950998e-08
143	0x33a58742	7.7080145e-08
144	0xb3331f53	-4.1705174e-08
145	0x33a926e0	7.876747e-08
146	0xb2511390	-1.2169849e-08
147	0xb399287a	-7.13198e-08
148	0xb302afe8	-3.042797e-08
149	0x32a73b1c	1.9468239e-08
150	0xb37c616c	-5.8761927e-08
151	0xb445a1a1	-1.8405855e-07
152	0xb410ed04	-1.3497271e-07
153	0xb2f7faa4	-2.8868563e-08
154	0x34025432	1.2137824e-07
155	0xb41576fc	-1.3919993e-07
156	0x33f47bc4	1.1384648e-07
157	0xb3b9843b	-8.6387864e-08
158	0xb36e93a8	-5.5547986e-08
159	0x348310e3	2.4412938e-07
160	0xb3e9c174	-1.0885097e-07
161	0xb41e5fe7	-1.4749786e-07
162	0x34074551	1.2598072e-07
163	0x3405878d	1.2435903e-07
164	0xb38cd6b2	-6.558311e-08
165	0x34337ff9	1.671723e-07
166	0x339a0a8c	7.173102e-08
167	0xb27c38c8	-1.4681241e-08
168	0x3407e331	1.2655507e-07
169	0x32aad99c	1.9889562e-08
170	0x330f278e	3.3330757e-08
171	0xb4434621	-1.8186303e-07
172	0xb40cb848	-1.3105557e-07
173	0xb3814ec2	-6.0213566e-08
174	0xb3a87388	-7.8441246e-08
175	0xb49d4665	-2.9294748e-07
176	0xb452b736	-1.9624426e-07
177	0xb1acf59c	-5.0337814e-09
178	0xb3b1c802	-8.278586e-08
179	0x332ac8f6	3.9763982e-08
180	0xb2d17150	-2.438233e-08
181	0x32d08afc	2.427759e-08
182	0x3435ad66	1.692002e-07
183	0x3455bf07	1.9906666e-07
184	0x34992ad1	2.8529624e-07
185	0x336abd20	5.465438e-08
186	0xb177d570	-3.6064556e-09
187	0x3318add9	3.554837e-08
188	0xb312f63c	-3.4217223e-08
189	0x3423b64e	1.524688e-07
190	0x33bd478a	8.814011e-08
191	0x33534452	4.9189403e-08
192	0xb4494492	-1.874453e-07
193	0xb38ea2fc	-6.642037e-08
194	0x33def5a1	1.038236e-07
195	0x33d3f135	9.8693285e-08
196	0x340e5913	1.3257186e-07
197	0xb42cfef1	-1.6111495e-07
198	0x330bd6d6	3.255885e-08
199	0xb46990e6	-2.175253e-07
200	0x31b6c200	5.3189524e-09
201	0xb3a78cd0	-7.802157e-08
202	0xb4cad26c	-3.7778534e-07
203	0x33cd298c	9.553614e-08
204	0xb36f88b2	-5.5770847e-08
205	0xb2e18132	-2.6252199e-08
206	0x33d054a6	9.701152e-08
207	0x318fdf00	4.1872e-09
208	0x33111938	3.378338e-08
209	0x32c9018c	2.3400183e-08
210	0x32ad0550	2.0142267e-08
211	0xb3b6dcd8	-8.515207e-08
212	0x34064be1	1.2507327e-07
213	0x33f6c22c	1.1490587e-07
214	0x33828d8d	6.079345e-08
215	0xb3a8b8a7	-7.856698e-08
216	0x335ad3fa	5.0949872e-08
217	0x32ea2724	2.7258984e-08
218	0xb498daec	-2.8471493e-07
219	0x32cc0947	2.3752945e-08
220	0x34222ee4	1.5104484e-07
221	0x33f4d410	1.1400709e-07
222	0xb3c899eb	-9.341223e-08
223	0xb33f6b8c	-4.4568466e-08
224	0xb1f14a20	-7.02245e-09
225	0x32776398	1.4399937e-08
226	0x338ccdc8	6.5566894e-08
227	0x33d447f9	9.885111e-08
228	0x33a24018	7.5553714e-08
229	0x33902cd3	6.713676e-08
230	0x33c7ae61	9.298379e-08
231	0x32e46700	2.6589532e-08
232	0xb438f4ee	-1.722544e-07
233	0x319a27a0	4.4864947e-09
234	0x3383a49b	6.1301044e-08
235	0xb41ffa8c	-1.4899177e-07
236	0xb45cd8ce	-2.056797e-07
237	0x342473b1	1.5315779e-07
238	0x33c47747	9.148658e-08
239	0xb4078d4c	-1.2624258e-07
240	0x3420fabc	1.4992378e-07
241	0x3499c0f1	2.8638854e-07
242	0x33c892cb	9.339927e-08
243	0xb3d4415f	-9.88391e-08
244	0xaf5ba200	-1.9975488e-10
245	0x33a67672	7.7515224e-08
246	0x331e3da0	3.684329e-08
247	0xb3451f98	-4.589637e-08
248	0x330bda6a	3.2562106e-08
249	0xb3b3c7e3	-8.371696e-08
250	0xb0c19440	-1.4084733e-09
251	0x33fee045	1.1868591e-07
252	0xb452b53a	-1.9623704e-07
253	0x343afe77	1.7415174e-07
254	0xb4067a09	-1.2524119e-07
255	0xb3b73212	-8.530709e-08

lstm.weight_hh_l0 f4 [256, 64]
0	0xb35e58f8	-5.176932e-08
1	0x328a2f9a	1.6086961e-08
2	0x340d0ca4	1.3136247e-07
3	0x32c01d46	2.2365054e-08
4	0xb34a157f	-4.705134e-08
5	0xb442066b	-1.8069993e-07
6	0x340ccaa2	1.3112233e-07
7	0x338d1425	6.5694884e-08
8	0x3388d234	6.371229e-08
9	0xb39cd9a0	-7.303902e-08
10	0xb1c62708	-5.7669958e-09
11	0x34bfdff6	3.5739475e-07
12	0xade0b000	-2.5544011e-11
13	0xb394947e	-6.9187976e-08
14	0xb1b328dc	-5.214231e-09
15	0x33b2e96a	8.331229e-08
16	0xb3d7a8d8	-1.004243e-07
17	0xb223de20	-9.538354e-09
18	0xb38b97c3	-6.500297e-08
19	0xb41f0f4a	-1.4813591e-07
20	0xb46acdb0	-2.1867777e-07
21	0xb1a641bc	-4.838709e-09
22	0x34dfc8e7	4.1683163e-07
23	0x3420e29b	1.49836e-07
24	0xb39b16a6	-7.22187e-08
25	0xb34b94d4	-4.739998e-08
26	0x32a4bf43	1.9179089e-08
27	0x344c888c	1.9048656e-07
28	0x320345e0	7.641091e-09
29	0xb13a8160	-2.7140103e-09
30	0xb435e436	-1.6939961e-07
31	0x3408019c	1.2666573e-07
32	0xb41171e2	-1.3545608e-07
33	0xb41fc197	-1.4878457e-07
34	0xb414a51a	-1.3843638e-07
35	0xb4977ed0	-2.821821e-07
36	0xb44b54ad	-1.8936653e-07
37	0xb38aae6e	-6.457854e-08
38	0xb29fec74	-1.8617563e-08
39	0x341e7228	1.4756426e-07
40	0xb197be20	-4.416293e-09
41	0xb2ab43bd	-1.9937824e-08
42	0xb43f248b	-1.7801555e-07
43	0x33981fb0	7.0838155e-08
44	0x338e08b7	6.6139755e-08
45	0xb3e52229	-1.0669857e-07
46	0x340ec250	1.3295471e-07
47	0xb2071a08	-7.863953e-09
48	0x33877e5e	6.3094134e-08
49	0xb2a3f055	-1.9084988e-08
50	0xb34b5bb1	-4.7348014e-08
51	0xb39524c5	-6.9450415e-08
52	0x33df782b	1.0406105e-07
53	0x338501fc	6.193656e-08
54	0x3413012e	1.3690871e-07
55	0x345f0d88	2.0773416e-07
56	0x33c74722	9.2795986e-08
57	0xb297a5b0	-1.765406e-08
58	0x33e11bb5	1.0482419e-07
59	0xb3cab2a3	-9.438852e-08
60	0x33f2f9f4	1.13144694e-07
61	0x33bfa121	8.92344e-08
62	0x341a931d	1.4395887e-07
63	0xb44a586d	-1.8844885e-07
64	0x347d9cea	2.3619546e-07
65	0xb3d4e824	-9.9142454e-08
66	0xb21ac894	-9.009586e-09
67	0x3395aa2a	6.969306e-08
68	0xb3a679c7	-7.7521285e-08
69	0x32175494	8.808588e-09
70	0xb3234724	-3.8016097e-08
71	0x341884f0	1.4204466e-07
72	0x341b24e1	1.4448916e-07
73	0xb398807c	-7.101423e-08
74	0x3398643c	7.096284e-08
75	0xb4546981	-1.978242e-07
76	0xb4012e3e	-1.2030884e-07
77	0x3451d61d	1.9542536e-07
78	0x33771670	5.7529576e-08
79	0xb3483047	-4.6610037e-08
80	0x342eaa78	1.6267029e-07
81	0x33bb5551	8.723385e-08
82	0xb2b2431f	-2.075245e-08
83	0x322cb7f2	1.0053542e-08
84	0x3452bab5	1.9625698e-07
85	0xb26dd6b8	-1.3844037e-08
86	0xb43dd68c	-1.7680048e-07
87	0xb3c29e48	-9.06262e-08
88	0x33bf0c38	8.896353e-08
89	0x3342c79c	4.535069e-08
90	0xb4432a18	-1.8176104e-07
91	0x31d54c40	6.2077845e-09
92	0xb403f3b0	-1.2288979e-07
93	0xb44083f5	-1.7929399e-07
94	0xb484c6b4	-2.4731492e-07
95	0x340c4e57	1.3067016e-07
96	0x345473d0	1.9786171e-07
97	0x33d604fa	9.966057e-08
98	0x337643a6	5.7337864e-08
99	0x339d67da	7.329773e-08
100	0xb393de36	-6.885641e-08
101	0xb45aba70	-2.0370658e-07
102	0x32cf9bdc	2.4168848e-08
103	0xb445c852	-1.8419931e-07
104	0xb3f00fb4	-1.1178727e-07
105	0x335e0e08	5.1701164e-08
106	0xb4403148	-1.7899322e-07
107	0xb3a8339c	-7.832497e-08
108	0x33aa918e	7.942718e-08
109	0x333d3786	4.405549e-08
110	0xb297fc70	-1.7693509e-08
111	0x344f7e5a	1.9324344e-07
112	0x32eee570	2.7811183e-08
113	0x34327547	1.6620207e-07
114	0xb2fb448e	-2.925142e-08
115	0x334c044c	4.750136e-08
116	0x338f99d6	6.686939e-08
117	0xb4578778	-2.0072719e-07
118	0xb1e5b768	-6.685628e-09
119	0x2f23dd00	1.4903279e-10
120	0x34115e2e	1.353844e-07
121	0xb3d14734	-9.745273e-08
122	0x334cb3b1	4.766088e-08
123	0xb41c4147	-1.455238e-07
124	0xb2dc8f5c	-2.5676563e-08
125	0xb30ce7e9	-3.280721e-08
126	0xb3f36158	-1.1333276e-07
127	0xb3b6d1d8	-8.513206e-08
128	0xb352fed1	-4.912619e-08
129	0xb4d4b75e	-3.9621494e-07
130	0xb2099ad0	-8.00965e-09
131	0xb38b3d9f	-6.483901e-08
132	0x32cae0a4	2.361805e-08
133	0xb3dda0fe	-1.0320399e-07
134	0x3403c044	1.2270272e-07
135	0xb48cda22	-2.6235745e-07
136	0xb37556d2	-5.712247e-08
137	0x3333ba9a	4.18464e-08
138	0x341188b6	1.3553912e-07
139	0x33f327cb	1.13228076e-07
140	0x337778ad	5.7618923e-08
141	0x34d5b0f1	3.9803083e-07
142	0xb4059853	-1.2442005e-07
143	0x330d5c7c	3.2913235e-08
144	0xb39ab516	-7.204123e-08
145	0xb3ee8a46	-1.11078904e-07
146	0x33e41940	1.062167e-07
147	0xb41fa98c	-1.486971e-07
148	0xb2f49bd8	-2.8476208e-08
149	0x343816f2	1.7144683e-07
150	0xb3043ba6	-3.0787895e-08
151	0xb3f5d50e	-1.1447456e-07
152	0xb4429f9a	-1.812572e-07
153	0x33f296fb	1.1296466e-07
154	0x330764c8	3.1523797e-08
155	0x3406382c	1.2500158e-07
156	0xb428fbdb	-1.5737844e-07
157	0x33db81b4	1.0221575e-07
158	0xb3acc91f	-8.045958e-08
159	0x331760d8	3.5245506e-08
160	0x3429e473	1.5822461e-07
161	0x32552ec8	1.2408869e-08
162	0xb44ecd72	-1.9259986e-07
163	0xb3526b7a	-4.8992185e-08
164	0x3358d008	5.0480622e-08
165	0xb446030e	-1.8441298e-07
166	0xb258ad98	-1.2612325e-08
167	0xb458f528	-2.0205755e-07
168	0xb380854e	-5.9847125e-08
169	0x34182e58	1.4172963e-07
170	0xb3da41ad	-1.01633624e-07
171	0x32e13818	2.6218956e-08
172	0xb44ab633	-1.8879e-07
173	0x33447599	4.574176e-08
174	0xb41d0d38	-1.4626573e-07
175	0x349b26b0	2.889915e-07
176	0x3219eaf2	8.9591925e-09
177	0xb424f19e	-1.536159e-07
178	0xb311427c	-3.382091e-08
179	0x33df0f44	1.03870235e-07
180	0xb34d08b4	-4.7738197e-08
181	0x3435c001	1.6926789e-07
182	0x31b45cc0	5.249234e-09
183	0xb4152887	-1.389145e-07
184	0x3344d947	4.583242e-08
185	0xb44a09c6	-1.8816272e-07
186	0xb4213258	-1.5012608e-07
187	0x3385c46a	6.2290226e-08
188	0x34884612	2.5382957e-07
189	0x32f92e5a	2.9008493e-08
190	0x337f9536	5.950752e-08
191	0xb30e2344	-3.3094025e-08
192	0xb3dca098	-1.027376e-07
193	0x34438e36	1.8212526e-07
194	0x337d1f34	5.8934532e-08
195	0x331fb699	3.7186144e-08
196	0x33a6af2e	7.7618424e-08
197	0xb43ce234	-1.7591157e-07
198	0x34590b3a	2.0213784e-07
199	0x33e00dad	1.04333004e-07
200	0x321fbcf8	9.297985e-09
201	0xb40fdff2	-1.3399384e-07
202	0x341c2d22	1.4545051e-07
203	0x2fedaf00	4.3234394e-10
204	0xb41795cf	-1.4117471e-07
205	0xb382ae3c	-6.08529e-08
206	0x3428b3b8	1.57116e-07
207	0xb20029bc	-7.46007e-09
208	0x3417f718	1.4152863e-07
209	0xb40b3159	-1.2963336e-07
210	0x3496b5d0	2.8071963e-07
211	0xb420f55e	-1.4990425e-07
212	0x33aa9090	7.942538e-08
213	0xb46b9e4b	-2.1943667e-07
214	0x32847790	1.5421193e-08
215	0x3106d500	1.9620643e-09
216	0x338bd79c	6.511911e-08
217	0x30b2da80	1.3013306e-09
218	0xb41efff8	-1.4808018e-07
219	0x346780d8	2.1560425e-07
220	0xb44292ec	-1.8121108e-07
221	0x340d0adc	1.3135599e-07
222	0xb3b0465e	-8.2084384e-08
223	0xb30db5d8	-3.2994507e-08
224	0x33f70287	1.15022935e-07
225	0xb1ee17a0	-6.9293975e-09
226	0x3383fd80	6.146274e-08
227	0xb35554a6	-4.9669914e-08
228	0x33a2af04	7.575548e-08
229	0xb3809aa7	-5.9885956e-08
230	0xb4234980	-1.5207297e-07
231	0x338dbd13	6.6002166e-08
232	0x32c95b0c	2.3440883e-08
233	0xb340d4b4	-4.4896936e-08
234	0xb4378e66	-1.7095007e-07
235	0x3403e27c	1.228272e-07
236	0x33f38060	1.13389206e-07
237	0x32672238	1.345375e-08
238	0xb3b71489	-8.525337e-08
239	0xb3c6ab09	-9.2512046e-08
240	0x34432ae1	1.817639e-07
241	0x345650c4	1.9959685e-07
242	0xb33ab370	-4.3469697e-08
243	0xb446a3ae	-1.8499733e-07
244	0xb3663479	-5.359877e-08
245	0xb3ee4633	-1.1095508e-07
246	0xb49d3aef	-2.928641e-07
247	0xb4383600	-1.715598e-07
248	0x34113be0	1.352596e-07
249	0x32182750	8.856503e-09
250	0xb3be1f6a	-8.8532786e-08
251	0xb4977506	-2.8211088e-07
252	0xb24bab44	-1.18550965e-08
253	0x3436081b	1.695302e-07
254	0xb421e949	-1.5079162e-07
255	0xb116b188	-2.1928788e-09

lstm.bias_ih_l0 f4 [256]
0	0x3314980c	3.459722e-08
1	0xb34d4508	-4.7793066e-08
2	0x33d4d429	9.910611e-08
3	0xb38d57c4	-6.5817886e-08
4	0x34182832	1.4170726e-07
5	0xb40759be	-1.2605503e-07
6	0xb414b856	-1.3850635e-07
7	0xb2926d4a	-1.7046336e-08
8	0x341274d6	1.3639814e-07
9	0x33ab5dcc	7.9798696e-08
10	0xb34178af	-4.5046075e-08
11	0xb40df03d	-1.3219046e-07
12	0xb3fa236a	-1.1647974e-07
13	0xb305a1d6	-3.1113665e-08
14	0x32640cd0	1.327426e-08
15	0x349867a9	2.838763e-07
16	0x33f34c0c	1.1329402e-07
17	0x341722a2	1.407557e-07
18	0xb3c0fca4	-8.986652e-08
19	0xb4160d47	-1.3974669e-07
20	0x326a4e10	1.3638342e-08
21	0x347871da	2.3138219e-07
22	0x340efda4	1.3317054e-07
23	0xb4118e8c	-1.3556036e-07
24	0xb44286d8	-1.8116714e-07
25	0xb3aa8b50	-7.941583e-08
26	0xb24713b0	-1.1587801e-08
27	0x329e3600	1.8418177e-08
28	0xb41caf3a	-1.4592379e-07
29	0x340cecfe	1.3124733e-07
30	0x3434493c	1.6790449e-07
31	0xb3d65baf	-9.981829e-08
32	0xb4237454	-1.5222878e-07
33	0x345127bd	1.9479099e-07
34	0xb450ff7d	-1.9464456e-07
35	0x32eaf7d0	2.7353877e-08
36	0xb4253e22	-1.5389426e-07
37	0xb3bae57d	-8.7030436e-08
38	0xb293caba	-1.7205242e-08
39	0xb4ab5222	-3.1910992e-07
40	0x33c6451d	9.232665e-08
41	0xb069ed00	-8.5101703e-10
42	0x346a6b6a	2.1832025e-07
43	0xb4372356	-1.7056058e-07
44	0x3427dd90	1.5633691e-07
45	0xb3648b42	-5.321204e-08
46	0x337d3128	5.895086e-08
47	0xb45a9506	-2.0357047e-07
48	0x3416b87e	1.4036956e-07
49	0x337af7b6	5.8432953e-08
50	0x335c4cb4	5.1292503e-08
51	0x342e340e	1.622395e-07
52	0xb23f848e	-1.1147803e-08
53	0x31feb710	7.4131847e-09
54	0x33d178d7	9.7543015e-08
55	0x342351b6	1.5210284e-07
56	0xb4491a4f	-1.8729155e-07
57	0x32fd4265	2.948327e-08
58	0xb2c30570	-2.270346e-08
59	0x345f951e	2.0822742e-07
60	0xb35764da	-5.0150312e-08
61	0xb3f98b35	-1.1620288e-07
62	0x345ef49e	2.0764352e-07
63	0x348bd3fe	2.6045012e-07
64	0xb40ecdac	-1.3299604e-07
65	0xb2e41d54	-2.655603e-08
66	0x3347393c	4.6385352e-08
67	0x338445a5	6.159397e-08
68	0x33779fc0	5.765446e-08
69	0x339a0b1e	7.173206e-08
70	0x33de68f2	1.035677e-07
71	0xb4ab1084	-3.186325e-07
72	0xb3ba4b96	-8.675049e-08
73	0x312dbc70	2.5281928e-09
74	0x33ace061	8.0501884e-08
75	0x339ac0ad	7.206231e-08
76	0xb4058b20	-1.2437204e-07
77	0x32695c98	1.3583438e-08
78	0xb4060a04	-1.2483366e-07
79	0xb3c2cf11	-9.071494e-08
80	0xb39cbc47	-7.2985635e-08
81	0xb3433622	-4.545121e-08
82	0xb312f532	-3.4216278e-08
83	0xb41d0575	-1.462375e-07
84	0x348569f4	2.4850272e-07
85	0xb38b8533	-6.496921e-08
86	0x334b1786	4.7286015e-08
87	0x3485ee7e	2.4946706e-07
88	0x32ab77f0	1.9961561e-08
89	0xb4853550	-2.481197e-07
90	0x3383dde0	6.140522e-08
91	0xb43cc5e8	-1.7580862e-07
92	0xb3a574cb	-7.704656e-08
93	0xb31e5f25	-3.6873775e-08
94	0x339de288	7.352088e-08
95	0xb44c2b09	-1.9014637e-07
96	0xb4ca988b	-3.7736422e-07
97	0xb38d5f92	-6.583208e-08
98	0xb242481c	-1.1308682e-08
99	0x34b1cfbd	3.311997e-07
100	0xb2f568a8	-2.8569346e-08
101	0x3489985c	2.5629095e-07
102	0x33515c7a	4.874571e-08
103	0x3391a70f	6.7824764e-08
104	0xb058df80	-7.8897955e-10
105	0xb12940c8	-2.462956e-09
106	0xb32292e0	-3.7852146e-08
107	0x33deaf2b	1.03695434e-07
108	0xb4309916	-1.644697e-07
109	0xb39bdf03	-7.2583155e-08
110	0xb26bbec8	-1.3722179e-08
111	0xb37efc0e	-5.9368226e-08
112	0xb34fd29a	-4.8387484e-08
113	0x332d39ce	4.0332274e-08
114	0x347e4a4f	2.3682627e-07
115	0x3345e847	4.6078892e-08
116	0xb485b9b2	-2.4908292e-07
117	0x3391cdc5	6.789518e-08
118	0x33d20473	9.779696e-08
119	0xb23cb6de	-1.0984619e-08
120	0xb3260d80	-3.8662165e-08
121	0xb3808600	-5.984839e-08
122	0xb42b601f	-1.5960585e-07
123	0x330e1566	3.3081413e-08
124	0x3438890a	1.718619e-07
125	0xb3a028fa	-7.458034e-08
126	0x32b1c339	2.0694289e-08
127	0xb3a7b3a7	-7.809222e-08
128	0x334fa488	4.8345584e-08
129	0xb329600c	-3.9435733e-08
130	0xb375ad32	-5.7201028e-08
131	0xb39c950c	-7.2914276e-08
132	0x32ead554	2.7338196e-08
133	0x33f7d728	1.15409705e-07
134	0xb2dd5236	-2.5765171e-08
135	0xb445e539	-1.8430445e-07
136	0x33c2f6b2	9.0787026e-08
137	0xb25b3bf0	-1.2761106e-08
138	0x345f8bf4	2.0819408e-07
139	0xb2b085f5	-2.0550013e-08
140	0xb49982f4	-2.8593752e-07
141	0xb485248d	-2.4799775e-07
142	0x33cf91b8	9.665695e-08
143	0xb454b616	-1.9810281e-07
144	0xb386296c	-6.247396e-08
145	0x335ab8c4	5.0925124e-08
146	0xb4018a38	-1.2064345e-07
147	0xb417a150	-1.4121656e-07
148	0x33c1562a	9.002936e-08
149	0x32aff3a0	2.048347e-08
150	0x349b549c	2.893256e-07
151	0x33863dbe	6.251092e-08
152	0xb40fa420	-1.3377621e-07
153	0xb4091d6d	-1.2769824e-07
154	0xb4080232	-1.2666786e-07
155	0xb36b1db4	-5.4742216e-08
156	0x3401f39a	1.2102683e-07
157	0xb305c30c	-3.114387e-08
158	0x32b279c4	2.07773e-08
159	0x340d80de	1.317853e-07
160	0xb33ca4a7	-4.392191e-08
161	0x33a6ddd4	7.770328e-08
162	0x3306294a	3.123686e-08
163	0xb41a6d02	-1.4382024e-07
164	0xb3d3fb8c	-9.871209e-08
165	0xb305e1b2	-3.1171744e-08
166	0xb45d19d2	-2.0591622e-07
167	0xb408fbfa	-1.2757656e-07
168	0x33eff04d	1.1173015e-07
169	0x34aa65a8	3.1738932e-07
170	0x34212524	1.5007805e-07
171	0xb2e7c9e8	-2.6983756e-08
172	0x338e3396	6.621774e-08
173	0xb4977ebd	-2.8218156e-07
174	0x332c8118	4.016428e-08
175	0x310a6840	2.0140902e-09
176	0xb37d9a88	-5.9046698e-08
177	0x3333b9d8	4.184571e-08
178	0x330b8102	3.248079e-08
179	0xb3c8864c	-9.337654e-08
180	0xb3c2499a	-9.047217e-08
181	0xb43f0b59	-1.779239e-07
182	0xb2e47942	-2.6597835e-08
183	0x33d884c9	1.0082437e-07
184	0xb4568769	-1.9979565e-07
185	0xb3376820	-4.270271e-08
186	0x33e1e4cb	1.0518996e-07
187	0x3421109c	1.5000336e-07
188	0xb47d7cac	-2.3607817e-07
189	0x3252e780	1.2276246e-08
190	0x33ff7e4a	1.1897335e-07
191	0x3442d684	1.8145698e-07
192	0xb2807ba8	-1.4957394e-08
193	0xb223046e	-9.488856e-09
194	0x331a8346	3.597531e-08
195	0xb3bf15e5	-8.898113e-08
196	0x33260d58	3.8662023e-08
197	0xb41d9bfa	-1.4678508e-07
198	0x34083024	1.26835e-07
199	0xb414a23e	-1.3842597e-07
200	0x3452f495	1.9646752e-07
201	0x33fc37ca	1.17448124e-07
202	0x331d3b14	3.6608142e-08
203	0x33f27368	1.12899954e-07
204	0xb3267c13	-3.876273e-08
205	0x3473f345	2.271964e-07
206	0xb37906dc	-5.798107e-08
207	0x337b3cf8	5.8495942e-08
208	0x33f9c968	1.16316016e-07
209	0x33966686	7.003568e-08
210	0xb3a3ba1c	-7.624132e-08
211	0xb38aa192	-6.455515e-08
212	0xb46bef0a	-2.1973042e-07
213	0x32ff36ac	2.9710769e-08
214	0x32961482	1.7471624e-08
215	0xb33be602	-4.374852e-08
216	0x334149d4	4.500346e-08
217	0x33bec303	8.883037e-08
218	0x33e93a52	1.08605164e-07
219	0xb3d7a5d8	-1.00418845e-07
220	0xb37a82bb	-5.832656e-08
221	0x34299a27	1.5795432e-07
222	0x3181b69c	3.7751544e-09
223	0x346b9f82	2.1944109e-07
224	0xb42e13d6	-1.6212229e-07
225	0x344db058	1.9156266e-07
226	0xb307bb06	-3.1602234e-08
227	0x33ecb36a	1.10222416e-07
228	0x32b5989a	2.1140568e-08
229	0xb3bc558a	-8.769992e-08
230	0xb486e0e2	-2.512307e-07
231	0x333c9162	4.3904386e-08
232	0xb33150ac	-4.1284395e-08
233	0x339fff5b	7.4504634e-08
234	0xb302dc1c	-3.0468172e-08
235	0xb363e2ce	-5.3058834e-08
236	0x33ed0732	1.1037481e-07
237	0x345222e3	1.9570466e-07
238	0x341e43c6	1.4739553e-07
239	0xb22df516	-1.0125651e-08
240	0xb45bf9bd	-2.0486819e-07
241	0x3256bc7a	1.2499294e-08
242	0xb1be81c0	-5.5444787e-09
243	0xb3306d8e	-4.1077833e-08
244	0xb3c3730b	-9.101321e-08
245	0x349c1840	2.9074909e-07
246	0x339c494a	7.277647e-08
247	0xb253282c	-1.22909505e-08
248	0xb4236813	-1.521842e-07
249	0x3313c89c	3.4408558e-08
250	0xb2ca18a0	-2.3527093e-08
251	0xb46bf952	-2.1976783e-07
252	0xb29cece0	-1.8268508e-08
253	0x344f20ab	1.9290262e-07
254	0x339eea4b	7.400066e-08
255	0xb49b053b	-2.8874805e-07

lstm.bias_hh_l0 f4 [256]
0	0x3483af72	2.4528305e-07
1	0x33ead1f8	1.0934667e-07
2	0xb382bec0	-6.088294e-08
3	0x32b0805f	2.0547473e-08
4	0x33b0eda6	8.238867e-08
5	0xb2ccc014	-2.3836073e-08
6	0x336f3742	5.569678e-08
7	0x346eb134	2.2229943e-07
8	0xb2f39edc	-2.8361164e-08
9	0xb30a9304	-3.226434e-08
10	0x33beda96	8.887325e-08
11	0xb40f35a1	-1.3337423e-07
12	0x31381320	2.6786395e-09
13	0xb342d848	-4.536585e-08
14	0x323f41a7	1.1132591e-08
15	0x340d387a	1.3152194e-07
16	0xb249c2c0	-1.1744021e-08
17	0x330d168a	3.284962e-08
18	0x338aa4d7	6.45611e-08
19	0xb3c0cea6	-8.978286e-08
20	0xb36ac6e0	-5.4663246e-08
21	0x328ceca8	1.6405764e-08
22	0x3379604c	5.806241e-08
23	0x33b2a750	8.319205e-08
24	0x34ef9904	4.4628553e-07
25	0xb339f71c	-4.3298414e-08
26	0x344a7c0e	1.8857847e-07
27	0xb4110963	-1.3507592e-07
28	0x3484af9a	2.4714683e-07
29	0xb42ece6c	-1.6280109e-07
30	0xb4164272	-1.3994011e-07
31	0xb42d3d48	-1.6134175e-07
32	0x330c7a3c	3.270746e-08
33	0x33d8a8ba	1.0088975e-07
34	0xb3fe19ce	-1.18324905e-07
35	0xb2ae7c91	-2.0312912e-08
36	0xb415605e	-1.3911765e-07
37	0x33dbe710	1.0240012e-07
38	0x33a96eee	7.889854e-08
39	0x31fac008	7.297789e-09
40	0xb39cdbc2	-7.30429e-08
41	0x343ec0ae	1.7765225e-07
42	0x33fbeb28	1.1730873e-07
43	0x33b4111d	8.385016e-08
44	0x33660008	5.3551076e-08
45	0x32f68b00	2.8701379e-08
46	0x340dbf15	1.3201164e-07
47	0xb3c3384b	-9.090635e-08
48	0x33ce772a	9.614298e-08
49	0xb40c6cf4	-1.3078153e-07
50	0x32e75edc	2.6935076e-08
51	0xb34c448c	-4.7559794e-08
52	0xb2cf4930	-2.4131253e-08
53	0x336ac2d6	5.4659573e-08
54	0x33b92a08	8.622379e-08
55	0xb407e843	-1.2657351e-07
56	0x33af3621	8.1589185e-08
57	0x3378fdde	5.797289e-08
58	0x33b822a5	8.5744695e-08
59	0x33582294	5.0322868e-08
60	0x33f1f026	1.126612e-07
61	0x32652cd0	1.33397435e-08
62	0x3303a59c	3.0651435e-08
63	0x34006994	1.1959338e-07
64	0x336c5512	5.5025403e-08
65	0x31bb593f	5.4525624e-09
66	0x33801e4e	5.965977e-08
67	0x34191646	1.4257338e-07
68	0x3246d238	1.1572915e-08
69	0x32cdd558	2.3962158e-08
70	0xb0b8bcc0	-1.3441408e-09
71	0xb396e45b	-7.026457e-08
72	0x334e833e	4.8082477e-08
73	0xb1a5a07c	-4.820377e-09
74	0xb47c016c	-2.3469846e-07
75	0x334a4531	4.709472e-08
76	0xb41aa499	-1.4402248e-07
77	0x3481ee60	2.4201563e-07
78	0xb3cdf14f	-9.58995e-08
79	0x3223bcb8	9.530758e-09
80	0x33d916c4	1.0108991e-07
81	0xb4427dfd	-1.8113492e-07
82	0x344ee526	1.9268609e-07
83	0x348bc5bc	2.6034638e-07
84	0x34e353a1	4.2342893e-07
85	0x342cb49b	1.6084452e-07
86	0x3395cc25	6.975487e-08
87	0xb3531bae	-4.915244e-08
88	0xb1a40e40	-4.7746482e-09
89	0x3400220c	1.1933315e-07
90	0xb44919d4	-1.872898e-07
91	0xb3e0e374	-1.0472186e-07
92	0x32bef658	2.2230935e-08
93	0xb1203210	-2.3311522e-09
94	0xb32012ad	-3.726989e-08
95	0x3419139d	1.425637e-07
96	0x33214987	3.7552606e-08
97	0x33be7d9f	8.870415e-08
98	0xb3804454	-5.972893e-08
99	0xb3faf80b	-1.1686651e-07
100	0x3382670f	6.072343e-08
101	0xb3bca677	-8.784712e-08
102	0xb4170720	-1.4065563e-07
103	0x3398f85f	7.12323e-08
104	0x312b3b60	2.4917526e-09
105	0x33b6fe6e	8.521316e-08
106	0xb2603342	-1.3050171e-08
107	0xb3a7f544	-7.821157e-08
108	0xb3dfcda2	-1.0421651e-07
109	0x339c5bd1	7.2810174e-08
110	0x33b36489	8.353624e-08
111	0x340daaa1	1.3193723e-07
112	0xb3857ef4	-6.216388e-08
113	0x32fe9b34	2.964007e-08
114	0xb4a5940c	-3.0841363e-07
115	0xb29f3b08	-1.853688e-08
116	0x340fe102	1.339977e-07
117	0x3381da31	6.0467194e-08
118	0x348a6cf4	2.5783777e-07
119	0x3409cf44	1.2834522e-07
120	0xb3e30c9b	-1.0572804e-07
121	0xb379f6f6	-5.819944e-08
122	0x30252f40	6.0093797e-10
123	0x34041ab9	1.230318e-07
124	0xb4118617	-1.3552959e-07
125	0x34312c08	1.6500428e-07
126	0x34421148	1.8073945e-07
127	0x344a91e4	1.886579e-07
128	0x3207e602	7.910332e-09
129	0x344ee9fd	1.927037e-07
130	0xb2e930b6	-2.7146921e-08
131	0x333d04a4	4.4009212e-08
132	0x3296b386	1.7543936e-08
133	0x32e6a778	2.685168e-08
134	0xb4444b26	-1.8281261e-07
135	0x32ce85e2	2.404244e-08
136	0x330ea712	3.32139e-08
137	0xb445399f	-1.8368017e-07
138	0x3422b312	1.5152571e-07
139	0xb2361028	-1.0597468e-08
140	0x336040a0	5.221284e-08
141	0xb48235ce	-2.4253535e-07
142	0xb46b60c0	-2.1921278e-07
143	0xb41bcdbb	-1.4510344e-07
144	0x33ba4f37	8.675709e-08
145	0x339940b5	7.136388e-08
146	0xb387ce73	-6.32398e-08
147	0x338d75cb	6.5872506e-08
148	0x324a34f0	1.1769984e-08
149	0x346c76d9	2.2022449e-07
150	0x33041216	3.0750094e-08
151	0x34a5c5fa	3.0877692e-07
152	0xb3c2ac1d	-9.065136e-08
153	0xb390ed16	-6.748648e-08
154	0xb4009231	-1.1974113e-07
155	0x341f2af8	1.4823661e-07
156	0x340ea212	1.3283741e-07
157	0x3418ed7c	1.42425e-07
158	0x33a64f32	7.744383e-08
159	0x34e1d55c	4.2064755e-07
160	0xb297af52	-1.765844e-08
161	0xb2689f18	-1.3540351e-08
162	0xb380132a	-5.9639504e-08
163	0xb2a49744	-1.91609e-08
164	0xb4028664	-1.2156084e-07
165	0xb4849056	-2.4691934e-07
166	0xb455fe6a	-1.9929726e-07
167	0x3386ec72	6.2828704e-08
168	0xb35b2f63	-5.103301e-08
169	0x33950ecb	6.941044e-08
170	0xb4567d96	-1.9975991e-07
171	0x33070384	3.1435334e-08
172	0x3413784f	1.373421e-07
173	0x347d2234	2.3574904e-07
174	0x3222bc40	9.472444e-09
175	0xb25a4d6e	-1.27068756e-08
176	0xb42d44c4	-1.6136897e-07
177	0xb2dec6ca	-2.59346e-08
178	0xb41342f4	-1.3714799e-07
179	0xb425f56a	-1.5456104e-07
180	0xb3b56910	-8.44758e-08
181	0xb3624f80	-5.269203e-08
182	0xb392b835	-6.832162e-08
183	0x322e1da8	1.0134876e-08
184	0xb40d53d8	-1.316215e-07
185	0xb40be163	-1.3027379e-07
186	0x3458b52c	2.0182478e-07
187	0x3495b596	2.7885534e-07
188	0x342c73eb	1.6060919e-07
189	0xb37b7e7e	-5.8555536e-08
190	0x3410bdd8	1.348011e-07
191	0x30a5ce00	1.2063879e-09
192	0x33c0dee4	8.98124e-08
193	0x3488c732	2.5476908e-07
194	0x33bfd260	8.9323976e-08
195	0xb3205a80	-3.7335212e-08
196	0x328e92f8	1.659781e-08
197	0xb3d11115	-9.735428e-08
198	0xb283ea84	-1.5357053e-08
199	0xb4102bb4	-1.3426944e-07
200	0xb22ed668	-1.0176883e-08
201	0xb4069d0d	-1.2536857e-07
202	0x344bff66	1.8998762e-07
203	0x33513803	4.8712547e-08
204	0x338190fc	6.033403e-08
205	0x342c55e4	1.6049995e-07
206	0x336d9f06	5.5325494e-08
207	0xb3b9a115	-8.6440345e-08
208	0xb33cdd60	-4.39735e-08
209	0xb29d8650	-1.8338284e-08
210	0xb2643388	-1.32830635e-08
211	0x344852ec	1.8656618e-07
212	0xb2a8c310	-1.9646478e-08
213	0xb2add694	-2.023743e-08
214	0x325e4a98	1.2939061e-08
215	0x3356079c	4.983268e-08
216	0xb39c4f41	-7.278732e-08
217	0x343d99fc	1.7658016e-07
218	0xb4042553	-1.2307036e-07
219	0x342b8998	1.5975672e-07
220	0xb3c03879	-8.950969e-08
221	0xb3d922ed	-1.0111203e-07
222	0x33e3ea61	1.06131445e-07
223	0xb2ad6904	-2.0187606e-08
224	0xb41ad5b0	-1.4420107e-07
225	0x33a0a5e3	7.480755e-08
226	0xb2b304be	-2.0840499e-08
227	0x323b70b0	1.0910455e-08
228	0xb47d0b98	-2.3566679e-07
229	0x33d13022	9.741076e-08
230	0xb336503a	-4.2448143e-08
231	0xb3308798	-4.1101515e-08
232	0xb498c3c8	-2.8454656e-07
233	0xb3f3b910	-1.1349232e-07
234	0x31abd980	5.001482e-09
235	0xb31fb648	-3.7185856e-08
236	0x34090320	1.2760256e-07
237	0xb13ebb20	-2.7755007e-09
238	0xb4150ff8	-1.3882516e-07
239	0x32d03372	2.4237782e-08
240	0xb1563538	-3.117135e-09
241	0xb3dc47c7	-1.02576045e-07
242	0xb2916ba2	-1.6929167e-08
243	0x3346dd8c	4.6301963e-08
244	0x338947c6	6.392615e-08
245	0x3340217f	4.4733948e-08
246	0x343c59aa	1.7541484e-07
247	0x3415ee66	1.3963435e-07
248	0xb1b7b2f0	-5.346344e-09
249	0xb1bcca70	-5.4945346e-09
250	0x3235cea0	1.0582568e-08
251	0x340e185e	1.3233645e-07
252	0xb423ce4a	-1.5255605e-07
253	0x34206f01	1.4941544e-07
254	0x340303db	1.2201728e-07
255	0x32a019c0	1.8638161e-08

lstm.weight_ih_l0_reverse f4 [256, 19]
0	0x329e30d4	1.8415825e-08
1	0x336b4abf	5.4783182e-08
2	0x33335b1c	4.175955e-08
3	0xb2b41caa	-2.0967793e-08
4	0x332b5a68	3.9896264e-08
5	0x33a938dc	7.8800184e-08
6	0xb4167d3f	-1.4015403e-07
7	0xb2513798	-1.2178042e-08
8	0xb31498cc	-3.4597903e-08
9	0x32795f35	1.4515355e-08
10	0xb3c1ec00	-9.030191e-08
11	0xb38fbb81	-6.693063e-08
12	0xb0b5f680	-1.3239543e-09
13	0x3424e183	1.5355731e-07
14	0x33c990c5	9.386125e-08
15	0xb3d40a4b	-9.8738916e-08
16	0xb46a1a5e	-2.180254e-07
17	0xb4192fa7	-1.4266571e-07
18	0xb30dabd0	-3.2985383e-08
19	0xb3c30e38	-9.0829815e-08
20	0x340687e2	1.2529156e-07
21	0x31f36de8	7.0847257e-09
22	0x32bc305d	2.1908074e-08
23	0x335f85c0	5.204288e-08
24	0xb480ca6b	-2.3989136e-07
25	0xb47c198a	-2.347862e-07
26	0x334891e4	4.6698815e-08
27	0x33aced81	8.052576e-08
28	0xb45693db	-1.9984093e-07
29	0x349bee95	2.904459e-07
30	0x3410276e	1.342539e-07
31	0xb362da33	-5.2818176e-08
32	0x34843b18	2.4629912e-07
33	0x330c81c4	3.271431e-08
34	0xb294241c	-1.7245888e-08
35	0x34193bcc	1.427099e-07
36	0xb4605f77	-2.0896356e-07
37	0xb43a77a0	-1.7366119e-07
38	0x342a476e	1.585847e-07
39	0xb3d6b4e6	-9.998057e-08
40	0xb3ae40be	-8.114283e-08
41	0x31d030b8	6.0591354e-09
42	0x340d8e39	1.3183389e-07
43	0xb39915fb	-7.128616e-08
44	0xb3a41a08	-7.64158e-08
45	0x34077a21	1.2617285e-07
46	0xb2388650	-1.0740749e-08
47	0xb3bbeef7	-8.7513335e-08
48	0xb407186a	-1.2581737e-07
49	0xb40deb28	-1.3217198e-07
50	0xb187b0c0	-3.9491113e-09
51	0xb40e01c6	-1.3225426e-07
52	0x3332b7c6	4.1610996e-08
53	0x34010195	1.2014637e-07
54	0xb356036d	-4.9828873e-08
55	0xb42e407c	-1.6228472e-07
56	0x33a41fcc	7.642629e-08
57	0x33d53787	9.928686e-08
58	0xb194feac	-4.3363197e-09
59	0xb31cae82	-3.6480294e-08
60	0xb4112b1e	-1.3519863e-07
61	0x338777e2	6.308234e-08
62	0xb21dccf8	-9.185207e-09
63	0xb3a6a4ec	-7.7599765e-08
64	0xb42195b8	-1.5048761e-07
65	0x339f3720	7.414042e-08
66	0x3364efa0	5.3303324e-08
67	0x324661e0	1.1547371e-08
68	0x33e7f31a	1.0800996e-07
69	0xb1ee2f98	-6.9321224e-09
70	0x349a128e	2.8698236e-07
71	0x339aa79e	7.201673e-08
72	0xb22a0a7c	-9.897686e-09
73	0x30b0b040	1.2855779e-09
74	0xb4113e7c	-1.3526909e-07
75	0xb307d76c	-3.1628062e-08
76	0xb3e40de6	-1.06196055e-07
77	0xb35a8a24	-5.088272e-08
78	0x32396a12	1.0792535e-08
79	0xb366fbfc	-5.3780226e-08
80	0x33a26cc8	7.5635e-08
81	0x32967af2	1.7518207e-08
82	0xb32232cc	-3.7764764e-08
83	0xb2d5fb68	-2.491079e-08
84	0x33945355	6.906945e-08
85	0x34252d2a	1.5383253e-07
86	0xb40d9eb0	-1.3189378e-07
87	0xb403e07b	-1.2281991e-07
88	0xb434d616	-1.684169e-07
89	0x3427a450	1.5612864e-07
90	0xb4245fd8	-1.5308558e-07
91	0x32d95858	2.5302299e-08
92	0x328cd600	1.6395461e-08
93	0xb4229282	-1.5140725e-07
94	0xb1c7f164	-5.819105e-09
95	0xb432f314	-1.6665973e-07
96	0x317e5838	3.7012011e-09
97	0x33e24f79	1.0538401e-07
98	0xb4124d20	-1.3625368e-07
99	0x330734ea	3.1480262e-08
100	0xb49b69ba	-2.8947926e-07
101	0xb2906506	-1.6809746e-08
102	0xb20f5be8	-8.344593e-09
103	0xb41dcb70	-1.4695775e-07
104	0x3443bad6	1.8228761e-07
105	0xb36dce64	-5.5368574e-08
106	0x34065128	1.2509247e-07
107	0x33c5f7d1	9.218605e-08
108	0x343a447b	1.7347513e-07
109	0xb424decf	-1.5354748e-07
110	0xb38e504a	-6.626995e-08
111	0xb39eeba3	-7.4003104e-08
112	0xb47e6cd7	-2.3695189e-07
113	0xb2282e0e	-9.789359e-09
114	0x33ab84d6	7.986971e-08
115	0xb3aac16a	-7.951424e-08
116	0xb46f75ba	-2.2301438e-07
117	0xb412ea56	-1.368256e-07
118	0xb3e977fa	-1.08717316e-07
119	0x33d17b8e	9.7547954e-08
120	0xb4805dc4	-2.391008e-07
121	0xb46c9d1a	-2.2036366e-07
122	0xb2335744	-1.0439013e-08
123	0x3435e591	1.6940454e-07
124	0x3442ead2	1.8153085e-07
125	0xb33ceca2	-4.3987377e-08
126	0x33ce4489	9.605089e-08
127	0x3390da48	6.745228e-08
128	0x30849940	9.64782e-10
129	0xb40dc6d3	-1.320398e-07
130	0x33f51602	1.1412705e-07
131	0x335e9f2e	5.1833176e-08
132	0x341cba53	1.4596417e-07
133	0xb225c1c0	-9.648318e-09
134	0xb3843694	-6.156657e-08
135	0x338ffa0f	6.704442e-08
136	0x347c5297	2.3499375e-07
137	0xb379d6f5	-5.8170333e-08
138	0xb44d17ac	-1.9100725e-07
139	0xb36a5b0e	-5.4565184e-08
140	0x337e8d0a	5.9267258e-08
141	0xb2faad48	-2.918263e-08
142	0xb24172b8	-1.1260163e-08
143	0x33004d6e	2.9872744e-08
144	0x3398932c	7.104822e-08
145	0xb3ecc7b2	-1.1025931e-07
146	0xb27cd0f0	-1.4715837e-08
147	0x332ae710	3.979136e-08
148	0xb41ae76b	-1.4426557e-07
149	0xb4533b8a	-1.9672567e-07
150	0xb4df3afe	-4.157991e-07
151	0xb3c52c13	-9.1815444e-08
152	0x3405c8ce	1.2459643e-07
153	0xb284a3e4	-1.5441351e-08
154	0xb3a82833	-7.830422e-08
155	0x33923342	6.8079785e-08
156	0x332d2792	4.031569e-08
157	0x342c6a2c	1.6057373e-07
158	0xb408c90f	-1.2739132e-07
159	0xb3c55ef6	-9.190801e-08
160	0xb4163bde	-1.3991618e-07
161	0x335df94e	5.1682314e-08
162	0x342a82dc	1.588009e-07
163	0x337aaa53	5.836257e-08
164	0x32462e4a	1.1535642e-08
165	0xb2ef77ec	-2.7877796e-08
166	0x3391218a	6.7581894e-08
167	0xb4836c63	-2.4479513e-07
168	0xb308bb04	-3.1835057e-08
169	0x334a7caa	4.714517e-08
170	0x33d5e093	9.959435e-08
171	0xb4694f88	-2.1728749e-07
172	0xb45b88fa	-2.0445796e-07
173	0xb4012347	-1.2026895e-07
174	0xb3a965ba	-7.88818e-08
175	0xb4087b89	-1.2710929e-07
176	0xb4360f46	-1.6955627e-07
177	0x337c6642	5.8766325e-08
178	0x331dbfe0	3.672892e-08
179	0x34624add	2.1075125e-07
180	0xb28f0680	-1.6650347e-08
181	0x34162a40	1.3985209e-07
182	0xb2dd5b64	-2.5769346e-08
183	0x34053af0	1.2408032e-07
184	0xb47c4300	-2.3493703e-07
185	0xb33f204d	-4.450003e-08
186	0x31c2f280	5.673712e-09
187	0x33d6a239	9.99466e-08
188	0x33e8a6b4	1.0833665e-07
189	0xb436f802	-1.7040296e-07
190	0x33474a4a	4.6400864e-08
191	0x338d8276	6.589555e-08
192	0xb4806e2b	-2.3922016e-07
193	0xb335dba6	-4.2342116e-08
194	0xb423bd52	-1.5249432e-07
195	0x33fde422	1.1822728e-07
196	0xb366c840	-5.3733174e-08
197	0xb4237678	-1.5223657e-07
198	0xb4627460	-2.1090227e-07
199	0xb3c9ddf0	-9.400162e-08
200	0x3294de3e	1.7330532e-08
201	0x33b2ab38	8.3199154e-08
202	0x348ca2d9	2.619552e-07
203	0xb4e32443	-4.230843e-07
204	0x3410bf6b	1.3480683e-07
205	0x3118d460	2.2239632e-09
206	0x340b49fe	1.2972302e-07
207	0x330b44e8	3.242613e-08
208	0x333dcf59	4.4193573e-08
209	0x32e888e8	2.7070612e-08
210	0x334838a7	4.6617654e-08
211	0xb31e455a	-3.6850317e-08
212	0x3310c87c	3.3709952e-08
213	0x33d274a5	9.8001046e-08
214	0x346bd2d4	2.196278e-07
215	0x342b7bf8	1.5970716e-07
216	0x33c1dd08	9.027468e-08
217	0x33345067	4.198264e-08
218	0xb32b8438	-3.9934292e-08
219	0xb35ba402	-5.1139075e-08
220	0xb3c3a266	-9.109935e-08
221	0xb3b31f61	-8.341045e-08
222	0x34070b57	1.257698e-07
223	0xb4e35d16	-4.2349774e-07
224	0xb3ff2a33	-1.1882039e-07
225	0xb1f4b7a0	-7.1222104e-09
226	0xb22d5c78	-1.009095e-08
227	0xb30213ac	-3.0285875e-08
228	0x339136b6	6.7620405e-08
229	0x34e1cba4	4.2057684e-07
230	0x32df4e10	2.5996115e-08
231	0x33817e19	6.0299676e-08
232	0x3123e2e0	2.3848585e-09
233	0x3330d808	4.1174673e-08
234	0xb307eaf8	-3.164584e-08
235	0x326afba8	1.3677813e-08
236	0x34645fb0	2.1268966e-07
237	0x341e92d1	1.4768308e-07
238	0xb2d11c74	-2.4343741e-08
239	0xb3a88f24	-7.849147e-08
240	0x3292ceaa	1.7090617e-08
241	0xb322756c	-3.782536e-08
242	0x331ce366	3.6528398e-08
243	0x317c4d3e	3.6714733e-09
244	0x331dbf10	3.672818e-08
245	0x340d098a	1.3135119e-07
246	0xb306edd0	-3.1415595e-08
247	0x3432a040	1.663584e-07
248	0x343910a9	1.7235529e-07
249	0xb3c181af	-9.010852e-08
250	0x342fd575	1.63758e-07
251	0x342d23ce	1.6124906e-07
252	0xb4108dcd	-1.3462632e-07
253	0x320c40f0	8.163838e-09
254	0xb33f05e3	-4.4476007e-08
255	0xb3a10b78	-7.499233e-08

lstm.weight_hh_l0_reverse f4 [256, 64]
0	0xb382bf74	-6.088422e-08
1	0x33a33074	7.5990926e-08
2	0x3334e78b	4.2120103e-08
3	0xb43fc3e9	-1.7859533e-07
4	0xb34b8c9c	-4.7392504e-08
5	0x34586e2c	2.0156648e-07
6	0x332f406e	4.080396e-08
7	0x33965ded	7.002004e-08
8	0x326038e8	1.3051455e-08
9	0xb2a93268	-1.9697111e-08
10	0xb388cdea	-6.370449e-08
11	0x33944e58	6.906038e-08
12	0x3484fe7f	2.4772086e-07
13	0xb31e468d	-3.6851407e-08
14	0x3438a546	1.7196461e-07
15	0x342942ee	1.57637e-07
16	0xb39e8d41	-7.383142e-08
17	0xb410165d	-1.3419181e-07
18	0x324af690	1.1814009e-08
19	0x344aff60	1.8905621e-07
20	0xb49917a3	-2.851567e-07
21	0x34486e7a	1.8666643e-07
22	0xaefa5800	-1.1384316e-10
23	0xb36c58a8	-5.5028664e-08
24	0xb2ce916a	-2.4047683e-08
25	0xb3a36a98	-7.609668e-08
26	0xb3940e1a	-6.894352e-08
27	0x3482c5fc	2.435844e-07
28	0xb3855f40	-6.210621e-08
29	0x346dd414	2.2149499e-07
30	0x33c25dec	9.050913e-08
31	0xb3c37917	-9.102421e-08
32	0x32313840	1.0315546e-08
33	0xb4551571	-1.9844971e-07
34	0xb13e4a44	-2.7690854e-09
35	0xb3114192	-3.382008e-08
36	0x3400d8e4	1.1999833e-07
37	0x334899b9	4.670594e-08
38	0xb25028b4	-1.2116448e-08
39	0xb39b4c84	-7.231668e-08
40	0xb3a8ae71	-7.85484e-08
41	0x33a27b5a	7.5661504e-08
42	0x3415ab00	1.3938916e-07
43	0xb3a94b2b	-7.883349e-08
44	0x334a0a50	4.704117e-08
45	0x342159ce	1.5026964e-07
46	0xb423dcfa	-1.5260949e-07
47	0xb389abf5	-6.4108384e-08
48	0xb46023e4	-2.0874683e-07
49	0xb37bb49e	-5.8604762e-08
50	0x3312bfc8	3.4167698e-08
51	0xb387c07d	-6.321441e-08
52	0x34e1e841	4.2078503e-07
53	0xb391f0de	-6.795902e-08
54	0x32396252	1.0790773e-08
55	0xb2e130ee	-2.6215698e-08
56	0xb388de4a	-6.373428e-08
57	0xb41327de	-1.3704945e-07
58	0xb37b5342	-5.8516214e-08
59	0xb2dddc8e	-2.5828083e-08
60	0xb362ed6f	-5.283567e-08
61	0x3431a73c	1.6545249e-07
62	0xb3c1cc86	-9.0244654e-08
63	0x32eaa7a8	2.7317427e-08
64	0x32bf89f8	2.2298067e-08
65	0xb23a1d40	-1.0833276e-08
66	0x34070b4e	1.2576967e-07
67	0xb39bb2b9	-7.2502594e-08
68	0x33f9e599	1.16367296e-07
69	0xb4941baa	-2.7587276e-07
70	0xb3ff9ed2	-1.1903252e-07
71	0xb433c272	-1.6741413e-07
72	0x33a435dd	7.646643e-08
73	0x33f60746	1.1456591e-07
74	0x328e51aa	1.6568112e-08
75	0xb3924058	-6.810359e-08
76	0xb4299e77	-1.5797e-07
77	0xb40b8941	-1.2995316e-07
78	0x33338ed1	4.1806576e-08
79	0x322027be	9.322262e-09
80	0xb42afe86	-1.5925079e-07
81	0xb408822e	-1.2713346e-07
82	0x3306d41c	3.139222e-08
83	0xb3534294	-4.918782e-08
84	0x32eb053c	2.7359981e-08
85	0x328bb0f0	1.6262192e-08
86	0xb3a3343e	-7.599782e-08
87	0xb412b923	-1.3664662e-07
88	0xb3920673	-6.799828e-08
89	0xb3b21d27	-8.294074e-08
90	0x34e2f7be	4.2276037e-07
91	0x340f4d42	1.3346019e-07
92	0x3416f1ab	1.4057757e-07
93	0x341479d2	1.3827892e-07
94	0xb308b102	-3.1825955e-08
95	0xb35e1204	-5.1704788e-08
96	0xb374e3e6	-5.701795e-08
97	0xb350f43b	-4.86509e-08
98	0x341f123e	1.4814665e-07
99	0x32e6942e	2.6842908e-08
100	0x34381b13	1.7146185e-07
101	0xb41acf61	-1.4417812e-07
102	0x33b55c38	8.445244e-08
103	0xb228ac9c	-9.818134e-09
104	0xb3be1a94	-8.852399e-08
105	0xb0c6e780	-1.4472192e-09
106	0xb2873363	-1.5739436e-08
107	0xb34d631b	-4.7820418e-08
108	0x33965fe6	7.002363e-08
109	0x3442c42c	1.8139025e-07
110	0x329c9088	1.8226515e-08
111	0xb3a202b2	-7.544203e-08
112	0xb3a16d57	-7.5170355e-08
113	0x34558590	1.988576e-07
114	0x330084e4	2.9923186e-08
115	0x33d1b096	9.764442e-08
116	0xb35d1948	-5.1478565e-08
117	0x32108450	8.4119876e-09
118	0x33324264	4.1504236e-08
119	0x3408c61b	1.2738057e-07
120	0xb4efa6ec	-4.463867e-07
121	0x3431d775	1.6562792e-07
122	0x32cc6794	2.3795828e-08
123	0x335391ff	4.926005e-08
124	0x31cdade3	5.986054e-09
125	0xb362dd9d	-5.282128e-08
126	0x33211068	3.7500655e-08
127	0x328f80d8	1.6705982e-08
128	0xb423456a	-1.520581e-07
129	0x33e0dc71	1.0470911e-07
130	0x343236c7	1.659747e-07
131	0xb3818f5c	-6.0331075e-08
132	0x33d0b466	9.718569e-08
133	0xb3dee72a	-1.0379729e-07
134	0xb3c2cbfb	-9.070933e-08
135	0x32eb0864	2.7361416e-08
136	0x3254cc36	1.2386456e-08
137	0x33de6f55	1.0357932e-07
138	0x3412fa6e	1.3688415e-07
139	0xb3d23066	-9.787691e-08
140	0x349af758	2.8864702e-07
141	0xb3515350	-4.8737377e-08
142	0xb2153a5c	-8.686211e-09
143	0xb2a0dd14	-1.8726986e-08
144	0x3444d120	1.8330002e-07
145	0xb4216b7c	-1.5033396e-07
146	0xb2f886c3	-2.8932282e-08
147	0x33a52e9e	7.691891e-08
148	0xb4ba0191	-3.464634e-07
149	0x3439951e	1.7283716e-07
150	0xb4595685	-2.0241175e-07
151	0xb471ba16	-2.2512572e-07
152	0xb42f8dd8	-1.6349748e-07
153	0xb395d324	-6.9767594e-08
154	0xb1995070	-4.4620307e-09
155	0x331bfcbf	3.631862e-08
156	0x33282ef4	3.915825e-08
157	0xb4058a23	-1.2436844e-07
158	0xb38164c6	-6.025361e-08
159	0xb4115024	-1.3533332e-07
160	0xb30e6158	-3.3150485e-08
161	0xb34a6582	-4.712411e-08
162	0x319e9790	4.615636e-09
163	0x33960fd0	6.9877956e-08
164	0xb0710f00	-8.7696606e-10
165	0xb4553a09	-1.9858284e-07
166	0x322f00b2	1.0186499e-08
167	0xb406d075	-1.2555559e-07
168	0xb43a2e76	-1.7339502e-07
169	0xb31a9036	-3.5987078e-08
170	0xb2002980	-7.460017e-09
171	0xb3883ca5	-6.344025e-08
172	0xb2974ee4	-1.7614589e-08
173	0xb40a7a7e	-1.2896814e-07
174	0x341ffc16	1.4899737e-07
175	0xb45e1f8a	-2.0686835e-07
176	0x333728cc	4.2645112e-08
177	0x335186a6	4.8784067e-08
178	0xb2871a6c	-1.5728084e-08
179	0x3429f17a	1.58272e-07
180	0xb39eee3c	-7.400783e-08
181	0xb21ceb28	-9.133863e-09
182	0x3406e26f	1.2562099e-07
183	0xb4caa795	-3.7747364e-07
184	0xb30575e2	-3.107369e-08
185	0xb3d2fa32	-9.824397e-08
186	0x334fe1a4	4.8401162e-08
187	0xb29f8878	-1.8572095e-08
188	0x32f01ad4	2.7951877e-08
189	0xb38e423e	-6.62444e-08
190	0xb34d3c7b	-4.778529e-08
191	0xb454f250	-1.9832191e-07
192	0xb38faf00	-6.690789e-08
193	0xb3c48ff6	-9.1531476e-08
194	0x31c1b3b0	5.6374674e-09
195	0x34311dd6	1.6495264e-07
196	0x3394b1f7	6.924159e-08
197	0x3414408d	1.3807058e-07
198	0xb37687b6	-5.7399767e-08
199	0x340c7d2b	1.3084052e-07
200	0x3227d6e8	9.769543e-09
201	0xb3308a62	-4.110405e-08
202	0xb3a7f17a	-7.820468e-08
203	0x34102ad3	1.3426624e-07
204	0x32506a70	1.21313946e-08
205	0x31b7c7a0	5.3486957e-09
206	0x340f6a70	1.3356635e-07
207	0x330de328	3.3035718e-08
208	0xb3bd7fe0	-8.824259e-08
209	0xb362e692	-5.2829428e-08
210	0x348b083d	2.5896762e-07
211	0x330fda8c	3.349355e-08
212	0xb49a2452	-2.8711162e-07
213	0x343be771	1.749993e-07
214	0x32db4130	2.55246e-08
215	0x339f26dc	7.411083e-08
216	0xb3693080	-5.429365e-08
217	0xb3c092d0	-8.967402e-08
218	0x334ba11b	4.7411145e-08
219	0x344d45ca	1.9117502e-07
220	0xb45fedaa	-2.0854955e-07
221	0x3347c412	4.6511623e-08
222	0x3411d292	1.3580782e-07
223	0xb1b39280	-5.2262408e-09
224	0xb3a103c9	-7.497835e-08
225	0xb3bb04a0	-8.708707e-08
226	0xb418bb57	-1.4224257e-07
227	0x311f4b40	2.318032e-09
228	0xb018a100	-5.552607e-10
229	0xb3b4acfc	-8.413369e-08
230	0x348bf91e	2.6072024e-07
231	0x335b33ba	5.1036956e-08
232	0x34041dd7	1.2304314e-07
233	0xb39f71c8	-7.424711e-08
234	0x33e3cd16	1.0607816e-07
235	0xb3afdce0	-8.1892495e-08
236	0xb45930ec	-2.0227498e-07
237	0xb4045209	-1.2323302e-07
238	0xb45579ef	-1.988153e-07
239	0x342fc488	1.6369643e-07
240	0xb381f0d8	-6.05084e-08
241	0x341585e4	1.3925415e-07
242	0xb401bb0c	-1.2082108e-07
243	0x3392cad1	6.835547e-08
244	0xb3cd65c1	-9.564565e-08
245	0xb3640852	-5.3092954e-08
246	0x32ec801a	2.753227e-08
247	0x33732908	5.6615164e-08
248	0x33d2d948	9.81841e-08
249	0xb3a4872d	-7.6614334e-08
250	0xb360c526	-5.233337e-08
251	0x31aff8f0	5.1214712e-09
252	0x33f0b400	1.1208613e-07
253	0xb407e636	-1.2656605e-07
254	0xb1183bd0	-2.215291e-09
255	0xb402004a	-1.2107299e-07
