best_financial_tme.pth (torch, 607682 bytes, 21 tensors)

experts.0.lstm.weight_ih_l0 f4 [256, 80]
000000 90 fa d3 bd b1 87 de bc 8f 74 b0 3d 98 8c 44 bd
       -0.103505254 -0.027164312 0.08615982 -0.047985643
000010 b4 85 69 3c 2f 7e bc 3d f3 85 d5 bd d8 da f9 bd
       0.014253069 0.09203755 -0.104259394 -0.12199944
000020 04 92 3b bd b9 0a cc 3d 0e 9d b9 bd a0 84 1a 3d
       -0.04579355 0.09962983 -0.09063159 0.037724137
000030 d2 8c 08 3e 2e 06 af 3d af d6 e0 bd 1b d6 bf bc
       0.13334969 0.085461006 -0.10978448 -0.023417523
000040 af 3e 07 3b 5a 71 bc 3d e7 22 d0 bd 3b e1 d0 3d
       0.0020636728 0.092013076 -0.10162907 0.10199209
000050 52 34 a1 3c 29 ca a9 3d 06 5d 4e bd 89 f7 f9 3d
       0.019678269 0.08290512 -0.050381683 0.12205417
000060 04 5b a0 3d c1 a0 61 bd 19 ea a3 bd 38 f8 d7 3d
       0.0782986 -0.055084947 -0.08003635 0.10545391
000070 be 5d 91 3d 32 b3 1e bd 6d 55 d0 3d cd a4 6a bd
       0.07097958 -0.038745113 0.10172544 -0.057286073
000080 14 94 b7 3d 53 8a 8c 3d dd f9 cc 3d d3 c6 e3 3d
       0.089637905 0.06862321 0.10008595 0.11121907
000090 c0 12 9b 3c 43 ed 01 bc e4 09 b2 3d 0a 68 45 bd
       0.01892984 -0.007930103 0.08693293 -0.048194923
0000a0 f5 0e f8 3b d5 34 4d bd 77 d1 5c bd de 30 68 bd
       0.0075701424 -0.050099213 -0.0539107 -0.05668723
0000b0 ed 88 f9 3d ea 11 bc 3d c1 6d 95 bd c2 24 35 3c
       0.1218432 0.09183104 -0.072963245 0.011056127
0000c0 ed fe ac bd 6d e4 27 bd b7 c9 0a bd f9 fb a6 3c
       -0.08447061 -0.04098933 -0.033883777 0.020383822
0000d0 7d e4 df 3d 82 f3 c4 3d b7 bd 13 3d 46 e4 9d 3d
       0.109322526 0.09616758 0.036069598 0.07709555
0000e0 0f ee e8 bd 5a ab 89 bd 44 fb 4a bc 4b a2 7d bd
       -0.11373531 -0.06722136 -0.012389008 -0.061922353
0000f0 0a dc d2 bc 14 46 c1 3d f9 e5 5a 3d 14 0e c3 bd
       -0.025739688 0.094371945 0.053441975 -0.095241696
000100 68 ee 1f 3c 7b 52 06 bc 03 f5 7a 3c 58 33 7b 3d
       0.00976143 -0.008198376 0.015317204 0.061328262
000110 ec ee f2 bd c0 72 52 bc 2c 6e 29 bd 06 d6 8c 3d
       -0.11861977 -0.012844741 -0.041364834 0.06876759
000120 04 43 66 bd aa 0f 52 3d a0 fe 5a 3d 1c 97 1f bd
       -0.056216255 0.05128447 0.053465486 -0.03896247
000130 cd 74 ca 3d 86 03 c9 bd 78 ac cb 3d 88 92 85 3d
       0.09885559 -0.09815125 0.09945005 0.06522089
000140 65 61 ad bb e8 60 1a 3c f2 48 fc 3b b0 c2 95 3d
       -0.0052911513 0.009422518 0.0076991254 0.07312524
000150 10 dc 45 bd cd a5 05 3d 6b b4 a1 bd 61 6d 8e bd
       -0.04830557 0.032628823 -0.0789574 -0.06954456
000160 02 f8 21 3c a4 fd 65 3d ff 1a 04 3e 75 fc c8 bd
       0.00988579 0.056150094 0.12900923 -0.09813777
000170 3b 54 2c bd 61 b4 09 3d 7a 47 a2 bd 84 36 0a 3c
       -0.042072516 0.03361929 -0.07923789 0.008435849
000180 11 e7 b5 bd dd 5c c0 bd 30 df f5 bb 44 51 9d 3d
       -0.08881963 -0.09392712 -0.0075034127 0.07681516
000190 4a ab a4 3d 4c f0 20 3d 49 f2 9a bd ec 96 84 bc
       0.08040483 0.039291665 -0.075657435 -0.016185246
0001a0 0d 82 21 3d 70 17 51 3c a4 a2 85 3d 5d 2a 83 bd
       0.039430667 0.012761936 0.06525162 -0.064045645
0001b0 73 e5 0e ba 96 12 97 bd 84 5e 2d bc ce 24 89 3c
       -0.0005451061 -0.07376592 -0.010581616 0.016741183
0001c0 7c 43 2b 3c 24 3e 89 bc 70 8d eb bc f5 3a 8a 3d
       0.010453101 -0.016753264 -0.028753966 0.067495264
0001d0 eb 0f 26 bd f0 60 27 3d f4 62 5e bd 84 31 12 3d
       -0.040542524 0.04086393 -0.054293588 0.035691753
0001e0 a7 2d 9d 3d fa 2a 71 3d 1c 0b dc bd ca 98 f8 bd
       0.07674723 0.058878876 -0.107443064 -0.12138517
0001f0 aa 55 0a bd 54 d1 1f bc 90 ec 0e bd 84 44 d7 3d
       -0.033773102 -0.009754498 -0.034893572 0.10511115
000200 86 ff a8 3d 27 76 e3 bd 61 e5 c1 3b 9c a6 93 bd
       0.08251862 -0.1110652 0.0059172367 -0.072095126
000210 1e fe 24 3d 6f 22 37 bd 9d 46 ea bb 7f ee f0 bd
       0.040281408 -0.044710573 -0.007149531 -0.117642395
000220 b0 73 8e 3d 53 96 47 3c a8 34 4d 3d d6 40 be bc
       0.069556594 0.012181836 0.050099045 -0.023224276
000230 e8 e5 b8 3d 76 cd 68 bd 6b b4 a0 3d d1 51 f5 3d
       0.09028226 -0.056836568 0.07846912 0.11978496
000240 34 3c 05 bd fd 15 fc bd 6c 10 8e 3d 91 58 92 3d
       -0.032528117 -0.123088814 0.06936726 0.07145799
000250 cc b9 ee 3d 9a ec b9 3d 5e a8 c3 3d 82 1b bd 3d
       0.11656532 0.09078331 0.09553598 0.09233762
000260 1a 81 ac 3d ed c7 e5 3d 0c 5f 68 3c b4 1e 47 3d
       0.08423062 0.112197734 0.014182817 0.048613265
000270 9b d6 e8 3d e2 0f e8 3c 80 4b ee bd ba 70 0f bb
       0.11369058 0.028327886 -0.11635494 -0.0021887259
000280 8c a2 c7 bb 5d ef 03 3d ff e8 aa bc cf 98 18 3b
       -0.006092375 0.032210696 -0.020863054 0.002328444
000290 9e 3e 19 bd 9e 45 c5 bd 59 44 d7 3d 81 3a c9 3d
       -0.037413232 -0.09632419 0.10511083 0.09825612
0002a0 35 f6 4f bd d9 11 87 bd 2a 58 2e 3d cc 13 7d 3d
       -0.05077191 -0.06595201 0.04256455 0.061786458
0002b0 bd 75 9f 3d 09 96 d9 3d bd ff f0 bc c2 69 8e 3d
       0.07786129 0.1062432 -0.02941882 0.069537655
0002c0 1c e5 69 bd 5c 51 4f bc 26 f2 8d 3d df 2d c1 bd
       -0.05710326 -0.012653675 0.06930952 -0.09432577
0002d0 2b 6d e8 bd af 16 9b bb a7 f2 92 bd c3 56 8c 3c
       -0.11348947 -0.0047329287 -0.071751885 0.017131215
0002e0 4c 78 24 3d fb 98 03 bc 85 fe c1 3d 16 8f f4 bd
       0.040153787 -0.008032079 0.09472374 -0.11941354
0002f0 2a db d0 3d dc ed 6a 3c c3 d0 e3 3b 25 14 d5 bd
       0.10198052 0.014338937 0.0069523766 -0.10404233
000300 15 bd a9 3d 73 c3 00 3d ad 75 fe 3b 20 09 cc 3d
       0.08288018 0.031436395 0.007765493 0.09962678
000310 7e 7c e2 bd 17 12 ce 3d f2 cf c8 bd 8e 15 cc 3d
       -0.11058901 0.10062044 -0.098052874 0.09965049
000320 98 32 e0 3c 83 10 a1 bd 57 9f 8f 3d 43 41 69 3c
       0.027367875 -0.078644775 0.070128135 0.014236751
000330 0d 26 a0 bc a6 66 d4 bd 0c b5 83 bd 97 e7 99 bd
       -0.019549394 -0.10371141 -0.06431016 -0.075148754
000340 a3 74 60 3b f2 86 ee 3d 1b a1 a2 3d bf 2e 18 3d
       0.0034249208 0.116468325 0.07940885 0.037153956
000350 67 2a 80 3d 48 2b 29 3d 58 5c 03 3c b5 40 50 3d
       0.062580876 0.04130104 0.008017622 0.05084296
000360 ea a2 e7 3d a9 5c 7f bd 79 d2 fe 3a e9 b6 56 bd
       0.1131037 -0.062344227 0.0019441388 -0.05242053
000370 6d c4 d2 3c 52 a1 91 bd 14 85 95 3d 8b 71 cf 3c
       0.025728429 -0.071108475 0.07300773 0.025322696
000380 74 71 b7 bd c4 22 4f bd 15 6f f4 bd 7d 08 53 3d
       -0.08957186 -0.050570264 -0.1193525 0.051521767
000390 e8 07 a0 bd fc 60 b5 bd a4 15 41 3d 50 82 22 3d
       -0.07814008 -0.08856389 0.04713978 0.039675057
0003a0 2e c4 dc bd 33 bd 8f 3c 1c 67 e6 bc b0 4e d8 3c
       -0.10779606 0.017546272 -0.028125338 0.026404709
0003b0 08 21 ae 3c 64 55 23 ba 14 63 92 3d e5 65 e0 3d
       0.021255985 -0.0006230681 0.07147804 0.10956935
0003c0 42 94 a6 bc 1d 9b 7d bd 5a ae 02 3d d9 15 38 3d
       -0.020334367 -0.061915506 0.031904556 0.04494271
0003d0 3a af ea 3c cb 91 60 3d 0b 88 af bd 2b 55 87 bd
       0.028648008 0.05482654 -0.0857087 -0.066080414
0003e0 8d 45 07 3e 7b 06 d1 3d 5e 2c f6 3d 7c 5e 93 bd
       0.13210125 0.10206314 0.12020181 -0.07195756
0003f0 15 2f a5 3d 1d b4 36 bc a0 64 d8 bd b3 1d 49 bd
       0.08065621 -0.011151341 -0.10566068 -0.04910059

experts.0.lstm.weight_hh_l0 f4 [256, 64]
000000 45 77 98 bc 72 16 0f 3c 31 3f d7 bd bc ad ef bd
       -0.01861156 0.008733379 -0.105101 -0.11703059
000010 51 dd e9 bd be b0 f1 3d 50 40 2b bd eb 52 de 3c
       -0.11419166 0.11801289 -0.04180938 0.027139148
000020 d2 b0 8f bd 47 d4 82 bd 6d 07 23 3d 9c e6 4a 3b
       -0.07016148 -0.06388145 0.039802004 0.0030960208
000030 4c 43 b2 3d 79 e3 60 3d bc 15 97 bd 9c 44 df 3d
       0.08704242 0.054904435 -0.073771924 0.10901758
000040 0a ce 76 bd bd 25 03 3e fa 3c dd 3c d2 ec 53 bc
       -0.060255088 0.12807365 0.027006615 -0.01293488
000050 97 5f ca bd 1a f2 82 3d 09 bb f8 bd 77 cb b8 bd
       -0.098815136 0.063938335 -0.12145049 -0.09023183
000060 e2 9f 9c 3c c8 a0 50 bd 13 58 a7 bd 7e c2 0c bb
       0.019119207 -0.050934583 -0.08171096 -0.002147823
000070 bc 3f a8 3d 87 60 45 3d fe 51 c2 bd 09 7a cf bd
       0.08215281 0.04818776 -0.09488295 -0.10130698
000080 60 8d 88 bc 1e bd 23 bc 7a f1 7a bd 6a 6a 85 bb
       -0.016668975 -0.0099938195 -0.061265446 -0.0040715234
000090 9e 0a 80 bd 4c ec a1 bd 8e 77 a1 bd 4b 64 03 be
       -0.06252025 -0.07906398 -0.07884131 -0.12831227
0000a0 cc 10 a3 bd 88 33 cd 3d 14 7b 74 bd 3b e1 72 bd
       -0.07962188 0.100195944 -0.05968769 -0.059296828
0000b0 c4 84 62 3d 0c af c8 bd ee 14 c8 3d 1b 8b be bd
       0.055302396 -0.097990125 0.09769617 -0.09303876
0000c0 44 09 87 39 cb 84 42 3c 26 ef b4 3d b6 14 ad 3d
       0.0002575611 0.011872481 0.088346764 0.08451216
0000d0 f8 8c 10 3d ec 22 c8 3d 13 f7 0a 3e 3c 5f d2 bc
       0.03529069 0.09772286 0.13570814 -0.025680177
0000e0 fd 47 8e 3d 99 8f 3c 3d b0 24 10 bd 56 4d 07 be
       0.069473244 0.046035383 -0.035191238 -0.13213095
0000f0 ef d9 67 bb 14 c0 85 3d a2 64 f9 bd 7e 8b bc bb
       -0.0035377701 0.065307766 -0.12177397 -0.0057539335
000100 bf dd 05 be 1e b1 91 bd 17 b1 bf 3c 44 1a cb 3d
       -0.1307287 -0.071138605 0.023399873 0.09917119
000110 d9 74 a6 3d 36 8d bc bd 0a f9 da bd c7 62 67 bc
       0.08127756 -0.09206621 -0.10692032 -0.014122671
000120 30 fe d6 bd 31 f8 14 3d e8 bd 50 bd 94 fb c6 bd
       -0.10497701 0.036369506 -0.05096236 -0.097159535
000130 d8 27 7e 3d c8 76 0d 3d a1 17 c3 bc 7d d0 98 bd
       0.062049717 0.034537107 -0.023814978 -0.07461641
000140 7a 3f f9 bd 21 b6 9f 3d 60 95 88 3d c1 c9 c9 3d
       -0.1217031 0.0779841 0.06669116 0.09852935
000150 70 cd c3 3d d8 ff fe 3c 0a 62 ba bc fb 0d 98 bd
       0.095606685 0.031127855 -0.022751827 -0.074245416
000160 5e a5 02 be 63 c2 fe bc 75 b3 71 3d e6 6c b5 bc
       -0.12758395 -0.03109855 0.059009034 -0.022146653
000170 64 92 6f 3d df 18 20 3d 03 05 1e bd 6f 83 e5 bd
       0.05848922 0.03908622 -0.038579 -0.112067096
000180 7c 6f 3d bc 86 d3 b3 3d fb f0 80 bd 62 54 29 bd
       -0.0115622245 0.08780579 -0.062959634 -0.04134024
000190 8d e3 89 3c 15 57 2e bd 30 b7 eb bd b5 fc d7 bd
       0.016832137 -0.042563517 -0.115095496 -0.10546247
0001a0 f0 e1 1d bd c3 45 9f bd 66 2b 03 3e 09 bb 2b bc
       -0.03854555 -0.07776978 0.12809524 -0.010481604
0001b0 21 32 60 bd 94 df ab 3d 98 8b ea bd 73 22 c9 bc
       -0.054735307 0.083922535 -0.11452407 -0.02455256
0001c0 6e e5 09 3d e0 2d f3 3d 84 16 1b 3c 7a 7a 97 3d
       0.033666067 0.11873984 0.009465817 0.073964074
0001d0 40 67 1e bd 3c 13 3a 3d 54 fb 64 bb 53 0c 91 bd
       -0.038672686 0.0454285 -0.0034939842 -0.07082429
0001e0 4f aa 02 3e 82 70 e8 bd 1e 36 20 bd 94 7e 9b 3d
       0.1276028 -0.11349584 -0.03911411 0.07592502
0001f0 da 9f 6f 3d 7f 3c 87 bd 74 0a d1 bd 37 de a7 3d
       0.058502056 -0.066033356 -0.10207072 0.08196681
000200 34 9c 01 be 69 c4 c5 bd 43 a8 bd 3c 20 c5 03 bd
       -0.12657243 -0.09656603 0.023151523 -0.032170415
000210 f6 3c 67 bd 52 bd d5 3d e3 b7 34 3d 31 6f b0 bd
       -0.05645462 0.104365006 0.04412068 -0.08614958
000220 60 9c eb bc 00 d3 dd bd 2c f4 a0 bd 70 c6 27 bb
       -0.028761089 -0.10831261 -0.07859072 -0.0025600456
000230 b9 bc 8d 3c be 29 b1 3d 11 2a 96 3d 4f c7 8a 3d
       0.017301904 0.0865054 0.07332242 0.06776296
000240 c5 93 7c bc 91 fe f2 3d 76 93 8e 3c 1d 05 d3 bd
       -0.01541609 0.11864961 0.0174043 -0.1030371
000250 03 ec fc 3d d8 b3 d4 bd 20 61 7f bd e9 95 82 3c
       0.12349703 -0.10385865 -0.062348485 0.015940623
000260 0f fb 7e bd bc 49 ae bd cd c5 ee bd 1c 6a 47 bd
       -0.062251147 -0.085101575 -0.11658821 -0.04868518
000270 2a 3a e4 3d bf cc 12 bd e9 e2 d1 3d ae 90 58 3d
       0.111439064 -0.035839792 0.10248358 0.052872352
000280 dd 3c c6 bc a2 35 a0 bd e9 07 bc 3d 6c 3f f1 bc
       -0.024198944 -0.0782273 0.09181196 -0.029449187
000290 8f a8 c4 3d 1a 16 a9 3d d0 5e af 3d 14 f1 02 3e
       0.096024625 0.08256169 0.08563006 0.12787277
0002a0 85 01 ef 3d 64 89 93 bd e4 8c e3 3c 38 73 e7 bd
       0.11670212 -0.072039396 0.027777143 -0.11301273
0002b0 f2 56 91 3c 6d 30 9e bd fd f8 c5 bd 60 d1 c9 3d
       0.017741654 -0.0772408 -0.09666631 0.09854388
0002c0 83 7c d3 3d 9c c0 0d 3d 30 a8 e7 3d 76 ac ed bd
       0.10326483 0.034607515 0.11311376 -0.1160516
0002d0 1e d4 ab 3c 5a bc ae 3d ce 78 67 bd 01 2a d4 3d
       0.020975169 0.08532019 -0.056511693 0.10359574
0002e0 f9 aa ec bd 00 59 52 3d f4 99 c3 3c b3 41 85 3c
       -0.11556048 0.05135441 0.023877122 0.01626668
0002f0 f3 bb 2b bb 35 a5 b9 bd 0f e3 06 3c 7d 96 6c 3c
       -0.0026204556 -0.09064714 0.008232846 0.014440176
000300 49 ef c9 bc 67 8d ed 3d 70 e1 2e bd 9c e2 0f 3d
       -0.024650233 0.11599236 -0.042695463 0.03512822
000310 b6 d5 ed 3d 90 08 1b 3d 69 85 b0 bd 38 32 22 3d
       0.11613028 0.037849963 -0.08619196 0.039598674
000320 3d dc d7 bd f1 70 48 3d aa 93 a5 3d 36 f8 e3 bb
       -0.10540054 0.048935834 0.08084805 -0.0069570793
000330 8e 99 af 3d ac 2c 1d bd 9f 01 cb 3c 0e e6 94 3c
       0.0857421 -0.03837268 0.024781046 0.018176105
000340 91 58 b5 bd c9 45 05 be 8b f2 80 bc e6 ad 13 3c
       -0.08854783 -0.13014902 -0.015740653 0.009013629
000350 41 9a c0 3d a0 79 c7 ba 81 52 c4 bd 73 82 48 bc
       0.094044216 -0.0015218742 -0.09586049 -0.012238133
000360 8a 24 04 be 40 64 62 bc d0 74 0c ba 95 4b ba bd
       -0.12904564 -0.013817847 -0.00053579826 -0.090964474
000370 14 78 5c 3d dc 24 30 ba f6 5f ad bd fb d0 3d bc
       0.053825453 -0.00067193597 -0.08465569 -0.011585469
000380 e2 9c 9b 3d 95 53 b8 bd 9e b1 7d bd 86 e8 39 bd
       0.075982824 -0.09000317 -0.061936967 -0.045387767
000390 69 09 1e bd b5 72 92 bc c4 a4 8a 3d e5 44 87 3c
       -0.038583193 -0.017876962 0.06769708 0.016512344
0003a0 23 33 9d 3c 8b 8d 05 3e 49 32 e3 bd 99 32 6e 3c
       0.019189423 0.13042276 -0.110935755 0.014538431
0003b0 c4 38 c2 3d b8 0c c5 3d c5 f4 8e 3d 7d 82 12 bd
       0.094834834 0.096215665 0.0698028 -0.035768975
0003c0 87 40 23 3c 06 6e ec bc e3 b1 ac bd b9 df b2 bd
       0.009964115 -0.028861057 -0.08432367 -0.08734078
0003d0 bb ff 90 3d 04 d0 c7 3d ce b5 42 bd 3e b5 b9 bc
       0.07080027 0.09756473 -0.047536664 -0.02266943
0003e0 23 75 f9 bd 98 7f 1e bd ae 19 ed bd da 7e ab bc
       -0.12180545 -0.0386959 -0.11577164 -0.020934511
0003f0 1e 56 af 3d d4 15 d7 3b 38 3a 87 3d 72 88 9f bd
       0.085613474 0.0065638814 0.06602901 -0.07789697

experts.0.lstm.bias_ih_l0 f4 [256]
000000 85 34 be 3d ab a0 60 bd a5 0a 91 bd 56 7c 6a 3d
       0.09287361 -0.054840725 -0.070821084 0.057247482
000010 b6 da 60 bd 9e 68 37 3c f7 2f a6 bd c5 5b c0 3d
       -0.05489608 0.011194376 -0.08114617 0.09392504
000020 6b 75 d8 bc 8f 83 e2 bd 06 91 cd bd 7a 54 c7 bd
       -0.026423177 -0.11060249 -0.10037427 -0.097329095
000030 55 6a d1 3d 50 f7 12 bd 0a 4e 73 3b d2 1b 6f bd
       0.10225359 -0.035880387 0.0037125372 -0.05837614
000040 f8 25 26 bd 30 30 99 bc eb c7 48 3d 06 5c 50 3d
       -0.040563554 -0.018699735 0.04901878 0.05086901
000050 72 e0 06 bd 43 56 ff bd 93 97 f5 bc 33 c2 47 bd
       -0.03292889 -0.12467625 -0.029979503 -0.048769187
000060 31 4e bf 3d 2d 72 b2 bc 4c 25 a0 bd d1 bf 08 bd
       0.09341086 -0.021782959 -0.07819614 -0.033386055
000070 71 31 79 bc fd 7e f3 bc cd 1a bb 3d a0 2b 14 3d
       -0.015209542 -0.029723639 0.09135971 0.036174417
000080 0e b9 9f 3d f2 22 0e 3d 5a 97 62 bd b1 a0 df bd
       0.07798968 0.034701295 -0.05532012 -0.10919321
000090 5c 04 5c bd 70 df ab 3d 67 0e 40 bd ec 73 31 bd
       -0.053715095 0.08392227 -0.046888735 -0.043323442
0000a0 a2 bb ca 3c 03 b2 ec 3d fc 69 ce 3d 33 75 b8 bb
       0.024747673 0.115573905 0.10078809 -0.0056292056
0000b0 9e 95 3d bd 91 b0 ce 3d 71 23 6b bc 55 51 bd 3d
       -0.046285264 0.10092271 -0.014351712 0.092440285
0000c0 53 c5 7f bd 0b 93 56 3c 1b ab 47 bc d8 08 76 3d
       -0.062444042 0.013096581 -0.012186791 0.060067028
0000d0 23 eb be bd 63 df c5 3b d7 2c c8 bc e9 0d e1 3d
       -0.093221925 0.0060385927 -0.024435444 0.10988981
0000e0 85 96 c2 bd ff fc d8 3c 14 6b a3 bc 7b 76 b8 bd
       -0.095013656 0.026487825 -0.01994852 -0.09006973
0000f0 3f 93 ee bd c1 87 ba bd fc ff ab bb 22 f0 d3 bd
       -0.11649179 -0.09107924 -0.0052490216 -0.10348536
000100 6e 03 19 bd d0 27 93 3d ec ef e4 bd d2 5f 14 bd
       -0.037356786 0.07185328 -0.11178574 -0.036224194
000110 ee 59 4f 3d c3 b8 ed bd 96 02 0a bd 7b e3 bd 3d
       0.050622873 -0.11607506 -0.033693872 0.09271904
000120 03 fb 86 bd 16 ee eb 3d d7 12 0e bc 6d f4 5f bd
       -0.065908454 0.11520021 -0.008671484 -0.054676462
000130 b6 b9 86 bd 6c 8f bd bd bc cc 03 be 32 33 8b 3d
       -0.0657839 -0.09255871 -0.12871069 0.06796874
000140 44 fd 8a bc 27 9f a3 3d 41 92 d8 3c 98 64 69 3d
       -0.01696647 0.0798934 0.026436927 0.0569807
000150 06 32 95 bc e7 40 ea 3c 55 dc 04 3d 4c 84 82 3d
       -0.01821233 0.028595401 0.032436687 0.0637289
000160 2b 02 8f bd 0e 88 33 bd ae cf 69 3d f3 df 92 3c
       -0.069828354 -0.043830924 0.057082824 0.017929053
000170 6b 5d 62 bc 2e 84 bd 3c ce 62 cb bc f5 78 db bb
       -0.013816218 0.023134317 -0.024827387 -0.006697769
000180 d7 64 92 bc 51 ee e9 3c 70 09 fa 3b df 8a 61 3c
       -0.01787035 0.02855602 0.0076305196 0.01376602
000190 43 36 bb 3d 89 3e f7 3c 1b f6 c0 bc a9 0f 21 bd
       0.09141209 0.030181186 -0.023554852 -0.039321575
0001a0 5a 32 10 bd 57 2c 1f bd 17 f5 fe 3d 55 1b d8 3d
       -0.03520427 -0.038860645 0.12449091 0.10552088
0001b0 00 7e af bd b7 80 a2 bd 7e 8c 77 3d f5 c5 de 3d
       -0.085689545 -0.07934707 0.06043672 0.10877601
0001c0 40 0d 85 bd bd ad aa 3d 78 a2 ab 3d 9f 6d b9 3d
       -0.06496668 0.08333919 0.08380598 0.09054112
0001d0 7e 68 58 bc b9 d9 66 bd d4 e4 e0 bd 2e fe d3 bc
       -0.013208507 -0.05635998 -0.109811455 -0.025878038
0001e0 fa 4f 25 bd 2d a2 86 bd c2 e6 43 bb 5c 47 b7 bd
       -0.040359475 -0.06573901 -0.002989218 -0.089491576
0001f0 e9 93 ac 3d 0b e5 aa bd 59 9f d0 bb 32 85 07 3d
       0.08426649 -0.08344468 -0.006366652 0.03308601
000200 d4 78 c2 bd d9 03 cb 3a 02 4f 81 3d b6 20 a1 bd
       -0.094957024 0.0015488818 0.06313898 -0.07867567
000210 a7 24 09 bd bd 11 08 3d bb 74 a0 3d a4 eb ff bd
       -0.03348222 0.03322004 0.078347646 -0.12496117
000220 dc 16 74 bc 23 1d 96 3d 47 37 6e bb 14 85 27 3d
       -0.014898028 0.07329776 -0.0036348866 0.040898398
000230 f3 5b 3a 3d 61 d0 d5 3d fb 69 6a bd 94 9b b9 3d
       0.045497846 0.10440136 -0.057229977 0.09062877
000240 3b 4f 3c bd d6 b3 dc 3c b5 a1 d2 bc 33 47 b2 bd
       -0.045973998 0.026941221 -0.025711874 -0.087049864
000250 02 37 6a bc bb 65 b3 bc d8 f5 01 3e f6 ba 59 bb
       -0.014295341 -0.021899095 0.12691438 -0.003322301
000260 6a ae 16 3a 01 3e d0 3d 37 da d1 3c 20 ff 8a bd
       0.00057480356 0.10168076 0.025616748 -0.067869425
000270 e5 7f 99 3d c6 f4 8e bd cf 82 44 3d 05 02 69 3d
       0.07495097 -0.069802806 0.04797631 0.05688669
000280 6d 31 cb bd 90 56 03 be 7a 9c 08 3a c0 4d ad bd
       -0.099215366 -0.1282599 0.0005211305 -0.08462095
000290 68 d0 cb 3d 2f 68 00 3d c5 b0 d4 bd 95 8a d1 bc
       0.0995186 0.031349357 -0.103852786 -0.025578776
0002a0 2b 46 00 3e ac ee a2 3d 0b d7 b5 3d 3d d3 d0 3d
       0.12526767 0.07955679 0.08878907 0.101965405
0002b0 4c 3b f0 bc 09 d9 b5 bd 6f 4f 1f bc 07 ac 45 3d
       -0.02932515 -0.08879287 -0.009723528 0.04825976
0002c0 d8 a1 d2 3d 70 29 b8 bd fd 22 e0 3c af 8f b6 bd
       0.102847755 -0.089922786 0.027360434 -0.08914124
0002d0 ef 72 04 bd 24 e4 95 bd 2c 9c eb 3d a3 5d 15 3d
       -0.03233617 -0.07318905 0.11504397 0.036466252
0002e0 23 c7 f8 3d 23 01 02 be 63 2a 64 3d c7 cb 92 bd
       0.12147357 -0.12695746 0.055704486 -0.07167774
0002f0 a3 f6 8a 3d 20 9d 30 3d cf 96 6d 3d 26 5e aa 3d
       0.067853235 0.043118596 0.05800515 0.08318739
000300 90 68 a1 3c 98 99 aa 3d 20 10 69 3d 3c 6d d6 bd
       0.01970318 0.08330077 0.056900144 -0.104700536
000310 db 6e 93 3d 5e 01 a2 3d 89 0d e4 3d 69 73 45 bd
       0.071988784 0.07910417 0.11135394 -0.048205767
000320 11 8b 1b bd 83 8c 89 bd 17 85 0e 3c 1b d4 1e bc
       -0.03797442 -0.067162536 0.008698723 -0.009694125
000330 48 2f 6d bd fa 12 59 3d 7a 1e a3 3c f4 f3 99 3c
       -0.05790642 0.052996613 0.019911993 0.018793084
000340 fc 1a 80 3d 58 df bd bd 42 64 f1 3c 5b c2 1d bd
       0.06255147 -0.09271115 0.029466752 -0.03851543
000350 91 97 e9 3b a4 94 2f 3d 3a c4 83 3d 1e 70 71 3c
       0.007128664 0.042866364 0.064339116 0.0147362035
000360 1d 5e e7 bd c8 97 57 bc 5c 80 0a 3e d0 6d 9c bc
       -0.112972476 -0.013158746 0.13525528 -0.019095331
000370 a3 f6 7a 3b 10 55 ad bd 0b c2 e3 3d 9a e0 7d bd
       0.003829398 -0.0846349 0.11120995 -0.061981775
000380 1c f2 ef 3d 85 aa 47 3d 93 a8 95 bd b6 1d 17 3d
       0.117161006 0.048746604 -0.073075436 0.03689357
000390 6d 67 11 3d 38 a5 19 3c aa b3 98 3d cd fa 01 bd
       0.035499025 0.00937777 0.07456143 -0.031733323
0003a0 d2 62 f0 3c 28 f5 07 3e d3 a8 3b bd 6e a8 af 3d
       0.029343996 0.13277113 -0.0458153 0.08577047
0003b0 96 66 67 bd 31 fe 08 be 2b 0b b6 bd 14 6b 2d 3d
       -0.056494318 -0.13378216 -0.08888849 0.042338446
0003c0 88 13 28 bd ff a5 ad 3c fd 98 cb bd 86 63 7c 3d
       -0.04103425 0.021197317 -0.099412896 0.06161835
0003d0 1b be a0 bb 0c 0a 97 bc 1e ea d4 bd e5 2e 53 3d
       -0.004905475 -0.018437408 -0.10396217 0.051558394
0003e0 2f 6d 56 bd 94 a7 f4 3d f3 ad 87 bd 3d 8a aa bc
       -0.05235022 0.119460255 -0.06624975 -0.02081787
0003f0 0d 3a a7 bd d3 2c d6 bd bd 04 56 3d 46 3a c5 bd
       -0.08165369 -0.10457768 0.052250613 -0.096302554

experts.0.lstm.bias_hh_l0 f4 [256]
000000 be 3a 97 3c 4d bf 02 3e 42 7f 08 bb cf 0d 9c bd
       0.018460628 0.12768288 -0.0020827805 -0.07619821
000010 c8 3f b9 3d 06 30 9e bd 59 29 a2 bc 3a 5e 83 bc
       0.090453684 -0.077240035 -0.019795107 -0.016036142
000020 4f 6a d0 bd 52 cd 14 3c 94 9e 27 3c 94 52 86 3b
       -0.10176527 0.009082155 0.010230679 0.0040991995
000030 41 2c cc bd e1 9a c2 bb 32 29 38 bd 9d 5b b1 bd
       -0.09969378 -0.005938873 -0.044961162 -0.08660052
000040 75 f0 0b 3d a0 5d 87 3a 8e 8a d9 bd 93 cb e3 3d
       0.034164865 0.0010327585 -0.1062213 0.11122813
000050 3e 53 4f 3d f1 ec 54 3c 3e 3d fc bd 9c 6f ca 3d
       0.050616495 0.012995944 -0.123163685 0.09884569
000060 35 99 b9 3d 0c bd 84 3d f0 2f d3 bd f9 fb b6 bc
       0.09062425 0.0648137 -0.10311878 -0.022336947
000070 57 97 db bd ba 0f dc bd 37 79 c7 3d f9 b6 df bd
       -0.10722225 -0.10745187 0.09739917 -0.10923571
000080 4f 11 86 3d 20 4e ba 3c 22 4a df bd 29 e1 90 bc
       0.0654627 0.022742331 -0.109028116 -0.01768549
000090 ff 82 a1 bd 4a 47 ad 3d e9 93 85 3c 66 d8 f4 bc
       -0.07886314 0.08460863 0.01630588 -0.029888343
0000a0 69 a7 c2 3c bf bf 5b bc 74 9a 9a bd ec 3c be bc
       0.023761468 -0.013412415 -0.07548991 -0.02322241
0000b0 da f1 29 3d 95 45 bb 3d 87 3a 4e 3d 08 80 49 3d
       0.041490413 0.09144131 0.050348785 0.049194366
0000c0 44 1c 43 3b 62 07 8e bd 41 58 af bd ab 5d bd bd
       0.0029771486 -0.06935002 -0.08561755 -0.09246381
0000d0 c5 d9 82 3d 3a 29 a9 3d 2c c6 1d bd 07 46 dc bc
       0.063891925 0.082598165 -0.03851907 -0.02688886
0000e0 99 07 ae bd 4a 3e 7c 3d 4b 67 9d bd 1b 47 31 bd
       -0.08497543 0.06158284 -0.07685717 -0.043280702
0000f0 6b 61 af bd 42 24 24 bd 53 6b 2d bd da 2f 6d bc
       -0.08563503 -0.04007364 -0.04233868 -0.014476741
000100 84 22 ff 3d ca 8e 84 bd 6f dd 08 3e f9 3b f5 3d
       0.12457755 -0.06472547 0.1336572 0.119743295
000110 64 85 f9 3c dc 28 b7 3b 0e 49 63 bd 43 0d af bd
       0.030459113 0.0055895876 -0.055489592 -0.08547451
000120 f3 02 d0 bd 31 a7 08 3e 0f 01 c0 3d ea 7b b8 bd
       -0.101568125 0.13345028 0.09375202 -0.0900801
000130 9f e8 ba bd 75 3c a7 bc c0 d4 1c 3b a7 b0 f8 3d
       -0.091264 -0.02041457 0.002393052 0.12143069
000140 c0 f7 b6 3d ab 63 ea bd e7 c9 f3 bc 91 01 25 3c
       0.08933973 -0.114447914 -0.02975936 0.010071174
000150 e2 f0 b7 bd 95 6d b9 bd 59 6a 01 bd 21 58 5e bb
       -0.089814916 -0.09054104 -0.03159556 -0.003392704
000160 f7 02 d5 bd da 19 96 bc 54 6f ac bc 55 02 ff bc
       -0.10400956 -0.018322874 -0.02104918 -0.031129042
000170 66 ac c5 bc d6 6e b4 3d 02 b5 97 3d f5 b8 ef 3d
       -0.024130058 0.08810203 0.074075714 0.117052
000180 7f 00 13 bc 7c 3f 8c bd ae b2 a1 bd f1 62 cd bd
       -0.008972286 -0.06848046 -0.078954086 -0.10028637
000190 d2 00 d0 3c 6f 77 69 bd a0 19 05 be 35 91 da 3d
       0.025391016 -0.056998666 -0.12998056 0.10672227
0001a0 e1 83 b3 bc df bd e9 bd c1 d2 01 3d 51 c3 95 bb
       -0.02191347 -0.11413168 0.03169513 -0.0045704027
0001b0 5e 16 a8 3d 39 80 a1 bc 54 71 af bd 22 97 7e 3d
       0.08207391 -0.019714462 -0.085665375 0.06215585
0001c0 34 16 e3 bd 61 5f 0f bb 6c 3e 9c bd 36 4d 4b bd
       -0.11088219 -0.0021876919 -0.076290935 -0.04963418
0001d0 76 8d a8 3d 23 84 39 3d d8 21 88 bc 5d 7c 89 3d
       0.082301065 0.04529203 -0.0166177 0.067131735
0001e0 2d 04 73 bd f5 1f bb 3d 95 78 fc 3c f7 63 04 3e
       -0.059330154 0.09136955 0.030819217 0.12928759
0001f0 2b 15 94 3d ef 9c 8f bd cb 63 85 3c ae 21 f5 bc
       0.072306 -0.070123546 0.016282937 -0.029923286
000200 c1 3a c2 3c 42 8a 86 bd 76 9a e4 3d 74 1f ef bd
       0.023709657 -0.06569339 0.111622736 -0.11675921
000210 df 0c 7f 3d b7 2e a3 3d 74 76 90 3b ba 6f 98 bd
       0.062268134 0.079678945 0.004408652 -0.07443185
000220 e0 55 96 3d 97 2d 9c 3d a0 6d b2 bd 14 8a 4c 3d
       0.07340598 0.07625883 -0.087123156 0.04993637
000230 ff d2 96 3d bd 95 a7 3b 97 f4 51 3c d2 4f 9c bb
       0.07364463 0.0051142857 0.012814662 -0.0047702575
000240 ed 5f 46 3d f2 46 bd bc 7b 46 f0 3d 05 c1 9e 3c
       0.048431326 -0.023105118 0.11732193 0.019379148
000250 62 ec ec 3d 2e 7f 31 3d ef 69 ad bd 09 13 71 bd
       0.11568524 0.04333418 -0.08467471 -0.058856044
000260 10 93 53 3d f6 2d f8 3c c3 34 ae bd ae 69 0f 3d
       0.05165392 0.030295353 -0.08506157 0.035012893
000270 6e 58 b4 ba 7e ef ed bd 95 c4 e9 3d c0 77 b2 bc
       -0.0013759264 -0.11617945 0.11414448 -0.021785617
000280 79 05 1f bd ee b8 9f 3d ae 7a cd 3d 5e eb 92 3d
       -0.03882358 0.077989444 0.10033165 0.07173799
000290 d1 b1 3e bb a4 c4 8e 3d fe 6e 73 bd 80 7b 41 bd
       -0.0029097686 0.069711 -0.059432022 -0.04723692
0002a0 9c 4e e9 bd 21 dd 53 3d c5 a2 d2 bd 20 83 1d bd
       -0.11391947 0.051724557 -0.10284952 -0.03845513
0002b0 8d 0a 9f bd af e8 45 bd 4a e6 be 3d 4e 9a b9 3d
       -0.07765684 -0.048317607 0.09321268 0.090626344
0002c0 26 18 b4 bc 88 c7 af bd 54 d8 a5 3d 13 34 61 3d
       -0.021984171 -0.085829794 0.08097902 0.054981302
0002d0 10 b6 ae bd d6 a2 98 bd 94 92 06 3d fb d9 e9 3d
       -0.085308194 -0.074529335 0.03285463 0.114185296
0002e0 17 46 19 bd be b7 94 bd e8 06 a6 3b 0d 7b f4 bd
       -0.03742036 -0.072616085 0.0050667413 -0.119375326
0002f0 64 24 31 3d a0 b5 32 bd 49 e7 6b bd 6a c0 01 be
       0.043247595 -0.043630242 -0.057593618 -0.12671056
000300 15 37 b8 bd 16 ef 99 bd d3 ab 0c 3d c4 fa 31 bd
       -0.08994881 -0.07516305 0.03434355 -0.04345204
000310 78 29 0b bd 85 9b 08 be 1f 39 d1 3d 83 8a 6a bd
       -0.033975095 -0.13340576 0.10215973 -0.057261
000320 11 27 f3 3d ae 74 60 3d 08 73 f9 bd 58 a7 84 3d
       0.11872686 0.054798774 -0.121801436 0.06477231
000330 fb d7 08 be 39 cd de bd ee 47 d1 bd f4 fc 2e bd
       -0.1336364 -0.10878987 -0.102187976 -0.042721704
000340 c3 57 9a 3d 67 11 75 bd 7c cc 0d 3d 0a 8e cc 3d
       0.075362705 -0.05983105 0.03461884 0.09988029
000350 ad c9 be bc 77 c6 a3 bd 2e dd ca 3d 4f f9 83 3d
       -0.023289526 -0.079968385 0.09905468 0.06444036
000360 4b a0 e9 3d 54 18 f0 3c 45 2b ed bb 9c 36 93 3d
       0.114075266 0.029308476 -0.007237824 0.0718815
000370 cd dc 8b 3d ae d1 b0 3c 79 12 b0 3d 38 20 e4 3d
       0.06829224 0.021584358 0.085972734 0.11138958
000380 a4 29 f3 3d c3 55 89 bd 37 97 21 3d 92 7d ea bd
       0.11873177 -0.06705811 0.03945085 -0.11449732
000390 53 49 ac bc 94 a6 ca bd 32 ee 85 bd 61 1d 2b 3d
       -0.021031057 -0.098950535 -0.06539573 0.041776065
0003a0 89 0d 46 3d 27 f8 3d 3d 23 75 0f 3d 78 20 9a 3c
       0.048352752 0.046379235 0.03502382 0.01881431
0003b0 14 fd 9f bd 97 23 62 bd d5 89 34 bd b4 12 1f bd
       -0.07811943 -0.055209722 -0.04407676 -0.038836196
0003c0 7e 45 af 3d 86 ec 40 bd c5 c1 a4 bd cf 12 03 bd
       0.085581765 -0.047100566 -0.08044771 -0.03200036
0003d0 b4 59 3f bd cb ed 88 bd 64 73 e4 bd 8e d2 c0 ba
       -0.046716407 -0.066859804 -0.111548215 -0.0014711188
0003e0 3d 45 cf 3d 62 4d ba bd 1d ad 85 bd 15 41 a0 bd
       0.10120628 -0.09096791 -0.06527159 -0.078249134
0003f0 fb 0d e4 bd 73 19 90 3d 59 f4 46 3d 6c 2d e0 bc
       -0.11135479 0.07036104 0.04857287 -0.027365409

experts.0.fc.weight f4 [1, 64]
000000 7d 8f 99 bd f9 af e0 bd 50 15 4b bd 80 2a 31 3d
       -0.07498071 -0.10971064 -0.049580872 0.04325342
000010 de 18 2c 3b 34 ad 4e 3c 52 86 9e bc 49 e8 94 bd
       0.002625994 0.012614537 -0.019351158 -0.072708674
000020 06 38 5d bd 1b ee bb 3d 2b 80 72 bd 29 ce 45 3d
       -0.054008506 0.091762744 -0.05920426 0.048292313
000030 1d 54 d1 3d 53 33 9f 3d c0 55 98 bc 99 cd a3 3d
       0.102211215 0.07773461 -0.018595576 0.07998199
000040 d8 75 a3 3d 02 c1 4e bb 50 92 16 3d c1 b9 48 bd
       0.07981461 -0.0031548147 0.03676063 -0.049005274
000050 df 9c 8b 3d de 3e 00 3a 9e 02 82 3d 06 40 4b 3c
       0.0681703 0.00048921804 0.063481554 0.012405401
000060 7a 38 50 3d 9e 72 8b bd 47 37 f3 3c ee c0 bd bc
       0.05083511 -0.06808971 0.029689444 -0.023163285
000070 fd e4 3a 3d df 55 16 3d 85 b6 9a bd 9d 1b a1 bc
       0.045628536 0.036702987 -0.07554344 -0.019666487
000080 b1 73 f7 bc 6d 2c 4d bc f9 f7 f3 3c 32 1a 81 3c
       -0.030206533 -0.012522799 0.029781329 0.015759561
000090 85 fa a9 bd 00 42 f3 bc 27 18 c9 3d 9c 5e 6d 3d
       -0.08299736 -0.029694557 0.0981906 0.057951555
0000a0 5a aa 8b 3d 0f 30 33 3d f3 e8 b6 3b 0a 4e 0b 3d
       0.06819601 0.043747004 0.005581969 0.03400997
0000b0 a7 2f c4 3c 1f 00 70 bd ac 15 9d 3d 39 0e 01 3e
       0.023948504 -0.058593865 0.07670149 0.12603082
0000c0 ad c9 c6 3d b6 7b ed 3d cc fd 8e bd 56 86 33 3d
       0.09706435 0.115958616 -0.06982002 0.043829285
0000d0 b6 c5 94 3c 2e 9a 52 bc 55 d1 9d 3d 7b 9f b8 bb
       0.018160682 -0.012854142 0.077059425 -0.005634246
0000e0 43 4d 96 3d 02 6a e5 bd d0 3d af bb 93 d2 d8 bd
       0.07338955 -0.1120186 -0.005347945 -0.10587039
0000f0 ac 53 23 bc 71 c6 93 bd c0 a8 06 be b9 ab de bd
       -0.009968679 -0.07215584 -0.1315031 -0.10872597

experts.1.lstm.weight_ih_l0 f4 [256, 80]
000000 68 cf 02 bd bd bd a8 3d 83 5f 03 be 7e f4 39 bc
       -0.03193608 0.08239315 -0.12829404 -0.011349795
000010 c8 28 e3 3d 16 cf 51 3d cc b0 dc 3d e8 bd 18 3d
       0.11091763 0.051222883 0.10775909 0.037290484
000020 bb 1e d8 bd 8e d3 4e bd b8 9b ad bd ba 99 bf bd
       -0.10552736 -0.050494723 -0.084769666 -0.09355493
000030 aa b6 58 3d 5b ad a8 3d 51 f2 c5 3d 54 43 7b 3c
       0.052908577 0.0823619 0.09665359 0.0153358765
000040 e4 aa a4 bd 34 0f 35 bd 7e dd e7 bd 76 15 f4 bb
       -0.08040407 -0.044203952 -0.11321543 -0.0074488474
000050 68 b8 54 3d 9a bc 8d 3d c9 bd 88 3d 72 7b 62 bd
       0.051933676 0.069207385 0.06676824 -0.055293508
000060 49 3e 85 bd 15 ef c3 bd f5 87 81 3d ea 0a 9d 3d
       -0.065060206 -0.09567086 0.0632476 0.07668097
000070 80 49 7f 3d 19 9b 64 bd 61 52 97 3b da ef b7 3d
       0.062325954 -0.055811975 0.0046179746 0.08981295
000080 e6 7d 86 3d f2 86 e8 3d ca c6 10 bd 66 b5 98 bd
       0.06566982 0.11353864 -0.03534583 -0.07456474
000090 fa 74 a0 3d d1 12 c5 bd 80 be fe bd a8 6d a6 bd
       0.078348115 -0.096227296 -0.12438679 -0.08126384
0000a0 14 26 f8 bc 2c a4 6b 3d b8 29 89 3c 6d 42 e9 bd
       -0.030291595 0.057529613 0.016743526 -0.11389623
0000b0 0f 15 0f bd da ce 37 bd d8 63 b2 3c 4a 9a 1d 3d
       -0.034932192 -0.044875003 0.021776125 0.03847722
0000c0 cc fd b1 3d cc a7 9c bd 63 95 fe bc 4a b8 30 3d
       0.08690986 -0.07649192 -0.031077093 0.0431445
0000d0 f0 75 d2 bd 87 ae 43 bc c0 83 87 3d 11 4e 6b 3c
       -0.10276401 -0.011943466 0.06616926 0.014361874
0000e0 74 fe a0 3c 13 ba e9 bd 53 0b 8f bd 65 db d5 3c
       0.019652583 -0.11412444 -0.06984582 0.026105592
0000f0 92 43 09 be f9 32 91 3c f7 09 f1 bd 98 51 a2 3d
       -0.13404682 0.017724501 -0.11769479 0.07925719
000100 b3 8a ca bc 81 00 0a 3d 2e 12 af bd 74 91 0a 3b
       -0.02472434 0.033691887 -0.085483894 0.0021143826
000110 eb ad f2 3d 70 9e e6 bd 60 38 da bc 06 bd 91 3d
       0.118495785 -0.11260688 -0.02663821 0.071161315
000120 da d6 81 bd a4 24 60 3d cc 2b d7 bd 30 9b f4 bd
       -0.06339808 0.054722443 -0.105064005 -0.11943662
000130 47 83 62 bd fe 8e 5d bd 54 c5 5c bd 62 1d 66 bd
       -0.055300977 -0.054091446 -0.053899124 -0.056180365
000140 92 0b ed bc c7 99 d0 3c 8d 52 46 bd 41 fc ae bd
       -0.028936181 0.025463952 -0.04841857 -0.08544207
000150 ae 73 d7 bb 9a a5 02 be 4e 4b 00 3e 4a 84 28 3d
       -0.0065750694 -0.12758484 0.12528726 0.041141786
000160 bb de 82 bd 31 84 fc bd aa 33 4d 3c 32 21 5d 3d
       -0.06390139 -0.12329901 0.012524525 0.053986736
000170 7b 1b a7 bd 52 22 26 bd ba d5 e3 bd f9 45 1c 3d
       -0.08159538 -0.040560074 -0.111247495 0.03815267
000180 2f ea 86 bd a9 e8 b1 bd c0 8c 5e bd 3d 04 a4 3d
       -0.06587636 -0.086869545 -0.05433345 0.08008621
000190 8b 06 51 bd 2d 9f 45 bd 97 12 61 3d 1f 40 81 bd
       -0.05103163 -0.048247505 0.05494937 -0.06311058
0001a0 95 a5 87 bc f0 29 aa bd 27 a5 ff bd 40 a2 38 3d
       -0.016558448 -0.0830878 -0.12482672 0.04507661
0001b0 ca 84 ba bd a8 ac 0d be 40 25 e2 3c ef d9 26 bd
       -0.09107359 -0.13835394 0.027605653 -0.04073518
0001c0 da b2 91 3d 8a 08 b3 bd 7b e5 78 bd 9c 5c 01 be
       0.07114191 -0.08741863 -0.060765725 -0.12632984
0001d0 13 87 e8 3d a8 d9 f7 3b 8f 8a 26 3c 03 5e 60 bd
       0.11353888 0.0075637884 0.010164871 -0.054777157
0001e0 cf 37 56 3d 00 94 89 3d 8d ab 5d bd 87 09 b3 bc
       0.052299317 0.06717682 -0.05411868 -0.021855129
0001f0 7a c7 71 3d 28 99 8a bc c5 10 0e bd bc 23 07 3d
       0.059028126 -0.016918734 -0.03468396 0.032993063
000200 2c 8b e8 bd f1 28 ba bd 9d 8f 92 bc bd f0 fc 3c
       -0.1135467 -0.0908984 -0.017890746 0.030876512
000210 77 45 85 3c 57 3c 5c bc 53 77 66 bd 8e 66 aa ba
       0.016268475 -0.0134421205 -0.05626614 -0.0013000534
000220 40 df f1 bd 45 f3 96 bd d5 02 c6 3c cd a0 b4 bc
       -0.1181016 -0.07370619 0.024171272 -0.022049332
000230 50 df 05 3d c6 7b 4c bc e0 0c b4 bd 60 23 0a be
       0.03268367 -0.012480682 -0.08791518 -0.13490057
000240 0f 9b c4 3d 76 ee 3e bd 03 71 26 3d 49 9a c4 bc
       0.095998876 -0.046614133 0.04063512 -0.02399935
000250 cf 48 08 be e0 1e 61 bc e0 b1 c1 3d da e2 8c 3d
       -0.13309024 -0.013740271 0.09457755 0.06879206
000260 00 8e a5 bd b1 8b 80 3d 7b 8d bb 3d 12 18 c1 bd
       -0.08083725 0.06276644 0.09157845 -0.09428419
000270 9a 00 62 3c b3 9b ea bd 48 3a c0 3d c3 2a b2 bd
       0.013794089 -0.114554785 0.09386116 -0.086995624
000280 8b 7f 7b bd 21 10 b1 3d 1c 72 98 3d cd 8e 03 3d
       -0.06140093 0.086456545 0.0744364 0.032118607
000290 46 05 d7 3d f0 0d f0 3d 66 42 04 3e d8 60 d4 3d
       0.10499053 0.11721408 0.12915954 0.10370034
0002a0 30 cd dc bd 3c 08 df 3c 67 f7 fd 3c ff 14 89 3d
       -0.10781324 0.027225606 0.03100176 0.06693458
0002b0 c5 09 c6 3d ee 82 70 bd c9 01 7c bd 8b c8 03 be
       0.09669832 -0.058718614 -0.06152514 -0.1286947
0002c0 a4 bb ba 3d 85 d2 36 3d 90 29 8e 3c 00 01 fb 3d
       0.09117821 0.04463436 0.017353803 0.1225605
0002d0 7b f0 9f 3d 8b 12 d5 3d 6e 90 90 bd 49 28 1b bb
       0.0780954 0.104039274 -0.07058798 -0.0023675135
0002e0 30 a2 ad bd 58 74 11 3d f5 80 ac bd 03 5e 76 bd
       -0.084782004 0.035511345 -0.08423034 -0.06014825
0002f0 fb be b5 3b 0e fb aa 3d cf c4 03 be 8a 3e 95 bc
       0.0055464483 0.08348666 -0.12868045 -0.018218298
000300 a8 f4 0e 3a a1 ee b5 3d aa e3 f7 bd 51 59 46 3c
       0.0005453327 0.088834055 -0.1210397 0.012106256
000310 be e2 ee bd f2 a8 95 bd a4 44 0a 3e 93 0a 3b bd
       -0.116643414 -0.073076144 0.13502747 -0.04566438
000320 09 62 1e bd 10 6c d6 3d 82 4d d8 3d cb 56 e1 bd
       -0.038667712 0.1046983 0.105616584 -0.110028826
000330 39 1e a1 bc b3 58 fa 3d a5 d5 26 3d 02 b0 ba bd
       -0.019667732 0.12223949 0.04073109 -0.09115602
000340 e3 5e c1 bd 3e 4c aa 3d b3 9f b2 3d cd 94 d4 3d
       -0.09441926 0.08315323 0.087218665 0.10379944
000350 c1 26 d7 bd c9 bc d3 bd af e9 dd 3d 7a fa e3 3d
       -0.105054386 -0.10338742 0.10835587 0.11131759
000360 ef bb df 3d 6e 3f d7 3d 7f da 09 be 96 d4 f9 bd
       0.10924517 0.10510145 -0.13462256 -0.12198751
000370 79 f8 da bd 60 63 9b 3c 06 f0 d8 bd 8f 77 86 bd
       -0.10691924 0.018968284 -0.10592656 -0.06565773
000380 dd f0 03 3e 60 15 b6 bc 83 47 05 bd 19 0a 80 bd
       0.12884851 -0.02222699 -0.032538902 -0.06251926
000390 37 bd 9d bd f4 64 65 3d 88 2f 6e 3d 62 04 bc 3d
       -0.077021055 0.05600448 0.058150798 0.091805235
0003a0 ec 9f 6d bd e6 0f 4f 3c 8d 3d 90 bd 88 61 e5 3d
       -0.05801384 0.012638068 -0.0704299 0.11200243
0003b0 35 42 22 bd d0 d6 fe 3d 4c f6 60 bd 20 ee ee 3d
       -0.03961392 0.12443316 -0.054922387 0.116665125
0003c0 c6 e1 28 3c 6d b1 97 3d c7 e5 18 3d 8e cd e3 3c
       0.010307735 0.07406888 0.037328508 0.027807977
0003d0 6d b7 fd bd 47 a8 86 3d 0e 24 b4 3c a5 cd b4 bd
       -0.12388501 0.06575065 0.021989848 -0.08828286
0003e0 34 7b 9a 3d e9 0d 9e bd 41 cd d4 bd d1 03 03 3b
       0.075430304 -0.07717497 -0.103907116 0.0019991288
0003f0 40 13 f4 3d dd a2 6a 3d 8c b3 8c bc 20 34 25 bd
       0.11917734 0.057284225 -0.017175458 -0.040332913

experts.1.lstm.weight_hh_l0 f4 [256, 64]
000000 6b aa cd bc 6a 80 80 bb c9 72 a9 3d 2d 93 ee bd
       -0.025105676 -0.003921558 0.08273847 -0.11649165
000010 69 24 ec bb 8b b6 18 3d 06 1f a5 3c 98 e8 4d 3d
       -0.007206489 0.03728346 0.020156395 0.050270647
000020 9a e8 33 3c b3 70 07 bd a8 02 05 3c 62 b8 5c 3d
       0.0109807495 -0.033066463 0.008118309 0.05388678
000030 a0 c2 a4 bb 57 98 88 bc 23 b4 50 bc 91 a6 ba bd
       -0.005028084 -0.016674204 -0.01273826 -0.09113801
000040 ca 9a 25 3d aa f7 85 bc 23 55 dd bb 2f 97 ca bd
       0.04043082 -0.016353447 -0.006754534 -0.09892117
000050 65 cb 29 bd 54 52 e3 3d 5d b5 e7 3d ad 52 db 3c
       -0.041453738 0.11099687 0.11313889 0.026772821
000060 e3 73 28 3d c2 be e2 bd 9e b9 56 3c ce 17 b9 bc
       0.041126143 -0.110715404 0.013105778 -0.022594359
000070 81 55 c8 3d 5b cc 96 bd 54 8d d9 3d 09 d1 a4 bd
       0.097819336 -0.073631965 0.10622659 -0.08047683
000080 0e 79 02 bd a1 5b e7 bd c6 f1 31 bd a0 c9 9f bc
       -0.031853728 -0.11296774 -0.043443464 -0.019505322
000090 24 7f dd 3d 49 cf a5 bd 62 14 05 bc 6f 39 95 bd
       0.10815266 -0.08096177 -0.008122535 -0.07286345
0000a0 53 90 d4 3d ce a1 68 3d 74 15 af 3c 93 b3 d7 bd
       0.1037909 0.056794934 0.021372534 -0.10532298
0000b0 a5 cd 79 3c a3 e0 2b 3d 45 56 9e bd 7b 46 db bd
       0.015246783 0.041962277 -0.07731298 -0.107068025
0000c0 a3 22 73 3d cc 4a d8 3d e4 5a 3d bc 86 4f 1d bd
       0.059359204 0.10561141 -0.011557315 -0.038405918
0000d0 2f c2 bc 3d 7e 31 ee 3b 28 75 cc bd bb ff 5b 3d
       0.09216725 0.0072690835 -0.09983283 0.05371068
0000e0 12 2d ff bd 65 f2 12 3d 63 5a 54 bd 74 13 7f 3d
       -0.12459768 0.035875697 -0.051844012 0.06227441
0000f0 5f 6c 5d 3d b5 5d e1 3c 77 5f 6c 3d 0e c3 4b bd
       0.05405843 0.027510503 0.05770823 -0.049746566
000100 e7 24 c5 3d a9 45 94 bd 44 f6 00 3c 8e 81 d6 bc
       0.09626179 -0.07239849 0.007871214 -0.026184823
000110 5a 3a 8c 3b 04 28 fb 3c 7c 63 60 bd 3b ad 95 3d
       0.004279417 0.03065873 -0.054782376 0.07308432
000120 1b 7a c8 3d 65 71 bb bd 55 4e 36 3d 3a 36 e8 bd
       0.09788915 -0.09152488 0.044508297 -0.11338468
000130 d4 fe cd bd 4e 9f e3 3d e2 20 1f 3b d8 74 d7 bb
       -0.1005837 0.11114369 0.0024281074 -0.006575208
000140 a5 d3 0f 3d e8 82 de 3d 69 02 49 bd 34 27 d4 3d
       0.03511395 0.10864812 -0.049074564 0.1035904
000150 b1 af f5 bd 11 2d fb 3c f7 13 79 bd 5c 29 12 3d
       -0.11996401 0.030661138 -0.060810056 0.035683975
000160 22 51 99 bb a4 e3 b9 3d 72 23 b0 bd 34 65 50 bd
       -0.0046788612 0.09076622 -0.08600511 -0.050877765
000170 90 d2 e7 bc 62 61 9d 3c 4f 19 9b 3d 18 1b 85 bd
       -0.028298646 0.019211475 0.075731866 -0.06499308
000180 b6 ac e0 bd fe 8e 06 3e 23 f5 a8 bd 0c 9a d8 bd
       -0.10970442 0.13140485 -0.08249881 -0.10576257
000190 83 3e f9 3d 02 bf bc bc 81 55 9e 3c ce 42 ee 3c
       0.12170126 -0.023040298 0.01932788 0.02908459
0001a0 52 22 a6 bc a2 c1 fb 3d 2e 97 9b 3c 94 51 74 bd
       -0.020280037 0.12292792 0.018992987 -0.05964811
0001b0 de 06 5e 3d d9 bb ea bd 38 54 24 bb f0 05 48 bd
       0.054205768 -0.1146161 -0.0025074612 -0.048833787
0001c0 61 f7 53 3d 26 79 c5 3d 18 22 2d bd e4 40 51 3c
       0.05174959 0.09642248 -0.042268842 0.012771819
0001d0 a5 d0 85 3d fb 9c 8b bd 7f 3b af 3d e8 bb f4 3d
       0.065339364 -0.06817051 0.0855627 0.11949903
0001e0 63 c9 90 3d 40 49 e6 3c 57 7b e6 bc 63 29 ce 3d
       0.070696615 0.0281111 -0.028134985 0.10066488
0001f0 9d 71 c6 bd f2 54 d5 bd bf 1d fb bd 06 49 ee ba
       -0.09689639 -0.10416593 -0.12261533 -0.0018179722
000200 0b 20 d6 bd 28 d5 c9 bd e9 0d ce 3d 50 fe e3 ba
       -0.104553305 -0.098551095 0.10061247 -0.0017394517
000210 50 b1 4d bd b4 65 04 3e 6b 02 d5 bd 55 7c 53 bd
       -0.050217927 0.12929422 -0.10400852 -0.051632244
000220 22 32 c6 bd 7b 6a a3 3d 2f 30 a4 bd aa 2f 03 3c
       -0.09677531 0.07979294 -0.08017003 0.0080069695
000230 7f 23 04 bd d1 47 81 bc fe f0 a8 bd aa 70 b9 3d
       -0.032260414 -0.015781315 -0.082490906 0.09054692
000240 2e cf a8 3d ca 7a 82 3d b4 0a 45 3d 2a 80 b6 bd
       0.082426414 0.063710764 0.04810591 -0.08911164
000250 f8 15 1a 3d b7 0f 55 3d 7f 1b 9f 3d e3 97 57 bd
       0.037618607 0.05201694 0.07768916 -0.052635085
000260 55 01 f0 3c 42 87 01 bd 72 ee 7d 3d 30 b8 d6 bc
       0.02929751 -0.031623133 0.061994977 -0.026210874
000270 e9 1c 94 39 3b a0 b9 bc 74 d1 b9 bd e5 66 c3 3c
       0.000282503 -0.022659412 -0.09073153 0.023852775
000280 91 b0 b6 bd 16 69 d7 bd a9 f5 20 bd b1 6c 68 3d
       -0.08920396 -0.105180904 -0.03929678 0.05674428
000290 06 6d d5 3d 2d 96 ce 3d 38 93 ed 3d a8 97 dc 3d
       0.10421185 0.100872375 0.116003454 0.10771114
0002a0 f7 6d 40 3c 4e fe 23 ba ed 01 44 bd ff 86 94 3d
       0.011744968 -0.0006255851 -0.0478534 0.07252311
0002b0 b9 f5 e3 bd 9e c6 61 bd 01 79 29 3c 3c 10 0e 3c
       -0.11130852 -0.055121057 0.010343791 0.008670863
0002c0 32 f3 92 bd 58 2e 23 bd 5a 2d cb 3c e6 aa 8e bd
       -0.07175292 -0.03983912 0.024801899 -0.0696619
0002d0 8c fb 6a 3d ee d0 eb bd 8c 17 1c bd 81 23 99 3d
       0.0573688 -0.115144596 -0.038108394 0.07477475
0002e0 85 bb 1e 3c 04 ed cf bd 17 cf f5 3d 7a 94 48 bd
       0.009688263 -0.10152629 0.1200239 -0.048969723
0002f0 a6 14 e4 bd 07 1e ac bd 34 9c 93 bd 4b 47 a1 3d
       -0.11136751 -0.08404165 -0.07207528 0.07874926
000300 11 62 ca 3d 43 90 77 bd 6c ab a6 3d f0 f3 e1 3c
       0.09881986 -0.060440313 0.08138165 0.027582139
000310 53 b7 32 bd e7 d5 53 3d cb c5 cf bd ae 52 cd bc
       -0.043631863 0.051717665 -0.10145148 -0.025063839
000320 67 bd b0 bc 6b e5 79 3d fd 1a a4 bc 13 f1 ce bc
       -0.02157469 0.061009806 -0.0200324 -0.025261438
000330 8b 7f ec bd f6 67 58 3d 14 ac 5e 3d f8 41 58 bd
       -0.115477644 0.05283352 0.054363325 -0.052797288
000340 84 ee 69 3d d6 f7 cd bd 2d a5 c8 bd ff 14 72 bd
       0.05711223 -0.100570366 -0.0979713 -0.059102055
000350 ac d0 9f 3d f4 98 c8 3d 9c 1e 2a 3d 3e 15 aa 3d
       0.07803473 0.097947985 0.041533098 0.08304833
000360 39 41 fb bd d3 2c f7 3d 57 54 94 bd 24 1d b3 3c
       -0.122682996 0.120690964 -0.07242649 0.021864481
000370 97 50 f7 bb f0 4c f6 bd 5f 47 a8 3d 46 c7 e9 3d
       -0.007547449 -0.120263934 0.08216738 0.114149615
000380 a5 8c 07 3d b2 8a 93 3c fc 14 be 3d d1 9a c1 3d
       0.033093113 0.018010471 0.09281346 0.09453357
000390 b6 f1 87 bd 2a f8 84 bd c5 76 a2 bd 2e 71 5c bd
       -0.066378996 -0.06492646 -0.0793281 -0.053818874
0003a0 c5 26 c2 3d 32 06 e2 bd fc 62 bf bd ef 96 84 bc
       0.09480051 -0.11036338 -0.09345052 -0.016185252
0003b0 92 89 e7 3d ec 83 59 bb e8 1a de 3c ec 15 ac 3d
       0.11305536 -0.0033190204 0.02711244 0.08402619
0003c0 ca b9 bd 3c 06 d7 40 3d 4f 18 43 3c 2e be ce bd
       0.02315988 0.047080062 0.011907651 -0.10094868
0003d0 40 3e 70 3d 4b e7 82 bb a7 b0 ee 3d 3b c4 fb bd
       0.058653116 -0.0039948574 0.116547875 -0.12293287
0003e0 2b 4b 8a 3d c3 a4 d1 3a d9 1b a3 3d 2b f5 93 3c
       0.067526184 0.0015994537 0.07964296 0.018061241
0003f0 79 3e 69 bd 99 47 91 bd 3b 09 c2 3d 19 1c a7 bd
       -0.056944344 -0.07093734 0.09474417 -0.08159656
