best_model.pth (torch, 178466 bytes, 33 tensors)

lstm.weight_ih_l0 f4 [128, 19]
0	0x33aedb0c	8.142351e-08
1	0xb40826c7	-1.2680094e-07
2	0xb27b04c0	-1.4611203e-08
3	0xb383a289	-6.129728e-08
4	0x343d6b42	1.7641017e-07
5	0xb28f18a6	-1.66586e-08
6	0x33fef80e	1.18729176e-07
7	0x343258bb	1.6609822e-07
8	0x32120b4c	8.500887e-09
9	0xb43e019c	-1.7695714e-07
10	0xb404c1e9	-1.2364002e-07
11	0x33a90a57	7.8715566e-08
12	0x330676c5	3.1307327e-08
13	0x32cd4b40	2.389936e-08
14	0xb309b838	-3.2065344e-08
15	0x33bd25fa	8.807906e-08
16	0x33780fcd	5.775637e-08
17	0xb3b76b9e	-8.541177e-08
18	0x33bff527	8.9387235e-08
19	0x33c6696e	9.239271e-08
20	0xb3cd80d7	-9.569492e-08
21	0x340c93c0	1.3092267e-07
22	0x341d158e	1.4629606e-07
23	0x342e1837	1.6213822e-07
24	0xb3b43c9e	-8.3929294e-08
25	0x326d7a50	1.3823026e-08
26	0x342c3898	1.6039337e-07
27	0x3331f93d	4.1437705e-08
28	0xb4283dc6	-1.5668692e-07
29	0x341e59ca	1.4747562e-07
30	0x34aa1fc3	3.1688077e-07
31	0x340c04f1	1.3040314e-07
32	0xb3e565cc	-1.068216e-07
33	0xb1f3c536	-7.094651e-09
34	0x34117de8	1.3549982e-07
35	0x34c4138c	3.6522067e-07
36	0x31f62b0a	7.1644353e-09
37	0xb442e5c4	-1.8151246e-07
38	0x337be1ff	5.8646034e-08
39	0x339a43a8	7.1834904e-08
40	0xb25aaab8	-1.2728087e-08
41	0xb34e79b0	-4.8073787e-08
42	0xb3eaa37f	-1.0926214e-07
43	0xb2c5131a	-2.2942505e-08
44	0xb4799050	-2.3242433e-07
45	0xb25ed2f0	-1.2970062e-08
46	0xb47de3f0	-2.3645384e-07
47	0xb3aab616	-7.949363e-08
48	0xb40cd497	-1.3115856e-07
49	0x315e99e4	3.2392728e-09
50	0x33797122	5.8077724e-08
51	0xb3e829ce	-1.0810946e-07
52	0x33f6fed1	1.15016185e-07
53	0x33698240	5.4368e-08
54	0xb20c7bf8	-8.17726e-09
55	0x337db3ec	5.906979e-08
56	0xb3b164e4	-8.260557e-08
57	0x343a8288	1.7370087e-07
58	0xb445c1b4	-1.8417524e-07
59	0xb38c381a	-6.529463e-08
60	0xb279dc60	-1.4543815e-08
61	0x32c7a99c	2.3243778e-08
62	0xb32fe720	-4.095557e-08
63	0xb40e5e88	-1.3259171e-07
64	0x341b3eeb	1.445839e-07
65	0xb325a684	-3.85685e-08
66	0x33a766da	7.795252e-08
67	0x34078ac2	1.2623335e-07
68	0xb1c7eb82	-5.8184364e-09
69	0x315f6b00	3.2511593e-09
70	0xb19ceaa0	-4.5668713e-09
71	0xb3c86a00	-9.332507e-08
72	0x341c89ba	1.4578737e-07
73	0xb367037c	-5.3787048e-08
74	0xb4676d26	-2.155326e-07
75	0xb412f1cd	-1.3685276e-07
76	0xb4083650	-1.2685746e-07
77	0xb2919a66	-1.6950434e-08
78	0x32a8eb2c	1.9664718e-08
79	0x34612c7f	2.0970946e-07
80	0x3428f9fc	1.5737163e-07
81	0x33632aeb	5.289159e-08
82	0x3366daf2	5.3750178e-08
83	0xb409a647	-1.281961e-07
84	0xb435213a	-1.6869026e-07
85	0xb278f1f8	-1.4490517e-08
86	0x33a613bd	7.733568e-08
87	0xb390d27a	-6.743808e-08
88	0xb308a444	-3.1814366e-08
89	0xb4579cb2	-2.0080441e-07
90	0x342827d0	1.5660703e-07
91	0xb350b58b	-4.8593886e-08
92	0xb37cafa8	-5.883308e-08
93	0x337c86c8	5.8795905e-08
94	0x3330ca98	4.116245e-08
95	0xb3f92f52	-1.16035736e-07
96	0xb298668b	-1.774176e-08
97	0xb3b6411a	-8.486877e-08
98	0x3415605e	1.3911765e-07
99	0x344caf20	1.906269e-07
100	0x33e57819	1.0685489e-07
101	0x336e01ea	5.5415434e-08
102	0xb3882d92	-6.341283e-08
103	0x3425a3bf	1.5426393e-07
104	0x343213a0	1.6584681e-07
105	0x31fe3420	7.398299e-09
106	0xb3a21029	-7.5466524e-08
107	0xb40b3c7b	-1.2967386e-07
108	0x337221ae	5.6375647e-08
109	0x3288f9a0	1.5946e-08
110	0x325b17c0	1.2752878e-08
111	0xb4047ecc	-1.2339586e-07
112	0xb43213fc	-1.6584812e-07
113	0xb3e0d514	-1.04695715e-07
114	0xb2d4e1da	-2.4782754e-08
115	0xb29bb4a2	-1.8126517e-08
116	0x3418ddec	1.4236838e-07
117	0x32e91f00	2.7138867e-08
118	0xb3e656c2	-1.0725991e-07
119	0x333064b8	4.1069796e-08
120	0x342552ac	1.5396898e-07
121	0x33024e89	3.033941e-08
122	0xb466c775	-2.1492981e-07
123	0xb48270ae	-2.4296372e-07
124	0x32fe0108	2.956996e-08
125	0x34210d2a	1.4999083e-07
126	0x34858d34	2.487592e-07
127	0x33885ebb	6.350225e-08
128	0xb3c7f5d6	-9.311377e-08
129	0xb3e7a0de	-1.0786037e-07
130	0x32f5c750	2.861239e-08
131	0x33eaa4a9	1.09264256e-07
132	0xb490cf12	-2.6972754e-07
133	0x33c6fada	9.265723e-08
134	0xb20c1a88	-8.155105e-09
135	0xb1a9b518	-4.9391353e-09
136	0x327f1d5c	1.4849629e-08
137	0x3415670d	1.3914196e-07
138	0x337d9174	5.903844e-08
139	0xb4092046	-1.277086e-07
140	0x338cc052	6.554241e-08
141	0x3427619b	1.5588596e-07
142	0x341c8b20	1.4579246e-07
143	0xb49263a5	-2.726712e-07
144	0xb3e86c7f	-1.0823077e-07
145	0x33bf455e	8.9067484e-08
146	0xb3d33786	-9.835553e-08
147	0x33fcea1a	1.1777247e-07
148	0x33f04a46	1.1189381e-07
149	0x33925a18	6.815043e-08
150	0xb2bf2734	-2.2253154e-08
151	0x3330baee	4.1148205e-08
152	0x34812698	2.4056203e-07
153	0x3432cb0b	1.6651408e-07
154	0xb2c98df4	-2.3464032e-08
155	0xb30280c0	-3.038508e-08
156	0x338cbd2e	6.5536696e-08
157	0xb3cef73a	-9.637593e-08
158	0x344e0ca7	1.9189848e-07
159	0x344f9be0	1.9335084e-07
160	0x34061416	1.248703e-07
161	0xb28ea590	-1.6606265e-08
162	0x34590d08	2.021444e-07
163	0xb391459d	-6.764751e-08
164	0xb4e1b035	-4.2037723e-07
165	0xb3059410	-3.1101138e-08
166	0x3384fdc7	6.192891e-08
167	0x33c89a2c	9.3412694e-08
168	0x32dc8110	2.5670062e-08
169	0x3347f086	4.6552053e-08
170	0xb152c050	-3.066834e-09
171	0x32398064	1.079761e-08
172	0x31ac5a06	5.0160933e-09
173	0x330c16f4	3.2617166e-08
174	0xb2f97ee6	-2.9045122e-08
175	0x32f7e968	2.8860725e-08
176	0xb35855e7	-5.0369547e-08
177	0x3458b87c	2.0183683e-07
178	0xb3b884ba	-8.5923105e-08
179	0xb3900e28	-6.7080975e-08
180	0xb44869eb	-1.8664984e-07
181	0xb1c9dabc	-5.874737e-09
182	0x342f5399	1.6328558e-07
183	0x338ba628	6.5029155e-08
184	0xb38830f3	-6.341897e-08
185	0xb333f690	-4.1900933e-08
186	0xb400c043	-1.1990873e-07
187	0x33653deb	5.337453e-08
188	0x343b43d4	1.7440408e-07
189	0x33b2bc3b	8.32301e-08
190	0x33842445	6.1533264e-08
191	0xb3330eea	-4.169025e-08
192	0xb43a6c63	-1.7362031e-07
193	0x334a5529	4.7109243e-08
194	0xb3a742e8	-7.788714e-08
195	0x32347238	1.0503349e-08
196	0xb48b4dbc	-2.5947327e-07
197	0xb29a3866	-1.7953607e-08
198	0xb40da390	-1.3191152e-07
199	0x3442d014	1.8143356e-07
200	0x345abfe9	2.0372649e-07
201	0xb43b2886	-1.7430474e-07
202	0x338413f2	6.150357e-08
203	0xb29a2c01	-1.794797e-08
204	0x32567d5d	1.2484944e-08
205	0x341f32cf	1.4826513e-07
206	0x334fdc65	4.839639e-08
207	0xb20be410	-8.14272e-09
208	0xb4741512	-2.2731936e-07
209	0xaef73000	-1.1240786e-10
210	0xb281ffb4	-1.5133857e-08
211	0x33a97872	7.8915846e-08
212	0x33ebc09f	1.0978078e-07
213	0xb417cbe5	-1.4137147e-07
214	0x314e5380	3.002441e-09
215	0x3426cd79	1.5534705e-07
216	0x3457d6f2	2.0101632e-07
217	0x348d1016	2.6275e-07
218	0x33ba36ba	8.671255e-08
219	0xb430a07c	-1.6449661e-07
220	0xb2f4c27c	-2.849378e-08
221	0x34249644	1.5328357e-07
222	0xb457a48d	-2.0083299e-07
223	0xb4039b3e	-1.2256803e-07
224	0xb3e98b04	-1.0875195e-07
225	0xb4190f09	-1.4254705e-07
226	0x3270fd00	1.4027364e-08
227	0xb339a73b	-4.3225764e-08
228	0xb4081034	-1.2671882e-07
229	0x3385dad9	6.233103e-08
230	0xb33b48ba	-4.3605475e-08
231	0xb457fe9a	-2.0116059e-07
232	0x340cfd32	1.3130628e-07
233	0xb328a80c	-3.9268386e-08
234	0xacde9800	-6.326495e-12
235	0xb4b0db7f	-3.294226e-07
236	0xaf980800	-2.7654323e-10
237	0x34885762	2.5395553e-07
238	0x34ac62ac	3.210929e-07
239	0xb24b6c98	-1.18408465e-08
240	0xb3fb7b35	-1.17105095e-07
241	0x33683ea4	5.407368e-08
242	0x3391f3fe	6.7964706e-08
243	0x32329b20	1.0396235e-08
244	0x328f38f4	1.667329e-08
245	0xb2ff265b	-2.970335e-08
246	0x3432aaec	1.6639723e-07
247	0x341bb604	1.4501717e-07
248	0xb404cd36	-1.2368113e-07
249	0xb43d4aa7	-1.7629155e-07
250	0xb4579462	-2.0077417e-07
251	0xb413d830	-1.376909e-07
252	0x3437042e	1.7044724e-07
253	0xb2afe238	-2.0475554e-08
254	0xb4069ac8	-1.2536032e-07
255	0xb210d544	-8.430394e-09

lstm.weight_hh_l0 f4 [128, 32]
0	0x333887fd	4.296452e-08
1	0xb48d071a	-2.6268464e-07
2	0x33a7e0c9	7.817432e-08
3	0xb40c1274	-1.3045229e-07
4	0x3429f6bf	1.5829117e-07
5	0xb41c13a3	-1.4535776e-07
6	0xb3fc89f5	-1.1759759e-07
7	0x338b8b98	6.498084e-08
8	0xb445ab61	-1.8409402e-07
9	0x33773219	5.7554733e-08
10	0x33dd1d3e	1.02964336e-07
11	0xb192f500	-4.2770125e-09
12	0xb3e463a3	-1.0635201e-07
13	0xb444a1cb	-1.8312782e-07
14	0x342864d0	1.5682895e-07
15	0x34829ffb	2.4330788e-07
16	0x32c6e1e4	2.3152957e-08
17	0x337cc9f6	5.8857005e-08
18	0x3340000e	4.4703533e-08
19	0xb31c17bc	-3.6343167e-08
20	0x31430100	2.8376803e-09
21	0xb1a8b230	-4.909701e-09
22	0x342f5bfc	1.6331609e-07
23	0xb3892c8a	-6.387661e-08
24	0x33f76e55	1.1521903e-07
25	0xb414b88e	-1.3850715e-07
26	0x349231a7	2.7230746e-07
27	0x34975203	2.8185613e-07
28	0x344e8b95	1.9236025e-07
29	0xb383a0d0	-6.1294145e-08
30	0x34273289	1.5571472e-07
31	0xb399250c	-7.1313565e-08
32	0x343cfad9	1.7600122e-07
33	0x323ff5fa	1.1173592e-08
34	0xb43b4471	-1.7440631e-07
35	0xb2057ca0	-7.769955e-09
36	0x34372d7a	1.7059747e-07
37	0x32ad33bc	2.0163377e-08
38	0x344e6e50	1.9225376e-07
39	0xb419764b	-1.429227e-07
40	0x330854c4	3.174206e-08
41	0x33eb3e88	1.09544146e-07
42	0xb3428592	-4.5290626e-08
43	0x34184506	1.4181214e-07
44	0x33bc938c	8.781271e-08
45	0x341a9256	1.4395604e-07
46	0xb249ea30	-1.1752988e-08
47	0x337cb836	5.884086e-08
48	0xb412bbfe	-1.3665701e-07
49	0x33d4fe76	9.9183055e-08
50	0x33c6be06	9.2546586e-08
51	0xb4323667	-1.6597333e-07
52	0x33de3cbe	1.03487295e-07
53	0x339b34b9	7.22734e-08
54	0x33f0e401	1.12173446e-07
55	0xb3cad7b8	-9.445597e-08
56	0xb385bec0	-6.227992e-08
57	0xb3ad6e1e	-8.0759705e-08
58	0x341feb99	1.4893739e-07
59	0xb4c4a11f	-3.6625076e-07
60	0xb2dc1612	-2.5621407e-08
61	0xb40f6bd3	-1.3357139e-07
62	0x332e7c6e	4.06257e-08
63	0x3411149c	1.3511675e-07
64	0xb4099ce2	-1.2816193e-07
65	0xb40d200b	-1.3143305e-07
66	0xb3387906	-4.295091e-08
67	0xb42d43ea	-1.6136588e-07
68	0x341e111a	1.4721118e-07
69	0xb3a7e992	-7.81903e-08
70	0xb445a730	-1.8407877e-07
71	0x34599b06	2.0266097e-07
72	0x33c91314	9.363262e-08
73	0x320720a4	7.865456e-09
74	0x33896972	6.39874e-08
75	0x33fe1cbe	1.1833025e-07
76	0xb323b82c	-3.81189e-08
77	0xb493c88c	-2.75268e-07
78	0xb4186bdd	-1.4195344e-07
79	0xb4057715	-1.2429912e-07
80	0x3296e068	1.7564346e-08
81	0x33bf4a53	8.90765e-08
82	0xb409c126	-1.2829386e-07
83	0x34182214	1.41685e-07
84	0xb43d6c0c	-1.7641304e-07
85	0xb33370cd	-4.1779277e-08
86	0x34b1751c	3.3054027e-07
87	0x32575e7c	1.253613e-08
88	0xb3c48e58	-9.1528534e-08
89	0x341c5c0f	1.4562123e-07
90	0xb33860fc	-4.2929045e-08
91	0x32379400	1.0685653e-08
92	0x343d946d	1.7655994e-07
93	0xb3419f24	-4.5081052e-08
94	0xb28ab26a	-1.6146448e-08
95	0x334448e2	4.5701093e-08
96	0xb2a732a0	-1.946438e-08
97	0x339da8cb	7.3415855e-08
98	0xb3972e9f	-7.039966e-08
99	0xb3ea5eb4	-1.09137005e-07
100	0x30def640	1.6222614e-09
101	0x341fbc7a	1.4876596e-07
102	0x34291df4	1.5750248e-07
103	0xb1ccec40	-5.96404e-09
104	0xb360995f	-5.2293554e-08
105	0x3438af52	1.7200117e-07
106	0x33442086	4.5664386e-08
107	0x34842584	2.4614212e-07
108	0x341c65c0	1.4565649e-07
109	0x32b6af30	2.1267255e-08
110	0x336ea1c4	5.5560818e-08
111	0xb26ee900	-1.3906401e-08
112	0x338445ea	6.159446e-08
113	0xb3c7149e	-9.27041e-08
114	0xb38f4672	-6.67177e-08
115	0xb3c9964f	-9.387133e-08
116	0xb20fdd40	-8.374002e-09
117	0x337a6485	5.8299083e-08
118	0xb3cc6f42	-9.519728e-08
119	0xb451a00e	-1.952287e-07
120	0x324b6fc0	1.1841564e-08
121	0xb301d3df	-3.022785e-08
122	0x338f006e	6.6590346e-08
123	0x330a3e82	3.218748e-08
124	0x333d532c	4.4080636e-08
125	0x33ec5155	1.10044006e-07
126	0xb34663b8	-4.619116e-08
127	0xb39c3c5f	-7.2752975e-08
128	0x3308ee0e	3.1881477e-08
129	0xb42d351e	-1.6131204e-07
130	0x34373a7a	1.7064477e-07
131	0xb302f020	-3.0486376e-08
132	0x33c04d0e	8.954713e-08
133	0xb346f396	-4.6322008e-08
134	0xb4841ed3	-2.4609344e-07
135	0x34b159d1	3.303417e-07
136	0xb414e687	-1.386744e-07
137	0x3464def9	2.1315272e-07
138	0xb26f3980	-1.3924705e-08
139	0x348c3be2	2.6120603e-07
140	0xb4172cd3	-1.4079278e-07
141	0x32cc37a8	2.3774035e-08
142	0xb24fdbc0	-1.2098951e-08
143	0xb363d1e0	-5.3043436e-08
144	0x32735e2e	1.4165876e-08
145	0xb41ff410	-1.4896818e-07
146	0xb4791d9e	-2.3200707e-07
147	0xb4495a57	-1.8752449e-07
148	0x32251610	9.6092805e-09
149	0xb3c052e5	-8.955775e-08
150	0xb3bf0ab8	-8.89608e-08
151	0xb3384016	-4.2899124e-08
152	0xb42d799c	-1.6156122e-07
153	0x345821c2	2.0128849e-07
154	0xb309f777	-3.2122866e-08
155	0xb39b8992	-7.242774e-08
156	0x31217520	2.3495161e-09
157	0xb3987689	-7.099613e-08
158	0xb4113760	-1.3524323e-07
159	0xb41a16a2	-1.4350601e-07
160	0xb38ecbea	-6.649482e-08
161	0xb27f7148	-1.4868711e-08
162	0xb467db13	-2.159325e-07
163	0x3379f49d	5.8197305e-08
164	0x348eac0a	2.6574736e-07
165	0xb38f8be3	-6.684402e-08
166	0x3454a13d	1.9802697e-07
167	0xb33cff0b	-4.400412e-08
168	0xb27e7764	-1.4811892e-08
169	0xb496f47a	-2.8117557e-07
170	0x318095c0	3.742315e-09
171	0x3330b4a3	4.114248e-08
172	0xb3be1b56	-8.852537e-08
173	0xb4ac3fa0	-3.208379e-07
174	0x34146ad1	1.3822434e-07
175	0x3422bd51	1.5156299e-07
176	0xb3027983	-3.0378498e-08
177	0x32804ee4	1.4937036e-08
178	0xb368e3fb	-5.4224056e-08
179	0xb2c227c4	-2.2602656e-08
180	0x338d37cd	6.575974e-08
181	0x34055fd1	1.2421448e-07
182	0x31b16330	5.1626543e-09
183	0xb26433a8	-1.3283092e-08
184	0x346f6062	2.2293673e-07
185	0x340d05e0	1.3133786e-07
186	0xb3cb614c	-9.470622e-08
187	0x34038be5	1.2251219e-07
188	0x33c24416	9.046214e-08
189	0x347479a6	2.2768526e-07
190	0x340c6d3c	1.3078255e-07
191	0x3459ef21	2.0296694e-07
192	0x33eb13c7	1.0946638e-07
193	0xb40edd9d	-1.3305403e-07
194	0xb490e484	-2.6988357e-07
195	0xb248d328	-1.16895436e-08
196	0xb1160e80	-2.1836115e-09
197	0x3269c7d0	1.3607817e-08
198	0x33b53fd5	8.44008e-08
199	0x342d1981	1.6121159e-07
200	0x33dff0c0	1.0428039e-07
201	0xb41724c3	-1.4076345e-07
202	0xb2c74d78	-2.3201878e-08
203	0xb33891c8	-4.2973426e-08
204	0xb39d6f2d	-7.331105e-08
205	0xb4c47aa3	-3.6597075e-07
206	0xb3b6232f	-8.481435e-08
207	0xb387bbe8	-6.320607e-08
208	0xb1ef64f4	-6.9672925e-09
209	0xb43ae4a0	-1.7405773e-07
210	0xb403bbb9	-1.2268619e-07
211	0xb334c49a	-4.2088324e-08
212	0x33ce5f61	9.609972e-08
213	0xb3623540	-5.2668156e-08
214	0xb3bf8841	-8.918915e-08
215	0xb43b34cb	-1.7434938e-07
216	0x33cd2603	9.552971e-08
217	0x33587e24	5.0406143e-08
218	0xb2e48e20	-2.6607324e-08
219	0xb45badde	-2.0459217e-07
220	0x3344b2e4	4.5797506e-08
221	0x3409c748	1.2831617e-07
222	0x3328f759	3.934051e-08
223	0x329e12f0	1.8402233e-08
224	0xb427b396	-1.561842e-07
225	0x33939958	6.873114e-08
226	0x33f6c245	1.1490605e-07
227	0x3370aeac	5.6038218e-08
228	0x344890c7	1.8679121e-07
229	0x34367122	1.6991228e-07
230	0xb29a6fab	-1.797874e-08
231	0x34900f6e	2.6833317e-07
232	0xb43ca6b1	-1.7569506e-07
233	0xb3ec8c41	-1.10151184e-07
234	0x345481b1	1.979122e-07
235	0x33dabfac	1.0186281e-07
236	0xb28d0f48	-1.642151e-08
237	0x33a38d9f	7.61604e-08
238	0x3442b632	1.813394e-07
239	0x3116a580	2.1921949e-09
240	0xb3faf9fc	-1.1687004e-07
241	0x3417f596	1.4152315e-07
242	0xb3685f88	-5.4103594e-08
243	0xb46fc13c	-2.2328908e-07
244	0xb3c0b3f5	-8.973431e-08
245	0x343ad338	1.7399441e-07
246	0xb40eb407	-1.3290274e-07
247	0xb3d095c6	-9.7129984e-08
248	0xb426bfde	-1.5529756e-07
249	0x34310762	1.6487095e-07
250	0xb4455937	-1.8379511e-07
251	0xb48f1c32	-2.665634e-07
252	0x3422e811	1.5171851e-07
253	0xb33179c8	-4.1321783e-08
254	0x3375f7b5	5.7268796e-08
255	0xb437bc20	-1.7111643e-07

lstm.bias_ih_l0 f4 [128]
0	0xb19636f0	-4.3718202e-09
1	0xb4f434d4	-4.548698e-07
2	0xb475db55	-2.2897196e-07
3	0xb428cbe1	-1.572039e-07
4	0x3401aa10	1.207593e-07
5	0xb3840b35	-6.1487675e-08
6	0x33ce8cad	9.618211e-08
7	0x31510740	3.0417624e-09
8	0xb3dd6e52	-1.03111816e-07
9	0x34db1087	4.0803954e-07
10	0x340fb7d8	1.3384795e-07
11	0xb4c4f188	-3.6683582e-07
12	0x342a9cd5	1.5889539e-07
13	0x341e05a4	1.4716949e-07
14	0x34070468	1.2574458e-07
15	0x32b87df8	2.1477703e-08
16	0xb3e53e60	-1.06749894e-07
17	0x328accac	1.6158388e-08
18	0xb45a8184	-2.034995e-07
19	0xb1b6ea20	-5.323514e-09
20	0x333fd49a	4.4664013e-08
21	0xb35fe649	-5.2130677e-08
22	0x3360d724	5.2349733e-08
23	0xb46278f8	-2.1091898e-07
24	0x3436bcea	1.7018797e-07
25	0xb4577a60	-2.0067955e-07
26	0xb200a510	-7.4881115e-09
27	0xb422f438	-1.5176272e-07
28	0x32cd6bcb	2.391416e-08
29	0x32371190	1.0655995e-08
30	0x32106d70	8.406786e-09
31	0x3337384a	4.2659202e-08
32	0xb011bc00	-5.3017857e-10
33	0x33424210	4.522923e-08
34	0x344fca47	1.9351965e-07
35	0xb2586d48	-1.2597702e-08
36	0xb4ac3e92	-3.2083022e-07
37	0xb3c08d25	-8.966371e-08
38	0xb39c7dae	-7.287177e-08
39	0x336301cd	5.2854194e-08
40	0x336638b0	5.3602605e-08
41	0x34070c39	1.2577301e-07
42	0x3359ac80	5.0681138e-08
43	0xb39d7490	-7.332085e-08
44	0x33d3ef96	9.8690336e-08
45	0x325da3b4	1.2901115e-08
46	0x34202838	1.4915793e-07
47	0xb2d3a1a6	-2.4637142e-08
48	0x2ef4cc00	1.1132073e-10
49	0xb4725bb6	-2.257137e-07
50	0xb32b145a	-3.983255e-08
51	0xb166cd40	-3.3586076e-09
52	0x3395ddba	6.978685e-08
53	0xb26ff8a6	-1.3968167e-08
54	0x33c09ace	8.9688555e-08
55	0x347a2cf0	2.3299413e-07
56	0x3474c40e	2.2795595e-07
57	0x34143b0d	1.3805057e-07
58	0x3448942b	1.8680355e-07
59	0x341d4163	1.4645552e-07
60	0xb4378a35	-1.7093483e-07
61	0x34174f1b	1.4091749e-07
62	0xb17a8f00	-3.6461074e-09
63	0x344583c6	1.8394994e-07
64	0x33b746bc	8.534468e-08
65	0x327d1340	1.4730915e-08
66	0xb420936e	-1.4954796e-07
67	0xb34cf878	-4.7723432e-08
68	0xb4149d81	-1.3840874e-07
69	0xb483a3ab	-2.4519736e-07
70	0xb3b81baf	-8.573203e-08
71	0x341183d3	1.3552135e-07
72	0xb44dcc62	-1.9166467e-07
73	0xb4293780	-1.5759542e-07
74	0xb44eec1d	-1.9271143e-07
75	0xb3e1f99a	-1.0522781e-07
76	0xb2ace368	-2.0126848e-08
77	0xb3e3c68f	-1.0606629e-07
78	0xb430d441	-1.6468495e-07
79	0xb22e9f08	-1.01642925e-08
80	0xb41bc629	-1.450759e-07
81	0xb1b04f78	-5.1313087e-09
82	0x3192ce20	4.272593e-09
83	0xb44cadf8	-1.906227e-07
84	0x32a38dc4	1.9040165e-08
85	0x3346c7b0	4.6282082e-08
86	0x3409a7e6	1.28202e-07
87	0xb3158644	-3.481388e-08
88	0xb21b5e88	-9.043681e-09
89	0x34c4d6f2	3.6664238e-07
90	0x339482b2	6.9155604e-08
91	0xb3c11bc1	-8.992311e-08
92	0xb4737d32	-2.2676684e-07
93	0xb2d33fce	-2.4592648e-08
94	0x322dd33c	1.01179545e-08
95	0x348b4107	2.593808e-07
96	0xb3f812ea	-1.15518404e-07
97	0xb3b0a4a5	-8.225587e-08
98	0x33df70f7	1.0404795e-07
99	0xb41bd71e	-1.4513759e-07
100	0x32bf637a	2.2280563e-08
101	0xb2c7d7f8	-2.326486e-08
102	0xb371be16	-5.6285067e-08
103	0x34199101	1.4301988e-07
104	0x342b2bfe	1.594162e-07
105	0xb48d13b8	-2.6277644e-07
106	0xb1c04efa	-5.596914e-09
107	0x337bcc2c	5.8626185e-08
108	0x335f9848	5.2059733e-08
109	0xb400e74f	-1.2005079e-07
110	0xb2cea388	-2.4055922e-08
111	0x32cf16c0	2.4108317e-08
112	0x3456d9d0	2.0009543e-07
113	0xb42a0453	-1.5834057e-07
114	0xb20cc124	-8.192988e-09
115	0x334367a2	4.549623e-08
116	0xb308ec16	-3.1879686e-08
117	0x345acbdc	2.0376996e-07
118	0x342703a3	1.555441e-07
119	0xb3c24c8c	-9.047753e-08
120	0x349089dd	2.69224e-07
121	0xb325f4dc	-3.8639755e-08
122	0x32a1d580	1.8839955e-08
123	0x3406e18a	1.2561773e-07
124	0xb4b0e38e	-3.2948122e-07
125	0xb42795c2	-1.5607569e-07
126	0x34379e58	1.7100808e-07
127	0xb34f2808	-4.823235e-08

lstm.bias_hh_l0 f4 [128]
0	0xb3b88d1e	-8.593837e-08
1	0x3241c838	1.1279603e-08
2	0x33bd9911	8.828841e-08
3	0x3395067c	6.939533e-08
4	0x34420a9a	1.8071515e-07
5	0x340f8e17	1.3369605e-07
6	0xb38ebd50	-6.646826e-08
7	0xb40bf1af	-1.3033308e-07
8	0x33e80580	1.0804342e-07
9	0x34937c80	2.747147e-07
10	0xb3b15617	-8.2578644e-08
11	0xb2c39e52	-2.2772983e-08
12	0x348a69b3	2.578141e-07
13	0x342ad637	1.5910415e-07
14	0xb4382a7f	-1.7151795e-07
15	0x33f93010	1.16037086e-07
16	0x344d0545	1.909403e-07
17	0x33f72aac	1.1509596e-07
18	0x33392d10	4.3114653e-08
19	0x33b91984	8.619375e-08
20	0xb28c46d8	-1.6330361e-08
21	0x31a01230	4.6586806e-09
22	0x34065f44	1.251438e-07
23	0xb4174e94	-1.4091557e-07
24	0xb3e6503d	-1.0724805e-07
25	0xb441bede	-1.8043963e-07
26	0x3403f0d4	1.2287938e-07
27	0xb45bfa4f	-2.0487026e-07
28	0x309dc840	1.1480168e-09
29	0x32abb359	1.9988578e-08
30	0xb3b4fa88	-8.4274745e-08
31	0x332a53c8	3.9657408e-08
32	0xb33cc333	-4.3949694e-08
33	0xb3927ecf	-6.821721e-08
34	0x3268e4dd	1.3556215e-08
35	0xb2a1914c	-1.880894e-08
36	0x31c33714	5.6815086e-09
37	0x32839dd4	1.5322179e-08
38	0xb28ce0ba	-1.6400339e-08
39	0x33b374a4	8.356554e-08
40	0x340396eb	1.225523e-07
41	0xb402198c	-1.2116487e-07
42	0x3379ab54	5.8130652e-08
43	0xb3a9001d	-7.8696964e-08
44	0x32b31460	2.0847608e-08
45	0x3452f0aa	1.9645327e-07
46	0x3388042b	6.333752e-08
47	0x343d9f00	1.765984e-07
48	0xb482dfdb	-2.4377263e-07
49	0xb4831714	-2.4417443e-07
50	0xb41d80bd	-1.4668599e-07
51	0x3330246d	4.1011322e-08
52	0x331d29d0	3.659244e-08
53	0xb3b4f689	-8.426748e-08
54	0xb45978c2	-2.0253631e-07
55	0x346f8c66	2.2309686e-07
56	0x3304f3da	3.0955427e-08
57	0x31a89362	4.906199e-09
58	0x34600166	2.0862134e-07
59	0x33fcb234	1.17670794e-07
60	0x32a8543c	1.959608e-08
61	0xb426d079	-1.5535797e-07
62	0x33296de4	3.9448324e-08
63	0xb385248e	-6.1999444e-08
64	0x33764838	5.734202e-08
65	0xb2aa97c5	-1.9859622e-08
66	0x320e73c0	8.291806e-09
67	0x33da32ac	1.0160633e-07
68	0x314b1970	2.9554847e-09
69	0xb334c46c	-4.208816e-08
70	0x343ad567	1.7400235e-07
71	0x33310441	4.1214893e-08
72	0x32b03f08	2.051776e-08
73	0xb332b510	-4.160853e-08
74	0xb4586a9e	-2.0155355e-07
75	0x325d1780	1.2869236e-08
76	0x343a01f3	1.7323309e-07
77	0xb45aee98	-2.0389632e-07
78	0xb3ff5f6a	-1.18917185e-07
79	0xb458b8f0	-2.0183847e-07
80	0x344ff78a	1.9368431e-07
81	0x340c9cdb	1.309558e-07
82	0xb3597c4e	-5.0637304e-08
83	0xb4509b7c	-1.9428074e-07
84	0x3460b733	2.0928273e-07
85	0x33c60083	9.2201866e-08
86	0x3399a903	7.155361e-08
87	0xb482c7f3	-2.435987e-07
88	0xb4313734	-1.6504492e-07
89	0xb4171268	-1.4069667e-07
90	0xb179df80	-3.6361314e-09
91	0x335c4929	5.128928e-08
92	0x3494a7c6	2.768922e-07
93	0x3450016a	1.9372024e-07
94	0xb388cbea	-6.370085e-08
95	0x327158d2	1.4048242e-08
96	0x33c7c40e	9.302322e-08
97	0xb346c536	-4.627983e-08
98	0x33675efa	5.387026e-08
99	0xb41fe67b	-1.4891877e-07
100	0x340d2f85	1.3148936e-07
101	0xb3fa2e08	-1.1649905e-07
102	0x3403c5e9	1.2272325e-07
103	0x341b6742	1.4473065e-07
104	0xb1695220	-3.3952645e-09
105	0x340bdf56	1.3026633e-07
106	0x340da37d	1.3191125e-07
107	0x33092edb	3.1940413e-08
108	0xb458d41e	-2.0193735e-07
109	0xb378cbc6	-5.792733e-08
110	0x33a1f90a	7.542447e-08
111	0xb4374614	-1.7068697e-07
112	0xb411aa92	-1.356623e-07
113	0x3459dfcc	2.0291117e-07
114	0xb308bb89	-3.183553e-08
115	0x344ed1b6	1.9261537e-07
116	0xb338ad70	-4.299858e-08
117	0xb316cd6d	-3.511143e-08
118	0x345f8268	2.0815935e-07
119	0x339a861a	7.195577e-08
120	0x34378b02	1.7093774e-07
121	0xb309c6dc	-3.207866e-08
122	0xb04a0180	-7.3489304e-10
123	0x31a86960	4.9014233e-09
124	0xb3e8d058	-1.08412394e-07
125	0x32f29b44	2.8243115e-08
126	0x32bd0590	2.2005025e-08
127	0xb3029287	-3.040125e-08

lstm.weight_ih_l0_reverse f4 [128, 19]
0	0x345c5caa	2.0522808e-07
1	0x3441bb38	1.8042635e-07
2	0xb43c41e2	-1.7532832e-07
3	0x3445cf57	1.8422485e-07
4	0xb3e05e34	-1.0447948e-07
5	0xb4854215	-2.4821261e-07
6	0x33a6321d	7.739093e-08
7	0xb3921a14	-6.8033984e-08
8	0xb18f8b00	-4.1776502e-09
9	0xb38e974a	-6.6399096e-08
10	0x32a1ed40	1.8850756e-08
11	0xb3ab07ad	-7.964204e-08
12	0xb488d1c4	-2.54846e-07
13	0xb42cf6ae	-1.610849e-07
14	0xb41a23f4	-1.4355447e-07
15	0xb41d30b2	-1.463948e-07
16	0xb3c0bf52	-8.975498e-08
17	0x34666c6e	2.1459866e-07
18	0xb3bd95ff	-8.8282825e-08
19	0xb39ea204	-7.386919e-08
20	0xb41caa18	-1.4590512e-07
21	0xb3c682be	-9.243875e-08
22	0x3437c8d7	1.7116268e-07
23	0x33a00142	7.4508094e-08
24	0x335f419f	5.1980916e-08
25	0x338dd484	6.6044805e-08
26	0xb1d2ea24	-6.138423e-09
27	0x33ac271d	8.016489e-08
28	0x33b67662	8.496569e-08
29	0x34789e60	2.3154416e-07
30	0x347b8746	2.3425409e-07
31	0x3409106d	1.2765095e-07
32	0xb3b89d27	-8.5967535e-08
33	0xb3559f1e	-4.9737643e-08
34	0x32a0086c	1.8630281e-08
35	0xb4c46d34	-3.65873e-07
36	0xb41855f6	-1.4187376e-07
37	0xb3fe47ac	-1.1840834e-07
38	0xb4128c2e	-1.3648307e-07
39	0xb3c0ce96	-8.9782745e-08
40	0x328052f0	1.4938877e-08
41	0x338df204	6.6098465e-08
42	0x34192bfd	1.4265238e-07
43	0xb3c36c51	-9.100098e-08
44	0x34143200	1.3801764e-07
45	0xb412c366	-1.3668395e-07
46	0xb4132d2b	-1.3706874e-07
47	0x343b278f	1.7430123e-07
48	0x32b7e21c	2.1406827e-08
49	0x33a0dc48	7.4906495e-08
50	0xb20ff880	-8.380198e-09
51	0x34386b00	1.7175262e-07
52	0x33eb2201	1.09492255e-07
53	0x33c1c106	9.0223736e-08
54	0xb439b2ca	-1.7294511e-07
55	0xb21e38b8	-9.209707e-09
56	0x34902c67	2.6854397e-07
57	0x33acafa9	8.0413265e-08
58	0x3427ff85	1.5646044e-07
59	0xb3b54b2c	-8.442143e-08
60	0x338ee59c	6.654156e-08
61	0x332fb45f	4.090941e-08
62	0x3342e4dc	4.537729e-08
63	0x340224d2	1.2120589e-07
64	0xb3a2841f	-7.5677455e-08
65	0x34dcb272	4.110803e-07
66	0x33d10aad	9.734263e-08
67	0x33c39027	9.106616e-08
68	0x33939702	6.872689e-08
69	0x34840d62	2.4596653e-07
70	0xb303ede5	-3.0717178e-08
71	0xb1fc5ce4	-7.3447257e-09
72	0x33588e8c	5.0421065e-08
73	0x3395f31a	6.982573e-08
74	0xb3bac35c	-8.6968356e-08
75	0x33b1ddf2	8.2825764e-08
76	0x3297b61a	1.7661524e-08
77	0xb42cb170	-1.60833e-07
78	0xb3c15120	-9.0020194e-08
79	0xb43b3e13	-1.7438315e-07
80	0xb3b71ef0	-8.527229e-08
81	0x335eb5c0	5.1853704e-08
82	0xb46fca2c	-2.2332159e-07
83	0x3482b9da	2.4349612e-07
84	0x343b0023	1.7415782e-07
85	0xb1546afc	-3.0910874e-09
86	0x33c57d3a	9.196306e-08
87	0x3315fbfe	3.492095e-08
88	0x332f4848	4.0811102e-08
89	0xb38ae1e6	-6.4672165e-08
90	0x32d9e888	2.5367868e-08
91	0xb4146364	-1.3819732e-07
92	0x330abf08	3.230437e-08
93	0x33384187	4.2900435e-08
94	0x33e52ca4	1.06717636e-07
95	0x321c6008	9.10223e-09
96	0x340c72f6	1.3080339e-07
97	0x34c4c2f6	3.6649698e-07
98	0x338c0fff	6.522168e-08
99	0xb438b952	-1.7203755e-07
100	0xb43bb1ec	-1.748046e-07
101	0x32ce1c3c	2.3994396e-08
102	0xb3f79a97	-1.15299535e-07
103	0x3388f2ed	6.3771814e-08
104	0xb3322b24	-4.148309e-08
105	0x33257a34	3.85282e-08
106	0xb3f52b6c	-1.14166e-07
107	0x342752ed	1.5583255e-07
108	0x32ce58c4	2.4021922e-08
109	0xb49379e6	-2.7469576e-07
110	0xb2ac9c60	-2.0094546e-08
111	0xb4841ca4	-2.4607755e-07
112	0x30e58b80	1.6701591e-09
113	0x34511c39	1.9474909e-07
114	0x33ce331b	9.6019185e-08
115	0x31472f20	2.8985099e-09
116	0xb1884468	-3.965898e-09
117	0xb48b4908	-2.5943905e-07
118	0xb4364997	-1.6976843e-07
119	0x33a4ec0e	7.679783e-08
120	0x3426adb0	1.5523142e-07
121	0xb41c4f7b	-1.4557547e-07
122	0x341b8a84	1.4485892e-07
123	0xb466f003	-2.1507735e-07
124	0xb1931f30	-4.2818087e-09
125	0x328bc420	1.6270917e-08
126	0xb38d737e	-6.586832e-08
127	0x343612c2	1.6956895e-07
128	0xb3bbf554	-8.752491e-08
129	0x34307006	1.6432031e-07
130	0x333524bc	4.2175756e-08
131	0x347ecfc4	2.3731178e-07
132	0x34760fba	2.2916257e-07
133	0x3414b279	1.3848502e-07
134	0xb20a0272	-8.033213e-09
135	0x3390dc55	6.745601e-08
136	0xb47f157a	-2.3756539e-07
137	0xb44319ce	-1.8170178e-07
138	0xb37714b0	-5.7527984e-08
139	0xb3a114bc	-7.500918e-08
140	0x3483a92f	2.452375e-07
141	0xb1fd5ecc	-7.3740463e-09
142	0x33685558	5.409433e-08
143	0xb413f740	-1.3780391e-07
144	0xb3861ac2	-6.2447285e-08
145	0xb4583319	-2.0135157e-07
146	0xb40c76cb	-1.3081733e-07
147	0xb2b6016f	-2.118824e-08
148	0xb20c02e0	-8.149726e-09
149	0xb3e4edcc	-1.0660332e-07
150	0xb445256d	-1.836067e-07
151	0xb3cfb6a4	-9.672411e-08
152	0x34374180	1.7067032e-07
153	0x33c5216b	9.179606e-08
154	0xb2b9c51c	-2.162647e-08
155	0xb2ae71a4	-2.0307944e-08
156	0x2fec6360	4.299876e-10
157	0xb3236d64	-3.8050885e-08
158	0x31f36a10	7.0842887e-09
159	0xb38c6b44	-6.5387695e-08
160	0x341640bc	1.3993389e-07
161	0xb4253325	-1.5385429e-07
162	0x34591dd3	2.022055e-07
163	0xb3374c1e	-4.2677236e-08
164	0xb38ca22a	-6.5487555e-08
165	0xb35a0081	-5.075754e-08
166	0x3371a0a5	5.625829e-08
167	0x3188d980	3.982848e-09
168	0x3308acb9	3.1822058e-08
169	0xb3c98185	-9.383351e-08
170	0xb3ebfe6d	-1.098932e-07
171	0x340e9f63	1.3282765e-07
172	0x340cd751	1.3116848e-07
173	0xb4103521	-1.3430373e-07
174	0xb3d2757a	-9.800256e-08
175	0xb3c0b514	-8.9736346e-08
176	0xb40e8580	-1.3273348e-07
177	0x341cd188	1.4604859e-07
178	0x344ca29d	1.9058139e-07
179	0xb32e173d	-4.0533667e-08
180	0xb4c4ea5c	-3.6678364e-07
181	0x340c9c9d	1.3095492e-07
182	0xb4825d19	-2.4282124e-07
183	0x333042dd	4.1039005e-08
184	0xb48eb22c	-2.6579198e-07
185	0xb2ffe4b0	-2.9789902e-08
186	0x3491fe15	2.7193224e-07
187	0x32229cd8	9.465303e-09
188	0xb367a29c	-5.393177e-08
189	0x341c58b7	1.4560906e-07
190	0xb48c6697	-2.6151676e-07
191	0xb4932778	-2.74096e-07
192	0xb432ad14	-1.6640507e-07
193	0xb4934c26	-2.743629e-07
194	0x330cb88e	3.276414e-08
195	0xb44e8878	-1.9234892e-07
196	0xb3e03fb4	-1.04424004e-07
197	0x340ee8c2	1.3309457e-07
198	0x315d73a0	3.2225458e-09
199	0xb32f5624	-4.0823707e-08
200	0xb39d26e2	-7.317955e-08
201	0x349300eb	2.7381552e-07
202	0x3427333b	1.5571725e-07
203	0xb37b92e8	-5.8574102e-08
204	0x31866ca8	3.912266e-09
205	0x341865b5	1.4193104e-07
206	0x3418f364	1.4244648e-07
207	0xb419be68	-1.4318505e-07
208	0x303e4200	6.921539e-10
209	0xb4473b39	-1.8554864e-07
210	0x33ffa1fe	1.1903829e-07
211	0x32f7dfd0	2.8856363e-08
212	0xb1a4f600	-4.800995e-09
213	0xb48d0af7	-2.6271275e-07
214	0x348a62e7	2.5776464e-07
215	0x3448c505	1.8698127e-07
216	0xb41bd269	-1.4512047e-07
217	0x33c0c0a0	8.975735e-08
218	0x3211de20	8.490616e-09
219	0x3263e050	1.3264142e-08
220	0x32811a56	1.5029553e-08
221	0x336f95f8	5.578292e-08
222	0xb43b773f	-1.7459114e-07
223	0x33ced551	9.6314245e-08
224	0x3393b73f	6.878553e-08
225	0xb427971b	-1.5608059e-07
226	0x33f4f552	1.1406759e-07
227	0x340cd424	1.3115692e-07
228	0x338f7b2e	6.681363e-08
229	0xb413bf92	-1.3760135e-07
230	0xb2572bb8	-1.2524588e-08
231	0x3402ff8f	1.2200165e-07
232	0x339d6d5b	7.330774e-08
233	0xb45442d6	-1.9768353e-07
234	0xb4039035	-1.2252788e-07
235	0xb4946167	-2.7638018e-07
236	0x34923f65	2.7240745e-07
237	0xb344c651	-4.5815174e-08
238	0x3435aca7	1.6919749e-07
239	0xb3cb51a1	-9.467772e-08
240	0x3445ea24	1.8432235e-07
241	0x341f3408	1.4826958e-07
242	0xb42183a9	-1.5042191e-07
243	0xb245cec8	-1.1513926e-08
244	0xb29f104c	-1.8517447e-08
245	0x342c9766	1.6073827e-07
246	0x32f87eb0	2.892861e-08
247	0x347528cd	2.2832246e-07
248	0xb3a6e4ac	-7.7715725e-08
249	0x342700cd	1.5553378e-07
250	0x33ce464c	9.6054094e-08
251	0x348f90fe	2.674132e-07
252	0xb404da00	-1.2372766e-07
253	0x339a26fe	7.1782765e-08
254	0x33e939c8	1.0860418e-07
255	0x344430f4	1.8271732e-07

lstm.weight_hh_l0_reverse f4 [128, 32]
0	0x336eff63	5.5645966e-08
1	0x340560c8	1.2421799e-07
2	0x339790ab	7.0578004e-08
3	0xb2fc90f8	-2.9402585e-08
4	0x33cd9ec1	9.5749336e-08
5	0xb27487d0	-1.42335495e-08
6	0x3429370a	1.5759375e-07
7	0x32f6ed58	2.87461e-08
8	0xb297437a	-1.7609398e-08
9	0xb41c9e9a	-1.4586331e-07
10	0xb4582ed6	-2.0133606e-07
11	0x334d7c94	4.7843585e-08
12	0x32a74370	1.9472026e-08
13	0x30f3ab80	1.772932e-09
14	0x340cf88f	1.3128941e-07
15	0x332335a8	3.8000195e-08
16	0xb41aa9a6	-1.4404085e-07
17	0x345e9bde	2.0732065e-07
18	0xb3c9a605	-9.389991e-08
19	0xb3827aa7	-6.075907e-08
20	0x338d512c	6.580589e-08
21	0x32b93b46	2.1563789e-08
22	0x34a95132	3.153778e-07
23	0xb3a2b14f	-7.575965e-08
24	0xb37ef70b	-5.9363668e-08
25	0x341e1f8e	1.4726376e-07
26	0xb3952096	-6.9442805e-08
27	0x3325b8e8	3.8585227e-08
28	0xb3c6b4e9	-9.253001e-08
29	0xb41c7716	-1.4571955e-07
30	0xb48921de	-2.554288e-07
31	0x336e7be2	5.5526364e-08
32	0x3481062d	2.4032616e-07
33	0x330c3c2e	3.2651023e-08
34	0x3429f9fe	1.5830298e-07
35	0x337c0849	5.8680858e-08
36	0x3410696f	1.3449402e-07
37	0x341e33c4	1.4733729e-07
38	0xb3337e32	-4.179146e-08
39	0x32a97f00	1.9731942e-08
40	0xb3e57f42	-1.06867915e-07
41	0xb411dc54	-1.3584332e-07
42	0x34145285	1.3813595e-07
43	0xb33b2c34	-4.3579533e-08
44	0x338082d6	5.9842634e-08
45	0xb342a1da	-4.5316348e-08
46	0xb437831a	-1.7090898e-07
47	0xb38c9047	-6.545502e-08
48	0xb3c3aff9	-9.112404e-08
49	0x341ff952	1.4898731e-07
50	0x3468690e	2.1644902e-07
51	0xb3346d88	-4.2009134e-08
52	0x31f3d8d0	7.0968795e-09
53	0xb450542b	-1.940213e-07
54	0xb1ded890	-6.4856707e-09
55	0xb2c4d590	-2.291452e-08
56	0x341942f3	1.4273591e-07
57	0xb3eafbaa	-1.09422515e-07
58	0xb3521cea	-4.8920732e-08
59	0xb4319048	-1.6536899e-07
60	0x330c1d9c	3.262322e-08
61	0x32a78cfa	1.9505467e-08
62	0x339f8cf4	7.429654e-08
63	0xb3e5db6a	-1.0703555e-07
64	0xb2d93844	-2.5287711e-08
65	0xb44cde34	-1.9079818e-07
66	0x33342687	4.1944556e-08
67	0xb2ab1f4a	-1.9921249e-08
68	0xb458019e	-2.0117156e-07
69	0x33949420	6.918731e-08
70	0xb435c1c1	-1.6927426e-07
71	0x34896a20	2.5595455e-07
72	0xb44db43b	-1.915768e-07
73	0x32790150	1.4494006e-08
74	0x34127f7d	1.364369e-07
75	0x3460f487	2.0950584e-07
76	0xb3c8ef2c	-9.356731e-08
77	0xb268147d	-1.3508836e-08
78	0xb4351ced	-1.6867462e-07
79	0xb235ffa8	-1.0593716e-08
80	0xb3c14c6c	-9.001164e-08
81	0xb3887496	-6.3542004e-08
82	0x343da666	1.7662532e-07
83	0x32e3ecf9	2.653404e-08
84	0xb19d20d0	-4.5730317e-09
85	0x335f6768	5.201528e-08
86	0x3491b90a	2.7142988e-07
87	0xb02a6300	-6.1986327e-10
88	0x33d23f40	9.790392e-08
89	0x334ef5ab	4.8186546e-08
90	0xb39d82dd	-7.334686e-08
91	0x3404a238	1.2352473e-07
92	0xb41c2d26	-1.4545057e-07
93	0xb3e5ac16	-1.0694946e-07
94	0x32d1ed00	2.4438577e-08
95	0x33233eb8	3.8008437e-08
96	0x30a4e080	1.1996377e-09
97	0x33c12986	8.994816e-08
98	0xb3320df8	-4.145656e-08
99	0x3349f497	4.7021413e-08
100	0xb3c7017c	-9.2669296e-08
101	0x330155fe	3.0113362e-08
102	0x34133187	1.370846e-07
103	0xb3d13b18	-9.74307e-08
104	0x3260cdac	1.308528e-08
105	0xb3c8301f	-9.321979e-08
106	0x3395eaad	6.9810405e-08
107	0x327edfdc	1.4835646e-08
108	0x323fe97a	1.117075e-08
109	0xb48df20c	-2.643941e-07
110	0x3327a122	3.9029267e-08
111	0xb447f72c	-1.862324e-07
112	0x32acd78c	2.0121455e-08
113	0xb3a782e0	-7.8003495e-08
114	0xb39d9748	-7.3384e-08
115	0xb41dc324	-1.4692756e-07
116	0x33e5d7c2	1.07028896e-07
117	0x33a68ccc	7.755588e-08
118	0x31aef748	5.092179e-09
119	0x320d5418	8.226401e-09
120	0xb252cd38	-1.227027e-08
121	0xb41d26ec	-1.4635924e-07
122	0xb3ed6e2c	-1.1056213e-07
123	0x337c2e02	5.8715166e-08
124	0x336616fc	5.3571952e-08
125	0xb40d29cb	-1.3146852e-07
126	0x3387e99c	6.328921e-08
127	0x3084ab80	9.653007e-10
128	0xb27ff5d8	-1.4898852e-08
129	0xb1e9ac70	-6.8007964e-09
130	0xb4146717	-1.3821078e-07
131	0x339b74eb	7.239017e-08
132	0x315dd410	3.2280276e-09
133	0xb43c33a8	-1.7527657e-07
134	0xb41be2a1	-1.4517947e-07
135	0x315ac480	3.1834873e-09
136	0xb4287358	-1.5688181e-07
137	0x343bb573	1.7481743e-07
138	0xb3e7ae20	-1.0788449e-07
139	0x3483e13e	2.4564537e-07
140	0xb406f009	-1.2567047e-07
141	0xb081ee40	-9.4537e-10
142	0x31a823d0	4.893515e-09
143	0x34183170	1.4174088e-07
144	0xb42e4d68	-1.6233173e-07
145	0x32991453	1.7820787e-08
146	0xae3b2200	-4.2549075e-11
147	0xb3d157d0	-9.748294e-08
148	0xb3bc6bee	-8.7740645e-08
149	0x343d21d7	1.7614308e-07
150	0xb47f4fb1	-2.3777717e-07
151	0xb4213264	-1.5012625e-07
152	0xb49ad92a	-2.8842743e-07
153	0xb3915cfa	-6.769001e-08
154	0xb42847be	-1.5672319e-07
155	0x33d116b5	9.736451e-08
156	0x32c0571e	2.2391358e-08
157	0xb1c87380	-5.833897e-09
158	0xb43c0a0a	-1.7512517e-07
159	0xb39d17c4	-7.315205e-08
160	0xb4220c10	-1.5091814e-07
161	0x341b7eae	1.4481586e-07
162	0x340c0830	1.3041495e-07
163	0x320280f0	7.596313e-09
164	0xb43592ec	-1.6910388e-07
165	0xb4049a13	-1.234951e-07
166	0x33568fd8	4.9956583e-08
167	0xb458735a	-2.0158532e-07
168	0x341d79ba	1.4666048e-07
169	0xb4120f5e	-1.36029e-07
170	0xb3f7ca7a	-1.1538664e-07
171	0x34380f56	1.7141915e-07
172	0x3258af00	1.2612645e-08
173	0xb337e758	-4.2818414e-08
174	0xb4860c16	-2.496824e-07
175	0xb277da20	-1.4426888e-08
176	0xb445d2ba	-1.8423717e-07
177	0x3325898f	3.8542165e-08
178	0xb431a572	-1.6544598e-07
179	0xb428e63a	-1.5729975e-07
180	0xb373a3d2	-5.672684e-08
181	0x32ace710	2.012851e-08
182	0x34369ce2	1.7007144e-07
183	0x347a0e9d	2.328838e-07
184	0xb2bde410	-2.2106207e-08
185	0xb4850ea0	-2.4783822e-07
186	0x327c56a0	1.4688027e-08
187	0xb3cdd54c	-9.584855e-08
188	0xb3d7a724	-1.00421204e-07
189	0xb2cf3234	-2.4120801e-08
190	0x33e44a28	1.0630566e-07
191	0x3427fc18	1.5644798e-07
192	0xb348bd72	-4.673843e-08
193	0xb40cef0a	-1.3125478e-07
194	0x340c0559	1.3040462e-07
195	0xb2817a4e	-1.5073194e-08
196	0x345b4d4a	2.0424082e-07
197	0xb3d2c0ba	-9.813944e-08
198	0x32c4a56c	2.2892628e-08
199	0x33b5323e	8.437608e-08
200	0xb40d39b4	-1.315264e-07
201	0xb420f744	-1.4991116e-07
202	0xb4265880	-1.5492151e-07
203	0xb40da70d	-1.3192421e-07
204	0x33f24bd0	1.12827934e-07
205	0xb4657ab8	-2.1371932e-07
206	0xb3053bd6	-3.1020896e-08
207	0xb40ce9e9	-1.3123612e-07
208	0x33837738	6.1218486e-08
209	0x33c2128d	9.037203e-08
210	0xb41c65dc	-1.4565688e-07
211	0xb42cbb09	-1.6086791e-07
212	0x32721072	1.4089993e-08
213	0x348dde47	2.6425025e-07
214	0xb0aa4d80	-1.2391155e-09
215	0xb3e91ab6	-1.0854767e-07
216	0x31f7863a	7.203906e-09
217	0xb42387d2	-1.5229969e-07
218	0xb27f0450	-1.4843934e-08
219	0xb3b5e36f	-8.469839e-08
220	0xb3c82fcf	-9.321922e-08
221	0xb4310687	-1.6486784e-07
222	0x33c3b019	9.112427e-08
223	0x322bbb84	9.996146e-09
224	0x3339164a	4.309394e-08
225	0xb432f26c	-1.6665734e-07
226	0xb4c4b8b6	-3.664224e-07
227	0xb48e0444	-2.6452665e-07
228	0xb3c00abc	-8.942649e-08
229	0x341725f4	1.4076778e-07
230	0xb4111226	-1.351078e-07
231	0x34423cee	1.8089824e-07
232	0xb4227432	-1.5129697e-07
233	0x337c02a9	5.867574e-08
234	0x3396b3cd	7.017625e-08
235	0x3454b4fd	1.9809882e-07
236	0x33fe5376	1.1842978e-07
237	0xb41ca3f0	-1.4588272e-07
238	0xb42cff11	-1.6111541e-07
239	0x31c5a620	5.752341e-09
240	0xb3546c93	-4.9458844e-08
241	0x341735d3	1.4082552e-07
242	0xb2a502cc	-1.92098e-08
243	0xb41c8873	-1.4578272e-07
244	0xb485672b	-2.4848245e-07
245	0x343cfe6e	1.7601425e-07
246	0xb48c3d56	-2.612166e-07
247	0x31bc8160	5.4862284e-09
248	0x33d71454	1.0015415e-07
249	0x33687b05	5.4128595e-08
250	0xb409b2ce	-1.2824168e-07
251	0xb3c2a2ad	-9.0634195e-08
252	0xb3e9bc3a	-1.0884146e-07
253	0x3404c670	1.2365649e-07
254	0xb4620b96	-2.1052105e-07
255	0xb280effa	-1.501029e-08

lstm.bias_ih_l0_reverse f4 [128]
0	0xb3cac6c6	-9.442515e-08
1	0x346e14b7	2.2173013e-07
2	0x34621bc6	2.1057994e-07
3	0xb43bcee6	-1.7491001e-07
4	0xb3f15979	-1.1238712e-07
5	0xb4c43e0c	-3.655299e-07
6	0x3246bad4	1.1567597e-08
7	0x34140a32	1.3787283e-07
8	0xb41678c0	-1.4013767e-07
9	0x32f49232	2.847182e-08
10	0x327e1a88	1.4790778e-08
11	0xb41ddd3c	-1.4702249e-07
12	0xb29427c2	-1.7247547e-08
13	0xb493c8fc	-2.752712e-07
14	0x340de912	1.3216439e-07
15	0xb48ff886	-2.681665e-07
16	0x3386ea7b	6.282513e-08
17	0xb3442a1a	-4.5673097e-08
18	0x3491bf73	2.7147652e-07
19	0x33e4c042	1.0652049e-07
20	0x34ac79db	3.2126158e-07
21	0x349083aa	2.6917888e-07
22	0x34105efa	1.3445597e-07
23	0x30f0b480	1.75136e-09
24	0x33b37df9	8.358251e-08
25	0xb3e27507	-1.0545232e-07
26	0x331379c6	3.4336857e-08
27	0x33267504	3.8756312e-08
28	0xae26c600	-3.791989e-11
29	0x31007f88	1.8698945e-09
30	0x345a9c77	2.0359754e-07
31	0xb41ffce7	-1.4900034e-07
32	0x33883f09	6.3444595e-08
33	0x3366902c	5.368217e-08
34	0xb4463b97	-1.8461866e-07
35	0x325bc4c0	1.27922135e-08
36	0x3437d1c5	1.7119517e-07
37	0xb3a42e8d	-7.645313e-08
38	0xb40aacb8	-1.2915086e-07
39	0x34885c2f	2.5399046e-07
40	0x3309d145	3.2088128e-08
41	0xb43dad6c	-1.7665087e-07
42	0x349774fc	2.821106e-07
43	0x33c0fc8d	8.9866354e-08
44	0xb2f756e0	-2.879409e-08
45	0xb484f9a6	-2.476856e-07
46	0xb33e6a1e	-4.4334335e-08
47	0x3450aaa1	1.9433584e-07
48	0x33edfd96	1.10822995e-07
49	0x33c6862b	9.2444985e-08
50	0xb4324be7	-1.6605155e-07
51	0xb3a4af67	-7.6687506e-08
52	0xb18ef128	-4.16016e-09
53	0xb3c1d356	-9.0257046e-08
54	0xb46d759e	-2.2115134e-07
55	0x33509f97	4.857392e-08
56	0xb3cabae7	-9.440355e-08
57	0xb4188574	-1.4204653e-07
58	0xb2b7b0cf	-2.1384407e-08
59	0x336dd847	5.5377566e-08
60	0xb41db6ec	-1.4688311e-07
61	0x34205774	1.4932976e-07
62	0xb3de7526	-1.035899e-07
63	0x344a566b	1.8844155e-07
64	0x329c19a0	1.8172443e-08
65	0xb4508fde	-1.9423848e-07
66	0xb3f83128	-1.15573414e-07
67	0xb3360251	-4.2377284e-08
68	0xb3b1069e	-8.2434084e-08
69	0x3421eed8	1.5081184e-07
70	0x346fad06	2.2321555e-07
71	0x32a5c870	1.9299677e-08
72	0x33bc7b45	8.776855e-08
73	0x337d80d2	5.9023314e-08
74	0x345cba07	2.0556773e-07
75	0x343b23a5	1.74287e-07
76	0xb42e0c32	-1.620945e-07
77	0x334e3f9a	4.8020958e-08
78	0xb314e96e	-3.467124e-08
79	0xb4475cfa	-1.8567144e-07
80	0x333e5018	4.4310667e-08
81	0xb3a4f7b9	-7.6819056e-08
82	0x343d3bad	1.7623707e-07
83	0x3389873a	6.404157e-08
84	0xb2f18ae4	-2.8119253e-08
85	0xb43c7e0b	-1.7554719e-07
86	0x324553ae	1.1485936e-08
87	0x32a1fd64	1.8858096e-08
88	0x33b39730	8.362838e-08
89	0xb3fb5e98	-1.1705305e-07
90	0xb42d48f5	-1.6138422e-07
91	0x34278752	1.5602316e-07
92	0xb3b47142	-8.402505e-08
93	0x34431818	1.8169555e-07
94	0xb3f27b95	-1.12914826e-07
95	0xb4314cca	-1.6512345e-07
96	0xb459fc6b	-2.0301529e-07
97	0xb39dd9e7	-7.3505184e-08
98	0xb3c3b259	-9.112836e-08
99	0xb2b15978	-2.0646198e-08
100	0x31f57960	7.144237e-09
101	0x33464db6	4.6171145e-08
102	0x34b5468b	3.3765204e-07
103	0x31f8db70	7.242697e-09
104	0x32ab623c	1.9951692e-08
105	0x3438adb7	1.7199532e-07
106	0xb26b8a10	-1.3710192e-08
107	0xb3b32031	-8.3411926e-08
108	0x33fc3802	1.1744852e-07
109	0xb448cd40	-1.8701121e-07
110	0x33e48677	1.06415364e-07
111	0xb41deb3c	-1.4707342e-07
112	0x32725f8f	1.41079814e-08
113	0xb2df5208	-2.599792e-08
114	0x3362b847	5.2787325e-08
115	0x320dad25	8.246649e-09
116	0xb39c0462	-7.265113e-08
117	0x3389bc26	6.4137836e-08
118	0x33f76c98	1.1521587e-07
119	0x340cb547	1.3104464e-07
120	0x32024f80	7.585072e-09
121	0x34312be0	1.6500371e-07
122	0x339ce8d0	7.3066644e-08
123	0x32969dd3	1.7534068e-08
124	0xb39d5ad8	-7.3274066e-08
125	0xb3467a7b	-4.6211863e-08
126	0x33885bb1	6.349672e-08
127	0x3194c8e0	4.3302038e-09

lstm.bias_hh_l0_reverse f4 [128]
0	0x3412cab7	1.3671057e-07
1	0x331b1d0c	3.6115168e-08
2	0x34939c84	2.7494764e-07
3	0x33348b34	4.203612e-08
4	0xb429e71f	-1.5823433e-07
5	0xb32bc70c	-3.9995072e-08
6	0xb3b3d7c9	-8.374588e-08
7	0xb3e4de81	-1.06575506e-07
8	0x32918998	1.6942792e-08
9	0xb38e7e3b	-6.6353515e-08
10	0x33b4f941	8.427242e-08
11	0xb4101fb9	-1.3422586e-07
12	0x31342100	2.6212206e-09
13	0xb3180108	-3.5391196e-08
14	0xb3e66486	-1.0728495e-07
15	0xb40f7126	-1.3359076e-07
16	0xb35bb1c6	-5.1151595e-08
17	0x32a63614	1.9349535e-08
18	0xb309a08c	-3.2043815e-08
19	0x33fea0ea	1.1857067e-07
20	0x33f78e54	1.1527723e-07
21	0xb427d742	-1.5631397e-07
22	0xb4274f9c	-1.5582049e-07
23	0xb3d42e1c	-9.8804065e-08
24	0x345c04d9	2.049086e-07
25	0xb25d0960	-1.2866025e-08
26	0xb383e11f	-6.141112e-08
27	0x33d7a2e4	1.0041347e-07
28	0xb2def8b8	-2.5957306e-08
29	0x3493419f	2.742863e-07
30	0xb47a1298	-2.3289829e-07
31	0xb40c9c66	-1.3095413e-07
32	0xb132aac0	-2.599947e-09
33	0xb47f8941	-2.3798658e-07
34	0x32647fd8	1.3300415e-08
35	0xb2a72260	-1.945699e-08
36	0xb41b78cc	-1.4479446e-07
37	0x33313790	4.1261558e-08
38	0xb1af8b78	-5.109026e-09
39	0x33add3e2	8.0944815e-08
40	0x3482a379	2.433333e-07
41	0xb41a2358	-1.4355226e-07
42	0xb3ee1282	-1.1086105e-07
43	0xb3d63aea	-9.975868e-08
44	0x340e7963	1.3268941e-07
45	0x32e41e9b	2.6556611e-08
46	0x348c3ab2	2.6119739e-07
47	0x349702dc	2.8128022e-07
48	0xb2b8bdb8	-2.1506693e-08
49	0xb4188893	-1.4205789e-07
50	0x3406cd70	1.255446e-07
51	0x3302e291	3.0474045e-08
52	0x339cfb0a	7.30998e-08
53	0xb2cc9688	-2.381718e-08
54	0x3187e790	3.9553427e-09
55	0x33d720da	1.0017693e-07
56	0x33f15118	1.1237188e-07
57	0xb2ff57e0	-2.9725868e-08
58	0x31938048	4.292847e-09
59	0xb3f7621e	-1.1519681e-07
60	0xb33dba07	-4.4174183e-08
61	0x33eb15d1	1.09470086e-07
62	0x3409250e	1.27726e-07
63	0x33668dcb	5.3680008e-08
64	0xb25612e6	-1.2460736e-08
65	0x341e0c02	1.4719265e-07
66	0xb3b60519	-8.475963e-08
67	0xb467c2f9	-2.1584482e-07
68	0x33573e48	5.0115233e-08
69	0x327cc138	1.4712263e-08
70	0xb3c4006f	-9.12704e-08
71	0xb320b73c	-3.7419554e-08
72	0xb458a5ab	-2.0176837e-07
73	0x32d01f3a	2.4228587e-08
74	0xb4b0e4f9	-3.2949154e-07
75	0x32a87466	1.9610706e-08
76	0x332c33b6	4.00939e-08
77	0xb3b187ba	-8.266893e-08
78	0xb3aece95	-8.1400835e-08
79	0x33c489e4	9.1520434e-08
80	0xb0ed71c0	-1.7276349e-09
81	0xb3be3dc1	-8.8587974e-08
82	0x33cd34a6	9.555633e-08
83	0x33d3634c	9.843515e-08
84	0x345d27ec	2.0596752e-07
85	0x3323e388	3.8158333e-08
86	0xb429e09e	-1.5821067e-07
87	0x33bd07ea	8.802438e-08
88	0xb458c01c	-2.0186457e-07
89	0x343c7790	1.7552361e-07
90	0xb3c267d5	-9.052716e-08
91	0x341ed43e	1.479211e-07
92	0xb3fd8e36	-1.18070986e-07
93	0xb359ce28	-5.0711748e-08
94	0xb395abac	-6.96958e-08
95	0xb3b9be3f	-8.6493394e-08
96	0x3309611a	3.198611e-08
97	0xb3af2045	-8.154942e-08
98	0xb20600d4	-7.800015e-09
99	0x34085197	1.2695669e-07
100	0x33172e20	3.5199378e-08
101	0xb42c0847	-1.602176e-07
102	0x3449fd3d	1.8811711e-07
103	0x315bfca0	3.2012295e-09
104	0x32442190	1.1416333e-08
105	0x348d21d3	2.6287907e-07
106	0xb2d9bbec	-2.5347582e-08
107	0xb1177080	-2.203734e-09
108	0xb0a44840	-1.1953105e-09
109	0x3258c880	1.2618443e-08
110	0x34c45ca4	3.657525e-07
111	0x33d15d9a	9.749347e-08
112	0xb457f506	-2.0112574e-07
113	0x32c06672	2.2398329e-08
114	0x327cc740	1.4713635e-08
115	0xb313ea8c	-3.4439424e-08
116	0xb29d022c	-1.8278193e-08
117	0xb0465180	-7.21478e-10
118	0xb40d23d6	-1.3144685e-07
119	0xb491645e	-2.708138e-07
120	0x3394c11a	6.926912e-08
121	0xb3459158	-4.5999826e-08
122	0xb241182e	-1.1239576e-08
123	0x33c53f55	9.1850474e-08
124	0x3151c4c0	3.0525342e-09
125	0x33308cd5	4.110628e-08
126	0x33ab0cac	7.965113e-08
127	0x3286e35f	1.570305e-08
