meta_model_best.pth (torch, 5656 bytes, 5 tensors)

0.weight f4 [32, 5]
00000000: 73a4 2bbe 300f 803e bf90 593e 4f1e 8a3e
00000010: d0dc ba3e d648 d53e 4875 253e f83c 523d
00000020: acd8 9abe 6963 57be 0acb 943e 3a4d 893e
00000030: d0ba f83d 0c63 1a3e b0be f73d 68aa 88bd
00000040: 222f bdbd 46f7 533e fdab a0bc 1951 88be
00000050: d06b 8fbc be11 abbe 6afe abbe 00e3 07be
00000060: ba87 933e a647 1fbe bc43 ab3e cd57 70be
00000070: 23f4 a03d 3636 833e 7c90 163e e86f 803d
00000080: 8017 743b a977 9abe 0e00 b73e 3bd3 663b
00000090: 589e d83d 53a1 513d df14 c3be 30ae 98be
000000a0: 1dbe be3e 69af c4be 8d3b d1bc e625 94be
000000b0: 42dd 27be 3a41 6ebe a00d 0f3e 2c1e 5abe
000000c0: 6164 d4be 1477 8e3e 1bc3 733e a944 11be
000000d0: 161e b93d 80d5 17be dbe1 8a3e e7bc 6abe
000000e0: 3cd1 cfbd c019 1f3c 12a6 17be 28ae 4a3e
000000f0: 2dac 8cbe 0d11 cfbe 34f9 933e 5c8c a2bd
00000100: 7390 cabe 4eba d13e d096 1bbe e0f6 9c3e
00000110: f8a1 b83d 3888 933e 1443 793e de2f b33e
00000120: aaef aa3e db86 ddbe 865d debe b218 75be
00000130: ef25 d1be 822a c33e ba8f 8ebe b07d 883c
00000140: 805a 093e 90d5 133e 8c5f 953e 4c40 fabd
00000150: ac25 9abe ea9d 16be f879 723e a4ea 05be
00000160: dc2b f5bd 068c 903e 28fb a7be a081 74bd
00000170: 0482 ab3e 5473 b0be f0fa ccbc 7813 8c3e
00000180: f79a 583d f8f7 cfbe 49d9 21be 4497 cc3e
00000190: d9f5 a9be ba5c 9bbe f1b8 1a3d f006 debe
000001a0: 5981 b2be 87b2 d7be 5d0c f2bd 94f5 073e
000001b0: 0322 0abe 1976 24be 9026 543e d066 e73c
000001c0: a459 843e 9080 66be 3fc0 ddbe 1417 113e
000001d0: e06d 01bd c05a ab3b 82c0 d5be c43d e03e
000001e0: 65d4 443e 507c 393e 703b c7be a734 a6be
000001f0: 0fac 943d 740a 353d afd0 943e 0d02 893d
00000200: 4245 9b3e dcca 9dbd e0f3 293e 9675 a43e
00000210: 7053 ab3d 98d3 b43d 34f0 403e 3cc8 bcbe
00000220: 31ea 3ebe bae4 ca3e efda b83e bb64 c1be
00000230: 343b dfbe bd9c 773e 7bd1 da3d 6e54 d43e
00000240: 279c 603e a4ea 70bd e323 993e 439f 98be
00000250: a345 ad3d 5f84 653d b6a9 973e 2311 dfbe
00000260: 5e8f 96be aee5 d3be 7055 f33d 2af6 613e
00000270: 19ac c1be 66be dc3e 9867 833e ab5f aabe
-0.16761951 0.25011587 0.21246623 0.2697625 0.36496592 0.41657132 0.1615802 0.051327676
-0.30243433 -0.21034016 0.29061157 0.26816732 0.12145007 0.15076846 0.12096918 -0.066731274
-0.092375055 0.20699796 -0.01961326 -0.26624373 -0.017507464 -0.33411974 -0.3359254 -0.13270187
0.2881449 -0.15554675 0.33450115 -0.23470993 0.078590654 0.25627297 0.14703554 0.062713444
0.0037245452 -0.30169418 0.3574223 0.0035221118 0.10577077 0.05117924 -0.3810186 -0.29820395
0.3725442 -0.38415077 -0.025541091 -0.28935164 -0.16392997 -0.2326707 0.13970041 -0.21300572
-0.41482833 0.27825224 0.23804896 -0.14186348 0.090389416 -0.14827538 0.2712544 -0.22923623
-0.1014733 0.009710729 -0.14809445 0.19792998 -0.2747511 -0.40442696 0.28901064 -0.07936928
-0.3956333 0.40962452 -0.15194249 0.306571 0.09015268 0.28814864 0.24341995 0.34997457
0.33385974 -0.4326695 -0.43430728 -0.23935202 -0.40849254 0.38118368 -0.2784403 0.016661495
0.1341343 0.14436936 0.2917446 -0.12219295 -0.30106866 -0.14708677 0.2367934 -0.1307779
-0.11971256 0.2823183 -0.32808805 -0.059693933 0.33497632 -0.34462988 -0.025022 0.27358603
0.05288216 -0.40618873 -0.15805544 0.39959157 -0.3319538 -0.30344182 0.03777403 -0.43364668
-0.3486431 -0.42128393 -0.11818764 0.13277274 -0.13489537 -0.16060676 0.20717835 0.028247267
0.2584964 -0.2250998 -0.43310735 0.1416896 -0.031598926 0.005229324 -0.41748434 0.43797123
0.19221647 0.18113828 -0.38912535 -0.32462046 0.0725938 0.044199422 0.29065463 0.06689844
0.30326277 -0.07704708 0.16596937 0.3212096 0.08365524 0.08829421 0.1884163 -0.36871517
-0.18644024 0.3962763 0.36104533 -0.37772164 -0.43599856 0.24180885 0.106844865 0.41470665
0.21934567 -0.05881752 0.29910192 -0.29809007 0.08460548 0.056034442 0.29621667 -0.43567762
-0.29406255 -0.4138617 0.1188153 0.2206656 -0.37826613 0.43114012 0.25664973 -0.33276114

0.bias f4 [32]
00000000: f0bb 8f3e ec28 c1be 1471 95bd 339b 4d3e
00000010: 9683 0ebe 19fb df3e 9d36 bdbe 1c71 be3e
00000020: 8242 d0bd 1627 e33d 2ee4 e13e ac77 3ebe
00000030: 7b8c 91be 703c 2bbd 1ef1 4dbe c061 b7be
00000040: ef98 8ebe b584 e0be 9e97 d1be 0ada d93e
00000050: ef75 e33e 8173 c23e 7481 c2be 7a7d 68be
00000060: 57d1 ca3e 76a7 2a3e 9ad2 88be b08d 49b9
00000070: 0cdf ad3e 85e8 2d3e b178 91be 4116 c5bd
0.28073072 -0.37726533 -0.072969586 0.20078735 -0.13917384 0.4374626 -0.3695573 0.3719567
-0.10168935 0.110914394 0.441194 -0.18600339 -0.2842749 -0.041805685 -0.2011151 -0.35816765
-0.27851054 -0.43851247 -0.40935987 0.42549163 0.44425914 0.37978747 -0.3798939 -0.22704116
0.3961284 0.16665444 -0.26723176 -0.00019221636 0.33959234 0.1698323 -0.28412393 -0.09623385

3.weight f4 [16, 32]
00000000: cd04 a7bc 60b8 93bb c00b 0d3d 46ae 2ebe
00000010: 7275 8d3d f75e a73d 4ce1 853d 02e4 d03d
00000020: de9c 3b3c b60f 2c3e 2574 0b3e f46a 5f3d
00000030: bec0 11be 3092 403c a0d5 11bd 1c62 903d
00000040: 0a23 a1bd 986c 0bbe 30ed b8bc 493f b8bd
00000050: 56ea e43d aa41 0d3e b0e1 e93c 4d10 253e
00000060: ceb8 adbd 7e1f b63d 4be2 b8bd 89c2 f9bc
00000070: 69b5 0cbd 4f2d fc3d 9dc4 263e b23a c83d
00000080: db46 c0bd efcb 183e e46e 483d 2a7c 053e
00000090: 1790 163e a2e3 1d3e 0348 14be fc4d 103e
000000a0: e7cd 973d 2e6a a73d 92cb 953b 00a2 17bb
000000b0: a467 cfbd 4909 013e 87dc 32be adfe e8bd
000000c0: 00fc e0b9 61a3 1cbe 67a2 23be 43bc c2bd
000000d0: 7ac9 ce3d fcd3 ad3d c4a0 4bbd 00b8 4f3a
000000e0: 8849 1abc 656b efbd 0095 eebb 88ca ae3d
000000f0: 6e8f a63d c711 b5bc 7eea 06be 4d92 be3d
00000100: 46b2 313e 8e9e d43d b0aa 693d 8a63 ca3d
00000110: 84bb 07bd e7dc 35be 328d e4bd 0e2b cf3d
00000120: 0de5 cd3b c8cb 043c 7ccf 2dbe 80eb 22bd
00000130: ec0c 1fbe c0ce be3c fd33 343e 35fe 223e
00000140: be41 dd3d 82f2 c23d b0ac 3d3c 1eda 3cbd
00000150: b4d7 953d 564a d6bc 3270 eabd 163a d83d
00000160: ef78 c03c 5172 123e 8da7 1a3e 23d3 6ebd
00000170: 166e 543d 4ee5 a23b 5d32 283e 08c7 1a3e
00000180: d7f4 acbd 3511 c5bd 7964 233e 6550 193e
00000190: 71de f6bd 20ad 363c be2b d53d 02cd 12be
000001a0: daa8 b53d 7897 a8bc ca3a d03d 206c 613d
000001b0: 2465 553d 2aee a33d f6d5 ebbd c38e 2abe
000001c0: 6a74 c43d a051 3d3d 08f1 ddbc fcd7 673d
000001d0: 7d0c 07be dc9f 233d b480 40bd fadf 13be
000001e0: 1003 16bc c094 323c 4018 01bd 00d0 57bc
000001f0: 20a1 55bc 461f 94bd c4ce 063d 10d0 12be
00000200: 8977 05be ecdc e4bd f2a6 f53d 6503 343e
00000210: 804d 26be cbc5 aabc 1a23 bb3d e3ed 00bd
00000220: b198 95bd 93ca 353e ea4c 19be 5ef5 a8bd
00000230: 1ce7 f1bd e4d0 43bd 9121 2c3e 0795 063e
00000240: f488 0d3d 1056 05be 55da 29be c1b5 9cbd
00000250: 82f1 51bd 3266 d33d 7448 31bd 0022 b13b
00000260: 1c5b 363e 0f40 9bbd 2066 2bbc f473 24be
00000270: f0f0 84bd d4db d53d 2b3f dabd 1ace 08be
00000280: dcbf 0b3e 8022 0ebd a2bf ba3d 9cb9 fabd
00000290: 108e 9ebd 5323 ab3d 6fda 273e 88c3 bd3d
000002a0: cb7b b63d 4936 283e 269a d43d 3d17 1b3e
000002b0: 208d fbbb 9631 a53d 80fa 743d 600e e5bb
000002c0: 6940 ffbd e479 0bbd 6d94 91bd f7b9 5cbd
000002d0: e62c 743d 89ba bdbd 0162 0bbe 70ff 22bd
000002e0: 7060 35be d4e8 023e 3e2a 61bd 58fb 9d3d
000002f0: 1a04 94ba b2b9 103e 79d1 86bd 1e36 883d
00000300: 0917 e9bd e1f3 2b3e f7cf cabd 1fee 8cbd
00000310: 8055 67bb 0d32 0a3d 75b8 153e 3ea0 0a3e
00000320: 907e 35be 2a36 56bd b6e9 30bc 40f7 bc3c
00000330: edcb 2abe 87fa 1a3e 5a03 953d e08b 203d
00000340: 98f5 27bd fb17 243e a6d3 25be 40f6 863d
00000350: 8f29 b73d ca3e fabd 630e 333e 7437 80bd
00000360: 27fc 223d 4eba ae3c c8bb 853d 7a59 c0bd
00000370: 800e 07be 0559 2e3e c0ba f0bc ac11 2d3e
00000380: 6b4b 103e c636 54bd 6cb1 56bd f3bd c1bd
00000390: 7000 15bd e0a8 47bc 5834 ce3c 34f2 c0bd
000003a0: cf52 283e a436 dcbd 9e50 fe3d 6684 f7bd
000003b0: d5bb f9bd c015 18bc 842c 953d 9c50 f2bd
000003c0: c9fa 143e 5a03 a03d 78cc 4cbd 74ba 18be
000003d0: 7ef5 11be 650a 33be 540a 1abe 7036 fc3c
000003e0: 0a44 1ebe b629 df3d 5890 513d d44e 653d
000003f0: 7c81 27be 4c91 473d 98ad a4bd 0ed8 a2bd
-0.020388031 -0.004508063 0.034435034 -0.17058668 0.069071665 0.0817241 0.065371126 0.10199739
0.011450974 0.16802868 0.13618524 0.054545358 -0.14233682 0.011753604 -0.03560412 0.07049963
-0.07868011 -0.13615644 -0.022574037 -0.08996446 0.111775085 0.1379458 0.028549999 0.161195
-0.08482514 0.088927254 -0.09027537 -0.03048827 -0.034352694 0.123133294 0.1628594 0.0977682
-0.093885146 0.14921544 0.04893388 0.13035646 0.14703403 0.15418866 -0.14480595 0.14092249
0.0741232 0.08174549 0.0045713866 -0.002313733 -0.1012719 0.12601198 -0.17466937 -0.113767006
-0.00042912364 -0.15296699 -0.1597992 -0.09508564 0.10097022 0.084876984 -0.049713865 0.00079238415
-0.009416945 -0.11690406 -0.007280946 0.085347235 0.08132826 -0.022103203 -0.13175389 0.093052484
0.17353162 0.103818044 0.057047546 0.09882267 -0.033137813 -0.17760049 -0.11159743 0.10115634
0.0062834085 0.008105226 -0.1697368 -0.03977537 -0.15532273 0.023291945 0.17597957 0.15917285
0.10803555 0.09518911 0.011576816 -0.04610645 0.07316533 -0.026158493 -0.11447181 0.10557954
0.023495166 0.14301421 0.15102978 -0.058306824 0.0518628 0.004971183 0.16425462 0.15114987
-0.08445137 -0.096224226 0.15956296 0.14972074 -0.12054146 0.011149675 0.10408734 -0.14336017
0.088700965 -0.020580038 0.10167463 0.055034757 0.05209841 0.080044106 -0.11515419 -0.16656022
0.09592517 0.04622042 -0.027092472 0.056602463 -0.13188358 0.039947376 -0.04699774 -0.14440909
-0.009156004 0.010899723 -0.031517267 -0.01317215 -0.0130389035 -0.072325274 0.03291203 -0.14337182
-0.1303388 -0.1117495 0.11994733 0.1757942 -0.16240501 -0.020846268 0.091375545 -0.031476866
-0.07304514 0.17753057 -0.14970747 -0.08249925 -0.11811659 -0.047806635 0.1680968 0.13142787
0.034554437 -0.13021111 -0.16587193 -0.07651854 -0.05125571 0.103222266 -0.043281987 0.0054056644
0.17808193 -0.075805776 -0.01046136 -0.16059858 -0.06491268 0.104423195 -0.106565796 -0.13359872
0.13647407 -0.03470087 0.09118582 -0.122424334 -0.0774194 0.08356347 0.1639192 0.0926581
0.089103304 0.16426958 0.10380964 0.15145583 -0.0076767355 0.080660984 0.059809208 -0.006990239
-0.12463457 -0.03405179 -0.07108388 -0.053888287 0.05961313 -0.092640944 -0.13611604 -0.039794385
-0.17712569 0.1278413 -0.054971926 0.07713956 -0.0011292726 0.14133337 -0.065829225 0.06650947
-0.11381347 0.16792251 -0.099029474 -0.068813555 -0.0035298765 0.03373914 0.14621146 0.1353769
-0.17724061 -0.05229775 -0.0107979085 0.023067117 -0.16679354 0.15134631 0.0727603 0.039195895
-0.0410057 0.16024773 -0.16194019 0.06589937 0.089434735 -0.12219007 0.17485957 -0.06260577
0.039791252 0.021329071 0.06529957 -0.09392066 -0.13189125 0.17026146 -0.029385924 0.16901273
0.1409127 -0.05181005 -0.052415296 -0.09460058 -0.03637737 -0.012186259 0.025171444 -0.094211966
0.16437839 -0.10752609 0.1241772 -0.120858 -0.12194029 -0.009282529 0.07283881 -0.11831781
0.14548792 0.07813139 -0.049999684 -0.14914876 -0.14253804 -0.17484434 -0.15043002 0.030787677
-0.15455642 0.108966276 0.051163048 0.05598338 -0.16357988 0.04872255 -0.08040923 -0.079513654

3.bias f4 [16]
00000000: 4d53 d63a f36b 4fbc 54f4 8c3d 52d3 edbd
00000010: a2a8 8fbd af67 36bd f8ad bfbc 46da 9f3d
00000020: d315 dd3d 88f1 ccbb 6ded ce3d 9e31 94bd
00000030: dedb 013d 33f8 1cbc 4390 4dbd b3e7 9d3d
0.001635173 -0.012660014 0.068825394 -0.11612572 -0.07014586 -0.044532474 -0.023398384 0.07805304
0.10795178 -0.0062543787 0.10103879 -0.07236026 0.031703822 -0.00958066 -0.050186407 0.07710209

6.weight f4 [1, 16]
00000000: 3d96 10be 5639 743e 7689 c13d 248c 793e
00000010: fee7 15be 254a 3a3e f282 733c 7c27 983d
00000020: 7b66 10be 0530 4cbd 568f e8bd 5aa4 0d3e
00000030: 725f 1d3e f073 843d f4e2 f33d b504 90bd
-0.14119811 0.23849997 0.09450047 0.24369866 -0.14639279 0.18192346 0.014862763 0.07429406
-0.14101593 -0.049850482 -0.11355464 0.13832226 0.15368441 0.06467426 0.11908522 -0.07032148
