model_3_best.pth (torch, 178548 bytes, 33 tensors)

lstm.weight_ih_l0 f4 [128, 19]
6.9291275e-09 2.1306127e-07 1.5746295e-08 -5.573739e-09 -1.383438e-07 6.792824e-08 1.9454792e-08 -1.0629061e-07
-1.70307e-07 -1.100145e-07 -1.5393016e-07 -6.684985e-08 -1.5603013e-07 7.919499e-08 -1.7706243e-07 2.9506498e-07
-8.6519435e-08 1.224804e-07 1.7051349e-07 -1.5824398e-07 -1.0934431e-07 2.7649833e-07 2.3393831e-07 -7.774759e-09
-5.805798e-08 -1.5313924e-07 -6.116376e-08 -1.243513e-07 -1.8366289e-07 -1.9448242e-07 1.47907e-07 -7.987482e-08
-2.491636e-07 7.683692e-08 -3.8643873e-07 -1.26643265e-08 1.3930414e-08 1.7544444e-07 6.480322e-08 -4.709071e-08
5.385292e-10 1.99439e-08 -1.4476554e-07 -8.821626e-08 -5.643703e-08 1.5297756e-07 -1.551432e-07 -4.4029846e-10
1.1902389e-07 -7.828426e-08 -1.0291301e-07 3.507106e-08 -2.126511e-07 3.81134e-07 -6.290377e-08 2.466904e-07
6.279155e-08 -1.0839059e-08 2.207544e-07 3.1453936e-08 6.2223705e-08 -1.05240154e-07 -1.3223854e-08 9.28309e-09
1.853016e-09 -1.5084954e-07 5.4058656e-08 -2.6090123e-07 -9.7182074e-08 -9.124283e-08 -1.2035758e-07 2.8683223e-07
-9.5071925e-08 -1.2012e-07 -1.3137253e-08 -1.6041128e-07 -9.065238e-08 -5.249482e-08 1.9520897e-07 2.1153016e-07
-3.3143266e-09 1.2260254e-07 8.5521286e-08 -1.0116364e-07 -1.3581764e-07 9.600522e-08 5.5818298e-08 1.0381416e-07
1.1286265e-07 -1.3023255e-07 1.4697662e-08 -1.10263436e-07 -8.343596e-09 1.327212e-07 1.01374255e-07 -1.3359639e-08
2.0302302e-09 -3.8805936e-08 1.5330417e-07 -1.2583797e-08 6.485838e-08 -2.0857894e-07 -8.656e-08 -1.20209e-07
-1.7200219e-07 -2.0511698e-07 2.0960485e-08 2.4942356e-08 4.8608854e-08 -1.6199397e-07 -3.5147835e-08 -7.4743326e-08
-5.59659e-09 -3.8801915e-08 -1.5305105e-08 -1.1789344e-07 9.595159e-08 8.01284e-08 -3.677105e-07 3.6375624e-08
6.1725004e-08 -1.0277366e-07 -7.082651e-09 2.0917632e-08 -1.208664e-07 1.1091814e-08 9.141624e-08 8.667739e-08
-3.3734914e-08 -1.10320826e-07 8.287584e-09 -1.4897857e-07 1.3660446e-07 3.5781966e-08 3.458317e-08 2.1326703e-07
1.729269e-07 2.0821716e-07 -6.080069e-09 -1.6230489e-07 -1.08591024e-07 -1.4737202e-07 -3.3048547e-08 -4.5365027e-09
2.3774928e-07 2.4543311e-08 -2.4868265e-07 2.0831689e-07 -2.8324344e-08 -1.23164e-07 -2.7220679e-08 -1.3344328e-07
1.5595889e-07 1.9314909e-07 8.609736e-08 -6.740631e-08 3.5702335e-08 2.3699508e-07 6.279618e-08 2.1578853e-07
7.927771e-08 -6.4646265e-08 3.7201886e-10 -1.8136821e-07 8.0259795e-08 -3.3746268e-08 2.08319e-07 -7.885279e-08
4.022719e-08 2.18608e-08 -2.3986786e-07 -1.2250338e-07 7.4013826e-08 -6.833304e-08 2.6393033e-07 1.1774546e-09
-2.393376e-07 1.449208e-08 8.553576e-08 -3.390314e-08 -5.9536138e-08 -7.2780715e-09 -1.4244085e-07 8.923479e-08
-3.9173035e-08 -9.091664e-08 -3.6371326e-08 2.6399462e-08 -2.5162265e-08 -2.2204546e-08 -2.010614e-07 7.571387e-08
9.310573e-08 -2.2459881e-07 -1.18204206e-07 -1.6136671e-07 2.5980844e-07 8.43261e-08 2.763126e-07 4.2129273e-08
-2.2429248e-08 -3.6563023e-08 -6.132776e-08 3.636208e-08 -1.4689622e-08 1.6141655e-07 -8.660787e-08 -4.355507e-08
-9.4058194e-08 1.618591e-07 -1.1522072e-07 3.491785e-08 -1.2457676e-07 9.184316e-08 -1.8837949e-07 -1.1385168e-08
3.877808e-08 -3.253846e-08 4.9083745e-08 -1.4323626e-07 1.8170059e-07 -2.9523175e-08 6.080923e-08 6.12303e-08
-6.369218e-08 -1.0788422e-07 1.381243e-07 4.814815e-10 -6.19102e-08 -5.4309854e-08 3.356126e-08 7.129016e-08
1.2019922e-07 2.4189319e-08 -3.1788005e-08 1.07448486e-07 -1.5743288e-07 -3.514499e-08 -4.47613e-08 1.4726339e-08
-4.7622706e-10 2.1477248e-07 -2.59775e-07 1.0011728e-07 -6.322335e-08 1.9505356e-07 2.7943337e-08 -2.4468832e-08
-3.290802e-08 6.397141e-08 -1.9116541e-07 2.7658461e-07 1.2070956e-07 -1.3856433e-07 3.8030947e-08 -1.1579042e-07
00000000: 4015 ee31 d6c5 6434 7842 8732 2083 bfb1
00000010: a78b 14b4 f2df 9133 8a1d a732 e141 e4b3
00000020: a2dd 36b4 1c41 ecb3 0048 25b4 188f 8fb3
00000030: 3c89 27b4 e811 aa33 8d1e 3eb4 6c69 9e34
00000040: 90cc b9b3 2883 0334 6416 3734 c6e9 29b4
00000050: acd0 eab3 a471 9434 7930 7b34 c091 05b2
00000060: 6d5b 79b3 986e 24b4 2259 83b3 6d85 05b4
00000070: df34 45b4 ecd2 50b4 5ed0 1e34 a687 abb3
00000080: c9c4 85b4 8b01 a533 bc77 cfb4 4c92 59b2
00000090: 9c52 6f32 cd61 3c34 f229 8b33 c940 4ab3
000000a0: a007 1430 1a51 ab32 d970 1bb4 6771 bdb3
000000b0: 2c65 72b3 2742 2434 7095 26b4 800e f2af
000000c0: 139a ff33 3a1d a8b3 0701 ddb3 0aa1 1633
000000d0: 1755 64b4 a89e cc34 b715 87b3 df70 8434
000000e0: 05d8 8633 b036 3ab2 8208 6d34 f817 0733
000000f0: d89f 8533 6300 e2b3 202f 63b2 767b 1f32
00000100: 34ad fe30 35f9 21b4 1f2e 6833 fe11 8cb4
00000110: 69b2 d0b3 47f1 c3b3 a43b 01b4 ecfd 9934
00000120: 582a ccb3 56fa 00b4 40b2 61b2 843d 2cb4
00000130: acac c2b3 aa76 61b3 a29a 5134 f820 6334
00000140: 40c2 63b1 bba4 0334 d3a7 b733 4d3f d9b3
00000150: 45d5 11b4 6e2b ce33 debc 6f33 70f0 de33
00000160: e65e f233 0dd6 0bb4 0081 7c32 f7c9 ecb3
00000170: 8657 0fb2 2082 0e34 16b3 d933 5084 65b2
00000180: 3084 0b31 94ab 26b3 ee9b 2434 2030 58b2
00000190: 4548 8b33 bef5 5fb4 dde2 b9b3 cc12 01b4
000001a0: 9aaf 38b4 203e 5cb4 980c b432 d240 d632
000001b0: 00c6 5033 90f0 2db4 74f5 16b3 9482 a0b3
000001c0: 204c c0b1 28a7 26b3 4878 83b2 9b2c fdb3
000001d0: f20d ce33 0e13 ac33 bf69 c5b4 6c3b 1c33
000001e0: ae8d 8433 6bb4 dcb3 a85b f3b1 5cae b332
000001f0: 81c7 01b4 508e 3e32 9c50 c433 6623 ba33
00000200: eee3 10b3 84e9 ecb3 2e61 0e32 ebf6 1fb4
00000210: 8cad 1234 b0ae 1933 9988 1433 65fe 6434
00000220: c9ad 3934 4c92 5f34 dae8 d0b1 0746 2eb4
00000230: 8c32 e9b3 503d 1eb4 43f1 0db3 80df 9bb1
00000240: 0648 7f34 50d3 d232 af82 85b4 b6ad 5f34
00000250: e44d f3b2 103f 04b4 e8d2 e9b2 9c48 0fb4
00000260: a775 2734 6b64 4f34 86e4 b833 03c1 90b3
00000270: 2257 1933 b678 7e34 91da 8633 80b3 6734
00000280: 623f aa33 a9d3 8ab3 0085 cc2f 1dbe 42b4
00000290: 4a5b ac33 6af0 10b3 4aae 5f34 c855 a9b3
000002a0: 43c6 2c33 68c8 bb32 30c7 80b4 7989 03b4
000002b0: 88f1 9e33 7cbe 92b3 4fb2 8d34 00d4 a130
000002c0: 4f7e 80b4 d8f8 7832 c8af b733 e69c 11b3
000002d0: adb4 7fb3 9812 fab1 d8f1 18b4 58a1 bf33
000002e0: 353f 28b3 f43d c3b3 b236 1cb3 08c5 e232
000002f0: 6824 d8b2 50bc beb2 56e3 57b4 2498 a233
00000300: 6bf1 c733 4029 71b4 73d7 fdb3 2544 2db4
00000310: cd7b 8b34 c416 b533 1d58 9434 a0f1 3433
00000320: 70aa c0b2 7809 1db3 4bb3 83b3 882c 1c33
00000330: a45d 7cb2 d851 2d34 2efd b9b3 4e11 3bb3
00000340: 0afd c9b3 7ecb 2d34 436f f7b3 95f8 1533
00000350: 66c3 05b4 503b c533 5c45 4ab4 8098 43b2
00000360: f38c 2633 6ac0 0bb3 26d0 5233 7ccc 19b4
00000370: 7a19 4334 269a fdb2 3a96 8233 b77d 8333
00000380: 25c7 88b3 faad e7b3 524f 1434 4059 0430
00000390: 7ef3 84b3 5142 69b3 ff24 1033 2e18 9933
000003a0: 1c10 0134 e0c8 cf32 4887 08b3 6ebe e633
000003b0: d20a 29b4 53f2 16b3 923f 40b3 20ff 7c32
000003c0: 80e7 02b0 369c 6634 3477 8bb4 0f00 d733
000003d0: 67c5 87b3 ea6f 5134 0c08 f032 882f d2b2
000003e0: c056 0db3 a860 8933 2643 4db4 807d 9434
000003f0: 649c 0134 46c8 14b4 7857 2333 75a8 f8b3

lstm.weight_hh_l0 f4 [128, 32]
-5.8333725e-08 -1.5054866e-07 1.697358e-07 -5.5874025e-09 -1.2694659e-07 1.2689136e-07 1.0053001e-07 3.0136732e-08
-2.2347045e-08 2.3377154e-07 5.9821495e-08 -1.5303311e-07 -5.9177065e-08 -3.4794184e-08 1.5508569e-07 -2.8339425e-08
-1.3206062e-08 -1.7747584e-07 -2.6172114e-07 -5.4337146e-08 -7.161066e-08 -1.6168912e-08 4.1240476e-08 -2.4111873e-07
-8.878467e-08 1.7505786e-07 -7.285362e-08 3.728303e-08 -1.1907311e-07 1.3097008e-07 1.3996414e-07 1.5835708e-08
9.8159045e-09 -2.7427724e-08 -2.0794569e-07 -1.5139632e-07 -1.8675456e-07 -7.686504e-08 1.2856854e-07 -1.3205775e-07
1.2766407e-08 1.262954e-07 -1.2261201e-07 -2.9356738e-07 -1.1901717e-07 2.8092367e-07 -1.3742232e-07 2.1739457e-07
2.5137826e-08 -8.827707e-09 1.00438875e-07 2.3367286e-07 9.157389e-08 -1.5345495e-07 -1.0263126e-07 2.479883e-08
8.555712e-08 -3.8454647e-08 1.4915396e-07 6.1860135e-08 1.3826168e-07 1.97563e-07 8.1967514e-08 1.2842455e-07
-3.2230936e-08 1.8861638e-07 -2.708557e-07 -3.317308e-08 -5.2499637e-08 -1.5321817e-07 -8.333629e-08 1.911621e-08
1.1917919e-08 4.0664497e-07 -3.609826e-08 3.6507544e-08 -6.396657e-08 6.751791e-08 1.3620962e-08 1.6816651e-07
1.39564555e-08 3.7966032e-08 -1.2797022e-07 -4.0063465e-08 -1.4712163e-07 2.0126888e-07 -7.947466e-08 -1.01300586e-07
4.39124e-08 -2.1704201e-07 8.303985e-09 1.8006261e-08 1.891588e-08 -1.3506737e-07 2.537874e-07 9.2265196e-08
1.0849622e-07 -1.3732985e-07 1.05458106e-07 -3.550823e-08 7.714079e-08 4.819703e-08 -1.0299878e-08 2.24496e-07
-4.442266e-08 6.850499e-09 -7.6998724e-08 -2.8718265e-08 -3.4570228e-08 1.3725474e-07 1.4203906e-08 -1.0840628e-07
8.489099e-08 1.5663034e-07 3.3362024e-08 8.736283e-08 1.0215769e-07 7.378253e-08 4.3966303e-08 4.5597744e-08
1.07722435e-07 -1.00834114e-07 8.5523155e-08 1.0996084e-07 1.9215986e-07 2.5671702e-07 1.9483916e-07 -1.0991137e-07
-1.9128976e-07 1.2822996e-07 -7.112625e-08 1.719315e-07 -9.709216e-08 2.8998677e-08 -7.533677e-08 -2.2874161e-08
1.17280564e-07 -9.1639606e-08 2.5963305e-07 4.45584e-08 -3.9788637e-07 2.7774593e-07 -6.296977e-08 -1.171927e-07
1.7399557e-09 3.277435e-08 -1.1196201e-07 5.2366538e-08 -9.286376e-08 -4.100688e-08 -2.8433135e-08 1.0158876e-07
1.9290108e-07 2.4838002e-08 -1.8256274e-07 3.6178275e-08 7.11364e-08 2.9841114e-08 9.569615e-08 -7.4090124e-08
2.9498128e-07 -1.4127913e-07 2.1802435e-08 1.4948109e-08 9.431605e-08 -2.4817015e-07 -1.3903389e-07 1.5541943e-08
6.7510314e-08 2.1163885e-07 -2.1586129e-07 -1.8471721e-07 -1.4433209e-07 -8.581665e-09 8.047968e-08 3.567252e-08
1.287794e-07 -1.6007453e-07 -1.8444575e-07 -7.2428037e-09 4.0765025e-07 1.3707641e-07 5.4371498e-08 -2.6688718e-07
-1.7324656e-07 -2.3368685e-08 -9.850309e-08 7.72377e-08 -1.534118e-07 -9.16338e-08 -1.3509788e-07 3.457249e-08
4.3152298e-07 -1.020808e-07 -9.103914e-09 4.6204033e-08 -2.0065814e-07 3.827587e-08 -2.4200114e-07 -2.4562354e-08
1.3587713e-07 -1.4957957e-08 6.6875145e-08 -2.9646095e-08 9.76155e-09 9.362351e-08 4.0592052e-08 5.7301023e-08
1.353818e-08 1.9212163e-08 4.1884018e-08 1.0599195e-07 -1.3339195e-07 -8.219172e-08 -1.5397501e-07 1.8258284e-08
2.7119967e-07 3.9793818e-08 -1.6467155e-07 1.8076148e-07 -8.638206e-08 -6.004813e-08 2.0132927e-07 -1.1998624e-07
9.426136e-08 3.7313646e-07 -1.2021852e-07 5.814048e-09 -1.3247666e-07 2.3936772e-07 1.607526e-07 6.4088326e-08
-4.0859987e-07 -4.8367063e-08 -7.59006e-09 -1.02145236e-07 1.2859577e-07 -1.33433815e-08 -9.38555e-08 -5.98613e-08
-1.5899572e-07 -2.5644542e-07 -1.197472e-07 6.547741e-08 2.8801597e-07 -9.089162e-08 -3.511271e-08 1.7177024e-07
-6.194402e-08 3.1327016e-08 4.516066e-08 5.780845e-08 2.0456362e-07 7.8641904e-08 -6.322196e-08 1.4684395e-07
00000000: 9c8a 7ab3 80a6 21b4 9f40 3634 50fb bfb1
00000010: d04e 08b4 a23f 0834 f5e2 d733 b06f 0133
00000020: acf5 bfb2 a202 7b34 3777 8033 6c51 24b4
00000030: df29 7eb3 9c70 15b3 a185 2634 0e6f f3b2
00000040: e0e0 62b2 3090 3eb4 ae82 8cb4 5360 69b3
00000050: 60c8 99b3 d0e3 8ab2 6220 3133 1b73 81b4
00000060: e3a9 beb3 8af7 3b34 b373 9cb3 2021 2033
00000070: 22b5 ffb3 c8a0 0c34 0d49 1634 1707 8832
00000080: cea2 2832 349a ebb2 ad47 5fb4 818f 22b4
00000090: b486 48b4 0111 a5b3 a70c 0a34 c2cb 0db4
000000a0: 4053 5b32 d19b 0734 55a7 03b4 989b 9db4
000000b0: 6296 ffb3 dbd1 9634 5c8e 13b4 f76c 6934
000000c0: aaee d732 aaa8 17b2 dbb0 d733 82e7 7a34
000000d0: 47a7 c433 60c5 24b4 2266 dcb3 3405 d532
000000e0: 86bb b733 5529 25b3 2127 2034 f8d7 8433
000000f0: 1575 1434 b421 5434 1e06 b033 12e5 0934
00000100: 4a6e 0ab3 7a86 4a34 206a 91b4 307a 0eb3
00000110: f67b 61b3 4a84 24b4 9cf6 b2b3 fe34 a432
00000120: 90bf 4c32 dc50 da34 750a 1bb3 78cc 1c33
00000130: fe5d 89b3 5dfe 9033 a001 6a32 4291 3434
00000140: 24c5 6f32 1810 2333 3068 09b4 3f12 2cb3
00000150: 7cf8 1db4 5e1c 5834 a8ab aab3 968a d9b3
00000160: 329a 3c33 0e0c 69b4 50a9 0e32 30ac 9a32
00000170: 767c a232 0907 11b4 4640 8834 5423 c633
00000180: 6dfe e833 f174 13b4 3578 e233 b681 18b3
00000190: 99a8 a533 3201 4f33 58f3 30b2 fe0c 7134
000001a0: 3bcb 3eb3 a061 eb31 7f5a a5b3 22b0 f6b2
000001b0: 5e7a 14b3 4c60 1334 7005 7432 fccc e8b3
000001c0: 514d b633 382e 2834 ef49 0f33 399c bb33
000001d0: c961 db33 6072 9e33 76d5 3c33 40d7 4333
000001e0: 0955 e733 248a d8b3 daa8 b733 9c23 ec33
000001f0: 8054 4e34 ebd2 8934 fb34 5134 6a08 ecb3
00000200: 5465 4db4 95af 0934 12be 98b3 2c9c 3834
00000210: fb80 d0b3 c418 f932 d4c8 a1b3 d07c c4b2
00000220: acdb fb33 68cb c4b3 b263 8b34 7b60 3f33
00000230: 169d d5b4 1c1d 9534 ff39 87b3 5eab fbb3
00000240: 4023 ef30 c7c3 0c33 c46f f0b3 9ee9 6033
00000250: 646c c7b3 8b1f 30b3 203d f4b2 0329 da33
00000260: 3f20 4f34 585b d532 7706 44b4 6f62 1b33
00000270: a6c3 9833 a72a 0033 8481 cd33 7a1b 9fb3
00000280: eb5d 9e34 83b2 17b4 1048 bb32 3d67 8032
00000290: cc8a ca33 3f3c 85b4 5849 15b4 1881 8532
000002a0: 30fa 9033 d83e 6334 80c7 67b4 ae56 46b4
000002b0: b4f9 1ab4 906e 13b2 2cd4 ac33 5a36 1933
000002c0: 9d46 0a34 f4e0 2bb4 100c 46b4 60dc f8b1
000002d0: 06db da34 472f 1334 1886 6933 b248 8fb4
000002e0: a705 3ab4 48bc c8b2 a588 d3b3 e0dd a533
000002f0: 84b9 24b4 37c8 c4b3 6c0f 11b4 db7c 1433
00000300: 11ac e734 8337 dbb3 7067 1cb2 df71 4633
00000310: 7d74 57b4 c464 2433 62ec 81b4 30fd d2b2
00000320: 9fe5 1134 e57c 80b2 009d 8f33 74a8 feb2
00000330: c0b3 2732 120e c933 6f57 2e33 241b 7633
00000340: 8c95 6832 fe07 a532 f7e3 3333 b19d e333
00000350: 803a 0fb4 6081 b0b3 5454 25b4 64d6 9c32
00000360: 6699 9134 c4e9 2a33 92d0 30b4 5617 4234
00000370: 0a81 b9b3 cff3 80b3 f82c 5834 91d5 00b4
00000380: bb6c ca33 7c53 c834 6a15 01b4 e8c4 c731
00000390: e83e 0eb4 7382 8034 579b 2c34 eea0 8933
000003a0: 8a5d dbb4 26bc 4fb3 7065 02b2 f05a dbb3
000003b0: 2314 0a34 d03c 65b2 9b8d c9b3 198d 80b3
000003c0: 69b8 2ab4 97ad 89b4 dc93 00b4 969c 8c33
000003d0: 9da0 9a34 3230 c3b3 d5ce 16b3 d86f 3834
000003e0: 1606 85b3 6b8c 0633 acf6 4133 1049 7833
000003f0: 05a6 5b34 d8e1 a833 a4c4 87b3 28ac 1d34

lstm.bias_ih_l0 f4 [128]
1.0107755e-09 -7.53266e-08 -9.338041e-08 -1.5868096e-07 1.5410163e-07 2.4268022e-07 2.5117131e-08 -6.761887e-08
9.388898e-08 6.854306e-08 1.3362009e-07 -1.8896236e-07 9.045111e-08 6.933491e-08 -9.7529146e-08 -3.219657e-08
-4.897874e-08 -1.4415856e-07 -1.1014255e-07 9.2500905e-08 1.3509602e-07 -8.3212335e-08 -1.9986678e-07 -3.49996e-08
-2.9301324e-07 1.18927986e-07 -1.3241348e-08 -2.2253205e-07 -2.0652531e-07 8.169908e-08 3.1521515e-07 -5.6554775e-08
2.2043349e-07 -7.330539e-08 1.12928305e-07 1.8793294e-08 2.8609796e-07 3.642768e-08 1.3029056e-07 8.97478e-09
8.5951854e-08 -1.5231382e-07 6.791814e-08 -1.9080925e-08 -5.326811e-09 9.126637e-09 7.298353e-08 2.0380721e-08
-1.9474503e-07 -1.7354122e-07 -1.896512e-08 1.3691945e-08 9.504178e-08 -1.8213186e-07 8.4884874e-08 2.3480936e-07
-1.534884e-07 1.4180715e-07 1.1218863e-07 -2.2117007e-08 -2.4873412e-07 -2.7249406e-08 1.13590986e-07 -1.7879749e-07
-2.0507088e-07 -7.7766344e-09 1.2075746e-07 1.179175e-07 7.4545625e-08 2.2726792e-07 -1.4086524e-07 -9.5538034e-08
8.449648e-09 2.5767633e-07 -1.029773e-07 -8.895633e-08 -8.6479666e-08 9.715976e-08 5.3732215e-08 -1.3390013e-07
5.4212695e-08 -1.7780295e-08 -3.499718e-08 -5.722981e-09 -1.1055681e-07 -1.76722e-07 1.7256625e-08 -1.4758031e-07
-6.3804734e-08 -3.5632596e-08 1.15353345e-07 3.1704008e-07 2.4386182e-08 -2.7081086e-07 -8.145281e-08 -1.509796e-07
1.9473114e-07 -2.2775863e-07 6.321894e-08 3.6474816e-08 -4.5424144e-08 -9.8397585e-08 -8.026638e-08 9.541928e-08
1.5043847e-07 2.3483778e-08 2.3762126e-07 -1.3047968e-07 4.879197e-08 -3.071614e-08 -2.4084017e-08 -4.6661626e-08
1.3155746e-07 -2.0231905e-09 9.5220344e-08 -9.059771e-08 1.1644259e-07 -4.0955882e-07 8.47394e-09 -6.674181e-08
1.7368383e-07 9.8141896e-08 -4.2329567e-08 -3.7013265e-08 -2.8742278e-08 -4.6720317e-09 2.1549602e-07 6.667372e-08
00000000: 80eb 8a30 3cc3 a1b3 6c88 c8b3 e461 2ab4
00000010: 2277 2534 b749 8234 28c1 d732 de35 91b3
00000020: 03a0 c933 f231 9333 3679 0f34 94e5 4ab4
00000030: 063e c233 45e5 9433 3771 d1b3 8148 0ab3
00000040: b25c 52b3 01ca 1ab4 8287 ecb3 e9a4 c633
00000050: e90e 1134 77b2 b2b3 f69a 56b4 7852 16b3
00000060: 6f4f 9db4 5a65 ff33 107c 63b2 25f1 6eb4
00000070: 3fc1 5db4 8b72 af33 d73a a934 a2e6 72b3
00000080: 4cb0 6c34 106c 9db3 fe82 f233 e46e a132
00000090: 0199 9934 a874 1c33 ffe5 0b34 802f 1a32
000000a0: 8894 b833 b48b 23b4 64da 9133 66e7 a3b2
000000b0: 2007 b7b1 60cb 1c32 1fbb 9c33 ae11 af32
000000c0: 1b1b 51b4 a656 3ab4 bde8 a2b2 d039 6b32
000000d0: c519 cc33 0690 43b4 f449 b633 e81f 7c34
000000e0: 92ce 24b4 a743 1834 5aec f033 d0fb bdb2
000000f0: c289 85b4 1412 eab2 4eef f333 7bfb 3fb4
00000100: 7431 5cb4 009a 05b2 8fa9 0134 d539 fd33
00000110: e415 a033 ee06 7434 be40 17b4 972a cdb3
00000120: f229 1132 c456 8a34 5f24 ddb3 4208 bfb3
00000130: b3b6 b9b3 25a6 d033 32c7 6633 30c6 0fb4
00000140: 7dd7 6833 48bb 98b2 ce4f 16b3 e0a3 c4b1
00000150: 406b edb3 f9c0 3db4 b83b 9432 9176 1eb4
00000160: 0605 89b3 740a 19b3 2cb8 f733 a835 aa34
00000170: c879 d132 f663 91b4 28eb aeb3 f51c 22b4
00000180: 4a17 5134 d18d 74b4 fbc2 8733 7ca8 1c33
00000190: 6018 43b3 a54e d3b3 e95e acb3 4ee9 cc33
000001a0: 3688 2134 60b9 c932 d624 7f34 fb19 0cb4
000001b0: 578f 5133 c1ec 03b3 50e1 ceb2 0069 48b3
000001c0: 3d42 0d34 5808 0bb1 f07b cc33 9e8e c2b3
000001d0: fe0e fa33 56e1 dbb4 c894 1132 b353 8fb3
000001e0: d97d 3a34 14c2 d233 dacd 35b3 84f8 1eb3
000001f0: f0e4 f6b2 a087 a0b1 1863 6734 442e 8f33

lstm.bias_hh_l0 f4 [128]
-6.844175e-08 1.1122148e-07 -1.09949326e-07 9.560307e-08 1.2795391e-07 -4.4082466e-08 -9.7548714e-08 1.0250695e-07
-6.603421e-08 2.0554035e-07 -3.7673647e-08 -9.146082e-08 -1.1052154e-07 9.754134e-08 3.8634997e-07 4.4686704e-08
-1.7763982e-07 -1.5151599e-08 -7.09248e-08 -6.076471e-08 2.4531113e-07 6.320612e-08 -2.8835333e-07 1.0528482e-07
-1.3486446e-08 -1.4305958e-07 1.8839184e-07 4.8547477e-08 -6.9832353e-09 -2.5969086e-07 -5.663592e-08 -6.420734e-09
-1.287931e-08 8.772258e-08 -6.231417e-09 1.639009e-08 1.8806666e-07 6.417362e-08 1.1835427e-07 5.0250435e-09
-1.00337765e-07 -2.4886373e-07 2.8203232e-08 2.600736e-07 9.1195055e-08 1.1140313e-07 -3.6585305e-08 -1.5395719e-07
1.121452e-07 2.2116332e-08 -1.8580401e-07 1.12871795e-07 2.0833352e-07 2.4752218e-09 -1.16210096e-07 -1.9530266e-07
-6.473236e-09 -3.2555967e-09 -1.3126865e-08 6.527283e-08 -1.4475159e-08 2.0838046e-07 9.7353805e-09 1.3582796e-07
3.472084e-08 -2.8554132e-07 1.6266468e-07 -1.5317761e-07 -1.161129e-07 4.7921553e-08 3.9440206e-08 1.6869784e-07
-6.5968564e-09 -8.48334e-08 -1.5382454e-07 1.3513082e-07 -1.0436243e-07 -1.1957849e-07 7.754906e-09 -7.1032986e-08
-1.9329e-08 2.516112e-08 1.0351365e-07 5.953952e-08 1.3545872e-08 1.6064494e-07 1.0926533e-07 -6.7361896e-08
3.6445236e-08 2.7094848e-07 -8.9862816e-08 3.4761456e-08 2.1444876e-07 -3.2138278e-08 -1.0291845e-07 8.2696175e-08
-3.137935e-08 -4.106696e-07 -1.9833305e-08 8.071848e-08 -2.8269753e-08 2.7100015e-07 -1.5254389e-07 4.2210168e-08
1.5812059e-07 3.8094979e-07 -2.1608703e-07 7.729263e-08 -6.301635e-08 7.634817e-10 2.8705242e-07 3.0440452e-07
-1.1307108e-07 -1.2360204e-07 4.4663686e-08 1.3512216e-07 1.47806e-08 5.230831e-09 1.1862066e-07 -2.7684592e-07
-1.95115e-07 3.09171e-08 3.3642777e-10 -8.0796454e-08 -8.599517e-08 1.6589358e-07 -4.8769238e-08 8.680891e-08
00000000: 40fa 92b3 a8d8 ee33 481d ecb3 584e cd33
00000010: b463 0934 2f55 3db3 f97b d1b3 cb21 dc33
00000020: b1ce 8db3 80b2 5c34 9dce 21b3 1e69 c4b3
00000030: dc57 edb3 eb77 d133 896b cf34 8ded 3f33
00000040: 43bd 3eb4 b826 82b2 524f 98b3 c17d 82b3
00000050: 4eb3 8334 efbb 8733 fbce 9ab4 f118 e233
00000060: 04b2 67b2 eb9b 19b4 c148 4a34 8482 5033
00000070: 30f1 efb1 a46b 8bb4 da3f 73b3 609d dcb1
00000080: ce43 5db2 0062 bc33 201c d6b1 30ca 8c32
00000090: 5fef 4934 d2cf 8933 f329 fe33 c0a8 ac31
000000a0: 4579 d7b3 929b 85b4 9043 f232 3ea0 8b34
000000b0: 03d7 c333 853c ef33 f821 1db3 6e4f 25b4
000000c0: 7ad4 f033 54fa bd32 6b81 47b4 ed63 f233
000000d0: 48b2 5f34 9018 2a31 2d8f f9b3 63b4 51b4
000000e0: 306b deb1 10b9 5fb1 9084 61b2 1e2c 8c33
000000f0: 6cae 78b2 2fbf 5f34 a840 2732 1bd8 1134
00000100: f81f 1533 804c 99b4 eda8 2e34 2479 24b4
00000110: be59 f9b3 4ed2 4d33 f764 2933 4f23 3534
00000120: 90aa e2b1 a82d b6b3 f82a 25b4 7a18 1134
00000130: da1d e0b3 7c65 00b4 703a 0532 cc8a 98b3
00000140: ec08 a6b2 e321 d832 3b4b de33 65b8 7f33
00000150: 60b7 6832 bf7d 2c34 40a5 ea33 98a8 90b3
00000160: f687 1c33 e076 9134 9bfa c0b3 a04c 1533
00000170: 3a43 6634 6908 0ab3 0404 ddb3 b496 b133
00000180: f6c5 06b3 007a dcb4 e65d aab2 7457 ad33
00000190: d8d5 f2b2 fa7d 9134 f2ca 23b4 924a 3533
000001a0: dbc7 2934 5785 cc34 8d05 68b4 13fc a533
000001b0: 9b53 87b3 40dd 5130 2f1c 9a34 0a6d a334
000001c0: 7cd1 f2b3 78b7 04b4 3ed4 3f33 1916 1134
000001d0: c4ed 7d32 e0ba b331 66bc fe33 6aa1 94b4
000001e0: ce80 51b4 b6c9 0433 00f4 b82f 5282 adb3
000001f0: 58ac b8b3 7b20 3234 5876 51b3 b46b ba33

lstm.weight_ih_l0_reverse f4 [128, 19]
-1.0135124e-07 1.6692908e-07 2.985209e-08 2.001427e-07 -1.17911455e-07 4.0535404e-08 -9.6882246e-08 -1.5074448e-09
-1.3658198e-08 1.3654979e-07 6.2716836e-09 -2.167978e-07 -1.0600552e-08 -1.8054502e-07 -2.3979152e-07 1.9399153e-07
1.2893071e-07 -2.2190294e-07 1.8207261e-07 -6.784852e-09 6.68101e-08 -9.064911e-09 -7.0516926e-08 -6.406514e-08
2.9524017e-07 -1.5525828e-08 9.8839216e-08 2.394645e-07 -1.744061e-07 8.491808e-09 6.641488e-08 9.701374e-08
-1.7077028e-07 -2.083718e-07 -1.1050095e-07 8.6129326e-08 -7.025967e-08 6.057265e-08 1.1769842e-08 -7.899253e-08
-1.5183005e-08 7.6529524e-08 -2.7484782e-07 1.9406794e-07 -1.5512911e-07 9.350131e-09 -6.524748e-08 -1.6213063e-07
-1.4293676e-07 1.8247806e-07 -5.488107e-08 -2.638825e-07 7.948819e-08 6.85656e-08 9.0536645e-09 3.363043e-07
1.005962e-07 1.4828075e-08 3.9817174e-08 -3.6319808e-08 -1.8367587e-07 8.4449e-08 6.015517e-08 4.0792713e-07
1.5054849e-07 8.518145e-08 1.8168171e-07 -1.994189e-07 -1.7831105e-07 -7.698665e-08 -1.2158014e-07 -4.9261146e-08
8.7578286e-08 1.5528883e-08 6.1925334e-08 -1.7498766e-07 1.1397633e-07 -5.6446062e-08 -7.243301e-08 -1.7458518e-07
2.5560536e-07 -2.1621858e-07 2.2114698e-08 1.6876024e-07 1.1242679e-07 1.3024547e-07 5.8831844e-08 -3.1214206e-08
-1.5079236e-07 8.182421e-08 -3.5195036e-08 -1.5708856e-07 1.10561885e-07 -1.8701511e-08 -6.454938e-08 2.21456e-08
2.6897717e-07 1.07370795e-07 1.1644754e-07 1.1452934e-07 1.0625465e-07 5.885802e-08 2.4306354e-07 8.595442e-08
3.3234386e-08 -2.0129765e-07 -1.3313038e-07 -1.137579e-08 1.9191694e-07 -1.13901464e-07 -4.820393e-09 -1.1637112e-07
3.14953e-07 -1.5333713e-07 -2.0040167e-07 -2.6860839e-08 -3.0169403e-07 -3.3993075e-10 1.0980065e-07 7.2987326e-08
-1.4476603e-07 1.5518745e-07 8.886094e-08 5.444481e-08 -7.46446e-08 3.3652964e-07 2.1485704e-08 1.5314585e-07
-1.7745099e-07 6.3655655e-08 1.1204492e-08 -4.4991616e-08 1.7466428e-07 -7.301003e-08 1.5139348e-07 -2.4667024e-08
1.1974873e-07 9.605844e-08 8.7651685e-08 -8.4723e-08 -9.853736e-09 -2.6771858e-08 1.3999069e-07 -2.0421032e-07
-1.2342909e-07 -4.7030497e-08 -1.5336518e-07 9.568649e-08 3.3926952e-08 -2.8242056e-08 5.644943e-08 -1.0910291e-07
1.0720593e-07 1.4899732e-07 -4.7191662e-08 1.1765664e-08 -7.0595576e-08 6.1290784e-08 2.2144539e-07 -7.966407e-08
-3.764544e-08 -5.570733e-09 -1.819822e-08 2.7116735e-07 1.867223e-07 1.8922819e-07 1.593419e-07 1.9986842e-07
6.7903017e-10 7.125355e-08 -2.3849958e-07 4.7539316e-08 -1.1882004e-07 -1.8766164e-07 1.1550979e-07 1.9494102e-07
-4.7132826e-08 2.2772784e-07 -1.9757289e-07 4.368694e-09 1.559423e-07 -1.9244002e-08 -7.865326e-08 -2.9064665e-07
-1.1129285e-07 1.0100111e-07 1.5382234e-07 -2.4319332e-08 6.6945816e-08 -4.4384763e-08 -2.721805e-09 1.2291238e-08
1.2059999e-08 -1.4069958e-08 2.7726364e-07 -5.9789485e-08 -1.1539494e-07 -2.1133138e-07 4.2031864e-08 2.6274051e-08
-1.515978e-07 -2.5207706e-07 -1.6701891e-07 1.3212413e-07 -9.708934e-08 -2.1602546e-07 -3.6211325e-08 -2.884483e-08
1.448178e-07 -9.368501e-09 1.111943e-07 -9.92318e-08 -1.4860163e-07 -4.3477748e-08 -5.3118974e-08 -3.7034155e-08
2.367604e-07 -1.2339714e-07 -3.5339767e-08 8.472438e-08 -7.733502e-08 -1.5586146e-07 2.2972994e-08 1.2241523e-07
-1.2900733e-07 5.5542532e-08 3.7192898e-08 -1.5352106e-07 1.3656292e-07 -1.8230898e-07 -1.8954893e-07 9.424085e-09
-1.2484858e-07 1.0800309e-07 9.045281e-08 -1.9858429e-07 1.5657633e-07 -1.2455806e-07 -1.9593443e-08 -6.607106e-08
-2.750724e-09 6.5525974e-08 2.4396911e-09 1.8761375e-07 -1.3438225e-08 2.4774312e-07 1.6560463e-07 2.4034847e-07
3.270874e-08 -2.396e-07 2.946026e-08 -1.43637e-08 9.896842e-08 -1.3689304e-07 1.0050318e-08 -4.865437e-08
00000000: 6fa6 d9b3 1e3d 3334 b836 0033 cee6 5634
00000010: 8236 fdb3 2619 2e33 940d d0b3 802e cfb0
00000020: 64a5 6ab2 859e 1234 507e d731 edc8 68b4
00000030: b91d 36b2 d6db 41b4 b2bc 80b4 fc4b 5034
00000040: 3470 0a34 3744 6eb4 bd7f 4334 3020 e9b1
00000050: 3e79 8f33 e6bb 1bb2 176f 97b3 2f94 89b3
00000060: 8081 9e34 a85d 85b2 6f41 d433 c08f 8034
00000070: 6244 3bb4 5ee3 1132 f79f 8e33 de55 d033
00000080: fa5c 37b4 cebc 5fb4 8a4c edb3 19f6 b833
00000090: a9e1 96b3 2b14 8233 5034 4a32 9aa2 a9b3
000000a0: c86b 82b2 8d58 a433 cc8e 93b4 fd60 5034
000000b0: 9191 26b4 50a2 2032 2e1e 8cb3 2116 2eb4
000000c0: 287a 19b4 30ef 4334 60b6 6bb3 bcab 8db4
000000d0: 18b3 aa33 563e 9333 708a 1b32 508d b434
000000e0: 5907 d833 90be 7e32 7203 2b33 0dfe 1bb3
000000f0: 7038 45b4 545a b533 a82e 8133 1401 db34
00000100: 74a6 2134 ffec b633 4a14 4334 da1f 56b4
00000110: c575 3fb4 dc53 a5b3 b28b 02b4 3493 53b3
00000120: ac12 bc33 6064 8532 d0fb 8433 3ee4 3bb4
00000130: 26c3 f433 1a6f 72b3 788c 9bb3 9c75 3bb4
00000140: 223a 8934 b629 68b4 bcf6 bd32 7634 3534
00000150: 486f f133 9ad9 0b34 4cae 7c33 6210 06b3
00000160: 7de9 21b4 56b7 af33 5a29 17b3 2dac 28b4
00000170: 0a6e ed33 0fa5 a0b2 669e 8ab3 b03a be32
00000180: f167 9034 b893 e633 b611 fa33 2cf3 f533
00000190: 1d2e e433 14cb 7c33 667e 8234 f195 b833
000001a0: 98bd 0e33 4724 58b4 9af2 0eb4 416f 43b2
000001b0: ba11 4e34 fe99 f4b3 a0a0 a5b1 b3e7 f9b3
000001c0: d016 a934 fda4 24b4 fe2d 57b4 9cbb e6b2
000001d0: 83f8 a1b4 00e1 baaf 8ccb eb33 35bd 9c33
000001e0: fc70 1bb4 9aa1 2634 d2d3 be33 b4d6 6933
000001f0: 4e4c a0b3 48ac b434 908f b832 6970 2434
00000200: 5b89 3eb4 11b3 8833 e07d 4032 ce3c 41b3
00000210: 5a8b 3b34 b0c9 9cb3 b98e 2234 5ce3 d3b2
00000220: 4894 0034 b048 ce33 063b bc33 f6f0 b5b3
00000230: 3049 29b2 f0f7 e5b2 5950 1634 e844 5bb4
00000240: ee87 04b4 94fe 49b3 b3ac 24b4 347c cd33
00000250: 14b7 1133 f098 f2b2 ce72 7233 f64b eab3
00000260: 1539 e633 12fc 1f34 c8af 4ab3 f021 4a32
00000270: 549a 97b3 f79e 8333 72c6 6d34 c913 abb3
00000280: 99af 21b3 b068 bfb1 4f52 9cb2 f594 9134
00000290: d67d 4834 a62e 4b34 9117 2b34 6a9b 5634
000002a0: 80a6 3a30 0e04 9933 220b 80b4 082e 4c33
000002b0: 022a ffb3 0a80 49b4 2e0e f833 fb50 5134
000002c0: 176f 4ab3 5a85 7434 6c24 54b4 701b 9631
000002d0: 1871 2734 024e a5b2 16e8 a8b3 2c0a 9cb4
000002e0: e4ff eeb3 f3e5 d833 5d2a 2534 c7e6 d0b2
000002f0: dac3 8f33 90a1 3eb3 800a 3bb1 7029 5332
00000300: 7030 4f32 54b8 71b2 d3da 9434 9e65 80b3
00000310: 0acf f7b3 54ea 62b4 8686 3433 40b1 e132
00000320: e3c6 22b4 3555 87b4 cf55 33b4 01de 0d34
00000330: 6e7f d0b3 a0f4 67b4 c686 1bb3 74c6 f7b2
00000340: 377f 1b34 1af3 20b2 b7c9 ee33 4219 d5b3
00000350: 4e8f 1fb4 4abc 3ab3 ee24 64b3 7c0f 1fb3
00000360: 3438 7e34 267f 04b4 7cc8 17b3 b8f1 b533
00000370: 6013 a6b3 df5a 27b4 2656 c532 3e71 0334
00000380: 4485 0ab4 a98d 6e33 06be 1f33 8cd7 24b4
00000390: 21a2 1234 b6c0 43b4 d086 4bb4 90e7 2132
000003a0: 1e0e 06b4 54ef e733 f53e c233 6f3a 55b4
000003b0: 601f 2834 42be 05b4 704e a8b2 f3e2 8db3
000003c0: 4007 3db1 49b7 8c33 80a7 2731 e072 4934
000003d0: f0dd 66b2 8e01 8534 0ed1 3134 3e09 8134
000003e0: a47b 0c33 60a2 80b4 cc0f fd32 38c4 76b2
000003f0: 7788 d433 dffc 12b4 c4a9 2c32 0cf8 50b3

lstm.weight_hh_l0_reverse f4 [128, 32]
1.0816918e-07 1.2564007e-07 -2.1545094e-07 -1.0810025e-07 1.6106334e-09 2.3961556e-07 -2.4308247e-07 -1.4085435e-07
2.1931704e-08 -2.464367e-07 1.7755829e-07 1.9863222e-10 5.9182756e-08 1.4418252e-07 6.101696e-08 3.2808813e-08
6.548974e-08 1.6669192e-07 -3.7539394e-08 3.676614e-08 -9.924182e-08 -7.632871e-08 -1.0615796e-07 1.3421747e-08
-4.6046623e-08 1.2845106e-07 -6.4880595e-08 -1.469352e-07 6.904759e-08 -6.26855e-09 1.274536e-08 -3.994577e-08
-1.0213862e-08 -3.930429e-08 -2.8804774e-07 1.2666021e-07 7.823969e-08 1.09756996e-07 -2.3798478e-08 -1.0376176e-07
-5.572396e-08 -1.18137315e-07 3.727955e-08 7.674569e-08 -3.938236e-08 -2.4033753e-08 -1.3152995e-08 4.3640913e-10
-2.682846e-09 -6.423362e-08 1.529726e-08 2.3789124e-07 -6.173983e-08 -9.67448e-09 -9.428885e-08 -2.1440782e-07
-1.1508362e-08 1.0489831e-08 1.0825545e-09 -7.614696e-08 4.5349194e-07 -3.0113227e-08 5.6489668e-08 -1.5472129e-07
6.621295e-08 4.4903265e-07 -1.0702692e-07 -8.557852e-08 1.9365879e-07 2.5259428e-07 8.232203e-08 2.7371001e-08
1.546189e-07 -1.2828772e-07 -2.6007942e-07 -2.2093516e-08 -1.4720861e-07 1.6245347e-07 7.449767e-09 -1.492981e-08
1.4430005e-07 -8.903305e-08 2.7171499e-08 -7.420245e-08 -4.2033506e-09 4.0465338e-08 1.521074e-07 -7.704134e-08
1.14243974e-07 -4.7260123e-08 -6.750895e-09 3.7091766e-08 6.930269e-08 2.3943645e-07 -2.4803214e-07 1.05739524e-07
1.0000576e-07 2.1040074e-07 -6.593403e-09 3.6218733e-08 -1.02334795e-07 1.8183556e-07 6.8435213e-10 1.1999904e-07
-3.7779166e-08 -3.394657e-08 -3.7171043e-07 8.6556696e-08 4.88248e-09 -1.5634471e-07 -4.426269e-08 9.744283e-08
-1.8148566e-07 4.201106e-07 5.968708e-08 8.387613e-08 3.3663554e-07 9.451027e-08 -1.3703634e-08 1.547179e-07
-2.650544e-08 -4.670803e-08 9.7437486e-08 -2.3121348e-08 1.993253e-07 9.83223e-08 -5.0691895e-09 2.6362777e-08
5.590543e-09 -8.046183e-08 6.908296e-08 -1.7243516e-07 -8.25524e-08 -1.8424078e-07 2.4726992e-07 1.6921243e-07
-4.2310507e-08 1.3790132e-08 -1.21223e-08 -1.0616816e-07 2.2164893e-07 6.1219154e-09 -1.1953665e-07 -1.3364327e-09
-3.5501557e-08 -1.2139002e-07 -2.424161e-07 -6.423469e-08 -7.0360414e-08 -1.0932e-07 -1.3160687e-07 -8.839632e-08
-6.052471e-08 -4.3129415e-07 -3.736843e-08 -1.5632781e-07 -7.397159e-08 -1.2485064e-07 -9.511966e-08 -1.4701341e-07
-1.6574388e-07 8.9279425e-08 8.1557076e-08 1.5370217e-08 5.2654187e-08 4.5264457e-08 -1.2740884e-09 -2.9292693e-07
-1.9672594e-08 1.1954965e-07 1.510807e-07 -4.293837e-07 -8.465583e-08 -6.664192e-08 2.2490539e-07 1.2939434e-07
-2.8624265e-07 -2.45238e-08 2.6116147e-08 -6.4097044e-08 6.368326e-08 5.4170588e-08 -1.6421525e-07 1.0483065e-07
-4.165777e-09 6.435226e-08 3.5768856e-08 -9.039684e-08 2.4311234e-08 1.0188727e-07 -1.0581866e-07 1.742752e-07
-9.79828e-08 2.6066736e-08 9.1649895e-08 -9.7146504e-08 -1.738492e-07 1.7822238e-07 -8.1604156e-08 -1.03276925e-07
-1.53914e-07 2.2322727e-07 -8.5834195e-08 -4.4072067e-08 -2.2429235e-07 4.5293177e-08 -7.4136253e-09 5.234348e-08
-1.0359071e-08 -6.687707e-08 9.311238e-08 9.468666e-09 -7.862454e-09 1.903225e-08 -4.0150486e-08 2.4924022e-08
-6.318512e-09 1.0778297e-07 3.06741e-08 -2.4941023e-08 -1.5160025e-07 7.660853e-08 1.1072727e-07 1.589497e-07
-2.4014744e-07 -2.6096654e-07 -1.2894995e-07 1.8105908e-09 2.0225121e-07 3.7981323e-08 -1.1714535e-07 -8.356931e-09
3.4809247e-08 -1.3992515e-07 -8.8568434e-08 2.4540881e-08 -1.3990034e-08 7.4299585e-08 1.2255504e-07 -1.0019111e-08
1.1021821e-07 -5.3911506e-09 7.0595775e-08 1.4083151e-08 3.7365524e-07 -5.587293e-08 -1.240312e-07 -1.7485614e-07
-9.201912e-08 -1.2273456e-07 -1.4170016e-07 -4.7967397e-08 6.1011455e-08 -1.4117464e-07 -9.328117e-08 -6.46433e-08
00000000: a34a e833 aee7 0634 b456 67b4 be24 e8b3
00000010: 205d dd30 83a4 8034 0081 82b4 c03d 17b4
00000020: 5464 bc32 014e 84b4 daa6 3e34 0066 5a2f
00000030: 2130 7e33 97d0 1a34 6e08 8333 ace9 0c33
00000040: 5ea3 8c33 edfb 3234 003b 21b3 cce8 1d33
00000050: c41e d5b3 27ea a3b3 f5f8 e3b3 7895 6632
00000060: ccc4 45b3 5cec 0934 7c54 8bb3 3dc5 1db4
00000070: 5047 9433 c062 d7b1 b0f6 5a32 d790 2bb3
00000080: 0a79 2fb2 86cf 28b3 fba4 9ab4 1800 0834
00000090: b904 a833 8cb3 eb33 686d ccb2 a1d3 deb3
000000a0: 2455 6fb3 adb2 fdb3 4c1d 2033 64cf a433
000000b0: 5d25 29b3 c872 ceb2 7cf7 61b2 20eb ef2f
000000c0: 205d 38b1 cef0 89b3 0867 8332 0c6f 7f34
000000d0: d595 84b3 d034 26b2 d87b cab3 f937 66b4
000000e0: 50b6 45b2 c436 3432 00c9 9430 3c86 a3b3
000000f0: 7577 f334 d855 01b3 0c9f 7233 7721 26b4
00000100: f430 8e33 9412 f134 acd6 e5b3 4ac7 b7b3
00000110: 86f0 4f34 4b9c 8734 04c9 b033 781d eb32
00000120: 5205 2634 76bf 09b4 0ba1 8bb4 28c8 bdb2
00000130: 6510 1eb4 df6e 2e34 d8f8 ff31 003f 80b2
00000140: e5f0 1a34 7032 bfb3 c266 e932 3a59 9fb3
00000150: 106d 90b1 1ccc 2d33 f752 2334 ed71 a5b3
00000160: 4a56 f533 0efb 4ab3 80f5 e7b1 d44e 1f33
00000170: 8fd3 9433 e58b 8034 4729 85b4 eb12 e333
00000180: bfc2 d633 84ea 6134 308c e2b1 eb8e 1b33
00000190: 26c3 dbb3 943e 4334 001d 3c30 16d9 0034
000001a0: a242 22b3 a6cc 11b3 7e8f c7b4 0ce1 b933
000001b0: c0c2 a731 b5df 27b4 581b 3eb3 c341 d133
000001c0: 66de 42b4 908b e134 522d 8033 641f b433
000001d0: d6ba b434 92f5 ca33 386d 6bb2 8820 2634
000001e0: 14ae e3b2 069c 48b3 d33e d133 629c c6b2
000001f0: 1f06 5634 4225 d333 102d aeb1 5c74 e232
00000200: f016 c031 5cca acb3 c25a 9433 9e26 39b4
00000210: a947 b1b3 b8d3 45b4 85c0 8434 c2b0 3534
00000220: e5b8 35b3 a4e9 6c32 7042 50b2 90fe e3b3
00000230: 65fe 6d34 f058 d231 fc59 00b4 8cad b7b0
00000240: 607a 18b3 6f57 02b4 6a25 82b4 65f1 89b3
00000250: 0c19 97b3 4ec3 eab3 d24f 0db4 64d4 bdb3
00000260: d0f9 81b3 9e8c e7b4 067f 20b3 10db 27b4
00000270: 50da 9eb3 af0e 06b4 9644 ccb3 bdda 1db4
00000280: 55f7 31b4 e2b9 bf33 7a24 af33 7707 8432
00000290: e425 6233 cc68 4233 001c afb0 9243 9db4
000002a0: 7efc a8b2 8f5d 0034 bf38 2234 0c86 e6b4
000002b0: 09cc b5b3 c81c 8fb3 867d 7134 a5ef 0a34
000002c0: e4ac 99b4 68a8 d2b2 0456 e032 b9a5 89b3
000002d0: 3ec2 8833 31a9 6833 2553 30b4 421f e133
000002e0: 9022 8fb1 0732 8a33 46a0 1933 3020 c2b3
000002f0: f8d4 d032 1ecd da33 6c3e e3b3 6720 3b34
00000300: 9d6a d2b3 5ce9 df32 10d1 c433 db9e d0b3
00000310: 4eab 3ab4 655d 3f34 5c3e afb3 17c9 ddb3
00000320: 8f43 25b4 3fb0 6f34 d953 b8b3 c049 3db3
00000330: 03d5 70b4 6088 4233 f0ba feb1 44d0 6033
00000340: adf7 31b2 0f9e 8fb3 12f5 c733 a2ab 2232
00000350: 7013 07b2 5c7c a332 ed71 2cb3 8118 d632
00000360: 381a d9b1 5076 e733 88be 0333 e43d d6b2
00000370: 8fc7 22b4 fc83 a433 f6c8 ed33 c3ab 2a34
00000380: 9ded 80b4 f81a 8cb4 7e75 0ab4 80d8 f830
00000390: 642a 5934 e820 2333 5691 fbb3 2c92 0fb2
000003a0: 2c81 1533 553e 16b4 0333 beb3 f8cd d232
000003b0: d258 70b2 a18e 9f33 ac97 0334 8420 2cb2
000003c0: 1ab1 ec33 103d b9b1 709a 9733 5af2 7132
000003d0: c99a c834 f0f8 6fb3 702d 05b4 17c0 3bb4
000003e0: 0c9c c5b3 05c9 03b4 3e26 18b4 b604 4eb3
000003f0: 6705 8333 ca95 17b4 de51 c8b3 08d2 8ab3

lstm.bias_ih_l0_reverse f4 [128]
2.2759885e-07 1.3205924e-07 1.3038749e-07 -7.386109e-08 -8.6830106e-08 1.6700035e-07 -1.1740667e-07 -1.177041e-08
8.064853e-08 -1.3589957e-07 -3.9189047e-08 1.2011884e-07 -2.420564e-07 5.0997635e-08 -1.0309314e-07 -1.4743063e-07
-8.9899515e-08 6.958917e-08 1.1056038e-07 -3.5197093e-07 -1.5338676e-07 -4.5864745e-08 1.902597e-07 -6.475851e-09
1.1711407e-07 -1.215763e-07 4.7272124e-09 1.4372559e-07 6.544289e-08 6.571412e-09 -3.7134583e-08 -8.879645e-08
1.4917975e-07 1.5528124e-07 5.6459182e-08 -1.0344064e-08 -1.1906445e-07 1.8281989e-07 7.536491e-08 2.0596009e-07
-9.33007e-08 -2.3747667e-07 1.3436976e-07 6.303995e-08 8.2097515e-08 2.4214143e-07 -2.522556e-08 2.0265192e-07
1.4185333e-07 8.11063e-09 1.5504627e-07 4.7221704e-08 2.584014e-07 -8.248833e-10 -2.2343488e-07 -8.17795e-08
2.5684756e-07 -7.098747e-08 1.9475794e-07 4.4896007e-07 -1.8401879e-07 1.9044816e-08 -7.574911e-09 -1.10361626e-07
1.0671372e-08 -1.215858e-07 -1.8234176e-07 1.4232475e-07 -1.2181422e-07 -1.5870381e-07 6.411924e-08 1.4081736e-07
4.0231704e-08 6.758598e-08 -1.2848574e-07 2.711024e-07 5.3502802e-08 9.287588e-09 4.752531e-08 6.050999e-08
-1.8752678e-07 1.5369164e-08 2.7399782e-08 -1.8201774e-07 -1.9193877e-07 -1.9432473e-08 1.24703305e-08 -7.66116e-08
1.2345936e-08 8.5517815e-09 3.279564e-08 -1.9520591e-08 1.3817423e-07 1.2852691e-08 6.54757e-09 6.3100664e-08
1.1029226e-07 -1.1801157e-07 -8.044309e-08 4.820712e-08 2.6064964e-07 -1.00245764e-07 -1.0731551e-07 -2.604325e-08
1.4859287e-07 7.132378e-08 -1.4414363e-07 9.807081e-09 -3.545133e-08 -1.1264121e-07 6.281058e-08 7.511359e-09
1.5591377e-07 1.320356e-07 1.1179176e-07 1.4011785e-07 -7.516378e-08 1.12594385e-07 -2.60776e-07 -2.2104632e-07
1.5366777e-07 -1.7285213e-07 -6.013343e-08 -1.1960356e-07 3.7101465e-08 1.1512945e-07 -3.3940012e-07 -8.076003e-08
00000000: e561 7434 2bcc 0d34 a400 0c34 909d 9eb3
00000010: 5b77 bab3 b550 3334 0021 fcb3 d036 4ab2
00000020: 0031 ad33 caeb 11b4 d050 28b3 04fa 0034
00000030: faf3 81b4 7e08 5b33 0e64 ddb3 6c4d 1eb4
00000040: c80e c1b3 0d71 9533 366d ed33 84f6 bcb4
00000050: a2b2 24b4 d2fc 44b3 304a 4c34 3082 deb1
00000060: 2480 fb33 a48a 02b4 006d a231 fd52 1a34
00000070: 9c89 8c33 c0ca e131 e87d 1fb3 5db0 beb3
00000080: 382e 2034 62bb 2634 877d 7233 adb5 31b2
00000090: 60b0 ffb3 264d 4434 4cd8 a133 e125 5d34
000000a0: 9a5c c8b3 17fd 7eb4 4747 1034 9460 8733
000000b0: 964d b033 aaff 8134 98af d8b2 8998 5934
000000c0: 5950 1834 ee56 0b32 cb7a 2634 d0d0 4a33
000000d0: 6bba 8a34 00be 62b0 50e9 6fb4 c19e afb3
000000e0: dce4 8934 c671 98b3 a81e 5134 9a08 f134
000000f0: b396 45b4 fe97 a332 d022 02b2 f2ff ecb3
00000100: 3155 3732 408d 02b4 b9c9 43b4 eed1 1834
00000110: 0acc 02b4 2c68 2ab4 edb1 8933 9533 1734
00000120: 3acb 2c33 c923 9133 e4f5 09b4 088c 9134
00000130: f4ca 6533 3e8f 1f32 a21e 4c33 b8f1 8133
00000140: f85a 49b4 2605 8432 c25c eb32 a870 43b4
00000150: ba17 4eb4 76ec a6b2 183d 5632 ac85 a4b3
00000160: 001a 5432 22eb 1232 30db 0c33 3cae a7b2
00000170: 0b5d 1434 bcce 5c32 09f9 e031 f581 8733
00000180: d0d9 ec33 8c6d fdb3 0ec0 acb3 4a0c 4f33
00000190: 6aef 8b34 b146 d7b3 5375 e6b3 b6b5 dfb2
000001a0: e68c 1f34 aa2a 9933 e6c5 1ab4 007c 2832
000001b0: 2643 18b3 29e5 f1b3 7be2 8633 4e0b 0132
000001c0: 4069 2734 abc5 0d34 2c12 f033 4d73 1634
000001d0: ba69 a1b3 6bcb f133 c800 8cb4 c058 6db4
000001e0: e0ff 2434 3b99 39b4 b422 81b3 606c 00b4
000001f0: 7e59 1f33 163d f733 cc36 b6b4 4c6e adb3

lstm.bias_hh_l0_reverse f4 [128]
-2.9041314e-07 -4.360293e-08 -4.4666308e-08 -8.194586e-09 -1.385671e-07 -1.8350583e-08 -8.161743e-09 -1.3179002e-07
-1.3037962e-08 -1.5536628e-07 -2.7620214e-07 8.14643e-08 4.418487e-08 -2.6122765e-07 5.0581406e-10 -1.08946054e-07
1.1220837e-07 3.4194414e-08 -5.4321813e-08 3.1557466e-08 6.6368656e-08 -3.882186e-07 -4.1363046e-07 -1.3506082e-07
1.3283824e-08 -1.8786173e-07 -1.648722e-07 -2.6416453e-07 -9.4346504e-08 -1.07005974e-07 1.3262913e-07 -2.2254946e-07
9.912123e-08 -1.5894625e-07 5.8865687e-08 -2.3763513e-07 9.584454e-09 1.3505817e-07 -7.465545e-08 9.808295e-08
5.597127e-08 2.3919634e-07 7.320272e-08 -2.6296362e-07 8.4894985e-08 4.7186855e-08 -2.928413e-07 -4.5762505e-09
1.4208987e-07 4.519414e-08 5.4452222e-08 1.043367e-08 -1.7653376e-07 1.6574806e-07 2.9009084e-07 -4.8776194e-08
-2.6360496e-07 -2.158233e-07 3.1094032e-07 -2.740655e-08 2.4710786e-08 -5.8694404e-08 8.8726786e-08 -1.2582312e-07
-3.6766116e-07 -1.5668232e-07 1.09555074e-07 1.7251796e-07 -8.994718e-08 6.6093634e-08 3.107627e-07 1.1734171e-07
1.739923e-07 1.1827712e-07 6.4938675e-08 -1.10475455e-07 -6.351266e-08 7.6685104e-08 1.6969209e-07 4.8896993e-08
1.2902049e-07 -6.737533e-08 1.3784852e-07 -1.04064455e-07 4.822015e-08 -3.106059e-07 2.4855933e-07 1.13241505e-07
-1.3664975e-08 1.5783122e-07 -3.978602e-08 1.7152645e-07 6.02549e-08 8.236707e-08 3.1282988e-07 -6.661031e-08
-2.4914625e-08 -1.5367212e-07 1.7434989e-07 -2.1613072e-07 2.9255187e-08 -1.4098777e-07 2.4956958e-07 -7.5026556e-08
8.691103e-08 3.3932173e-07 -5.337796e-09 3.06944e-07 2.2709139e-07 -9.779251e-08 -8.194755e-08 4.9983246e-08
9.47704e-08 1.0973599e-07 -1.7110866e-08 -1.1877087e-07 -6.328694e-08 -9.310644e-08 -6.6859327e-09 -2.4830303e-08
1.501719e-07 -1.0354952e-07 1.107925e-07 5.8333328e-08 3.771766e-08 -3.090251e-08 1.1941583e-07 -8.046573e-09
00000000: 14ea 9bb4 ee45 3bb3 20d7 3fb3 2cc8 0cb2
00000010: 09c9 14b4 5ca1 9db2 ba37 0cb2 2a82 0db4
00000020: 90fd 5fb2 c2d2 26b4 ef48 94b4 79f1 ae33
00000030: c7c5 3d33 db3e 8cb4 8009 0b30 baf5 e9b3
00000040: 34f7 f033 28dd 1233 774f 69b3 cd89 0733
00000050: 8e86 8e33 5c6c d0b4 f010 deb4 3c05 11b4
00000060: e036 6432 0ab7 49b4 ba07 31b4 7fd2 8db4
00000070: 8a9b cab3 28cb e5b3 d168 0e34 eef5 6eb4
00000080: 79dc d433 d0aa 2ab4 82d3 7c33 a628 7fb4
00000090: e0a8 2432 8204 1134 4552 a0b3 aca1 d233
000000a0: 1065 7033 e56a 8034 9f33 9d33 722d 8db4
000000b0: 834f b633 7faa 4a33 cd37 9db4 203d 9db1
000000c0: 5e91 1834 7c1b 4233 dade 6933 c43f 3332
000000d0: 3b8d 3db4 7bf8 3134 c8bd 9b34 fe7d 51b3
000000e0: 9785 8db4 0fbd 67b4 50ef a634 a46b ebb2
000000f0: 9843 d432 2e17 7cb3 118a be33 ff19 07b4
00000100: f762 c5b4 823c 28b4 8a44 eb33 603d 3934
00000110: fc28 c1b3 5cef 8d33 e6d6 a634 4afd fb33
00000120: a4d2 3a34 89ff fd33 6a74 8b33 863e edb3
00000130: 7464 88b3 15ae a433 9b34 3634 d002 5233
00000140: e288 0a34 fbaf 90b3 8303 1434 0a7a dfb3
00000150: 9e1a 4f33 5ac1 a6b4 bc71 8534 2d2f f333
00000160: 32c3 6ab2 5178 2934 31e1 2ab3 d52c 3834
00000170: 7b65 8133 c7e1 b033 03f3 a734 680b 8fb3
00000180: d703 d6b2 1201 25b4 ef34 3b34 8f11 68b4
00000190: d64c fb32 6c62 17b4 95fc 8534 491e a1b3
000001a0: d8a3 ba33 062c b634 c067 b7b1 10ca a434
000001b0: 68d6 7334 0002 d2b3 24fb afb3 29ad 5633
000001c0: 9484 cb33 00a8 eb33 31fb 92b2 fa0e ffb3
000001d0: 5de8 87b3 cff1 c7b3 16ba e5b1 6a4a d5b2
000001e0: f03e 2134 f35e deb3 d2ec ed33 2c8a 7a33
000001f0: 01ff 2133 abb9 04b3 c638 0034 343d 0ab2

lstm.weight_ih_l1 f4 [128, 64]
-1.1720576e-07 -1.12327555e-07 -1.1964909e-07 -1.2615992e-08 -1.352724e-07 -6.2003224e-08 -2.1104509e-07 -5.7283785e-08
-1.326575e-07 -1.658597e-07 -1.2999095e-08 4.4972253e-08 4.1839527e-09 -1.3300027e-07 4.47864e-08 1.3123403e-07
-5.3352167e-09 -1.467547e-07 1.1175824e-07 2.1345363e-07 -6.913723e-09 -1.5868332e-07 -5.9351137e-09 1.3766899e-07
1.431501e-07 1.7827207e-07 -1.4878185e-07 -1.43601e-07 -7.904553e-08 2.7511572e-07 -3.6771394e-07 -2.5448053e-09
4.900817e-08 2.5567743e-08 6.9052064e-08 8.531119e-08 -1.2832646e-07 -5.938901e-09 -4.115278e-08 -1.2273912e-07
4.0156984e-08 3.6771257e-07 -2.064268e-08 4.8288932e-08 -1.1935064e-07 -2.4955412e-08 2.0452941e-07 3.608782e-08
1.0991521e-07 1.1562574e-07 -1.2941501e-07 4.9580677e-09 -1.5212665e-07 -1.3421817e-07 -2.7639237e-07 2.1389798e-07
7.977162e-08 1.2931898e-07 -7.055114e-08 -8.157585e-09 5.257477e-08 1.7031635e-07 -2.922237e-08 2.5622947e-07
1.2183364e-08 -1.548566e-07 3.507946e-08 -7.751918e-09 5.4968346e-08 2.5456686e-07 -1.0462293e-07 -2.773889e-07
6.842173e-08 3.2353913e-08 1.2842378e-07 1.6059354e-07 -4.7639134e-08 -4.5209497e-08 -2.2709632e-07 -1.1007555e-07
-5.1498716e-10 8.924493e-08 -8.468536e-08 -9.401758e-08 1.08985304e-07 1.662992e-07 -1.04920474e-07 4.8550625e-08
-3.7298426e-07 6.32136e-08 7.5862296e-08 -8.998591e-08 9.190278e-08 -1.5634204e-07 -2.5645281e-08 2.7550152e-07
4.4749218e-08 1.378386e-07 1.3925646e-07 1.0398585e-07 -1.6496107e-07 -1.566904e-07 3.2107735e-08 -1.178357e-07
-1.6277937e-08 -1.300605e-07 7.855277e-09 1.004031e-07 -1.5879891e-08 3.947989e-08 -4.3157692e-07 4.95964e-09
-7.950959e-09 -5.3186398e-09 1.0548389e-07 -9.5439304e-08 -8.8756515e-08 1.6066355e-07 -4.694816e-08 -2.1635019e-07
-1.2645174e-08 -4.3394714e-08 -6.767974e-08 1.4509838e-07 -8.665717e-08 1.687879e-07 1.5965128e-08 1.808418e-08
-1.6757362e-08 -6.520389e-08 8.156483e-08 6.4224054e-08 -1.937526e-08 1.2073461e-07 6.3253324e-08 -5.500371e-08
3.785011e-08 8.40606e-08 1.7401382e-07 1.1186345e-07 6.319059e-08 -3.034113e-07 1.495913e-07 -1.6285668e-07
2.602547e-07 -1.4133997e-07 2.9006692e-08 6.986623e-08 2.608459e-07 -1.13990204e-07 -6.937029e-10 1.76178e-07
-1.82139e-07 -1.713655e-07 1.0912591e-07 -8.9769884e-08 6.0815516e-08 -2.632735e-08 2.3245406e-11 -1.9647223e-07
5.135888e-09 -9.724587e-08 -1.4129483e-08 -5.6544557e-08 -9.601356e-08 4.107109e-08 -5.260354e-09 8.649588e-08
1.6990683e-07 -7.90378e-08 -8.191145e-08 -6.816697e-08 3.032985e-08 8.02808e-08 2.0095263e-07 5.640217e-08
-1.5634839e-07 -2.6249992e-08 -9.118735e-08 9.429449e-08 -1.8651534e-07 1.0041932e-07 2.561615e-07 1.0571062e-07
-3.8513906e-07 -1.4150245e-07 2.5616089e-08 8.3172594e-08 -1.3988118e-07 -1.2510887e-07 -2.5388402e-10 -8.540651e-08
-3.7648434e-08 3.1683385e-09 5.175339e-08 6.112836e-08 -2.892316e-07 -3.3829636e-08 -2.3318805e-08 -1.3221073e-07
-7.3710424e-09 1.1743407e-07 -2.7116045e-07 3.5063906e-08 -2.5198824e-07 -1.1958313e-07 -2.410994e-07 -3.0747054e-07
-1.3326625e-07 -6.656033e-08 7.800299e-09 1.0682234e-08 -2.6686558e-07 7.300094e-08 -1.3913297e-08 1.46373935e-08
-2.3737707e-07 -2.9773567e-08 8.5785125e-08 1.0427853e-07 -5.8103993e-09 -1.0610524e-07 2.846967e-09 2.792125e-08
-1.10847544e-08 -1.1210098e-07 1.5312163e-07 -1.361337e-07 -1.7368487e-07 1.12208355e-07 -2.588968e-07 -9.205751e-08
-1.5697583e-07 -1.981348e-08 1.0787578e-07 -1.0715597e-07 -7.441103e-08 1.4074706e-07 1.4787693e-07 8.811025e-08
-1.797669e-07 -1.711529e-07 -3.984928e-08 -1.0295394e-07 -5.2150465e-08 -1.9724482e-07 -1.1933885e-07 5.239007e-08
-2.8882866e-07 -1.0701768e-08 7.741298e-08 -2.154384e-08 -2.000123e-07 -2.4291944e-07 4.1180272e-07 -3.07613e-07
00000000: 8cb2 fbb3 ba38 f1b3 e478 00b4 b8bd 58b2
00000010: 653f 11b4 a226 85b3 a29b 62b4 3008 76b3
00000020: 9e70 0eb4 2b17 32b4 a052 5fb2 8427 4133
00000030: 70c2 8f31 d6ce 0eb4 2b5b 4033 56e9 0c34
00000040: 1051 b7b1 a093 1db4 beff ef33 b031 6534
00000050: c08d edb1 8a62 2ab4 d0ed cbb1 2ad2 1334
00000060: cdb4 1934 0e6b 3f34 d8c0 1fb4 be30 1ab4
00000070: bdbf a9b3 9eb3 9334 386a c5b4 b0e0 2eb1
00000080: 0e7d 5233 10a0 db32 c649 9433 5334 b733
00000090: 1cca 09b4 200f ccb1 f6bf 30b3 46ca 03b4
000000a0: 1279 2c33 086a c534 bc51 b1b2 3e66 4f33
000000b0: db26 00b4 885d d6b2 9e9c 5b34 fafe 1a33
000000c0: 870a ec33 ec4d f833 54f5 0ab4 a05b aa31
000000d0: 4158 23b4 9c1d 10b4 1463 94b4 d4ab 6534
000000e0: e94e ab33 eeda 0a34 e681 97b3 7025 0cb2
000000f0: 92ce 6133 34e0 3634 ac04 fbb2 e98f 8934
00000100: 004f 5132 a846 26b4 46aa 1633 4c2d 05b2
00000110: 5616 6c33 67ab 8834 10ad e0b3 0aec 94b4
00000120: 3eef 9233 81f5 0a33 dce4 0934 9e6f 2c34
00000130: c89b 4cb3 5e2c 42b3 c3d7 73b4 ac62 ecb3
00000140: 008f 0db0 eba6 bf33 45dc b5b3 b6e6 c9b3
00000150: 4e0b ea33 fa8f 3234 a450 e1b3 fa85 5033
00000160: 913e c8b4 0bc0 8733 bde9 a233 473e c1b3
00000170: 165c c533 f9de 27b4 924a dcb2 a4e8 9334
00000180: 4932 4033 c900 1434 8686 1534 d34e df33
00000190: 2720 31b4 bb3e 28b4 d4e6 0933 dc0c fdb3
000001a0: 90d3 8bb2 c2a6 0bb4 e0f3 0632 309d d733
000001b0: 4068 88b2 9990 2933 7bb3 e7b4 7469 aa31
000001c0: b098 08b2 40bf b6b1 6286 e233 50f4 ccb3
000001d0: 699a beb3 dc82 2c34 0ca4 49b3 e34d 68b4
000001e0: 103e 59b2 fe60 3ab3 5557 91b3 57cc 1b34
000001f0: 4818 bab3 113c 3534 b023 8932 8857 9b32
00000200: d4f1 8fb2 3806 8cb3 bd28 af33 8ceb 8933
00000210: a66e a6b2 47a3 0134 e2d5 8733 383d 6cb3
00000220: a390 2233 ce84 b433 8ed8 3a34 9539 f033
00000230: 65b3 8733 88e4 a2b4 589f 2034 b4dd 2eb4
00000240: 22b9 8b34 3cc3 17b4 642a f932 5e09 9633
00000250: 630a 8c34 c7ca f4b3 00af 3eb0 712b 3d34
00000260: fd91 43b4 9700 38b4 9a58 ea33 84c7 c0b3
00000270: af99 8233 7426 e2b2 0078 cc2d e0f5 52b4
00000280: c077 b031 7bd5 d0b3 20be 72b2 66db 72b3
00000290: 0330 ceb3 2466 3033 90be b4b1 9dbf b933
000002a0: a26f 3634 7dbb a9b3 4ce7 afb3 3063 92b3
000002b0: 0644 0233 d666 ac33 70c5 5734 d73e 7233
000002c0: b8e0 27b4 587c e1b2 c7d2 c3b3 f27e ca33
000002d0: f244 48b4 1ba6 d733 9286 8934 0703 e333
000002e0: 1cc5 ceb4 e6ef 17b4 600a dc32 9e9c b233
000002f0: 3f32 16b4 aa55 06b4 0093 8baf ba68 b7b3
00000300: e4b2 21b3 00ba 5931 7447 5e33 ac45 8333
00000310: b047 9bb4 144c 11b3 984e c8b2 cff5 0db4
00000320: 6044 fdb1 1030 fc33 0294 91b4 2c99 1633
00000330: 0049 87b4 c366 00b4 7370 81b4 6e12 a5b4
00000340: f317 0fb4 eeef 8eb3 1402 0632 f684 3732
00000350: ba45 8fb4 b1c4 9c33 5407 6fb2 f077 7b32
00000360: b6e1 7eb4 c4c0 ffb2 df38 b833 baef df33
00000370: d0a4 c7b1 f9db e3b3 60a4 4331 7ad7 ef32
00000380: 446f 3eb2 2abc f0b3 c169 2434 262c 12b4
00000390: 227e 3ab4 32f7 f033 81fe 8ab4 27b1 c5b3
000003a0: 308d 28b4 4e32 aab2 56a9 e733 9e1d e6b3
000003b0: e5cb 9fb3 4220 1734 1ac8 1e34 1f37 bd33
000003c0: f305 41b4 27c6 37b4 bf26 2bb3 8717 ddb3
000003d0: 0bfc 5fb3 3eca 53b4 9d23 00b4 7e03 6133
000003e0: 4f10 9bb4 e0da 37b2 3c3e a633 680f b9b2
000003f0: f6c2 56b4 986a 82b4 bc15 dd34 0226 a5b4
