model_2_best.pth (torch, 594436 bytes, 41 tensors)

lstm.weight_ih_l0 f4 [192, 19]
00000000: b8d4 4d33 ccaf a6b4 81b9 fbb4 1321 e734
00000010: 1427 d433 1467 4b35 3afe a9b3 30b5 6834
00000020: bc63 74b4 5452 02b5 73de 06b5 7cb1 a7b4
00000030: 0617 21b5 00bc 9e32 ebad 52b5 b6a9 9bb4
00000040: 79bf 7934 1c8d d133 3803 5d34 2db8 3734
00000050: 18cc 2a35 a042 d2b4 7636 ac34 4d3c 8334
00000060: 7e6e 29b5 247d f0b4 0071 0431 8e5e 4db5
00000070: 80b6 1c35 3d48 9d34 ba4e 5cb5 6812 25b3
00000080: 2e82 f9b4 8b27 e9b3 b6a0 ec35 90f9 88b3
00000090: 9e95 0235 4011 2fb2 9099 5333 1092 c6b4
000000a0: 42fe 07b5 48c9 94b3 ac6d 0d34 6a53 40b5
000000b0: 30eb e4b4 90eb 23b3 c0a9 2334 4b0d bbb4
000000c0: cb0b 3d35 049b 8934 e9ee ddb4 d869 b5b4
000000d0: 815c 26b4 19c6 6eb5 9816 48b5 1fb3 a434
000000e0: 8091 9435 a29b 21b5 dabc 10b5 dc8a 73b3
000000f0: 4a8a b434 bf56 d134 5046 8633 fb2b 3db5
00000100: 9057 b7b4 c8f0 3634 3ceb 3735 2854 be32
00000110: 853b 1434 e8d3 2c32 9df8 bdb5 a8c5 88b4
00000120: 8d28 0ab5 e9f0 cdb4 1df9 ac35 c0c3 02b2
00000130: 2ace 60b5 1500 9534 ab10 7c34 76d4 e434
00000140: 2b66 cb34 c694 2a34 3d71 8ab5 3deb c635
00000150: 9906 12b5 b882 4535 4eaa 11b5 9454 a0b5
00000160: c4af 0fb5 e25c 3f35 340d 48b3 38d7 6c34
00000170: a1be 8435 40e0 f5b4 f83e fa34 e17a 24b5
00000180: 0261 25b4 e92e 9034 8c18 a534 f032 48b3
00000190: de3d 8533 2b88 fab4 2375 ff34 9be6 3335
000001a0: e6b5 c9b3 ee94 34b5 fa1c 2bb5 a5f7 a335
000001b0: 3f98 a434 70ab a732 ddcb ce34 ef73 b9b4
000001c0: 2483 52b5 372c 8834 af0a 4ab5 d020 5eb3
000001d0: 922a 99b3 607d 65b2 96f6 0434 0127 02b5
000001e0: ac44 0b34 2073 e134 41f5 1b35 80c5 50b1
000001f0: 4ccd 5fb4 4030 8eb1 685a 7d35 92aa 1434
00000200: 833a 8b34 f279 4cb5 6e02 4b34 98a0 0235
00000210: b061 6cb5 949e 8cb3 16b2 fcb3 1352 8435
00000220: 5319 4035 0cb2 3035 e2d9 18b5 adc4 2c34
00000230: c0ad 8633 1541 8334 3c5e 40b5 089d c4b1
00000240: 04cb a735 5667 c7b4 c89f 8533 54d8 a3b4
00000250: fe5c 84b4 415c 10b5 1041 86b3 66a1 2835
00000260: 1aa4 17b5 d172 f2b4 6241 1ab5 2a46 8334
00000270: 4062 4eb5 f5a9 f1b4 da8b 60b5 4a7a cc34
00000280: 4a87 3034 7b8c 45b4 e418 51b4 b488 f133
00000290: 28b7 3cb5 60a1 6bb1 38e7 7ab4 9a99 9334
000002a0: cfdc 5d35 76d9 c934 7845 89b3 80ca 4d32
000002b0: 88db 80b3 1878 96b4 7813 21b2 1be1 c1b4
000002c0: 0e48 43b5 f688 9a34 11be bab4 14e2 0ab4
000002d0: ce2c 9cb3 501a 0833 e778 4f35 16a6 2134
000002e0: ba6f 94b3 c7d7 47b5 8c1a c8b4 b7b2 f7b3
000002f0: a829 0bb5 92c3 2f35 3897 7234 6c55 0db5
00000300: b9c3 a8b4 3380 2635 8ea6 0cb4 d4a2 8fb4
00000310: 6873 7eb4 a630 0434 bfe1 6d35 d82f 1533
00000320: 8f19 4935 4650 08b4 a44b 0234 321c aab4
00000330: 0855 4b35 7c10 67b4 fa2c 0db4 5796 4a35
00000340: 2031 0f32 786f 93b3 c66a 12b5 9e10 31b5
00000350: 827c 0835 f178 08b5 0ad8 80b2 3270 18b5
00000360: d994 e6b4 1c75 beb3 a264 cdb4 aa6b 1135
00000370: f1e3 9434 80b0 f5b1 2994 8bb5 3cab 2534
00000380: dc46 3a35 b5c9 9b34 56d7 6c35 c2cb 0b35
00000390: f33c ce34 dc89 a735 84e5 47b5 c4af 5035
000003a0: d4dd f6b4 8fc9 b6b4 cdcd 31b4 f74b 2d34
000003b0: 4096 64b4 e0b3 0db4 75e0 1735 6a3c a134
000003c0: ba31 0c35 000f 84b4 fc45 1db5 e1a6 3ab5
000003d0: 76e9 11b4 2708 2135 2525 7db4 2277 feb4
000003e0: dd84 2235 6e6d 4b35 4a85 7134 4000 72b2
000003f0: accb 1435 d88b 2d34 6cff 8cb4 0913 17b5
4.792375e-08 -3.1047819e-07 -4.6887365e-07 4.3051168e-07 9.8791276e-08 7.577339e-07 -7.915919e-08 2.16726e-07
-2.2760554e-07 -4.8548577e-07 -5.0242596e-07 -3.123531e-07 -6.001068e-07 1.8479113e-08 -7.848418e-07 -2.899448e-07
2.325959e-07 9.7579886e-08 2.05834e-07 1.7110206e-07 6.362693e-07 -3.9164024e-07 3.2077122e-07 2.4444526e-07
-6.3118193e-07 -4.4794535e-07 1.9272761e-09 -7.6506046e-07 5.83801e-07 2.929609e-07 -8.207095e-07 -3.8433797e-08
-4.6474582e-07 -1.0857101e-07 1.7630143e-06 -6.378389e-08 4.8646496e-07 -1.0190263e-08 4.926693e-08 -3.6986648e-07
-5.0661413e-07 -6.9284e-08 1.3171547e-07 -7.164696e-07 -4.263943e-07 -3.8165638e-08 1.5242313e-07 -3.4841136e-07
7.042515e-07 2.5631027e-07 -4.1338288e-07 -3.379089e-07 -1.5493607e-07 -8.895018e-07 -7.4538684e-07 3.0677708e-07
1.1069205e-06 -6.020365e-07 -5.3918995e-07 -5.670414e-08 3.362823e-07 3.89924e-07 6.252651e-08 -7.0471987e-07
-3.4150116e-07 1.7037667e-07 6.8515124e-07 2.2157181e-08 1.3805227e-07 1.00599e-08 -1.4153953e-06 -2.5475788e-07
-5.1468015e-07 -3.835951e-07 1.28875e-06 -7.611504e-09 -8.374651e-07 2.7753472e-07 2.3475393e-07 4.2622895e-07
3.7886034e-07 1.5886607e-07 -1.0314758e-06 1.4820613e-06 -5.439884e-07 7.357844e-07 -5.4264535e-07 -1.1945544e-06
-5.3527424e-07 7.1288207e-07 -4.6578137e-08 2.2057509e-07 9.890247e-07 -4.579797e-07 4.6611945e-07 -6.1273573e-07
-1.5402114e-07 2.6856222e-07 3.0751505e-07 -4.6612456e-08 6.204549e-08 -4.6665204e-07 4.758268e-07 6.701827e-07
-9.392879e-08 -6.7271947e-07 -6.374463e-07 1.221652e-06 3.0658154e-07 1.951932e-08 3.851882e-07 -3.4543288e-07
-7.842193e-07 2.5364145e-07 -7.526641e-07 -5.1718246e-08 -7.132361e-08 -1.3358061e-08 1.2383165e-07 -4.848553e-07
1.2970366e-07 4.199328e-07 5.809889e-07 -3.038025e-09 -2.084318e-07 -4.1382293e-09 9.4381403e-07 1.3845627e-07
2.593334e-07 -7.6173376e-07 1.8906732e-07 4.866247e-07 -8.8059005e-07 -6.548103e-08 -1.1767058e-07 9.858653e-07
7.1562425e-07 6.58242e-07 -5.6941474e-07 1.6090299e-07 6.271466e-08 2.4448005e-07 -7.16627e-07 -5.722203e-09
1.2501555e-06 -3.7141825e-07 6.222359e-08 -3.0518515e-07 -2.4654577e-07 -5.377843e-07 -6.251696e-08 6.281974e-07
-5.649068e-07 -4.5159553e-07 -5.7464615e-07 2.4451703e-07 -7.688395e-07 -4.5013408e-07 -8.3650013e-07 3.8086938e-07
1.6440495e-07 -1.8398161e-07 -1.9473697e-07 1.1247303e-07 -7.0301985e-07 -3.4288732e-09 -2.3367181e-07 2.7492644e-07
8.2650234e-07 3.759739e-07 -6.392196e-08 1.1978614e-08 -6.000397e-08 -2.8027057e-07 -9.37586e-09 -3.6112837e-07
-7.2748014e-07 2.8784387e-07 -3.478349e-07 -1.2934498e-07 -7.272466e-08 3.16889e-08 7.7289445e-07 1.5054715e-07
-6.91211e-08 -7.4447274e-07 -3.7272218e-07 -1.1534342e-07 -5.1842153e-07 6.547717e-07 2.259302e-07 -5.26509e-07
-3.1434845e-07 6.2026373e-07 -1.3099108e-07 -2.67543e-07 -2.3697578e-07 1.2311156e-07 8.8617884e-07 3.473528e-08
7.491553e-07 -1.269519e-07 1.2134711e-07 -3.1685482e-07 7.574713e-07 -2.1519548e-07 -1.314801e-07 7.546964e-07
8.334865e-09 -6.865497e-08 -5.4544614e-07 -6.596182e-07 5.084513e-07 -5.083994e-07 -1.4999404e-08 -5.678768e-07
-4.294914e-07 -8.8688665e-08 -3.8257446e-07 5.417338e-07 2.7732997e-07 -7.150504e-09 -1.0399427e-06 1.5429117e-07
6.9393514e-07 2.901776e-07 8.8230206e-07 5.207804e-07 3.8414836e-07 1.2482592e-06 -7.4467266e-07 7.774181e-07
-4.5982472e-07 -3.4046795e-07 -1.655928e-07 1.6139516e-07 -2.1288815e-07 -1.3197086e-07 5.657851e-07 3.0032544e-07
5.2226426e-07 -2.459783e-07 -5.85889e-07 -6.953324e-07 -1.358911e-07 5.9989037e-07 -2.3575974e-07 -4.7397867e-07
6.0543044e-07 7.5782634e-07 2.2493364e-07 -1.4086311e-08 5.543068e-07 1.6162755e-07 -2.6262876e-07 -5.6279583e-07

lstm.weight_hh_l0 f4 [192, 48]
00000000: b2f2 0e35 c85e 1bb5 119b e833 98fe 17b5
00000010: 8409 92b3 883e b2b3 5e40 47b5 a8fe 0fb5
00000020: aa77 1bb5 ecc3 7ab3 aed1 15b5 b06e 53b5
00000030: 56b0 ca34 8053 b632 f374 8534 2283 b1b5
00000040: ca7b 1234 e462 92b3 19e7 c334 4b41 7c34
00000050: fc67 deb4 6e9c 2cb5 11a2 beb4 889f a233
00000060: 66a9 3935 46fd 91b4 355c 0fb5 76dc 1435
00000070: ce97 33b5 f2f1 0435 68ed db33 5f8e 98b4
00000080: c17e 00b5 ba45 8cb4 3c5c 88b4 ce3e 0f35
00000090: b081 c835 f099 3435 3f38 42b5 608f 38b4
000000a0: 7398 eab4 1090 9031 38d2 7635 d97f c134
000000b0: fb3c 6435 caf8 00b5 2c72 96b3 5f95 54b5
000000c0: 38aa 5535 50db 3bb3 f012 3833 61db 9035
000000d0: 362b f5b4 60dd 4d32 2e58 4bb5 bba2 e834
000000e0: 40b1 45b2 696d 2fb5 bf77 d8b4 b07c 5db3
000000f0: 1e8e c334 dc2b dab4 3180 1bb5 28bc 5834
00000100: 3ccb 14b5 9d04 bfb4 9c3c e032 77d5 2434
00000110: 0e47 2034 5142 5035 6a8b 9634 3a7b 84b4
00000120: f0f9 e332 dba0 0435 ca0d 8734 e9bf 9eb4
00000130: 38e1 75b4 e96f 0735 bdb8 7c35 d2ff 4534
00000140: c013 8533 e074 4933 ea83 1734 6ce7 1533
00000150: 4690 20b4 348a deb4 a33f b634 ed96 d3b4
00000160: 9f03 11b5 7cc7 fd34 6f8f e9b4 2026 31b2
00000170: 12a4 80b4 36ac 1d35 f068 ee33 d489 5cb4
00000180: 984f 2234 f198 c2b4 3c7e 57b4 003c 5035
00000190: 76ce 8234 f082 3534 a608 c6b4 8a8b 1ab4
000001a0: 6c6d f2b4 b057 5834 918f 0035 0ed8 f933
000001b0: 5bdf 8ab4 849c 3fb5 2ad4 ec34 f88d 90b2
000001c0: e80a 1335 4a88 9f34 94eb 4bb5 eba8 0f35
000001d0: b0ee b5b3 d065 e3b4 9d4c 70b5 8c92 a735
000001e0: aaa3 29b5 2b38 93b4 ee35 b2b4 94ae 3535
000001f0: b062 5535 643f 0f35 f713 cdb4 daaa 4733
00000200: 3751 8a34 aaf0 f0b3 793f 9035 2de7 5135
00000210: f2a0 8bb5 7894 cfb1 d0fe 10b3 9b01 8eb4
00000220: 00da cf35 60ec 6232 6da4 27b4 54f8 3c35
00000230: 0023 1432 0007 42b0 0666 beb4 f609 44b4
00000240: 44c5 87b5 8aca 9734 40fd 9333 5ab3 7334
00000250: 5f0b ccb4 c060 3435 eecd d3b2 be95 2db4
00000260: ec0a 12b5 2a91 8434 a02b 9bb3 02d7 3f34
00000270: 000c d331 fd48 4db5 881d 2eb2 42e8 14b5
00000280: 80a8 0334 dafa 1fb5 4767 2db5 228f c5b4
00000290: 3a41 e7b4 30d9 6bb4 a689 5033 00b2 b1b0
000002a0: db9b 1db5 f185 08b5 b246 9934 20f3 9b32
000002b0: a14c b633 88b6 80b3 39b7 9035 c376 6635
000002c0: 2384 e9b4 26fc 6534 5ecf a233 1288 dab4
000002d0: 50a3 0a34 efff 9db4 d231 2eb5 9056 0db5
000002e0: 383f 1bb4 27e2 9ab5 b466 23b5 bf4e 3235
000002f0: 01ab fdb3 2680 5f34 1007 1d35 62e1 0734
00000300: b6b0 3c34 31eb bf34 a327 2934 a444 13b5
00000310: c039 1eb5 fc62 fd34 d47a a934 60dc 2734
00000320: 8fa1 9b34 75d2 1c35 2fe3 a2b4 344e 2fb5
00000330: 8ab0 4335 64a1 d034 34a2 5b35 6ec4 8135
00000340: 23dd 1835 dcd6 aeb4 fb9b 16b5 ad15 b1b5
00000350: 1a58 88b4 70b6 1c34 92df ab34 c0ee ccb4
00000360: 1ec1 26b4 3018 21b5 b34d 13b5 07c4 aab4
00000370: 8a70 c8b5 8e68 2035 8547 3cb5 4024 deb1
00000380: fc08 2935 c5aa 79b4 47a6 2bb4 9129 c734
00000390: 6087 24b3 eebd b935 f534 0e35 26d2 e3b4
000003a0: 7af7 d6b4 ec28 07b5 d668 9cb4 e05e b0b3
000003b0: 3089 1134 fe87 62b4 2ad7 6f34 98d2 99b3
000003c0: 005d 1635 3c2c 8d34 18f6 c833 6aed 0835
000003d0: b3e8 afb4 8026 bbb5 c0a3 acb3 14bf 87b5
000003e0: 6014 0935 861a b534 03bf a035 0852 4a33
000003f0: 54b9 46b2 603c 9bb4 e0c2 c9b3 7d7c 9835
5.325229e-07 -5.7879924e-07 1.0831548e-07 -5.6622366e-07 -6.800386e-08 -8.300145e-08 -7.4226944e-07 -5.3642225e-07
-5.7916134e-07 -5.838585e-08 -5.581195e-07 -7.8764697e-07 3.7753733e-07 2.122556e-08 2.4858272e-07 -1.3225692e-06
1.3642344e-07 -6.816643e-08 3.6489726e-07 2.3493082e-07 -4.142638e-07 -6.430263e-07 -3.5508177e-07 7.5727314e-08
6.916438e-07 -2.7192635e-07 -5.340583e-07 5.545511e-07 -6.69036e-07 4.952591e-07 1.0241166e-07 -2.8415795e-07
-4.7868167e-07 -2.6127765e-07 -2.5399083e-07 5.3363044e-07 1.4938905e-06 6.7279234e-07 -7.235248e-07 -1.7188495e-07
-4.3696818e-07 4.2073296e-09 9.194805e-07 3.6042073e-07 8.5025357e-07 -4.804575e-07 -7.005687e-08 -7.919352e-07
7.9596384e-07 -4.3738794e-08 4.2858062e-08 1.0792684e-06 -4.5666246e-07 1.1982905e-08 -7.575171e-07 4.333177e-07
-1.1507211e-08 -6.5351793e-07 -4.0320262e-07 -5.1568975e-08 3.6424984e-07 -4.0637576e-07 -5.792854e-07 2.0185018e-07
-5.543004e-07 -3.557988e-07 2.6104594e-08 1.5351348e-07 1.4927011e-07 7.758254e-07 2.8041114e-07 -2.4676575e-07
2.6539936e-08 4.940791e-07 2.5155742e-07 -2.9569426e-07 -2.2899337e-07 5.045427e-07 9.4146145e-07 1.8440122e-07
6.1968876e-08 4.6905257e-08 1.4110961e-07 3.4902243e-08 -1.4953648e-07 -4.1451278e-07 3.3946444e-07 -3.9411626e-07
-5.402198e-07 4.7270066e-07 -4.3503994e-07 -1.0311425e-08 -2.3961235e-07 5.873766e-07 1.1101827e-07 -2.0539238e-07
1.5116382e-07 -3.6246595e-07 -2.0069359e-07 7.757335e-07 2.4364607e-07 1.6904573e-07 -3.6886667e-07 -1.4393132e-07
-4.5155628e-07 2.0148468e-07 4.789263e-07 1.1634266e-07 -2.5867016e-07 -7.1380805e-07 4.4112795e-07 -1.6828366e-08
5.477764e-07 2.971522e-07 -7.5966204e-07 5.351746e-07 -8.471886e-08 -4.2356123e-07 -8.9518454e-07 1.248512e-06
-6.319557e-07 -2.742175e-07 -3.3194323e-07 6.76818e-07 7.949229e-07 5.3363897e-07 -3.8198752e-07 4.6488687e-08
2.5763595e-07 -1.12196474e-07 1.0747309e-06 7.819497e-07 -1.0403148e-06 -6.041372e-09 -3.3759363e-08 -2.645073e-07
1.5486148e-06 1.3208677e-08 -1.5612905e-07 7.039682e-07 8.622692e-09 -7.0586736e-10 -3.546449e-07 -1.8257546e-07
-1.0115696e-06 2.8273308e-07 6.891287e-08 2.2696386e-07 -3.8006235e-07 6.7196015e-07 -2.4657279e-08 -1.6166356e-07
-5.440513e-07 2.4692537e-07 -7.225685e-08 1.786648e-07 6.1422725e-09 -7.6474663e-07 -1.0134848e-08 -5.5472276e-07
1.2261626e-07 -5.959715e-07 -6.459781e-07 -3.6798252e-07 -4.3074562e-07 -2.1965093e-07 4.8553964e-08 -1.2929036e-09
-5.871386e-07 -5.085886e-07 2.8549908e-07 1.8154935e-08 8.488974e-08 -5.993667e-08 1.0782161e-06 8.58545e-07
-4.3495774e-07 2.1419018e-07 7.581433e-08 -4.0704668e-07 1.2911664e-07 -2.9429745e-07 -6.489255e-07 -5.265256e-07
-1.4458499e-07 -1.1539713e-06 -6.0871685e-07 6.642476e-07 -1.1812336e-07 2.0815114e-07 5.8497335e-07 1.2654849e-07
1.7573151e-07 3.5747647e-07 1.5753771e-07 -5.486165e-07 -5.8943624e-07 4.7196943e-07 3.1568072e-07 1.5633259e-07
2.898855e-07 5.8420784e-07 -3.034015e-07 -6.530638e-07 7.290006e-07 3.8860446e-07 8.1819894e-07 9.668418e-07
5.694621e-07 -3.2566356e-07 -5.6106336e-07 -1.3193836e-06 -2.5396076e-07 1.4595003e-07 3.20139e-07 -3.8171675e-07
-1.553021e-07 -6.001237e-07 -5.4874835e-07 -3.1807596e-07 -1.4933914e-06 5.975679e-07 -7.013953e-07 -6.4651715e-09
6.297048e-07 -2.3252058e-07 -1.5986107e-07 3.7096882e-07 -3.830735e-08 1.3838851e-06 5.2976185e-07 -4.2434948e-07
-4.004067e-07 -5.035097e-07 -2.9133543e-07 -8.212896e-08 1.3554086e-07 -2.1097364e-07 2.2336886e-07 -7.1629245e-08
5.601469e-07 2.629548e-07 9.35799e-08 5.100943e-07 -3.27656e-07 -1.3943791e-06 -8.03916e-08 -1.0113895e-06
5.1066127e-07 3.3733176e-07 1.1976521e-06 4.7106397e-08 -1.1567256e-08 -2.8914928e-07 -9.3952394e-08 1.1361113e-06

lstm.bias_ih_l0 f4 [192]
00000000: 7680 0b35 a0b7 5bb2 24d5 ffb4 5028 d8b2
00000010: d041 c6b4 a075 43b5 56cc 4d35 1f1a ceb4
00000020: b722 b734 484e a533 046c c9b3 0898 e1b4
00000030: 96c7 df34 68d4 31b5 34d9 58b5 3c36 1633
00000040: 34d3 0db5 f80e 3eb3 8798 a2b4 958d f8b4
00000050: 0d3e 03b5 ea16 3535 d01e 4fb5 e744 8cb4
00000060: bdbc 02b4 100b 2eb5 38a3 d833 c4f9 97b4
00000070: b06d 5a33 d48a de34 52a2 fab4 143c 3eb5
00000080: b52c 63b5 050e 26b4 ab54 adb4 d5d3 ab33
00000090: 1d91 8935 3615 93b3 52ba 1f35 201a d133
000000a0: 3808 e7b2 2067 3eb5 bec3 5cb4 00ea 48b3
000000b0: de94 5b35 463d 3934 7085 3533 9251 00b5
000000c0: f386 bd34 6cec 3f34 b426 f934 60fb feb2
000000d0: 5170 2235 28fd 8034 44dc b6b3 3f07 5f34
000000e0: 4c7e a534 9c30 6d35 e670 7d35 b494 9835
000000f0: c449 eab4 8ebd e7b4 95d5 c0b5 ae93 2435
00000100: 1e2d b332 f04f a634 d2c4 81b4 a8ab 3635
00000110: 520d 3435 f5ef 9a35 8700 1ab5 5e90 c8b5
00000120: 00e1 ba31 c0c3 92b0 4016 8232 6059 07b2
00000130: 9d94 9cb4 9688 f6b4 ba73 b4b4 1468 f234
00000140: 698d 8f35 b5b1 1935 d773 01b5 1a26 25b5
00000150: 2956 0cb5 646f 4d34 62f5 a035 e645 26b5
00000160: 92e8 c535 9a91 2bb4 7e46 2334 8b3c 3e35
00000170: daa6 74b4 d0bb 8db3 8fb3 ddb4 40ef 4034
00000180: 3099 10b3 608e 1cb2 a27b 7835 b4c1 deb3
00000190: 4bbe 2735 4829 60b4 a304 1e35 68ae 9c33
000001a0: 3882 27b5 1c4d e3b4 b45e 2a35 d958 13b5
000001b0: 35c4 4633 d0ec 4fb5 bdcb d3b3 439a 2635
000001c0: 8ecb 0435 2423 7eb5 7ab2 7bb4 a8ff cdb3
000001d0: 8069 c2b1 9c45 3fb5 b77c bd34 b0e2 9933
000001e0: 63f4 adb4 231b d6b4 b1a8 2cb5 898f 17b5
000001f0: 24a4 f5b5 35d5 20b5 60ba 8e34 64ac f1b4
00000200: 38aa cf34 baff cfb4 4edb 31b5 7245 e534
00000210: a283 7735 aa55 57b4 46d8 9234 baa8 a333
00000220: f818 a4b4 6616 92b5 d5e2 d1b5 8d90 b5b4
00000230: d739 3bb5 42f2 d0b4 71f4 9ab5 744a 5f35
00000240: 8d1d 22b4 6011 0134 0a53 0d35 7c80 8334
00000250: 57e2 0ab5 5cdc 0e35 b61d a033 8000 f434
00000260: e618 9eb5 74e5 d0b3 e98d f134 6842 7834
00000270: 961b 4fb5 d039 fa31 b167 1ab4 b323 6fb4
00000280: d74f 90b5 46ca 8e35 3a91 6e35 00ea 14b1
00000290: 46cb 07b5 56f6 99b4 bea7 ccb4 a654 18b4
000002a0: 0f95 4bb5 1581 0935 181e 94b4 2819 1c35
000002b0: 625f d3b4 1d40 5235 9558 e5b4 b83c 6434
000002c0: 284b 3633 00d3 24b3 08e4 9eb3 c56e f3b4
000002d0: 6088 90b2 b2d8 29b5 54ca 99b5 70a2 ae33
000002e0: f78e 0f35 cb58 08b5 c863 1cb5 9809 99b5
000002f0: 76d5 0434 435b 1235 cf28 9eb5 f51a 5a35
5.196847e-07 -1.2789229e-08 -4.7652532e-07 -2.5164042e-08 -3.692826e-07 -7.281433e-07 7.66658e-07 -3.8389496e-07
3.4111665e-07 7.6976505e-08 -9.37944e-08 -4.2020133e-07 4.1682205e-07 -6.624673e-07 -8.078234e-07 3.4973922e-08
-5.2833934e-07 -4.4251436e-08 -3.028583e-07 -4.6296614e-07 -4.88916e-07 6.74611e-07 -7.715835e-07 -2.6127165e-07
-1.2175856e-07 -6.483615e-07 1.0087973e-07 -2.830767e-07 5.085684e-08 4.1451733e-07 -4.6684232e-07 -7.086794e-07
-8.4629147e-07 -1.5465055e-07 -3.2285365e-07 8.00134e-08 1.0249529e-06 -6.849079e-08 5.950325e-07 9.737073e-08
-2.6895677e-08 -7.093058e-07 -2.0560307e-07 -4.677895e-08 8.180049e-07 1.7251759e-07 4.2263707e-08 -4.7802416e-07
3.5302182e-07 1.7874271e-07 4.6408024e-07 -2.9683804e-08 6.0513145e-07 2.4026053e-07 -8.5151015e-08 2.077113e-07
3.0825538e-07 8.8360116e-07 9.4414133e-07 1.1368161e-06 -4.3639568e-07 -4.3165022e-07 -1.4367275e-06 6.1309663e-07
2.085886e-08 3.0978072e-07 -2.4171328e-07 6.8050076e-07 6.707461e-07 1.1543731e-06 -5.737024e-07 -1.4943178e-06
5.438892e-09 -1.0678534e-09 1.514411e-08 -7.878356e-09 -2.9165395e-07 -4.592045e-07 -3.3611815e-07 4.515174e-07
1.0695486e-06 5.725554e-07 -4.8224814e-07 -6.1522735e-07 -5.2279444e-07 1.9132636e-07 1.1992345e-06 -6.1941535e-07
1.4745331e-06 -1.5978586e-07 1.5206203e-07 7.086862e-07 -2.2784971e-07 -6.599987e-08 -4.1295104e-07 1.7968432e-07
-3.3666936e-08 -9.112767e-09 9.256711e-07 -1.0372915e-07 6.248926e-07 -2.0876644e-07 5.8866334e-07 7.2960404e-08
-6.240184e-07 -4.233815e-07 6.3467746e-07 -5.489106e-07 4.6278917e-08 -7.7458117e-07 -9.862513e-08 6.20643e-07
4.9470043e-07 -9.467351e-07 -2.3441126e-07 -9.59256e-08 -5.658137e-09 -7.125434e-07 3.5294735e-07 7.165852e-08
-3.2401576e-07 -3.988035e-07 -6.432047e-07 -5.6460755e-07 -1.8301694e-06 -5.99149e-07 2.6585167e-07 -4.501518e-07
3.8680605e-07 -3.874282e-07 -6.625677e-07 4.2705102e-07 9.220622e-07 -2.00546e-07 2.735198e-07 7.62097e-08
-3.0565548e-07 -1.0884366e-06 -1.563773e-06 -3.3819052e-07 -6.9747097e-07 -3.8919285e-07 -1.1545036e-06 8.318232e-07
-1.5098176e-07 1.2020382e-07 5.264743e-07 2.4494136e-07 -5.1738374e-07 5.321979e-07 7.455985e-08 4.5448905e-07
-1.1779164e-06 -9.727492e-08 4.4993e-07 2.3120958e-07 -7.715365e-07 7.28253e-09 -1.438009e-07 -2.2271597e-07
-1.0752073e-06 1.0638694e-06 8.887324e-07 -2.1669848e-09 -5.058722e-07 -2.8677704e-07 -3.812001e-07 -1.4186898e-07
-7.58403e-07 5.1224316e-07 -2.7589044e-07 5.8151136e-07 -3.9371213e-07 7.8324393e-07 -4.2719026e-07 2.1256244e-07
4.244353e-08 -3.837613e-08 -7.398927e-08 -4.5342873e-07 -1.6825823e-08 -6.327274e-07 -1.1458274e-06 8.1320536e-08
5.347969e-07 -5.079316e-07 -5.825973e-07 -1.140218e-06 1.2371115e-07 5.452204e-07 -1.1783794e-06 8.1250556e-07

lstm.bias_hh_l0 f4 [192]
00000000: a856 45b4 026a b1b4 1910 8a35 3334 8f35
00000010: 646b de34 0f52 0935 5e8a a7b5 d4d9 67b4
00000020: 568e 8db4 5a9c 7035 8b01 57b5 9f38 00b5
00000030: 850a 1c35 6b83 11b5 e461 9a34 b20b 10b5
00000040: a48a cd34 a5a4 0834 ceba 7a34 a03d 3734
00000050: 6571 13b4 e28a 5135 75b3 15b5 baa6 b7b4
00000060: fced 29b5 a26b 20b5 fe0e 11b5 c038 20b2
00000070: 2c35 32b5 6e91 3035 4d23 c034 e6bb 77b4
00000080: c46d 1a34 0483 3e35 faa4 19b4 e048 1d33
00000090: 03cc 23b4 87d1 8c34 8f3a da34 13a1 1534
000000a0: ec54 95b5 09d1 3eb5 daeb 07b5 c4b1 a634
000000b0: 0686 dfb5 ad9f cdb4 637b eb34 84c2 67b4
000000c0: 18af db34 bdb8 e8b4 63b7 96b5 dfbd fa34
000000d0: 5c5d 19b5 526d 0435 9f3e 84b4 a718 c835
000000e0: 409e 67b3 24f2 b433 c0b7 0632 0fde 26b5
000000f0: 40c0 a431 5c02 3d35 ec16 44b4 468e 22b4
00000100: 7a5f a234 009a b3b0 8f55 d234 8898 4734
00000110: d60a 2235 4cc2 c534 90dd 1eb5 ae16 3435
00000120: 43f0 1635 f967 2e35 6aec 04b5 0d6b 0cb5
00000130: ae41 d7b3 4010 6bb2 08bb 30b5 d0aa 7bb3
00000140: 19cc f434 2573 1535 094d b434 28e8 9834
00000150: a0bb f5b2 4c69 3db5 4f1b 4e35 386c ca33
00000160: 5431 4035 6288 3bb4 dfa0 2835 447d c1b4
00000170: 7568 ff34 64ea ba34 a2f1 2e35 04c3 85b5
00000180: 0c5d 7bb4 b0c1 c432 40c7 7633 c646 7c34
00000190: 19f1 8334 e0be 8ab1 9d41 0535 7749 0735
000001a0: 364e 24b4 38f7 c633 502a e4b3 e73d a935
000001b0: 5846 50b4 3bb4 47b5 537f 5035 387e 3035
000001c0: 22ef 4bb5 d09d bd32 aaaa d535 2c17 b0b3
000001d0: 0d0a 1fb5 60aa a033 2a00 13b5 c1ea 2db5
000001e0: 509b 17b2 abe9 3735 0ed7 8cb4 8383 1e35
000001f0: 6fe0 87b4 4b35 3e35 982d da32 48a4 87b2
00000200: 33f2 0135 00a9 d431 86cd 7ab4 ecdd 8db4
00000210: c015 03b1 b03b 9ab4 08a6 75b5 f0c9 1d35
00000220: 03a9 2635 e2bc 5b34 c4b3 4db2 4872 60b4
00000230: b0f3 6b35 95a2 47b5 d02c ccb1 e48f 2734
00000240: 64bc 4c34 a6b6 11b5 d80f a933 58de 5cb3
00000250: e3ff 2cb4 b44a b434 afa5 3d35 849d 2e34
00000260: d3a6 7ab4 af1e 1835 e4d0 30b5 fb9a 2ab5
00000270: 9c54 f3b3 c044 e532 ec09 07b5 3c58 7c34
00000280: 1c52 24b3 c01e 3eb3 5dbd 93b5 301d 9333
00000290: da23 8eb4 e429 c734 f6b6 d4b4 8fc3 d534
000002a0: 74e0 bf34 7817 e2b2 e1cd d433 cae0 ffb4
000002b0: 6045 04b5 e0ed 4e32 1091 2334 e444 bab4
000002c0: 98de 4c33 b860 8634 60a8 bd33 62ee 0c35
000002d0: d677 0bb4 8017 3932 40bf 6d33 e4f0 4934
000002e0: ba89 59b5 b615 81b5 bebd 9935 3849 3835
000002f0: fc5d 28b4 249d 8eb4 e8f4 22b4 fd45 8034
-1.837858e-07 -3.304595e-07 1.0286486e-06 1.0669522e-06 4.142886e-07 5.115589e-07 -1.248274e-06 -2.1592797e-07
-2.636686e-07 8.963449e-07 -8.0095987e-07 -4.776611e-07 5.8129837e-07 -5.420795e-07 2.875596e-07 -5.36612e-07
3.82851e-07 1.2725884e-07 2.3351024e-07 1.7065622e-07 -1.3731695e-07 7.806067e-07 -5.576797e-07 -3.4207716e-07
-6.330372e-07 -5.976127e-07 -5.4038526e-07 -9.326129e-09 -6.638754e-07 6.577674e-07 3.5788472e-07 -2.3072025e-07
1.43823e-07 7.097117e-07 -1.4309254e-07 3.662069e-08 -1.5254777e-07 2.6229483e-07 4.064827e-07 1.3935305e-07
-1.1126081e-06 -7.10847e-07 -5.063463e-07 3.104925e-07 -1.6653801e-06 -3.8300405e-07 4.3861937e-07 -2.1584316e-07
4.0919326e-07 -4.3347782e-07 -1.1229243e-06 4.6704278e-07 -5.71328e-07 4.9332914e-07 -2.463248e-07 1.4908336e-06
-5.3927806e-08 8.425948e-08 7.8416065e-09 -6.2162957e-07 4.7948845e-09 7.041142e-07 -1.8262261e-07 -1.5139184e-07
3.024432e-07 -1.3067734e-09 3.91778e-07 1.858881e-07 6.036547e-07 3.683548e-07 -5.9182e-07 6.708823e-07
5.622898e-07 6.497135e-07 -4.951786e-07 -5.2309844e-07 -1.0023665e-07 -1.3682495e-08 -6.5837276e-07 -5.8595845e-08
4.5597042e-07 5.567438e-07 3.3583663e-07 2.8481122e-07 -2.8607076e-08 -7.0561214e-07 7.678072e-07 9.426043e-08
7.1597356e-07 -1.7465348e-07 6.2818975e-07 -3.6040194e-07 4.7573454e-07 3.481574e-07 6.5171673e-07 -9.966029e-07
-2.3410047e-07 2.2905482e-08 5.7457555e-08 2.3495076e-07 2.4576073e-07 -4.0380286e-09 4.964184e-07 5.0398324e-07
-1.5302143e-07 9.265062e-08 -1.0624774e-07 1.2609497e-06 -1.93971e-07 -7.4395547e-07 7.767132e-07 6.574878e-07
-7.5971377e-07 2.207426e-08 1.5919406e-06 -8.1998536e-08 -5.924674e-07 7.4815716e-08 -5.4762006e-07 -6.4789134e-07
-8.824671e-09 6.8512844e-07 -2.6233505e-07 5.905096e-07 -2.5309006e-07 7.0858067e-07 2.5399274e-08 -1.5790775e-08
4.840869e-07 6.189225e-09 -2.3357833e-07 -2.6424766e-07 -1.9075372e-09 -2.8728164e-07 -9.151122e-07 5.8780915e-07
6.2085763e-07 2.046468e-07 -1.19734445e-08 -2.0903201e-07 8.7898934e-07 -7.4369865e-07 -5.942276e-09 1.5605434e-07
1.9067517e-07 -5.42825e-07 7.872558e-08 -5.1424962e-08 -1.611184e-07 3.3581966e-07 7.064909e-07 1.6262317e-07
-2.3343755e-07 5.6669063e-07 -6.5869085e-07 -6.355546e-07 -1.13309596e-07 2.6690373e-08 -5.030586e-07 2.3501428e-07
-3.8258904e-08 -4.426579e-08 -1.1007465e-06 6.85053e-08 -2.6475647e-07 3.7097118e-07 -3.96212e-07 3.981663e-07
3.5739833e-07 -2.6320535e-08 9.9094684e-08 -4.7661007e-07 -4.9274786e-07 1.2044865e-08 1.5233331e-07 -3.4695324e-07
4.76999e-08 2.5029817e-07 8.8316256e-08 5.2500957e-07 -1.298898e-07 1.07737606e-08 5.5354803e-08 1.8807219e-07
-8.103922e-07 -9.617568e-07 1.145461e-06 6.865189e-07 -1.568041e-07 -2.6563896e-07 -1.5176522e-07 2.389278e-07

lstm.weight_ih_l0_reverse f4 [192, 19]
00000000: 8a14 af35 ea31 e8b5 9be4 e233 a0dd 03b3
00000010: 4e3c e535 c974 9c34 b470 0a34 86c4 c835
00000020: d1f0 1a35 da7a 03b5 7821 4d33 3c00 2935
00000030: 20f9 1eb5 2610 8e34 78d4 6c35 26f9 b7b4
00000040: e18e 5135 dcd2 3635 042d e9b4 ca19 5f34
00000050: d06c ea33 27a3 0cb5 6cc9 3135 e8b7 1234
00000060: 2379 4cb4 c291 7834 f67d 0936 f425 e9b5
00000070: 98c2 2ab3 f615 1ab5 c4f0 8ab4 2826 e0b3
00000080: c16d d5b4 cf15 a834 2c72 e633 fd71 a534
00000090: 1873 eb34 4263 43b5 ef10 f1b4 ce88 2234
000000a0: cc62 8bb4 813c 1ab5 fd59 4fb5 d711 1fb5
000000b0: 031d 51b5 ce79 4235 65c8 feb4 fef6 cf34
000000c0: 0d2e cdb4 a877 6234 defa 7a33 cf51 9835
000000d0: a4ff 19b5 b049 e3b4 1a2e 0eb5 8e73 95b4
000000e0: b406 0235 4dc4 04b5 60d1 e5b3 74a9 37b4
000000f0: a126 9935 f0c5 39b3 1ea4 0c33 3b68 09b5
00000100: db10 d434 5ef2 c3b4 f091 b9b3 46ee 0cb3
00000110: 1073 feb3 a6bc 51b5 1209 70b3 00cf 1a35
00000120: 5086 1735 64d8 1ab4 3bda 6eb4 c3cd d632
00000130: 0e97 bd34 9561 7534 fc2f 9c34 b419 13b5
00000140: 7a1e 2b35 6a71 9c34 c058 5533 7453 1c34
00000150: 573d 8735 aab4 d934 6283 8234 de2a 6e35
00000160: c869 5ab5 b7ee a534 f417 2cb5 f922 df34
00000170: 207e 8932 30e3 6ab5 225a 1cb5 209f d933
00000180: 31cb 8fb4 4e4a 11b5 ee54 b2b4 a06a 5432
00000190: c898 13b4 f04a b933 eef5 14b5 eacb f534
000001a0: 981f 44b3 0d18 1bb4 d0c5 c0b3 5cd6 b6b4
000001b0: b836 e4b2 da26 9935 3409 9bb4 4a40 e4b4
000001c0: e2f3 1434 3bf1 d634 2c7d a2b5 c078 adb3
000001d0: 601b 70b5 2c1c 13b4 b605 5435 6c63 1733
000001e0: c004 2834 bbbb 8435 0ba1 8533 8c6a 07b4
000001f0: fa5b 6ab4 a2af 0f35 0eb7 eeb4 598c f633
00000200: 8b1b 1b34 503d 03b3 69c1 2434 a2e1 eab4
00000210: acb3 c333 754e e434 302d bbb5 4d33 0db5
00000220: 20f0 1cb4 6452 4f35 d8a8 d1b4 c26a a3b4
00000230: 0f56 4cb5 b3d9 d0b4 4cbd 34b5 cc8b 35b5
00000240: 7849 2733 75d0 99b5 9ce6 3e35 6397 0135
00000250: c8ac 61b4 1d62 6b35 4094 9932 4724 6b34
00000260: f23d b634 438a 0235 d525 43b5 0523 0f35
00000270: 062a 55b4 177d 4d35 72f7 75b4 a2ca 59b5
00000280: 6995 1a35 db25 f334 941f deb4 7029 b232
00000290: 34e9 e4b4 f674 ce34 d2fc a5b4 524c 22b5
000002a0: 48b8 b234 81c1 2b35 c0ef 9634 da3e 43b4
000002b0: 2f9f 95b4 7869 a233 e4a3 41b3 dfda b3b4
000002c0: 7e8a 04b4 c304 51b5 c08b 3f32 90db c2b1
000002d0: ec83 f934 02d5 b234 dad2 2133 b35d a834
000002e0: ba4e 0c35 7c37 fa34 3017 8b33 2e14 9f35
000002f0: 380b 0d34 1cdd 5db5 1218 fe33 d807 9c34
00000300: e6d3 1b35 5571 0235 13c9 1bb5 2610 ddb4
00000310: 20fe d233 d073 feb4 7219 2d35 c054 69b5
00000320: 45cf 8934 a0b8 4db5 dcb1 68b5 2b32 cf34
00000330: 5022 b033 e9b6 2934 1407 a7b4 a482 9534
00000340: 996c 3135 0c78 9cb4 92f7 1535 a615 2e34
00000350: 625b b0b4 1ee7 99b4 0f89 cab4 2832 4bb5
00000360: e95c e633 c2ea 9833 56aa c734 6702 5634
00000370: a584 b6b4 c505 5b35 5f32 2a35 60af 08b6
00000380: 2330 dfb4 5e0d 24b4 ce4e 2235 5e6a 6eb5
00000390: f1e3 04b5 c036 2635 12d7 dab4 1c84 1fb4
000003a0: fd1b 0035 206d 6932 6721 97b5 6e86 ac34
000003b0: 88f4 b1b4 fa1c 96b5 b461 8c34 7e30 21b4
000003c0: 9605 0e34 6cd1 0b35 aa8b fb33 261e 7c35
000003d0: 227c b2b4 370a f235 c4df 95b4 e341 47b5
000003e0: 6295 8434 7256 aeb4 d2ef adb4 5afa 4f35
000003f0: faed 86b5 baa7 9734 b0f5 8e35 584c 2832
1.3044494e-06 -1.7299874e-06 1.0565528e-07 -3.070238e-08 1.707938e-06 2.9142237e-07 1.2893253e-07 1.4958357e-06
5.7719905e-07 -4.8980075e-07 4.776072e-08 6.2957747e-07 -5.922211e-07 2.646131e-07 8.8226034e-07 -3.4267686e-07
7.8066483e-07 6.8107124e-07 -4.3432385e-07 2.0777875e-07 1.0916267e-07 -5.239148e-07 6.6230746e-07 1.3664214e-07
-1.904305e-07 2.3149826e-07 2.048791e-06 -1.7370899e-06 -3.975819e-08 -5.740143e-07 -2.5879683e-07 -1.04377534e-07
-3.9754198e-07 3.1308306e-07 1.0730977e-07 3.0816582e-07 4.3855903e-07 -7.27876e-07 -4.490207e-07 1.5137195e-07
-2.5962652e-07 -5.7457515e-07 -7.724446e-07 -5.9258076e-07 -7.7900785e-07 7.244788e-07 -4.7456993e-07 3.8736465e-07
-3.8217732e-07 2.1091421e-07 5.8435823e-08 1.1348692e-06 -5.736895e-07 -4.233566e-07 -5.296621e-07 -2.783749e-07
4.843853e-07 -4.945949e-07 -1.07017286e-07 -1.710485e-07 1.1410631e-06 -4.3253692e-08 3.2745554e-08 -5.118815e-07
3.950034e-07 -3.6497926e-07 -8.64128e-08 -3.2813e-08 -1.18487264e-07 -7.8133087e-07 -5.5887604e-08 5.7670695e-07
5.6447334e-07 -1.442109e-07 -2.2244869e-07 2.5006448e-08 3.53139e-07 2.2852903e-07 2.9092178e-07 -5.479917e-07
6.3746813e-07 2.9139784e-07 4.9673645e-08 1.4558992e-07 1.0076136e-06 4.055085e-07 2.430998e-07 8.872429e-07
-8.136526e-07 3.0907333e-07 -6.410985e-07 4.1562433e-07 1.6006254e-08 -8.7502394e-07 -5.824569e-07 1.01337946e-07
-2.6783667e-07 -5.4124837e-07 -3.3216878e-07 1.2364268e-08 -1.3746023e-07 8.628365e-08 -5.549217e-07 4.5783173e-07
-4.566354e-08 -1.444425e-07 -8.9766786e-08 -3.405611e-07 -2.6567577e-08 1.1410696e-06 -2.8877696e-07 -4.2515086e-07
1.3872298e-07 4.0036124e-07 -1.210637e-06 -8.0779046e-08 -8.9446803e-07 -1.3700691e-07 7.8984465e-07 3.524785e-08
1.5647947e-07 9.889403e-07 6.222589e-08 -1.2611616e-07 -2.1826409e-07 5.352723e-07 -4.4464144e-07 1.1480797e-07
1.444552e-07 -3.0556578e-08 1.5344052e-07 -4.3750066e-07 9.113077e-08 4.2525394e-07 -1.3945737e-06 -5.2601246e-07
-1.4615989e-07 7.7233403e-07 -3.9052134e-07 -3.0438792e-07 -7.6121154e-07 -3.8901416e-07 -6.733069e-07 -6.7631186e-07
3.8949537e-08 -1.1460057e-06 7.1116096e-07 4.827654e-07 -2.1017615e-07 8.7687096e-07 1.787896e-08 2.1899278e-07
3.3945213e-07 4.862997e-07 -7.2698214e-07 5.332261e-07 -1.9852459e-07 7.655048e-07 -2.2907423e-07 -8.113367e-07
5.758689e-07 4.528982e-07 -4.1373698e-07 2.074077e-08 -4.2637987e-07 3.845559e-07 -3.0917596e-07 -6.0460764e-07
3.3289166e-07 6.398405e-07 2.8114118e-07 -1.8183655e-07 -2.7869234e-07 7.5628975e-08 -4.5085372e-08 -3.3500598e-07
-1.2343841e-07 -7.7865496e-07 1.1149439e-08 -5.6711045e-09 4.647585e-07 3.3310067e-07 3.7677502e-08 3.1360614e-07
5.2268626e-07 4.66065e-07 6.47691e-08 1.1852296e-06 1.313573e-07 -8.265067e-07 1.1832175e-07 2.906297e-07
5.805035e-07 4.8593694e-07 -5.80346e-07 -4.1176207e-07 9.825112e-08 -4.7395451e-07 6.448455e-07 -8.692259e-07
2.5669047e-07 -7.6637116e-07 -8.6685554e-07 3.8593257e-07 8.20188e-08 1.5805894e-07 -3.1111324e-07 2.7848466e-07
6.609567e-07 -2.914461e-07 5.586709e-07 1.6212888e-07 -3.2849044e-07 -2.866663e-07 -3.7725155e-07 -7.569638e-07
1.072711e-07 7.120754e-08 3.7190574e-07 1.9931177e-07 -3.3996653e-07 8.1592253e-07 6.3403235e-07 -2.036766e-06
-4.157201e-07 -1.5278553e-07 6.046438e-07 -8.8816694e-07 -4.950553e-07 6.191949e-07 -4.0762149e-07 -1.485609e-07
4.7724444e-07 1.3587197e-08 -1.1260098e-06 3.2135307e-07 -3.314674e-07 -1.1184304e-06 2.614812e-07 -1.5011935e-07
1.3226813e-07 5.2086284e-07 1.1713503e-07 9.392119e-07 -3.3245402e-07 1.8033378e-06 -2.7916224e-07 -7.4229155e-07
2.4695606e-07 -3.2472923e-07 -3.2398253e-07 7.747782e-07 -1.0053038e-06 2.824798e-07 1.0651329e-06 9.796246e-09

lstm.weight_hh_l0_reverse f4 [192, 48]
00000000: 23e5 57b5 08c2 3fb5 4f0f 8034 fe5b 85b4
00000010: 89e5 e4b4 ca73 3d35 b086 83b4 90ba 8934
00000020: 04ec 9233 3e65 1eb5 e039 01b3 0682 8db3
00000030: 3023 32b4 a1cd ba33 e4b0 ba34 a3b0 afb4
00000040: 10ce 10b5 365a c134 dfc3 d234 b2d2 46b5
00000050: ec09 c0b4 d325 2434 483c 0bb5 9b88 deb4
00000060: 9061 a7b1 68c5 2d34 6367 1d35 badc 04b4
00000070: e092 8334 7497 b6b2 e042 0fb3 f0f0 a834
00000080: 8afc bcb3 dd92 e234 78bb b233 4958 2fb4
00000090: 9685 02b5 006f 7832 8a8e 7734 6c16 83b5
000000a0: 62d4 aeb3 a257 6f35 4531 cab4 9946 2534
000000b0: f3f7 a534 44d2 96b1 0fb3 7ab5 9a5e 1835
000000c0: a6a1 a434 a8cc 3ab5 1406 2434 3d7e bf34
000000d0: 5b40 2235 88a8 3734 fc3e 9d33 b596 b0b4
000000e0: 1b8c 0fb4 2fed 3c35 15e7 3a35 6420 5f34
000000f0: 7eb9 22b4 ca1b 8934 f26c 8d34 cb91 a434
00000100: 90e0 9734 c4a7 01b5 9459 5bb3 12d3 b0b4
00000110: ad4e 4a35 4a0b 5e34 ae86 8e35 1a51 5435
00000120: f288 d933 5aef 44b3 5642 95b5 0fff 1535
00000130: 4571 91b4 0abc ff34 cee2 5f34 8839 15b5
00000140: 5742 0735 f0e0 ee34 bc4d 64b4 2ce6 c2b4
00000150: 40af 1234 40d6 beb4 6455 7134 6060 0e33
00000160: ac3d 2835 80bc a135 0382 57b5 8e52 2bb5
00000170: 7eae 7bb5 a645 a0b3 c0d3 a232 6aa5 47b4
00000180: 06ea 98b5 5854 02b3 9adc 4234 a439 c8b4
00000190: 780c f7b1 6f06 66b5 cfae f434 1777 a234
000001a0: 0afa cbb4 c84a eeb4 1a21 04b4 c09d 0a34
000001b0: 5e37 43b5 5d53 e033 d6b4 8bb4 1d05 2333
000001c0: 2605 d2b4 50af cdb3 80a9 1031 afbf 4e35
000001d0: 136e 3c34 e82b 4fb2 7af5 2db4 53b4 12b5
000001e0: 3141 0fb4 af0d 3b35 b85e 88b5 7831 2332
000001f0: e1a6 4c35 705a 8733 c82d 9733 667f 95b5
00000200: 921c 9e35 e5f1 6435 3653 0335 562e a0b5
00000210: 2d38 1bb4 307f f532 c23f 6bb5 88be 0b35
00000220: ac67 83b4 42b2 3d35 302e 43b5 8876 6d32
00000230: 4b9d c734 f4a1 0eb5 d45b f8b3 a121 cd34
00000240: 4d3e 12b4 4cd3 d534 d27a a3b5 140b 2bb3
00000250: 4911 e9b4 765e aab2 6aef 04b5 ccc8 5f32
00000260: c085 07b5 2016 9933 f539 81b5 d83e f5b3
00000270: 836e 77b4 527a 18b4 68e7 ad33 4161 f8b3
00000280: 2d2c 2bb5 9c1f 1bb3 bb85 cbb3 034b 3e34
00000290: 3499 33b5 0ea0 8233 7425 e5b4 1a29 57b5
000002a0: e099 c8b0 a47f 2eb5 4a66 83b4 389b 3435
000002b0: 8056 97b2 60f8 9333 c486 a4b5 c62c f5b4
000002c0: f717 79b4 56c9 04b4 84a6 0235 60d0 82b3
000002d0: bb2f 1935 b09f 0e35 02f5 8b34 325b 6cb4
000002e0: 8d3b 9434 28e4 1cb4 f8d9 52b5 587c 65b3
000002f0: 4422 a031 dc49 3d35 226b 33b4 c2f0 dc33
00000300: ba98 38b5 4738 8835 c297 b6b4 13c8 8f35
00000310: 0744 65b5 2ebc f0b4 5d2f e234 3564 1bb5
00000320: 36fe a8b4 bdd9 1db5 00cf 6f32 c769 0535
00000330: 440e a533 481f c833 b98d e5b4 9221 d734
00000340: 66b0 4634 aafc 0334 78a1 19b4 4174 11b3
00000350: cc19 2335 ad47 e2b3 5cf7 ba34 d8d8 efb4
00000360: cb58 8fb5 7d83 cd34 014b c234 2030 1832
00000370: 46f2 04b5 cd2c 3035 a1b2 9635 8152 48b5
00000380: 7185 deb3 dd3b 8cb5 98ae adb3 7caa 91b3
00000390: 5075 3eb5 020c bfb4 09e5 13b5 7d98 0235
000003a0: 2ea9 f9b4 a61b fcb4 b4de f134 8041 f9b4
000003b0: d037 29b4 3f4a 4b35 b0a2 15b4 95aa 03b5
000003c0: c2cf 0235 c033 5cb3 00d5 c630 12f4 b734
000003d0: 0b25 2935 ae43 99b5 7b0b ddb4 4c01 9b35
000003e0: c9c4 03b5 d586 a6b4 4e4b a4b4 52dd bf35
000003f0: f070 57b1 c615 18b5 1d55 23b3 0846 35b2
-8.042718e-07 -7.14354e-07 2.3852996e-07 -2.4840114e-07 -4.2635318e-07 7.057648e-07 -2.449865e-07 2.565398e-07
6.841586e-08 -5.9006913e-07 -3.008779e-08 -6.589475e-08 -1.6590343e-07 8.6987036e-08 3.4773905e-07 -3.272481e-07
-5.394404e-07 3.6014688e-07 3.9258063e-07 -7.406735e-07 -3.5770006e-07 1.528745e-07 -5.1869256e-07 -4.1450116e-07
-4.8714313e-09 1.6183697e-07 5.8637505e-07 -1.2373758e-07 2.4507517e-07 -2.1256461e-08 -3.3355605e-08 3.1467744e-07
-8.800369e-08 4.2202637e-07 8.322871e-08 -1.6330263e-07 -4.8623167e-07 1.4460738e-08 2.3055523e-07 -9.766786e-07
-8.1411386e-08 8.916196e-07 -3.766128e-07 1.5392506e-07 3.0914052e-07 -4.389479e-09 -9.339282e-07 5.6762076e-07
3.0664995e-07 -6.9588214e-07 1.5275901e-07 3.5668373e-07 6.044335e-07 1.7104514e-07 7.322339e-08 -3.2892208e-07
-1.3368883e-07 7.0380605e-07 6.962667e-07 2.0780277e-07 -1.5154907e-07 2.5538458e-07 2.6342565e-07 3.065346e-07
2.8289332e-07 -4.8300376e-07 -5.1071382e-08 -3.2936128e-07 7.536535e-07 2.0679468e-07 1.0619021e-06 7.909417e-07
1.012976e-07 -4.5852495e-08 -1.1120671e-06 5.5877985e-07 -2.709077e-07 4.7634268e-07 2.0851004e-07 -5.5590544e-07
5.0387956e-07 4.4494618e-07 -2.1262434e-07 -3.6302788e-07 1.3661065e-07 -3.5546145e-07 2.2475939e-07 3.3149604e-08
6.267462e-07 1.2050295e-06 -8.0282933e-07 -6.3822597e-07 -9.3758706e-07 -7.4632496e-08 1.8955575e-08 -1.8593497e-07
-1.1392992e-06 -3.0344694e-08 1.8147912e-07 -3.7294842e-07 -7.1900637e-09 -8.569104e-07 4.5575732e-07 3.02615e-07
-3.7993624e-07 -4.4385365e-07 -1.23055e-07 1.290964e-07 -7.272373e-07 1.04459765e-07 -2.6022343e-07 3.7956045e-08
-3.9119294e-07 -9.5779455e-08 2.1051108e-09 7.7019916e-07 1.7548909e-07 -1.2058969e-08 -1.6201184e-07 -5.4651645e-07
-1.334163e-07 6.968284e-07 -1.0160356e-06 9.499097e-09 7.6238763e-07 6.302878e-08 7.039813e-08 -1.1138443e-06
1.1780232e-06 8.528862e-07 4.892239e-07 -1.1934414e-06 -1.4455937e-07 2.8579592e-08 -8.76371e-07 5.2058795e-07
-2.4476083e-07 7.0667386e-07 -7.271037e-07 1.38221665e-08 3.7181084e-07 -5.3134795e-07 -1.15651034e-07 3.8208694e-07
-1.3619974e-07 3.982808e-07 -1.2180192e-06 -3.9824116e-08 -4.341221e-07 -1.983356e-08 -4.9522225e-07 1.3025964e-08
-5.048605e-07 7.128642e-08 -9.628117e-07 -1.1420133e-07 -2.3043872e-07 -1.4200603e-07 8.098033e-08 -1.156609e-07
-6.376675e-07 -3.61175e-08 -9.4772496e-08 1.7722418e-07 -6.6905636e-07 6.0827105e-08 -4.2681825e-07 -8.015355e-07
-1.4595649e-09 -6.500579e-07 -2.4475077e-07 6.72811e-07 -1.761805e-08 6.8904e-08 -1.2258174e-06 -4.5667383e-07
-2.319865e-07 -1.2366704e-07 4.8671086e-07 -6.0915e-08 5.70664e-07 5.31315e-07 2.6069034e-07 -2.201239e-07
2.7610477e-07 -1.4611635e-07 -7.854828e-07 -5.3431307e-08 4.6605084e-09 7.0515466e-07 -1.6709649e-07 1.0288342e-07
-6.876759e-07 1.0149168e-06 -3.401056e-07 1.071256e-06 -8.540814e-07 -4.4840402e-07 4.2130242e-07 -5.788782e-07
-3.14774e-07 -5.880391e-07 1.3958697e-08 4.970029e-07 7.686006e-08 9.318916e-08 -4.275769e-07 4.0071296e-07
1.850436e-07 1.2292244e-07 -1.4307977e-07 -3.3866176e-08 6.075977e-07 -1.0536983e-07 3.4825177e-07 -4.4674994e-07
-1.0680172e-06 3.8279896e-07 3.6189888e-07 8.858507e-09 -4.9526386e-07 6.5630303e-07 1.1227859e-06 -7.4625865e-07
-1.03619534e-07 -1.0448235e-06 -8.087699e-08 -6.7830996e-08 -7.095123e-07 -3.558526e-07 -5.509506e-07 4.8650674e-07
-4.650296e-07 -4.6958775e-07 4.5051786e-07 -4.6427522e-07 -1.5759656e-07 7.5731435e-07 -1.3935892e-07 -4.904953e-07
4.87311e-07 -5.1269808e-08 1.4466934e-09 3.426399e-07 6.301131e-07 -1.1419086e-06 -4.117281e-07 1.1548777e-06
-4.9087663e-07 -3.1018013e-07 -3.0602172e-07 1.4295022e-06 -3.1350815e-09 -5.6656097e-07 -3.8028805e-08 -1.055151e-08

lstm.bias_ih_l0_reverse f4 [192]
00000000: a02b 76b3 4194 8db4 aecb 29b5 7c7a 80b5
00000010: 6dd1 4d35 ef22 3b35 0810 fdb4 9c87 76b4
00000020: b26d aa34 80b4 3b33 d6b4 ea34 56b8 efb4
00000030: cc70 c1b4 9690 8134 d888 b7b4 ce54 09b5
00000040: 87c5 ab34 a6f7 09b4 f57f 16b5 7aeb 8335
00000050: f634 3ab5 e4b4 eb34 4b70 ec34 46c4 fcb4
00000060: 9c93 0035 131c 98b4 127c 10b4 088c 7035
00000070: e8e3 4335 209d e2b3 021a 13b5 bcb4 f834
00000080: 404d 5333 50a5 b3b3 301f ebb3 4c8b ea34
00000090: 14af c1b4 245a b532 4058 7eb2 44a0 a434
000000a0: e2ef a2b4 74c1 13b4 243e b832 1ebe 84b4
000000b0: 12e3 db34 aee6 4535 e184 b9b3 1ca9 1ab4
000000c0: 3475 c734 b45b 72b4 74b1 4735 8756 22b5
000000d0: 364b 58b5 7c5a c535 a8d5 e335 b848 2bb5
000000e0: e371 dbb4 c4fc 7db4 5051 5733 689f 5bb5
000000f0: e055 01b5 1511 4e35 7d24 2735 04c1 b934
00000100: 7f02 f0b3 d8c0 0835 9c5b 3435 588f f934
00000110: 1afc d134 a800 96b5 dc81 a334 b2a8 4c34
00000120: 2fca 4a35 ea5d 8c34 6329 af34 55d9 9735
00000130: 94ab 83b5 0aeb ba35 a07c be33 0bee 1834
00000140: 50bc f633 2610 3235 2036 8eb3 1aa4 2f34
00000150: 15c5 4b35 b079 0d35 c0c0 a5b1 bd59 6634
00000160: 00c6 fbb1 0018 22b3 fce2 2c33 f04b 9db3
00000170: 3aa6 9fb5 75fb 8334 01f5 4735 f7ab 8734
00000180: 5a38 0b35 9fb8 4335 e01f 36b2 61f1 dd34
00000190: 1bd3 d534 9ccb f0b4 f8c5 ff32 f25c 9935
000001a0: e8af 6234 a0df 4cb4 ec7b ae34 0637 5cb5
000001b0: 68b2 2eb5 6ac8 07b4 3249 1a33 7635 11b5
000001c0: d8ca 42b3 d083 cc32 acf8 a434 896e de34
000001d0: 2869 0335 563f 7bb5 a095 7834 513a 9cb4
000001e0: 83b0 c835 988b abb4 64d1 0435 59e3 d433
000001f0: 3e07 10b5 33e4 0db5 8264 45b4 f019 e633
00000200: 25eb c135 c752 12b4 9d30 ad34 4629 2e35
00000210: 85be f0b4 78e1 04b4 4871 83b4 02ea 8ab3
00000220: bd4d 8535 679d b034 b726 13b5 70cf 2b34
00000230: 4a6c c7b5 36e6 fdb3 796a 9835 e0ed 22b4
00000240: 37e8 ed34 c202 28b4 2744 aeb4 7896 8334
00000250: 8669 b034 3829 3eb5 9b6b 71b4 d023 dd34
00000260: 75a5 12b5 80a9 8333 3556 a7b4 7f06 9e34
00000270: 64c8 90b4 b5cb 9a34 233e 1a34 0cde 86b4
00000280: c8ea 6034 be7f f0b4 e0d4 d9b5 df16 fcb4
00000290: 91b5 1bb5 290c 93b5 e812 b5b3 4421 19b4
000002a0: 40d5 a434 4a05 8ab5 0094 01b2 d4b9 04b4
000002b0: 16e5 94b4 0843 55b3 830d c9b5 6623 0bb5
000002c0: 00ae da33 cea7 3035 7065 c6b3 90e8 a034
000002d0: b4fb 0bb5 689e a7b5 25e5 ba34 586d 53b5
000002e0: c7e3 4035 5fcb c434 3040 96b5 d2de 2a35
000002f0: 12f9 bfb4 d8cd 5833 c60c 3b35 5709 1ab5
-5.7316015e-08 -2.6371166e-07 -6.32538e-07 -9.572391e-07 7.6673206e-07 6.9713764e-07 -4.7136587e-07 -2.295987e-07
3.174478e-07 4.3703494e-08 4.3717472e-07 -4.465134e-07 -3.6031122e-07 2.4133323e-07 -3.4185973e-07 -5.1159884e-07
3.1994952e-07 -1.2849213e-07 -5.6065556e-07 9.828793e-07 -6.936747e-07 4.3903776e-07 4.404013e-07 -4.7081465e-07
4.7898516e-07 -2.8332633e-07 -1.3456182e-07 8.961074e-07 7.297481e-07 -1.0552526e-07 -5.4799614e-07 4.63251e-07
4.9197524e-08 -8.365407e-08 -1.0948713e-07 4.3687248e-07 -3.6076437e-07 2.1112164e-08 -1.4804812e-08 3.066399e-07
-3.034939e-07 -1.376082e-07 2.1448678e-08 -2.4725244e-07 4.0957144e-07 7.37239e-07 -8.638904e-08 -1.4403889e-07
3.7151915e-07 -2.2571368e-07 7.4391505e-07 -6.0475617e-07 -8.0575717e-07 1.4703978e-06 1.6975e-06 -6.3808284e-07
-4.0874792e-07 -2.3654417e-07 5.013254e-08 -8.1815824e-07 -4.818121e-07 7.676584e-07 6.2265445e-07 3.4599373e-07
-1.1176325e-07 5.094457e-07 6.7188535e-07 4.648416e-07 3.9112712e-07 -1.1176062e-06 3.04556e-07 1.9060352e-07
7.554508e-07 2.6145364e-07 3.2626403e-07 1.1313629e-06 -9.810196e-07 1.3926485e-06 8.8702336e-08 1.4242703e-07
1.14895215e-07 6.6333666e-07 -6.6222356e-08 1.6357845e-07 7.5910185e-07 5.270367e-07 -4.824045e-09 2.1453066e-07
-7.3275714e-09 -3.7740392e-08 4.0253312e-08 -7.324695e-08 -1.1894801e-06 2.458361e-07 7.4489805e-07 2.527083e-07
5.186354e-07 7.291182e-07 -1.0601042e-08 4.1340084e-07 3.982794e-07 -4.485163e-07 2.9775933e-08 1.1426439e-06
2.1111885e-07 -1.9080335e-07 3.250019e-07 -8.2036456e-07 -6.5079666e-07 -1.2645765e-07 3.592249e-08 -5.4094505e-07
-4.535363e-08 2.3808667e-08 3.0728313e-07 4.1431147e-07 4.8954325e-07 -9.359695e-07 2.3151233e-07 -2.9099695e-07
1.4952533e-06 -3.19528e-07 4.9478535e-07 9.9133736e-08 -5.365472e-07 -5.2858667e-07 -1.8383619e-07 1.07149276e-07
1.4448057e-06 -1.3627424e-07 3.2259132e-07 6.488011e-07 -4.4842105e-07 -1.2375483e-07 -2.4483074e-07 -6.4686915e-08
9.931897e-07 3.289708e-07 -5.4818105e-07 1.6001081e-07 -1.4858172e-06 -1.1823106e-07 1.135587e-06 -1.5173964e-07
4.4313649e-07 -1.5647223e-07 -3.2459613e-07 2.4510132e-07 3.2859333e-07 -7.0840497e-07 -2.248402e-07 4.1190515e-07
-5.463001e-07 6.130995e-08 -3.1168898e-07 2.943452e-07 -2.6967894e-07 2.8832952e-07 1.4364973e-07 -2.5121005e-07
2.0947039e-07 -4.4796428e-07 -1.6229715e-06 -4.69553e-07 -5.8006214e-07 -1.0955893e-06 -8.431908e-08 -1.4261337e-07
3.070254e-07 -1.028334e-06 -7.54244e-09 -1.2361062e-07 -2.773383e-07 -4.965389e-08 -1.4979599e-06 -5.1833047e-07
1.01830665e-07 6.58093e-07 -9.238545e-08 2.9971534e-07 -5.214781e-07 -1.2488572e-06 3.4811924e-07 -7.876274e-07
7.1857033e-07 3.6655817e-07 -1.1194552e-06 6.365418e-07 -3.5757745e-07 5.0478633e-08 6.9681516e-07 -5.738306e-07

lstm.bias_hh_l0_reverse f4 [192]
00000000: 0bed fa35 5b33 8a35 bcad 5435 9552 44b5
00000010: 14fe cb33 5a3e 01b5 f01f 43b5 e0e5 4733
00000020: d005 a334 f2ba fb34 4e38 e334 4c19 a4b4
00000030: 2c5c 0db4 6b13 e3b4 306c f733 21d5 5435
00000040: 26bf 07b4 30b6 8932 694e 3fb5 7977 3b35
00000050: 8058 edb3 b124 1e35 afa9 09b5 1666 87b4
00000060: 201a 7733 489b 4435 6896 19b4 bc9f 8a34
00000070: 9e17 10b4 cc74 c032 aae7 9535 e542 b2b4
00000080: b003 3fb2 f5a0 88b4 feee e8b4 72a5 5635
00000090: 38c3 1c35 08e8 eb32 62ea 5335 9491 5c34
000000a0: acb9 d733 402a 91b1 4498 83b4 60dc 70b2
000000b0: c087 feb4 30f0 76b4 51dd e634 b6e6 1735
000000c0: 70ef 49b3 e05c 8cb5 c05f 8633 bceb 8133
000000d0: 8681 6734 ea9d b4b5 2bf4 86b3 7941 5f35
000000e0: 92c6 30b5 f817 f134 9eeb 0bb5 361c 3b35
000000f0: 13e4 fb34 50f2 8e34 be3e f5b4 c8d1 ce34
00000100: 5a6f abb4 81e9 8f34 f1a1 d7b4 7ca2 6c34
00000110: 5bc3 1735 e4ed c2b3 7a62 68b5 66c6 9135
00000120: 4ff5 03b5 b08e 1534 bc28 0e34 b0a9 5db3
00000130: 0820 a735 2f8f 5bb5 0022 7cb1 b41e 83b4
00000140: b701 de34 463e c833 7a42 70b4 1dc6 3eb5
00000150: ff9e d8b4 cd7a ceb4 c230 73b5 0948 7734
00000160: 5406 b1b3 0e29 ac35 f7ef a5b4 ff4c 4e35
00000170: 76dc 2334 f8be 0c35 f89c 09b3 cecf 8d34
00000180: 9d52 27b5 5495 d3b2 003d 4eb1 2448 4334
00000190: 24b9 0eb4 3c03 a333 1763 0b35 223c fa34
000001a0: f7b1 a734 d0f5 1635 509a a0b4 2490 ce34
000001b0: e019 a732 b855 29b5 6298 9334 ac83 98b5
000001c0: adab 0db5 bb33 0db5 743c 0535 80c6 4832
000001d0: edc2 27b5 5456 f234 4c4c 6cb4 581c 32b5
000001e0: 842f 72b4 9c95 9035 405e 78b5 58c1 3eb4
000001f0: dd8c c0b4 a438 d7b4 dfb0 bdb4 fd05 2db5
00000200: 807c 8ab0 fd32 a2b4 77af 5db5 977f 7f35
00000210: d328 8135 6ecc b734 7d0c e7b5 03e9 eb34
00000220: cd0e 2a35 fcae 0fb5 0024 9b33 208f 95b2
00000230: 7170 bf34 69da 8ab4 b0c6 0a34 18e6 51b5
00000240: 405f 43b4 9e22 f2b4 de17 99b4 6775 3c35
00000250: 0649 47b4 d192 1535 1743 cf34 f8cc 5735
00000260: 809a 1f35 4078 72b3 1581 bab4 1eaa 3a35
00000270: f044 9e31 d098 3735 2cb1 39b2 b886 4f35
00000280: 720c e534 60d2 7bb4 a691 32b4 6e52 23b5
00000290: 04b3 60b5 8ab2 0bb5 b4a9 3db5 9398 98b4
000002a0: 5eaa 3fb5 74e8 3cb5 e30a 1735 9a6d 3db3
000002b0: 00f2 8633 e8af 5e33 ccf8 3bb5 6738 2335
000002c0: 91d4 3a35 2e22 2db4 fe74 b4b3 eee4 4eb5
000002d0: b00f b233 444d 1bb5 6040 29b2 4ef6 c135
000002e0: c06a 0035 f051 2cb5 94a8 9eb4 b1d6 04b5
000002f0: 27ce edb4 7ac3 e4b4 973e 4935 e538 0435
1.869544e-06 1.0296748e-06 7.922897e-07 -7.313586e-07 9.499141e-08 -4.814698e-07 -7.2689636e-07 4.6542368e-08
3.0365345e-07 4.6888414e-07 4.2323012e-07 -3.0565786e-07 -1.316518e-07 -4.2296173e-07 1.1521513e-07 7.92863e-07
-1.2642394e-07 1.6031748e-08 -7.1267146e-07 6.9836784e-07 -1.10522706e-07 5.891298e-07 -5.12834e-07 -2.5219987e-07
5.753293e-08 7.3241654e-07 -1.4303953e-07 2.5820725e-07 -1.3419637e-07 2.2404855e-08 1.1168788e-06 -3.3203756e-07
-1.1118502e-08 -2.5449086e-07 -4.3387257e-07 7.9961967e-07 5.839861e-07 2.7463116e-08 7.89447e-07 2.0542058e-07
1.0045491e-07 -4.2248587e-09 -2.451144e-07 -1.4019946e-08 -4.7409958e-07 -2.2997915e-07 4.3001867e-07 5.658761e-07
-4.7016727e-08 -1.0457843e-06 6.257278e-08 6.0499104e-08 2.1560672e-07 -1.3457004e-06 -6.284275e-08 8.316925e-07
-6.5854067e-07 4.4907188e-07 -5.2124403e-07 6.970398e-07 4.691834e-07 2.6625867e-07 -4.5680457e-07 3.8523126e-07
-3.193225e-07 2.6805722e-07 -4.01647e-07 2.2038324e-07 5.6536163e-07 -9.077101e-08 -8.657004e-07 1.0861083e-06
-4.9158274e-07 1.3928616e-07 1.32396e-07 -5.1609902e-08 1.2451792e-06 -8.1792217e-07 -3.6690153e-09 -2.442299e-07
4.135197e-07 9.324553e-08 -2.2375926e-07 -7.106881e-07 -4.034882e-07 -3.845984e-07 -9.0595506e-07 2.3029874e-07
-8.243356e-08 1.2826947e-06 -3.0908242e-07 7.6853024e-07 1.5260761e-07 5.243196e-07 -3.204056e-08 2.6414494e-07
-6.2332566e-07 -2.463154e-08 -3.001162e-09 1.8187035e-07 -1.3292134e-07 7.590867e-08 5.192573e-07 4.660988e-07
3.123566e-07 5.623706e-07 -2.99146e-07 3.8475366e-07 1.9453125e-08 -6.3082143e-07 2.7491757e-07 -1.1363204e-06
-5.2776414e-07 -5.260187e-07 4.963433e-07 1.1686666e-08 -6.2496e-07 4.5138825e-07 -2.200697e-07 -6.6351413e-07
-2.2555292e-07 1.0772378e-06 -9.252435e-07 -1.7765467e-07 -3.5865278e-07 -4.0088082e-07 -3.5332684e-07 -6.4456236e-07
-1.0076207e-09 -3.021195e-07 -8.258425e-07 9.518057e-07 9.62313e-07 3.4235148e-07 -1.7214476e-06 4.39417e-07
6.3351473e-07 -5.3526287e-07 7.224298e-08 -1.7410969e-08 3.5658334e-07 -2.5863417e-07 1.2924534e-07 -7.81934e-07
-1.8195442e-07 -4.51012e-07 -2.8515836e-07 7.02063e-07 -1.8559885e-07 5.572047e-07 3.860557e-07 8.039201e-07
5.945694e-07 -5.6454383e-08 -3.473912e-07 6.953795e-07 4.6062425e-09 6.8395184e-07 -1.08087015e-08 7.730955e-07
4.266363e-07 -2.345273e-07 -1.6630528e-07 -6.0842183e-07 -8.3707005e-07 -5.2041344e-07 -7.065494e-07 -2.842322e-07
-7.140096e-07 -7.037372e-07 5.6267726e-07 -4.4104674e-08 6.283881e-08 5.184839e-08 -7.0024976e-07 6.080431e-07
6.9599724e-07 -1.6124315e-07 -8.403184e-08 -7.7074117e-07 8.2916245e-08 -5.7854436e-07 -9.851732e-09 1.4451305e-06
4.783906e-07 -6.419423e-07 -2.955245e-07 -4.948625e-07 -4.4294686e-07 -4.2610537e-07 7.4969415e-07 4.9256624e-07
