model_1_best.pth (torch, 628148 bytes, 33 tensors)

lstm.weight_ih_l0 f4 [256, 19]
000000 2e e1 3c b4 16 6e e1 b3 c9 61 08 b4 53 0b 49 b4
       -1.7590784e-07 -1.04974035e-07 -1.2701561e-07 -1.8723703e-07
000010 8e 1d 62 b4 ee dc 09 b4 b6 4b 08 34 dc 82 1c b3
       -2.1058642e-07 -1.2839493e-07 1.269353e-07 -3.6440596e-08
000020 13 1e 1e b4 4c 54 cb b3 b8 38 06 33 22 6e d6 b3
       -1.4725838e-07 -9.4682576e-08 3.125089e-08 -9.9851846e-08
000030 78 55 95 33 24 73 84 33 64 e4 9e b1 51 43 9c 33
       6.9539e-08 6.167673e-08 -4.62437e-09 7.276561e-08
000040 16 f0 4d 33 97 21 b0 b3 79 b8 ad b3 bf 8f 99 b2
       4.794864e-08 -8.2017486e-08 -8.089496e-08 -1.7876912e-08
000050 14 eb 94 34 b0 13 10 b3 ab c4 5e 33 46 42 41 33
       2.773819e-07 -3.354552e-08 5.186727e-08 4.499659e-08
000060 fc 82 95 b3 84 f6 58 b2 aa ee 3b b3 6a e2 7d b4
       -6.962179e-08 -1.2628906e-08 -4.3756394e-08 -2.364483e-07
000070 83 9b 89 b4 6b 4e 56 b4 0a 04 aa b3 b4 01 7f b4
       -2.5631388e-07 -1.9958831e-07 -7.9169766e-08 -2.3749345e-07
000080 78 88 64 33 78 d1 33 b4 c0 43 67 33 97 65 a5 b1
       5.3209504e-08 -1.6746878e-07 5.3845497e-08 -4.8136815e-09
000090 1d e8 21 b2 00 e2 7d 32 8e 54 4a b4 7e 73 f0 b3
       -9.42421e-09 1.4777925e-08 -1.8843477e-07 -1.1196879e-07
0000a0 90 50 50 33 06 dd a4 32 13 af 29 b4 78 c3 1f 34
       4.8502045e-08 1.9192623e-08 -1.5803043e-07 1.487914e-07
0000b0 0c 6e 42 b4 2a e3 c1 b3 80 6e f1 30 10 82 41 b3
       -1.8107693e-07 -9.028584e-08 1.7566464e-09 -4.5054605e-08
0000c0 35 b5 b0 b3 f9 fd 93 b3 e7 ae 34 b4 3c 2c a2 33
       -8.2286e-08 -6.891418e-08 -1.6827435e-07 7.551759e-08
0000d0 a2 4b d4 33 66 10 9e 34 75 4e 41 b4 e0 6f af 34
       9.885777e-08 2.9441725e-07 -1.8003068e-07 3.267769e-07
0000e0 e0 5b 21 b1 1f 94 42 b4 33 5b 42 34 be c6 a3 33
       -2.3480808e-09 -1.8121544e-07 1.8100836e-07 7.62643e-08
0000f0 3b 4d 03 b4 64 ca 4b 34 30 d9 de 32 4a 33 93 b3
       -1.2228422e-07 1.8979478e-07 2.5942967e-08 -6.85455e-08
000100 9d f4 f8 b3 e0 94 a5 b3 48 13 f6 b2 4c 55 d6 33
       -1.1592895e-07 -7.7104914e-08 -2.8646937e-08 9.980667e-08
000110 be 59 73 33 64 a6 90 b2 8c 9d 36 34 8a 3f fd b3
       5.6659466e-08 -1.6839472e-08 1.7007386e-07 -1.1792788e-07
000120 b8 64 78 b4 c1 de f4 33 82 c1 52 b3 00 bc 86 34
       -2.3133441e-07 1.1402654e-07 -4.907043e-08 2.5096233e-07
000130 98 0c 94 33 82 61 ef b3 38 4d 10 b3 30 b2 24 b3
       6.894078e-08 -1.1147041e-07 -3.3597843e-08 -3.8346286e-08
000140 e8 51 68 33 5d fc 9d b2 d6 1e d1 32 c0 ff d1 31
       5.4091203e-08 -1.8391967e-08 2.4344825e-08 6.111776e-09
000150 bc 08 13 b4 8c 28 66 b3 db d8 dd b3 65 f4 97 34
       -1.369362e-07 -5.3587925e-08 -1.033056e-07 2.8303762e-07
000160 a0 68 e3 b3 f4 21 89 b3 5c 9e 4b 34 f2 38 c4 b3
       -1.05895424e-07 -6.385736e-08 1.8963459e-07 -9.1373195e-08
000170 6e 79 89 33 5e 29 5f 33 52 c7 43 b3 d1 06 c6 33
       6.4016476e-08 5.1958857e-08 -4.5583256e-08 9.2213334e-08
000180 b5 c5 26 b4 48 56 88 34 18 3a 62 34 40 b7 7b b3
       -1.553188e-07 2.5394752e-07 2.1069025e-07 -5.8607156e-08
000190 19 b2 ad b3 6e 48 39 b4 34 7c 19 33 40 55 a1 33
       -8.088336e-08 -1.7255817e-07 3.573605e-08 7.5126536e-08
0001a0 41 54 26 b4 6e 8f fb b3 2f ca 8a b3 ee 42 48 b4
       -1.5490606e-07 -1.1714188e-07 -6.462903e-08 -1.86508e-07
0001b0 80 52 e9 b0 7b 57 94 b3 b5 1f 7b b4 31 ea 78 b4
       -1.6976429e-09 -6.9077e-08 -2.3387732e-07 -2.3181998e-07
0001c0 5a 24 1f b3 c5 28 46 33 71 03 57 34 04 23 b7 33
       -3.7053134e-08 4.6137547e-08 2.0024687e-07 8.527971e-08
0001d0 ac 5e d3 b3 5a ac b2 b3 06 df 7f b3 ea 60 b4 b2
       -9.842674e-08 -8.3201215e-08 -5.9574653e-08 -2.099883e-08
0001e0 d9 22 02 32 fb 30 13 34 e0 f5 c2 b3 7e 73 a7 33
       7.574919e-09 1.3708261e-07 -9.0785534e-08 7.7975514e-08
0001f0 4e 50 1f b3 30 a0 21 33 d8 09 3f 33 3a cf f0 33
       -3.709311e-08 3.7631423e-08 4.4479606e-08 1.1213565e-07
000200 60 00 2c 30 a8 be d4 31 32 fb 3c b3 f6 4d 65 33
       6.257377e-10 6.191687e-09 -4.4000622e-08 5.3389122e-08
000210 40 2a eb b3 fb 90 14 34 a2 0b e7 33 4e b0 70 b3
       -1.09507255e-07 1.3836318e-07 1.0758892e-07 -5.6039703e-08
000220 76 62 8e 33 94 72 2a 34 75 b1 11 b4 4f 76 56 b4
       6.6303e-08 1.5874167e-07 -1.3568736e-07 -1.9973344e-07
000230 ec fa 4a 34 f2 21 00 b4 5e c1 11 b4 98 09 d9 b3
       1.8904001e-07 -1.1933278e-07 -1.3574524e-07 -1.0106595e-07
000240 5f f0 05 b4 9b 35 34 b4 1b 60 a7 b3 07 f2 79 b3
       -1.2474037e-07 -1.6783308e-07 -7.794025e-08 -5.8194953e-08
000250 ae 2d 94 33 2e 68 40 b3 ec 01 e5 33 d7 50 11 33
       6.900096e-08 -4.4798234e-08 1.0663993e-07 3.3833967e-08
000260 d3 82 c1 b3 e7 95 41 b4 ba 6c 93 33 9f 76 1b 33
       -9.0110596e-08 -1.802906e-07 6.864998e-08 3.6196635e-08
000270 ed 94 ae b4 8d cf 06 34 b0 d7 9f 33 79 fd b1 b3
       -3.2518383e-07 1.2555229e-07 7.443248e-08 -8.288311e-08
000280 80 0c 71 b2 10 31 34 34 d3 b4 49 34 02 ab c4 33
       -1.40308885e-08 1.6781655e-07 1.8785367e-07 9.1580674e-08
000290 6f 8d 41 b4 3e de 3a b4 34 69 ca b3 12 c2 c9 33
       -1.8025979e-07 -1.7403451e-07 -9.425494e-08 9.395093e-08
0002a0 52 15 9d 34 7c cb 79 b2 1b 6e 1a 32 81 ae 90 34
       2.925904e-07 -1.4539975e-08 8.989015e-09 2.6949058e-07
0002b0 e2 bd af 33 f0 db 0b b2 f4 2c 7e 33 b7 e4 3f 34
       8.183612e-08 -8.140873e-09 5.9179868e-08 1.7871467e-07
0002c0 65 9f a9 33 cd 31 b2 32 c8 4d 6b b4 d8 e2 b7 32
       7.8986695e-08 2.0744574e-08 -2.1914377e-07 2.140716e-08
0002d0 ae 10 29 33 06 77 f9 33 b0 3a 6b b3 f0 1b 03 b3
       3.936355e-08 1.1616616e-07 -5.4768577e-08 -3.0526223e-08
0002e0 8a ff 31 33 fc 54 0d b3 68 06 59 b3 04 1d b9 33
       4.1443435e-08 -3.2906414e-08 -5.0530076e-08 8.620012e-08
0002f0 13 90 83 33 d1 9c 6f b3 fe aa b8 33 b6 70 13 b4
       6.12637e-08 -5.5789148e-08 8.599271e-08 -1.3731446e-07
000300 18 58 08 34 c8 52 28 b4 dd 0a 87 33 12 12 1b b4
       1.2698035e-07 -1.5676335e-07 6.2884034e-08 -1.4442074e-07
000310 ca 08 93 b4 c6 f4 19 b4 99 60 77 b3 44 c9 49 b3
       -2.7387279e-07 -1.4338283e-07 -5.7597024e-08 -4.698201e-08
000320 ab 9f 2e b4 68 e3 fb b3 19 8c 47 b4 cc 30 19 34
       -1.62631e-07 -1.1729463e-07 -1.8584286e-07 1.4266988e-07
000330 18 cd 84 33 ed f7 ae 34 c8 90 c3 31 60 94 3c b1
       6.184035e-08 3.2590415e-07 5.6917067e-09 -2.7441942e-09
000340 92 fb 47 b4 40 16 e0 32 86 8f d1 b2 20 ac f5 b2
       -1.862484e-07 2.608715e-08 -2.439607e-08 -2.8600027e-08
000350 94 73 fd 33 43 c9 e6 b4 28 4c 46 b4 49 f9 9c b4
       1.1802254e-07 -4.2987276e-07 -1.8467892e-07 -2.9238643e-07
000360 a6 a2 81 33 ae 29 23 32 c6 3d 7b 34 0c 59 e2 b3
       6.036616e-08 9.497326e-09 2.339867e-07 -1.05401426e-07
000370 96 c8 d5 b3 e8 5e 50 33 1c 3e 00 b2 d4 47 9c b3
       -9.955072e-08 4.851509e-08 -7.464703e-09 -7.2773815e-08
000380 33 0a 02 b2 b6 62 e4 b4 17 7e 89 33 2d 80 06 b4
       -7.569315e-09 -4.254013e-07 6.402495e-08 -1.2526353e-07
000390 83 ca cd b2 ab a1 46 b2 00 cd d8 b2 bc 33 48 b4
       -2.3957233e-08 -1.1561876e-08 -2.5238933e-08 -1.8645272e-07
0003a0 34 27 2f b3 ba 15 4f 34 b7 7f 88 34 76 7b 4c 33
       -4.0781018e-08 1.9286281e-07 2.54249e-07 4.760974e-08
0003b0 43 47 ad b4 de d3 1c b4 10 38 2d 32 e0 40 0a 32
       -3.227561e-07 -1.4605709e-07 1.00826725e-08 8.047408e-09
0003c0 63 91 39 34 0d 81 3a 34 c9 95 1d b4 4c ae 18 b4
       1.7282359e-07 1.7369548e-07 -1.4676256e-07 -1.4219512e-07
0003d0 d2 ee 95 b4 34 76 5a b3 b8 a2 0a 34 9d 7c ce b3
       -2.7927177e-07 -5.0864585e-08 1.2911448e-07 -9.6152895e-08
0003e0 cb ca 48 b4 35 32 ac 33 69 93 18 34 cc db 79 b3
       -1.8700227e-07 8.018507e-08 1.420973e-07 -5.8174734e-08
0003f0 d9 bc 9c b3 18 04 2c b4 bb ea 63 b2 3a ef eb b3
       -7.298667e-08 -1.6020238e-07 -1.3266511e-08 -1.0986555e-07

lstm.weight_hh_l0 f4 [256, 64]
000000 b8 71 2c b2 e6 bf c0 b3 d0 2e 53 31 9d 17 58 b3
       -1.0037574e-08 -8.975603e-08 3.073115e-09 -5.0312895e-08
000010 bc 1d a5 33 32 ad 21 34 51 43 ad b3 1b b8 26 b4
       7.68882e-08 1.5057302e-07 -8.068185e-08 -1.5526932e-07
000020 5d 92 6a 33 66 45 a5 33 5b 1b 41 b4 dd ce 24 34
       5.4615487e-08 7.696035e-08 -1.7984478e-07 1.5348947e-07
000030 2f 95 05 34 b5 7b 13 34 bd 8c 7a 34 cc 3a 42 34
       1.2440863e-07 1.3735446e-07 2.3334265e-07 1.8089048e-07
000040 0a 4f e2 b4 ac 24 e6 34 61 bf 0a b4 0d 1c 76 34
       -4.215329e-07 4.286752e-07 -1.2921875e-07 2.292074e-07
000050 84 46 d6 b3 8a 82 03 33 b5 f8 41 b4 37 29 ec 33
       -9.977978e-08 3.061954e-08 -1.8065005e-07 1.0997103e-07
000060 fd 46 04 33 4a cb d4 b3 84 00 74 b3 80 00 c2 b3
       3.079821e-08 -9.9089974e-08 -5.6811146e-08 -9.03392e-08
000070 f5 b3 1e b4 13 e9 ba 33 76 cb 6b 34 e3 89 9e 34
       -1.4780365e-07 8.703696e-08 2.1960099e-07 2.953012e-07
000080 c8 9f 7f 33 70 48 73 b4 fe 52 ac 33 d8 7f 3f 33
       5.9517134e-08 -2.2657491e-07 8.02447e-08 4.4586926e-08
000090 b7 a1 2e b4 ff 02 2f 33 8c 0e 10 32 96 57 3e 34
       -1.6263844e-07 4.0748088e-08 8.385211e-09 1.7726992e-07
0000a0 4a e3 24 34 e4 54 0f 32 d5 2b a7 b4 ab 4b 03 b4
       1.5356378e-07 8.342997e-09 -3.1138066e-07 -1.2227854e-07
0000b0 6f 65 ac 33 15 13 0c 33 63 c8 a2 b3 94 2e 8f b1
       8.027825e-08 3.2613645e-08 -7.580163e-08 -4.167143e-09
0000c0 e0 33 eb 32 72 aa e0 33 1b c2 72 b3 e2 31 4b 34
       2.738119e-08 1.0461817e-07 -5.6521554e-08 1.8923996e-07
0000d0 dd e6 20 34 98 c1 89 b3 4c 8b 48 34 00 c5 a1 af
       1.4985149e-07 -6.414774e-08 1.8677127e-07 -2.9425706e-10
0000e0 f3 05 46 b3 9b cf 2f 34 84 a5 70 32 7e b3 cd b3
       -4.610588e-08 1.6373671e-07 1.40074725e-08 -9.578706e-08
0000f0 a0 2f c2 b3 53 c9 aa 33 34 b8 04 b4 ac 20 90 b2
       -9.042492e-08 7.9528625e-08 -1.236047e-07 -1.6778664e-08
000100 64 f1 4c b4 f5 c3 66 34 c2 4e 0c 33 bd 98 90 34
       -1.9086798e-07 2.1491708e-07 3.266792e-08 2.6933222e-07
000110 2c 27 a2 b1 dd 32 a2 b3 50 c5 3a b4 b0 2f a4 32
       -4.719274e-09 -7.552965e-08 -1.7394382e-07 1.9113799e-08
000120 8d ee 40 34 9e f8 84 33 38 4b 17 33 c3 00 0b 34
       1.7968178e-07 6.191952e-08 3.522584e-08 1.2945661e-07
000130 22 d8 6a b4 f8 c2 d7 b2 03 b5 a0 b3 04 4a 04 b4
       -2.1871577e-07 -2.5117956e-08 -7.4835064e-08 -1.2320385e-07
000140 ad cc b3 b3 50 83 b0 b0 ec 25 99 31 38 1b 21 b2
       -8.372567e-08 -1.2843007e-09 4.4571973e-09 -9.377622e-09
000150 bc f3 8a 32 e4 9b 96 33 c0 4b e4 b2 9d 91 0a b4
       1.6176152e-08 7.013276e-08 -2.657714e-08 -1.2905225e-07
000160 5a 79 c0 b3 64 2a dd 32 08 43 ca b2 8a 3a 99 b4
       -8.9627704e-08 2.5747063e-08 -2.3546377e-08 -2.8541064e-07
000170 eb b1 24 34 4a 8c cd b3 f0 8a 0b b4 c0 1e 62 b4
       1.5338416e-07 -9.571575e-08 -1.2995929e-07 -2.1059077e-07
000180 ac a9 c8 34 02 fb fb b3 ff 48 7b 34 6d 72 42 34
       3.7376356e-07 -1.17337564e-07 2.3402752e-07 1.8109286e-07
000190 47 14 34 b4 b0 47 5d 33 ce 6f 3f b4 98 6d 05 34
       -1.6771183e-07 5.152077e-08 -1.7828935e-07 1.242646e-07
0001a0 8b a6 11 34 73 9c 90 34 6b 1d 80 34 6c f8 e3 b3
       1.3564765e-07 2.6935922e-07 2.3863262e-07 -1.0615699e-07
0001b0 fa 2d d7 32 98 d1 dd b2 97 1d a0 33 e8 b2 00 b4
       2.5050202e-08 -2.5823098e-08 7.455963e-08 -1.1986015e-07
0001c0 40 2b 18 31 60 78 58 32 28 1f ec b3 72 fb 50 34
       2.2143496e-09 1.2600225e-08 -1.0995274e-07 1.9462985e-07
0001d0 a3 18 9e b4 64 b2 b0 33 6e 09 02 34 76 2a 58 33
       -2.944772e-07 8.228088e-08 1.2110624e-07 5.0330037e-08
0001e0 d2 1f 59 b4 7c db 14 b4 26 cc 32 b4 8f 64 51 33
       -2.0221276e-07 -1.3863422e-07 -1.665181e-07 4.8753062e-08
0001f0 8b 9b bd 33 1a ff 05 34 b0 ca 59 32 00 0b d1 b0
       8.8292914e-08 1.2479396e-07 1.2677148e-08 -1.5209878e-09
000200 df 79 26 b3 b3 c6 f5 33 98 9d e9 b3 a6 3c a5 33
       -3.8760728e-08 1.1444845e-07 -1.0878574e-07 7.694443e-08
000210 8a d8 47 33 73 ba 80 b3 54 28 b0 34 d2 fb 2b 34
       4.653024e-08 -5.9943794e-08 3.2811897e-07 1.6017228e-07
000220 18 f7 4b 34 ae 72 0b b4 5c bd 38 34 a8 71 0f b4
       1.899574e-07 -1.2987104e-07 1.7205224e-07 -1.3359261e-07
000230 80 32 3e 34 1c 90 d5 b3 e0 a3 c2 b3 74 14 c8 33
       1.7713501e-07 -9.944799e-08 -9.063638e-08 9.316946e-08
000240 59 fa d8 34 40 01 2b b1 61 ab cd b3 d4 41 e3 33
       4.0415287e-07 -2.4884486e-09 -9.57723e-08 1.0582485e-07
000250 35 56 9c 34 84 05 07 b3 a4 56 06 34 af 88 5a b2
       2.9119988e-07 -3.1437153e-08 1.2511242e-07 -1.2720348e-08
000260 50 d1 a9 b3 4f 20 37 b4 d5 fc 78 b4 3b 80 cb b3
       -7.9077495e-08 -1.7054957e-07 -2.318878e-07 -9.476249e-08
000270 42 ec 23 34 2a d2 10 34 72 e3 bd 33 18 98 eb 33
       1.5266508e-07 1.3487502e-07 8.8423704e-08 1.0970706e-07
000280 ed 4f 26 34 14 04 72 33 9d ff 7e 34 30 f8 eb 33
       1.5489032e-07 5.6348725e-08 2.3748585e-07 1.0988185e-07
000290 42 23 ab 33 5c d6 8e 33 76 32 cc b3 6b df 34 33
       7.9692214e-08 6.651382e-08 -9.508669e-08 4.2112713e-08
0002a0 a4 16 84 32 6a 7d 7a b4 83 84 03 b5 00 4d 24 b1
       1.5377118e-08 -2.332869e-07 -4.899413e-07 -2.390891e-09
0002b0 2c 73 bd b3 06 47 48 34 df 84 04 b4 ee 6b 8a 33
       -8.821948e-08 1.865229e-07 -1.2341796e-07 6.445758e-08
0002c0 1c 28 9f b2 a0 99 02 32 60 80 10 b2 28 a1 6a 33
       -1.8528276e-08 7.601926e-09 -8.411092e-09 5.462894e-08
0002d0 06 b4 93 33 80 c4 32 31 9e 5a 20 34 2f ef d2 b3
       6.877967e-08 2.6014106e-09 1.4934128e-07 -9.822394e-08
0002e0 c6 87 d9 b2 30 b4 01 b3 90 94 b0 34 20 01 2c b2
       -2.5323867e-08 -3.0199033e-08 3.2890648e-07 -1.00119735e-08
0002f0 d9 55 6b 34 40 7d e3 30 5c 03 95 b4 43 14 ec 33
       2.1917312e-07 1.6552022e-09 -2.7755857e-07 1.0993292e-07
000300 5f e3 95 b3 51 d6 d3 b3 18 d3 ac 34 38 3d 40 b3
       -6.979712e-08 -9.864437e-08 3.2191087e-07 -4.475916e-08
000310 63 17 9c b4 91 db 12 b3 d4 79 49 33 b6 39 88 34
       -2.907428e-07 -3.419297e-08 4.690976e-08 2.5373964e-07
000320 25 b8 4d 32 40 26 28 b2 b5 3c 2a b4 24 75 ec 34
       1.197444e-08 -9.787584e-09 -1.5854569e-07 4.4043657e-07
000330 2f 1c 0c 34 65 98 3c b4 36 ad 1f b3 be 77 03 b4
       1.3048769e-07 -1.7564305e-07 -3.7177607e-08 -1.2243888e-07
000340 3c 6a 6b b3 9e 01 3b 34 84 5c 64 b4 21 92 19 33
       -5.481182e-08 1.741632e-07 -2.1267812e-07 3.5755992e-08
000350 47 cd 27 34 64 fa a2 33 87 fd ab 33 b6 0c cb 33
       1.5627766e-07 7.5892586e-08 8.0089244e-08 9.455236e-08
000360 e6 76 99 b4 27 fe 76 b2 f4 e4 31 33 1e 0c 1e 34
       -2.858498e-07 -1.4376872e-08 4.1419256e-08 1.4719305e-07
000370 73 21 38 34 39 72 a2 32 96 0b c1 b3 59 be 38 34
       1.7148504e-07 1.8911225e-08 -8.98937e-08 1.7205583e-07
000380 bc 99 bd b3 fd c1 c6 b2 2d dc 06 32 a2 ee 1f b4
       -8.8289625e-08 -2.313845e-08 7.849889e-09 -1.4894843e-07
000390 a6 96 92 b3 a4 2b d0 33 72 04 2f b4 be 3a 83 33
       -6.8260576e-08 9.693693e-08 -1.6299762e-07 6.110848e-08
0003a0 33 d5 90 b4 ac cf 39 34 74 79 92 b2 f8 7e 50 b3
       -2.6977213e-07 1.7305018e-07 -1.7051867e-08 -4.854425e-08
0003b0 b6 3f 6c b3 5f 32 dc b3 4d a8 6d b3 82 9f 6c 34
       -5.5005977e-08 -1.0253711e-07 -5.533393e-08 2.2037241e-07
0003c0 e8 d2 28 32 58 9c c8 31 c4 10 73 b3 1b fa bd 32
       9.826842e-09 5.8385403e-09 -5.6593095e-08 2.211623e-08
0003d0 86 d1 2f b4 4b 8a b2 b3 56 33 70 34 d2 c7 38 b4
       -1.6374369e-07 -8.313926e-08 2.2370418e-07 -1.720903e-07
0003e0 46 7c 86 b3 4b 67 76 b2 ff c4 b0 b2 59 f1 1c 33
       -6.2624665e-08 -1.4342571e-08 -2.057868e-08 3.6541085e-08
0003f0 0a 97 bb b4 0e be 9b 32 5e c4 86 34 0e 57 a9 33
       -3.494136e-07 1.8130802e-08 2.510232e-07 7.885511e-08

lstm.bias_ih_l0 f4 [256]
000000 d0 b0 17 b2 84 f2 97 b4 8d fd b0 33 4b af 9f 33
       -8.829559e-09 -2.8302395e-07 8.241759e-08 7.4359e-08
000010 eb 3f 20 33 e0 6a f9 33 40 a4 27 b4 08 a8 22 34
       3.7311036e-08 1.16144065e-07 -1.5612841e-07 1.5148555e-07
000020 76 33 3d b4 b7 20 0d 33 81 aa b0 b3 1c 7d 02 b4
       -1.7620718e-07 3.2858875e-08 -8.226653e-08 -1.2152708e-07
000030 f4 0a ce b2 a6 19 36 34 88 17 3a 34 fa df 30 b3
       -2.3986537e-08 1.6959402e-07 1.733116e-07 -4.11819e-08
000040 f1 64 bc 32 d0 a6 3b b4 1a f5 bb 33 ca a3 c0 34
       2.1931983e-08 -1.7476418e-07 8.75245e-08 3.588196e-07
000050 74 51 11 32 ab a3 b6 b3 45 a3 86 33 26 99 73 34
       8.458631e-09 -8.5048065e-08 6.26956e-08 2.2686854e-07
000060 b1 21 a1 33 9c 65 5a 33 ca 98 8b b3 67 d9 12 34
       7.503275e-08 5.0849494e-08 -6.500484e-08 1.36764e-07
000070 38 28 f4 b3 14 dc 55 33 56 e5 48 b4 cf 6a 84 b4
       -1.1369451e-07 4.9793087e-08 -1.8709883e-07 -2.466463e-07
000080 05 35 4f 34 90 06 b6 b1 6e 8b b0 32 53 23 7e 33
       1.9297666e-07 -5.297643e-09 2.0552502e-08 5.917111e-08
000090 2f 9a 31 33 14 0a bf b3 d0 c7 72 b3 e0 51 b1 33
       4.1351253e-08 -8.895964e-08 -5.6526744e-08 8.257098e-08
0000a0 1a d6 13 b4 7a ba ee b3 cf 9f 03 b2 25 a2 15 34
       -1.3768332e-07 -1.11166585e-07 -7.66154e-09 1.3935694e-07
0000b0 1c 23 8f b3 32 c4 4a b3 22 8d 0d b3 b2 ec 08 33
       -6.665343e-08 -4.721023e-08 -3.295748e-08 3.188024e-08
0000c0 ac 8f c1 b3 a6 61 30 b4 5a 0f 18 b4 04 ab ef 33
       -9.0133966e-08 -1.6426802e-07 -1.4161688e-07 1.1160412e-07
0000d0 6d e3 eb b3 bc bb 9c b3 4c 4b 59 b3 0c a2 0c b3
       -1.0984409e-07 -7.298465e-08 -5.0592732e-08 -3.274367e-08
0000e0 60 6a e4 33 b6 4e f8 32 b3 aa 00 34 96 bb 8a 34
       1.0636427e-07 2.8906793e-08 1.1983029e-07 2.584099e-07
0000f0 ac 6c 10 b2 0a 9c 19 34 68 01 2c 34 46 3c 20 33
       -8.406612e-09 1.4306002e-07 1.601926e-07 3.730772e-08
000100 d1 c7 85 b3 7d 39 4b 34 64 cc ae b4 67 36 92 34
       -6.2296415e-08 1.8926762e-07 -3.255874e-07 2.7234202e-07
000110 8f 6d 36 34 4d 26 3c b4 14 66 a8 b3 7a cf 25 34
       1.6989928e-07 -1.7522798e-07 -7.8416775e-08 1.5442302e-07
000120 a0 bc 7f b3 68 79 db b2 17 5c 82 b3 12 c1 91 34
       -5.9543368e-08 -2.5550165e-08 -6.070348e-08 2.7148832e-07
000130 85 6a 12 33 0c b6 47 33 68 59 7a 33 bd 1e aa 33
       3.4090153e-08 4.649887e-08 5.8288975e-08 7.921833e-08
000140 f8 ea d4 33 3b a4 3f b4 92 f7 ae 32 40 c5 42 b1
       9.91476e-08 -1.7848008e-07 2.0368848e-08 -2.834284e-09
000150 56 b5 0c b3 2d 41 45 32 04 40 ef 32 74 3d 81 34
       -3.2761214e-08 1.14817285e-08 2.7852373e-08 2.4072835e-07
000160 12 0e 0b 34 ef 61 06 b4 47 e3 f8 33 aa fc 3d b4
       1.2950503e-07 -1.251535e-07 1.15897414e-07 -1.7693915e-07
000170 b8 cf 77 b3 0c 5d ae 32 f4 00 86 34 3a 40 a5 33
       -5.7698088e-08 2.0298579e-08 2.4960138e-07 7.695094e-08
000180 5a f6 80 33 17 14 aa b3 16 2c d9 b4 b7 7c a2 34
       6.0052756e-08 -7.919896e-08 -4.0451476e-07 3.0265593e-07
000190 5f ec 86 33 b6 f4 1e 33 32 9b 4f 33 66 8f 01 b4
       6.282857e-08 3.7009805e-08 4.8337093e-08 -1.2066229e-07
0001a0 12 3f 80 b4 40 cb c2 34 c7 e9 da b3 98 8d 08 b3
       -2.3887748e-07 3.62832e-07 -1.019394e-07 -3.1793746e-08
0001b0 30 0a 80 33 33 9b e1 b3 7b 33 9b b3 2b 59 c2 33
       5.9623176e-08 -1.05056095e-07 -7.227114e-08 9.0500485e-08
0001c0 b8 79 dc 31 98 3e b9 33 04 ed 04 34 82 d0 03 b4
       6.4166805e-09 8.6261196e-08 1.2379684e-07 -1.227618e-07
0001d0 64 6e 1d b3 5d 31 48 34 cd b2 b6 33 38 ac 9b b3
       -3.665481e-08 1.864441e-07 8.507559e-08 -7.2490764e-08
0001e0 de d0 99 b3 92 eb f9 33 18 9b 0b b4 ef d9 b7 33
       -7.1626104e-08 1.1637816e-07 -1.3001807e-07 8.5612434e-08
0001f0 78 c2 e1 34 1a 5f aa b3 54 66 0b b4 80 fe 1b 31
       4.205101e-07 -7.933541e-08 -1.298261e-07 2.2700135e-09
000200 93 e8 41 b4 64 28 26 33 5f 6f 85 34 94 e8 45 33
       -1.8059136e-07 3.8686622e-08 2.4854214e-07 4.6079165e-08
000210 8a 00 80 b4 5c 10 00 b4 c5 47 4f 34 cd f5 1d b4
       -2.384225e-07 -1.192688e-07 1.9304487e-07 -1.4711186e-07
000220 82 08 8b b2 0b f2 b3 b3 0a d3 03 34 03 be ab b4
       -1.6185599e-08 -8.3793644e-08 1.2277101e-07 -3.1989484e-07
000230 f8 0e 76 33 37 98 c5 33 12 4d 7b b4 b9 90 ee 33
       5.7289952e-08 9.201215e-08 -2.3404235e-07 1.11090635e-07
000240 ad 8f 7a b4 a8 db 9e b3 30 e3 86 b3 8a de 02 b3
       -2.3335333e-07 -7.3974036e-08 -6.2811864e-08 -3.047038e-08
000250 64 52 5c b3 ac a1 34 b4 9a 5e 93 33 65 e8 45 b4
       -5.1297675e-08 -1.6822622e-07 6.862429e-08 -1.84316e-07
000260 68 b9 8b 32 48 c9 0d b3 e3 1a fb b3 70 92 3a 32
       1.6266043e-08 -3.3012185e-08 -1.1692989e-07 1.0859921e-08
000270 54 6e 5f b3 ac 39 27 34 42 5a 97 b3 26 5c e7 33
       -5.2021576e-08 1.5574068e-07 -7.047903e-08 1.07735374e-07
000280 d9 da 21 b4 09 3e 82 b3 80 9a 25 b1 f7 12 5d 33
       -1.507391e-07 -6.064881e-08 -2.4098483e-09 5.147282e-08
000290 7c 1d 88 b4 10 52 0a 34 22 60 30 34 9f 72 e4 34
       -2.5353427e-07 1.2882106e-07 1.642625e-07 4.2551707e-07
0002a0 74 1c 06 b4 dc 9c 23 b4 30 42 b0 33 a8 16 a3 b3
       -1.2490074e-07 -1.5237623e-07 8.207678e-08 -7.5944e-08
0002b0 db 51 cf b3 e2 f9 ec 33 0e be 43 34 ec 97 4d b3
       -9.654078e-08 1.103506e-07 1.8229932e-07 -4.7868454e-08
0002c0 90 86 f3 b3 a0 6e ff b3 58 a3 0d b3 0a e4 e6 b3
       -1.1340046e-07 -1.18944854e-07 -3.297768e-08 -1.075169e-07
0002d0 b3 9d 7a 34 89 a9 49 33 fd 6b ad 33 e6 5b aa 33
       2.3340435e-07 4.695315e-08 8.075583e-08 7.932958e-08
0002e0 89 c7 78 b3 37 9b 94 33 45 d3 38 b3 80 35 37 34
       -5.7923476e-08 6.9200205e-08 -4.3032987e-08 1.7062666e-07
0002f0 3c c2 85 33 c6 c3 13 34 ef 84 e9 33 40 07 5e 33
       6.228626e-08 1.3761664e-07 1.08740885e-07 5.1694997e-08
000300 38 05 4f 34 b5 fb e2 34 97 98 28 34 fe 8f 1c 33
       1.9280276e-07 4.227892e-07 1.5701731e-07 3.645254e-08
000310 ac f7 48 34 a0 0d eb 32 f8 95 01 33 a9 c8 2f b4
       1.8716554e-07 2.7363797e-08 3.017155e-08 -1.6371145e-07
000320 44 9b a2 b3 18 61 99 33 d9 bf ce b3 68 29 34 34
       -7.5719555e-08 7.142279e-08 -9.6275194e-08 1.677887e-07
000330 ad bc 33 34 3c 42 ae 34 ec a3 3d b4 a6 cc a2 32
       1.6739314e-07 3.2458217e-07 -1.7661631e-07 1.8952345e-08
000340 2c 18 8c b3 08 7e ec b3 2b e1 9e 32 48 21 f4 33
       -6.523655e-08 -1.1012531e-07 1.8496015e-08 1.1368189e-07
000350 86 ee 2e 33 38 66 f1 b3 3e 1d f3 32 38 7f ec 33
       4.0729468e-08 -1.12410305e-07 2.8302221e-08 1.1012747e-07
000360 76 70 c3 33 a3 a8 38 34 05 eb a8 33 a0 87 36 32
       9.1008516e-08 1.7197685e-07 7.8658594e-08 1.0624632e-08
000370 92 c4 0d b3 aa be 3d 34 a0 24 d0 33 00 72 eb 30
       -3.30079e-08 1.767136e-07 9.692417e-08 1.7130901e-09
000380 66 ec ac b2 34 2e 75 b3 da a0 54 b3 c7 0d c6 33
       -2.0130937e-08 -5.708553e-08 -4.950639e-08 9.2225996e-08
000390 4d 87 f5 b3 8f 76 bf b3 0f 34 87 33 cc 98 0a 33
       -1.14333126e-07 -8.915696e-08 6.295897e-08 3.2269597e-08
0003a0 d3 75 06 34 b0 d7 e7 b3 20 5c 20 b1 e4 0e 04 b4
       1.2522587e-07 -1.0796009e-07 -2.3335431e-09 -1.2298875e-07
0003b0 99 d9 83 34 62 a7 0a b3 71 e8 e7 b3 aa 0e f7 33
       2.4558975e-07 -3.2282863e-08 -1.07990566e-07 1.1504501e-07
0003c0 28 d6 a0 33 a1 22 76 b2 84 f0 64 33 be 63 e4 b4
       7.4895354e-08 -1.4326958e-08 5.3304134e-08 -4.254088e-07
0003d0 ac d6 ce 32 49 6b 36 b4 fc b3 c1 b3 b4 c6 d4 b2
       2.4079178e-08 -1.6989101e-07 -9.020002e-08 -2.4770408e-08
0003e0 bd b0 fe 33 cf d9 11 b4 1e 34 63 33 90 dd f3 32
       1.1859945e-07 -1.3583416e-07 5.2899956e-08 2.8389678e-08
0003f0 e0 a5 ff 30 98 66 85 34 47 82 17 33 f6 21 86 b3
       1.8600836e-09 2.4847827e-07 3.5275914e-08 -6.246039e-08

lstm.bias_hh_l0 f4 [256]
000000 d6 69 a2 b3 d8 ff 6f 32 23 15 1f 33 52 3e 36 34
       -7.562964e-08 1.3969803e-08 3.7039296e-08 1.6972743e-07
000010 d2 55 1c 33 03 95 31 34 2c fe 3a 34 e2 ef 87 34
       3.6399634e-08 1.653862e-07 1.7415067e-07 2.5320247e-07
000020 b8 8e 30 b3 1d 26 b0 33 b1 53 e4 34 f8 41 89 b3
       -4.1107995e-08 8.2025714e-08 4.2529203e-07 -6.391559e-08
000030 b8 1a 36 34 cc e8 ec b3 80 b9 56 b1 f9 37 81 b4
       1.6959791e-07 -1.1031952e-07 -3.1246543e-09 -2.4068848e-07
000040 50 57 a2 b3 c6 5a 3f b4 d0 be 70 31 ee 65 68 b2
       -7.559595e-08 -1.7821284e-07 3.503306e-09 -1.35273535e-08
000050 56 5c 46 34 20 ab 3b 34 36 bf 2e 34 d0 e9 00 b1
       1.8473779e-07 1.7477987e-07 1.6274575e-07 -1.8759359e-09
000060 fc e3 94 33 fe 10 f5 b2 2a 8d 72 34 fc fc ce b3
       6.933257e-08 -2.8529481e-08 2.2589361e-07 -9.63864e-08
000070 1a f7 15 b3 aa 66 4f 34 91 b1 e3 33 db f6 ab b3
       -3.4916503e-08 1.9315726e-07 1.06028104e-07 -8.007711e-08
000080 b2 56 d4 33 ca f5 d7 33 1a 06 bf 33 60 e5 74 31
       9.887789e-08 1.00564264e-07 8.8952405e-08 3.5637058e-09
000090 1e c6 73 b3 aa 61 45 b4 81 fb 17 b3 40 19 88 b4
       -5.6758033e-08 -1.8382585e-07 -3.538617e-08 -2.5350346e-07
0000a0 f3 70 11 b3 62 c7 0e b3 78 4f b2 32 1c ae 10 33
       -3.386317e-08 -3.324329e-08 2.0758065e-08 3.3685964e-08
0000b0 10 c8 50 b4 dc 19 64 34 44 98 49 33 8c ee 49 34
       -1.9444292e-07 2.1243562e-07 4.6937444e-08 1.8806367e-07
0000c0 98 e1 c4 b3 b0 c1 3b 34 a5 b0 e8 33 98 06 b4 32
       -9.1679965e-08 1.7486195e-07 1.0835473e-07 2.0957756e-08
0000d0 61 36 9b b2 20 54 bf b3 e0 46 29 32 91 d6 db 33
       -1.8069104e-08 -8.909433e-08 9.85321e-09 1.02370116e-07
0000e0 67 c3 34 34 7c 2c a8 b4 78 e2 8a 32 46 44 7a b4
       1.6834893e-07 -3.1324805e-07 1.61683e-08 -2.3307902e-07
0000f0 c1 26 b9 b3 90 49 a2 b3 e8 84 27 b4 54 d0 d4 33
       -8.621783e-08 -7.557094e-08 -1.5601438e-07 9.909914e-08
000100 2d bf 27 b3 4a 62 c7 b3 39 11 b0 b3 b8 bd 76 33
       -3.905659e-08 -9.284538e-08 -8.1987714e-08 5.7448887e-08
000110 cc 55 18 b2 c6 f4 75 33 f0 a9 b2 b3 41 13 35 34
       -8.867072e-09 5.7266128e-08 -8.3196824e-08 1.6863943e-07
000120 35 8a 85 34 19 3c 7a b4 23 8c 51 34 38 30 10 b4
       2.487374e-07 -2.3304928e-07 1.9515623e-07 -1.3428587e-07
000130 68 f0 0b 34 31 c1 8d 34 1c 18 23 34 aa b9 2e b4
       1.3032843e-07 2.6403862e-07 1.5189329e-07 -1.6272557e-07
000140 90 d2 25 34 a1 89 54 34 0f a8 29 34 32 a9 c9 b3
       1.5443425e-07 1.9794108e-07 1.5800491e-07 -9.390568e-08
000150 92 4d 39 b4 e0 cf 8e b4 22 ff 03 b4 6e f2 41 34
       -1.7257688e-07 -2.660081e-07 -1.2293143e-07 1.8062721e-07
000160 b0 06 53 33 0e b6 4b b4 ef 59 81 33 2f 20 f6 33
       4.9133348e-08 -1.897208e-07 6.0233894e-08 1.1461122e-07
000170 80 97 2c b4 f2 60 1d 33 84 95 be 32 af 38 a0 33
       -1.6073864e-07 3.6642582e-08 2.2186903e-08 7.460891e-08
000180 34 ec ba 33 e0 44 03 b5 4b d2 86 b4 cb c3 e1 33
       8.704265e-08 -4.890153e-07 -2.5112453e-07 1.05129935e-07
000190 b0 e1 3f 34 7b 80 04 b3 00 11 6b 31 4e dc 3a 34
       1.7870366e-07 -3.0850497e-08 3.4206664e-09 1.7402746e-07
0001a0 63 68 13 b4 0e dd 28 b4 02 3d 95 33 84 a6 fa b3
       -1.3728418e-07 -1.5726638e-07 6.9494504e-08 -1.1671821e-07
0001b0 7c b5 ac b3 00 74 88 b0 89 26 18 b3 51 36 99 34
       -8.042386e-08 -9.928272e-10 -3.5425305e-08 2.853799e-07
0001c0 50 97 1a 34 8d 86 a9 b3 3b 26 dc b2 58 1b f5 33
       1.4397415e-07 -7.8941504e-08 -2.5628756e-08 1.1413675e-07
0001d0 ae 55 4b 33 a0 e4 95 b0 90 ef d9 b1 c5 70 76 33
       4.7342546e-08 -1.0906156e-09 -6.3427663e-09 5.73789e-08
0001e0 34 4c f4 b2 40 0e 8a 34 21 b5 96 33 e2 de 50 33
       -2.8439992e-08 2.571487e-07 7.0178665e-08 4.8631485e-08
0001f0 9f cc 39 34 3e 70 9c b3 98 5e ae b3 68 e1 c0 b3
       1.7303908e-07 -7.284733e-08 -8.119713e-08 -8.981698e-08
000200 58 02 a3 33 42 b2 2c b3 53 a0 dd 33 d6 97 e4 b4
       7.590705e-08 -4.0208995e-08 1.0320277e-07 -4.2578785e-07
000210 a6 90 0a b3 ef c0 e6 34 1d 15 bc 34 f1 53 8c b4
       -3.2262186e-08 4.2981216e-07 3.503309e-07 -2.6138108e-07
000220 08 fb b7 33 46 df d9 33 90 86 76 32 30 00 56 b1
       8.567264e-08 1.0145463e-07 1.43496806e-08 -3.1141205e-09
000230 40 50 ec b0 86 4d 6c 34 22 27 4f 33 fc 9d 1a b4
       -1.7194068e-09 2.2007416e-07 4.8231534e-08 -1.4399842e-07
000240 20 a4 ff b1 05 99 30 33 b0 3a 76 32 4e 2a fb 33
       -7.4401356e-09 4.1117364e-08 1.4332429e-08 1.16957935e-07
000250 00 16 80 31 fe 6e 3b 34 e2 7a 21 34 49 0b 49 34
       3.7277914e-09 1.7456111e-07 1.5038998e-07 1.8723689e-07
000260 6a e8 c4 33 a8 6d b0 b1 7e 9f d6 b4 96 6f 6b 33
       9.169237e-08 -5.1347406e-09 -3.9976652e-07 5.4816688e-08
000270 e2 6e 13 b4 4f a8 d0 33 8a 56 2e 33 00 21 11 b1
       -1.3730781e-07 9.71637e-08 4.059124e-08 -2.1119035e-09
000280 60 45 0c b2 90 1e 3c 34 d1 9d ab 33 7c 7b 4a b3
       -8.164847e-09 1.7519983e-07 7.991515e-08 -4.71441e-08
000290 16 01 21 b4 4c b2 0a 33 cc 8d 0d b4 26 c4 92 b3
       -1.4994689e-07 3.229279e-08 -1.3183234e-07 -6.834334e-08
0002a0 6f 1e 27 b4 3d ce 87 34 84 01 eb b3 eb 71 21 b4
       -1.5564159e-07 2.5295768e-07 -1.0943316e-07 -1.5035737e-07
0002b0 9d f0 36 33 a2 88 e0 33 4a f2 a9 33 e6 4d d6 b3
       4.2594014e-08 1.0455666e-07 7.913748e-08 -9.979321e-08
0002c0 bc d3 6b b2 1a 3b a3 34 51 10 96 34 40 55 93 30
       -1.3726943e-08 3.0404118e-07 2.795155e-07 1.0719887e-09
0002d0 26 8c 25 33 de c2 00 b4 40 d5 f0 2f 04 9f 88 b3
       3.854452e-08 -1.1991821e-07 4.380727e-10 -6.361918e-08
0002e0 f0 80 c0 33 3b aa e9 b3 c4 00 17 b4 f4 32 fc b2
       8.96415e-08 -1.0880873e-07 -1.406325e-07 -2.9359832e-08
0002f0 1e b2 e6 b3 20 3c 67 32 ce ac c7 34 27 6f fe b3
       -1.0742609e-07 1.34596405e-08 3.719237e-07 -1.1848015e-07
000300 3f 43 9c b3 d0 66 84 b1 0d ec 19 b4 48 54 00 b5
       -7.276548e-08 -3.853394e-09 -1.433511e-07 -4.780636e-07
000310 80 a2 11 b2 ea 4e 5c b4 ea 50 8c 34 60 b0 00 b2
       -8.477059e-09 -2.0517805e-07 2.6135905e-07 -7.490684e-09
000320 40 b3 3f 33 bb 4c 06 32 eb 74 1d 33 28 e2 9a b4
       4.463368e-08 7.817273e-09 3.6660747e-08 -2.8849286e-07
000330 47 d8 05 b4 30 c3 90 b3 bf 99 28 b3 54 c1 d3 33
       -1.2465271e-07 -6.741027e-08 -3.925538e-08 9.860619e-08
000340 9a 73 4d b4 3b 49 e5 33 02 96 99 33 d2 43 e3 b3
       -1.9134168e-07 1.0676964e-07 7.151904e-08 -1.0582848e-07
000350 a3 d4 9c 33 b9 3b ee 33 39 c8 20 b4 b7 92 fb 33
       7.3029945e-08 1.1093602e-07 -1.4974002e-07 1.17147856e-07
000360 68 ae 09 b3 dc 60 b2 32 00 c3 15 b1 6e 7e 04 34
       -3.205642e-08 2.0765974e-08 -2.1793198e-09 1.2339453e-07
000370 58 f3 c3 33 5c 43 80 32 f3 be 91 b4 d5 80 3a b4
       9.124659e-08 1.4931793e-08 -2.7147289e-07 -1.7369469e-07
000380 80 ae 15 31 4a 0d 16 33 b1 b1 14 34 02 80 1f 33
       2.1781545e-09 3.4936683e-08 1.3848218e-07 3.7136495e-08
000390 58 20 29 b3 e2 58 24 33 3b aa 9c b3 c4 53 93 33
       -3.9377795e-08 3.8265064e-08 -7.295281e-08 6.860458e-08
0003a0 82 14 04 b4 26 95 29 b3 19 a9 b6 33 4f c9 18 b4
       -1.2300919e-07 -3.948403e-08 8.505794e-08 -1.4229339e-07
0003b0 63 4a 28 34 a7 6d 9c b3 52 c5 f3 b3 c9 dd 78 b2
       1.5673281e-07 -7.284262e-08 -1.13514616e-07 -1.4485928e-08
0003c0 48 fb 2d b3 aa 99 0a 34 02 c1 89 34 24 71 2f 34
       -4.050824e-08 1.2908154e-07 2.565867e-07 1.6339305e-07
0003d0 68 85 a9 b3 9d 52 93 34 58 f5 ae b2 2e bd 91 34
       -7.893942e-08 2.7440993e-07 -2.0367835e-08 2.7146e-07
0003e0 99 b0 87 b3 10 94 0c 32 7f 2d 93 b3 30 74 94 33
       -6.31855e-08 8.182738e-09 -6.8534966e-08 6.9129214e-08
0003f0 8a 32 02 b3 d4 3e fe b3 80 92 69 b2 c0 44 ca 32
       -3.031395e-08 -1.1839225e-07 -1.3595695e-08 2.3547159e-08

lstm.weight_ih_l0_reverse f4 [256, 19]
000000 c4 5a 3a b4 58 78 ed b3 22 65 02 34 e0 ad 86 34
       -1.735562e-07 -1.1058063e-07 1.2143985e-07 2.5085956e-07
000010 38 70 a0 b3 66 1e ea 33 d4 8d a5 b3 80 68 e9 b0
       -7.470993e-08 1.09020036e-07 -7.7092096e-08 -1.6982682e-09
000020 e5 bd 75 b3 c0 6f 97 33 9d 10 18 33 64 86 92 b3
       -5.7216216e-08 7.051813e-08 3.5405368e-08 -6.8231e-08
000030 4a 74 14 34 0a 9b fd b2 e8 08 04 34 1a 75 8d 34
       1.382588e-07 -2.952358e-08 1.2296698e-07 2.63485e-07
000040 14 27 47 34 00 22 eb af 05 75 7c 33 f8 d6 85 b2
       1.8547536e-07 -4.277041e-10 5.877975e-08 -1.5580994e-08
000050 d2 a1 cc b3 21 80 ce b3 58 75 83 b3 68 f9 81 b2
       -9.528925e-08 -9.615929e-08 -6.1215076e-08 -1.5130993e-08
000060 14 a7 23 b3 2c d8 95 b3 9a 18 84 34 bd 3b d3 b4
       -3.810335e-08 -6.9776746e-08 2.4604816e-07 -3.9345278e-07
000070 ba fa 75 34 f5 56 b7 33 76 19 a2 b3 3b 1a 1e 34
       2.2908617e-07 8.537419e-08 -7.548344e-08 1.4724439e-07
000080 f0 7c 0f b2 d0 9e de b1 04 13 2f 33 fb ba c6 33
       -8.352103e-09 -6.4791053e-09 4.0762657e-08 9.254105e-08
000090 49 80 a1 b2 3e b8 b3 32 b7 23 8d 33 ec 5f a6 33
       -1.8801204e-08 2.0922126e-08 6.5723206e-08 7.7474255e-08
0000a0 46 aa ba 33 90 3d 59 33 2c 11 b7 b3 06 2a 23 b4
       8.6922725e-08 5.058024e-08 -8.524725e-08 -1.5195846e-07
0000b0 57 9b 2b b3 00 a4 08 b1 7e ea 73 b3 d6 57 db 33
       -3.995532e-08 -1.9883828e-09 -5.6791116e-08 1.02139595e-07
0000c0 cf ca c6 33 80 24 87 33 6c fd 60 32 1e 7e 31 34
       9.256984e-08 6.293067e-08 1.30961375e-08 1.6530291e-07
0000d0 1d f2 7d b3 6a a6 f8 b2 c0 67 f4 b3 e4 41 ae 34
       -5.9126354e-08 -2.8946676e-08 -1.13810074e-07 3.2457967e-07
0000e0 f2 d3 d2 33 3a ad 13 34 31 37 01 34 06 c9 8b 33
       9.81744e-08 1.3753461e-07 1.203414e-07 6.509258e-08
0000f0 1e 75 49 33 fc 50 ee 32 42 d0 40 b4 c2 99 9e 34
       4.6905477e-08 2.7743674e-08 -1.7957157e-07 2.9541667e-07
000100 2f 6f c5 b3 12 d7 e2 b3 40 2f 1f b1 4f d2 9c b3
       -9.1937515e-08 -1.0563066e-07 -2.3164404e-09 -7.302571e-08
000110 c6 a6 ea 33 f2 4c b1 b2 80 c9 09 b1 62 e2 97 b4
       1.092681e-07 -2.0640503e-08 -2.0050663e-09 -2.8290657e-07
000120 b5 67 90 b3 af c8 41 34 00 4b fa 2f 4e 84 33 b3
       -6.724387e-08 1.8047534e-07 4.5528026e-10 -4.1797016e-08
000130 0e 57 ff b3 d4 d7 11 34 8c fe 88 b4 fc 45 ab 32
       -1.1890198e-07 1.3582695e-07 -2.551718e-07 1.9938845e-08
000140 12 bb 32 b3 58 25 ff 33 cc d8 27 33 f0 d0 20 b3
       -4.1613994e-08 1.18811556e-07 3.9079893e-08 -3.744293e-08
000150 9c 11 d2 31 98 d1 0a 33 5c 26 29 34 56 b5 6a b3
       6.1138064e-09 3.2321253e-08 1.5753307e-07 -5.4647295e-08
000160 56 ee 92 b4 7a 36 10 33 ea a0 db b2 6f 91 94 b3
       -2.736803e-07 3.357716e-08 -2.556813e-08 -6.918241e-08
000170 80 48 e5 30 60 8b 35 b1 7b f6 ab b3 bc 92 15 b4
       1.6682549e-09 -2.6418192e-09 -8.0076425e-08 -1.3930088e-07
000180 43 01 08 33 a2 d2 cb 33 d2 9d f3 33 e0 0a 97 b3
       3.1666115e-08 9.491238e-08 1.13442766e-07 -7.0334636e-08
000190 64 22 94 31 36 dc e4 33 30 95 7d b1 6c 12 ad 33
       4.3112767e-09 1.06571335e-07 -3.6901149e-09 8.059291e-08
0001a0 63 67 89 34 56 92 e1 33 92 1b 8e b3 4e 9c 15 b4
       2.5593462e-07 1.0503997e-07 -6.617405e-08 -1.393357e-07
0001b0 3a 77 9b b3 cd a4 4d 34 87 c8 5c b3 f0 9c 73 33
       -7.239437e-08 1.9152067e-07 -5.140512e-08 5.672058e-08
0001c0 65 03 1e b4 48 f2 35 b3 98 05 75 33 41 8d cd 33
       -1.4716132e-07 -4.23627e-08 5.7048595e-08 9.57175e-08
0001d0 d7 80 27 b4 2c 2d 31 b4 bc 2a ea b3 19 c7 ac b4
       -1.5599959e-07 -1.6500843e-07 -1.09042475e-07 -3.218236e-07
0001e0 50 f1 70 33 ca c2 08 b3 74 74 32 b4 95 29 bf 33
       5.6098827e-08 -3.1842127e-08 -1.6619907e-07 8.901694e-08
0001f0 0a f7 74 b4 00 61 57 34 d4 e1 fa 33 4d e3 db 33
       -2.2814143e-07 2.0058724e-07 1.168261e-07 1.0239328e-07
000200 2c d6 3d 34 e1 9b 5f b3 07 17 a2 33 9b 12 09 32
       1.7679912e-07 -5.2063005e-08 7.5479015e-08 7.97868e-09
000210 e6 02 f0 32 48 1d ec 33 53 b6 23 34 2a 5f 4c 33
       2.7940995e-08 1.09949326e-07 1.5246887e-07 4.7584003e-08
000220 70 00 47 33 b2 90 bd 33 6c df f8 b3 7a 28 2f 33
       4.6333696e-08 8.827318e-08 -1.158904e-07 4.0782176e-08
000230 e4 f0 13 34 ab 17 97 33 40 ce 46 34 98 9d 68 32
       1.3778077e-07 7.0357906e-08 1.851522e-07 1.354001e-08
000240 20 cc 87 34 64 83 90 34 8d 27 fc 33 7b c8 19 34
       2.529423e-07 2.691769e-07 1.1741859e-07 1.432217e-07
000250 f0 f2 ec 33 e0 75 36 34 9c 13 e0 33 c4 c1 c0 b3
       1.10337965e-07 1.6992954e-07 1.043438e-07 -8.9759425e-08
000260 f0 8e ac 34 58 87 32 b4 38 3c db 32 30 b7 e6 b2
       3.2141497e-07 -1.662678e-07 2.552234e-08 -2.6858828e-08
000270 d2 ff 41 33 2d 3b c0 33 36 ed 07 b4 41 82 18 b3
       4.516898e-08 8.951461e-08 -1.2659152e-07 -3.5508723e-08
000280 f4 2e fb b3 d6 fd 1a 33 be 51 10 34 e8 18 30 32
       -1.1696639e-07 3.608678e-08 1.3440783e-07 1.0250211e-08
000290 57 81 41 b4 34 a6 70 b2 20 52 05 b4 53 a2 d5 b4
       -1.8021579e-07 -1.4007629e-08 -1.2416467e-07 -3.9792448e-07
0002a0 80 14 91 b0 cc 58 ef b2 01 e2 fd 33 d6 15 87 33
       -1.0555965e-09 -2.7863642e-08 1.18223404e-07 6.290399e-08
0002b0 3a ea b3 b3 d9 f6 47 34 d4 e7 be b3 ea fd 90 32
       -8.3779426e-08 1.8623122e-07 -8.889734e-08 1.6879273e-08
0002c0 5e 82 cf b3 c4 40 d7 b3 eb 44 a0 b3 1c df d2 33
       -9.662902e-08 -1.00234985e-07 -7.463117e-08 9.8194704e-08
0002d0 97 73 7d 34 e0 f2 71 33 6f 15 4f b4 30 63 dd 32
       2.3604512e-07 5.633308e-08 -1.9286175e-07 2.5772891e-08
0002e0 9a 35 37 34 3e 2c 19 34 20 7d 5b 33 ac 69 3f b3
       1.7062703e-07 1.426533e-07 5.110371e-08 -4.456676e-08
0002f0 d8 81 53 33 e3 90 0f 34 91 62 c3 33 12 87 17 b4
       4.9245358e-08 1.3370622e-07 9.098324e-08 -1.4112109e-07
000300 1f 95 26 34 de 34 b6 34 5e 6d 96 b2 00 bb 2f 31
       1.5514205e-07 3.3938608e-07 -1.7512033e-08 2.5572149e-09
000310 29 e4 82 b4 64 58 21 b3 08 eb 47 34 5a 24 ee b3
       -2.4380395e-07 -3.7566124e-08 1.8618823e-07 -1.1089351e-07
000320 02 b0 13 33 bc dd 4d b3 cc c2 79 34 68 28 64 b4
       3.4386183e-08 -4.7931948e-08 2.3260799e-07 -2.1248854e-07
000330 ef 06 93 b3 d6 a0 b3 33 18 b9 0c 32 30 82 b9 b3
       -6.846482e-08 8.364593e-08 8.191158e-09 -8.638415e-08
000340 f8 4f ce 33 ce e9 ad b3 d8 c4 0c b4 11 e6 84 b3
       9.607169e-08 -8.098469e-08 -1.3110127e-07 -6.188578e-08
000350 ec c5 39 b4 4a 9c 26 34 3f 12 25 b4 6c 85 de 33
       -1.7301471e-07 1.5516812e-07 -1.537346e-07 1.036195e-07
000360 a6 df e9 33 ec 52 13 34 65 a5 a5 33 c3 54 23 b2
       1.08905894e-07 1.3720609e-07 7.713496e-08 -9.507121e-09
000370 04 f9 bf 33 23 81 a6 b4 4f b3 81 33 b0 6e 4f b3
       8.939426e-08 -3.101387e-07 6.039647e-08 -4.8296613e-08
000380 40 5a d2 32 36 7e 37 33 20 3e 08 32 2f 41 86 33
       2.4488259e-08 4.2722796e-08 7.9303675e-09 6.251718e-08
000390 f0 43 10 b2 5d 83 5a 33 b7 7a 5d b3 14 5d 2a 34
       -8.39735e-09 5.0876555e-08 -5.156718e-08 1.5866345e-07
0003a0 90 03 87 33 da fd 13 34 c5 8d 3a b4 53 a1 ae 33
       6.2870754e-08 1.3782793e-07 -1.7374175e-07 8.131851e-08
0003b0 eb 54 aa b3 52 98 45 33 94 e1 e3 b3 9c 55 78 b4
       -7.9316884e-08 4.600617e-08 -1.06115436e-07 -2.3127944e-07
0003c0 ac 8a f1 33 60 f2 f8 b3 ae 85 cf 34 ee 4d 93 b3
       1.1247661e-07 -1.1592488e-07 3.865402e-07 -6.859396e-08
0003d0 00 04 c2 b0 47 c1 82 34 b8 be 63 b2 f3 42 66 b4
       -1.4116495e-09 2.4355015e-07 -1.32565035e-08 -2.1444775e-07
0003e0 d2 bc f2 b2 e6 fa 2e 33 09 bd 3f 34 38 a9 38 b4
       -2.8258373e-08 4.0740723e-08 1.7857032e-07 -1.7197897e-07
0003f0 41 81 1f 34 6a b5 1b 33 84 88 af b3 aa 84 a2 33
       1.4855051e-07 3.6253745e-08 -8.1739046e-08 7.567844e-08

lstm.weight_hh_l0_reverse f4 [256, 64]
000000 68 f8 f8 33 88 7c 41 b4 1b 12 46 34 f3 4d 72 b4
       1.1593585e-07 -1.801983e-07 1.8446774e-07 -2.2566364e-07
000010 82 36 d1 33 82 09 2a 34 3e a8 0d 34 9d 42 ee 33
       9.742236e-08 1.5835943e-07 1.3192854e-07 1.10948555e-07
000020 9c 8f f0 32 f0 f4 3d 34 a5 04 db b3 52 c0 2b 34
       2.8004983e-08 1.7691104e-07 -1.0198827e-07 1.5995582e-07
000030 59 b8 75 34 f8 70 84 33 97 5f 28 34 44 45 e5 34
       2.2884468e-07 6.167278e-08 1.5680995e-07 4.270497e-07
000040 86 f0 38 b3 cf d2 81 b4 40 27 b0 b2 2e ec 79 33
       -4.3059593e-08 -2.4181506e-07 -2.0506945e-08 5.8189634e-08
000050 90 13 b6 b3 46 06 c4 b3 a2 4d 1e 33 50 01 e2 b2
       -8.478594e-08 -9.1281024e-08 3.685785e-08 -2.631046e-08
000060 50 25 53 33 c1 f2 d8 b4 75 35 c3 b3 d7 19 79 34
       4.91612e-08 -4.0409762e-07 -9.090119e-08 2.3199333e-07
000070 84 3d 1c b4 3c 5b 63 34 45 7e 88 33 4c f8 87 32
       -1.4551011e-07 2.1174213e-07 6.355962e-08 1.582898e-08
000080 7f 46 95 b4 01 ad d4 33 88 dd 7a 33 9d 8b 9e b4
       -2.7804705e-07 9.9034885e-08 5.8409142e-08 -2.9531375e-07
000090 00 ae 04 b4 60 ed 8b b1 3e dc f1 b3 94 63 a4 b2
       -1.2356759e-07 -4.072419e-09 -1.1262499e-07 -1.9137396e-08
0000a0 c0 4a ca 31 f4 c7 ca b3 f4 0a 73 b3 ec f3 e6 b4
       5.887472e-09 -9.442729e-08 -5.6587808e-08 -4.3018315e-07
0000b0 80 0b 86 b3 7f 32 79 b4 ad 98 57 b4 e8 d8 38 b4
       -6.241953e-08 -2.3208302e-07 -2.0078978e-07 -1.7215245e-07
0000c0 ab 5b 37 b4 91 22 14 34 62 43 4a b4 5e ed 7f b3
       -1.7076552e-07 1.379615e-07 -1.883723e-07 -5.95877e-08
0000d0 20 e5 47 b4 30 63 5e 32 76 d3 2e b4 d9 80 aa 34
       -1.8616674e-07 1.2944653e-08 -1.6281942e-07 3.1758717e-07
0000e0 c5 2c 3c b4 82 7a 92 33 c6 82 0d 34 70 21 21 b3
       -1.7525151e-07 6.820939e-08 1.3179223e-07 -3.7516145e-08
0000f0 60 bf ed b2 84 1a 2c b3 08 14 bd 32 c9 96 af b3
       -2.7677459e-08 -4.0070987e-08 2.2011605e-08 -8.1765e-08
000100 9b ab 90 b4 46 4f fb 33 6f 83 32 34 00 1a cd b1
       -2.694695e-07 1.1702518e-07 1.6625357e-07 -5.969241e-09
000110 d0 e6 10 b3 72 33 08 34 c1 a3 1a b3 04 3f 82 34
       -3.3737535e-08 1.2684703e-07 -3.6004852e-08 2.4260237e-07
000120 76 1b 2c b4 b7 cc 8d 33 82 1c 1e b3 d6 e4 bc b4
       -1.6028739e-07 6.6030616e-08 -3.681317e-08 -3.518423e-07
000130 d2 e1 79 32 78 c8 99 b3 26 34 3c b3 32 ec 3e 34
       1.4545053e-08 -7.161083e-08 -4.381959e-08 1.7781056e-07
000140 9a 3a 0b b4 c0 52 74 b1 61 cf 03 b4 00 56 17 b3
       -1.2966703e-07 -3.555371e-09 -1.227577e-07 -3.5235644e-08
000150 76 67 b0 34 52 71 c2 33 2f 75 1b 34 4b 09 6d 33
       3.2857832e-07 9.054442e-08 1.4478131e-07 5.5189314e-08
000160 00 49 3e b4 a6 cd a5 33 d9 cf 68 b4 43 47 26 33
       -1.7721686e-07 7.7208185e-08 -2.1682298e-07 3.87147e-08
000170 8e cb 8f b3 97 86 86 33 9c bf 2c 33 2e e3 85 33
       -6.695983e-08 6.264343e-08 4.022114e-08 6.234619e-08
000180 0e 04 3c b4 40 cf 33 33 d6 f4 3d b3 d0 3c 20 b4
       -1.751034e-07 4.1865178e-08 -4.422767e-08 -1.4923285e-07
000190 60 bb 33 b2 9c 9b 65 b2 6a ee 35 b4 c8 e0 81 34
       -1.04617754e-08 -1.3364936e-08 -1.6943673e-07 2.4191672e-07
0001a0 f4 ab fe b4 42 61 ab b3 96 50 42 34 0b b2 27 34
       -4.74363e-07 -7.980499e-08 1.8096975e-07 1.5617859e-07
0001b0 84 d1 03 33 04 be 94 32 88 71 ca b1 15 4d 04 34
       3.0691368e-08 1.7315877e-08 -5.8918808e-09 1.23215e-07
0001c0 ce 32 31 b4 00 5a e6 33 20 24 f9 33 86 79 1c 34
       -1.6502892e-07 1.07265805e-07 1.1601537e-07 1.4572842e-07
0001d0 6c 8d 5a 33 75 7b 00 34 42 77 9e b3 dc 96 3d 34
       5.0885703e-08 1.1965842e-07 -7.379141e-08 1.7656879e-07
0001e0 1a be c6 b4 fb e8 95 33 c0 45 38 34 50 fa 5d 31
       -3.701869e-07 6.980732e-08 1.716171e-07 3.2302019e-09
0001f0 44 a5 b8 32 15 45 0c 33 54 87 99 34 57 70 2e 33
       2.1495573e-08 3.265912e-08 2.8596935e-07 4.0614704e-08
000200 78 e8 dc b2 50 98 67 32 5e b6 a9 b3 24 b2 73 b3
       -2.5717085e-08 1.34806015e-08 -7.902848e-08 -5.6739864e-08
000210 32 df 74 b3 02 cb e2 b3 78 24 f0 b3 58 37 71 b3
       -5.7013672e-08 -1.0560872e-07 -1.11825045e-07 -5.616252e-08
000220 00 09 32 b1 71 4c 1c b4 58 7f df b2 30 e8 95 33
       -2.5907525e-09 -1.4556441e-07 -2.6018526e-08 6.980588e-08
000230 53 f2 41 34 38 4f 21 b2 ac f9 1d 34 ea 6a c7 b3
       1.8062683e-07 -9.389446e-09 1.4712595e-07 -9.286107e-08
000240 92 2b 34 b4 d4 93 e4 b3 d5 ef 22 b3 a0 37 b5 b0
       -1.6779657e-07 -1.0643967e-07 -3.793669e-08 -1.3185293e-09
000250 12 f4 07 34 42 6c eb b4 14 15 02 33 ca 3a ea 33
       1.2661647e-07 -4.385093e-07 3.0287154e-08 1.0907168e-07
000260 c4 0d 6a b3 ee bd 8e b3 80 4a c7 32 03 d4 06 34
       -5.449489e-08 -6.646938e-08 2.3200528e-08 1.2556852e-07
000270 a7 53 7a 34 88 29 90 b2 c4 eb b1 32 76 76 21 b2
       2.3313497e-07 -1.6782693e-08 2.0712726e-08 -9.398368e-09
000280 fa 81 e4 b3 87 ad 33 b4 9a 9d ae b4 00 2a 04 b0
       -1.064072e-07 -1.6733803e-07 -3.2524696e-07 -4.8081006e-10
000290 d1 8b 26 b4 a4 f4 f7 b3 fd e7 55 34 84 48 75 33
       -1.551082e-07 -1.1546334e-07 1.9921568e-07 5.710946e-08
0002a0 ce eb 11 34 3a 88 41 34 00 f5 88 2f 21 b4 04 33
       1.3589963e-07 1.8024085e-07 2.491234e-10 3.089747e-08
0002b0 52 ec fe b3 7e 34 92 b4 e4 83 09 34 5e fe 4b 33
       -1.1870783e-07 -2.7232812e-07 1.2807101e-07 4.7495966e-08
0002c0 0c 48 a3 b2 b5 33 54 34 2e 01 c6 33 4c d1 db 33
       -1.900846e-08 1.976285e-07 9.220308e-08 1.0236053e-07
0002d0 c4 c7 ef 32 f2 7a 6b b4 04 c2 a1 33 00 5a 31 b1
       2.7914105e-08 -2.1930808e-07 7.532438e-08 -2.580805e-09
0002e0 eb 5f 02 34 e6 70 9f b2 5c bb e6 33 da 0b e0 b3
       1.2142088e-07 -1.8561376e-08 1.074429e-07 -1.04329686e-07
0002f0 a4 c5 73 33 9e 6e b1 33 cc 64 1e b4 e3 88 b6 33
       5.67576e-08 8.262326e-08 -1.4751566e-07 8.499935e-08
000300 0e 6d c5 b3 e6 f2 2f b4 dc 0c d8 33 30 f8 d7 31
       -9.193364e-08 -1.6386511e-07 1.0060623e-07 6.285539e-09
000310 dc 2c cd 33 d4 17 12 33 22 5c 2d 33 2a 92 63 34
       9.554216e-08 3.4014946e-08 4.0363496e-08 2.1194197e-07
000320 bf 93 14 b4 22 0c 93 33 a8 78 25 33 b1 85 5f 33
       -1.3837324e-07 6.847428e-08 3.8526792e-08 5.2042825e-08
000330 f0 b0 28 32 52 10 7f 34 93 9c 28 b4 b0 c2 20 b3
       9.819118e-09 2.3754663e-07 -1.570318e-07 -3.742997e-08
000340 1e be 43 34 a2 3c a5 b3 1e 29 41 34 ac 0d 87 b3
       1.8229954e-07 -7.69444e-08 1.7989484e-07 -6.288914e-08
000350 d4 0e be 33 26 ec 83 33 00 bd dd b3 88 7f 31 b3
       8.850262e-08 6.143118e-08 -1.0325493e-07 -4.1327013e-08
000360 02 2f cd b3 ee 8b 94 33 8b 16 13 34 dd 24 90 34
       -9.554607e-08 6.91724e-08 1.3698643e-07 2.6848912e-07
000370 ec 3d 85 33 e8 02 de 32 03 d7 1f b4 1a 43 06 b4
       6.2045586e-08 2.5845523e-08 -1.488625e-07 -1.2504134e-07
000380 8b e4 bd 32 30 65 0a 31 bc f4 d0 b3 79 c5 09 33
       2.2106425e-08 2.0139161e-09 -9.730272e-08 3.20774e-08
000390 bf 7a 92 b4 2d 41 00 b2 56 c0 20 b2 62 3e 0d b3
       -2.728393e-07 -7.4654e-09 -9.356958e-09 -3.2885858e-08
0003a0 8e d2 aa 33 b0 c0 d6 33 c2 c0 85 b3 ae 3a 25 34
       7.9545416e-08 1.0000201e-07 -6.2283576e-08 1.538817e-07
0003b0 16 6a bb b3 6c 7b e3 b4 3a 03 06 b3 66 78 b1 33
       -8.727163e-08 -4.2371846e-07 -3.120224e-08 8.264105e-08
0003c0 5a db c4 b3 5c a8 ac b4 95 fc 03 b4 42 6f 14 b4
       -9.166861e-08 -3.2159994e-07 -1.2292215e-07 -1.382405e-07
0003d0 83 71 8d b4 08 84 b9 32 63 dd b0 33 9f ee 7f b4
       -2.6345887e-07 2.1596875e-08 8.235909e-08 -2.3835536e-07
0003e0 2c 42 93 31 0d 1d 05 b3 2c fd 4f b3 de 1e 3c 34
       4.285786e-09 -3.0992897e-08 -4.84262e-08 1.7520094e-07
0003f0 63 59 45 b4 72 15 92 b4 e0 47 6a b2 6c b7 19 34
       -1.8379573e-07 -2.7210223e-07 -1.3636935e-08 1.4315964e-07
