model_0_best.pth (torch, 178548 bytes, 33 tensors)

lstm.weight_ih_l0 f4 [128, 19]
00000000: b8b9 8db7 7fa8 0bb8 fc53 63b8 8665 9a38
00000010: dc67 5138 c547 0a39 3ce8 0b37 92e5 1eb8
00000020: f27e a0b8 aaa3 ec38 6640 7638 9862 9db7
00000030: 3aa8 0039 40ec 5d37 d001 e938 7477 71b8
00000040: 3930 4939 3ea8 0138 e823 1cb8 a8c8 5ab7
00000050: 98c2 8eb7 cec1 4db7 5548 dc38 eaf2 50b8
00000060: 2c66 94b8 ac90 0338 cc08 b738 df5d 34b8
00000070: 2a5c 9d38 3c48 25b7 3255 c138 aeaf b3b7
00000080: 00a9 dcb4 aab9 19b7 5091 c8b5 4237 46b8
00000090: dace 03b8 7258 fdb7 83c2 eb38 11e4 1838
000000a0: 2e5b 95b8 6ad9 f0b8 d1b5 b9b8 e284 2638
000000b0: 390f bdb8 4d04 48b6 4cd5 ebb7 01b8 46b6
000000c0: 9238 8538 24e7 72b7 e236 5bb8 ae83 98b8
000000d0: c81c e0b7 cce3 9d37 b9b3 cbb8 fb1e 20b9
000000e0: a20e 8938 5824 5cb8 e0ec b6b6 6059 96b6
000000f0: 3bad 18b8 fca4 4bb7 844f 74b9 14cf 98b6
00000100: c4f1 4cb7 2b17 0ab9 5344 6e39 143f 47b6
00000110: c070 a3b6 28a2 8fb7 8223 feb7 dfc6 b038
00000120: 9afc 1d38 e3ee e538 5032 ac36 b556 9138
00000130: 2f9e 5f38 9acc 8d37 8b6f bfb8 fc06 20b8
00000140: 5835 7938 e6bb 3638 9c73 64b7 04c9 fab7
00000150: d950 26b8 17d6 2f38 70cd 3bb8 1a6e b7b8
00000160: df2f 57b8 ef46 7738 4d4e 43b9 1b54 4ab8
00000170: d715 0438 09b0 6c38 7420 1e38 c7a4 1f38
00000180: 7bbb a2b8 5f7d e0b8 9865 2537 a441 5037
00000190: dc6a 43b9 102d ce36 10f0 cc35 8084 32b5
000001a0: 4e01 b7b7 08f6 f0b7 9a3e 5cb8 ec64 07b7
000001b0: f831 ab38 0275 7638 26e8 3838 d00c 9fb6
000001c0: 14d1 12b8 0002 d234 5f78 7539 40a5 dc35
000001d0: 99df 9837 347d a3b7 8c07 3239 dbe7 0138
000001e0: bf2d ebb8 a450 3538 37f9 12b8 bdbf f7b7
000001f0: 4e75 7538 5208 09b8 3429 47b8 2fcf 9738
00000200: f062 4937 10b4 0636 7804 29b8 6285 60b7
00000210: 506c 3136 387a 9a36 341f 20b8 34d5 ea38
00000220: b603 f9b8 b29d 1cb8 284e e037 8026 f6b8
00000230: 3bba 9fb7 009d eb35 9868 d137 7ca6 4eb8
00000240: 548b 5bb8 2eb0 2fb8 1d03 0139 e1b7 4438
00000250: d124 0ab9 3f21 5438 547c b3b8 3fdc 5cb8
00000260: 9657 09b8 d8ec 1ab8 e15f d437 e080 29b7
00000270: 505e 42b8 4cce 72b9 7fb0 3939 f00e 5538
00000280: 119e e2b8 b008 0036 90cf 6eb7 e05a 0d39
00000290: 8ab7 b938 f256 2cb8 c416 0238 948d 4cb7
000002a0: 58f2 e5b8 6ebe a4b7 0b7c ab37 7a59 26b8
000002b0: 5fc3 5ab8 6d04 0eb9 387f 1bb7 ef22 9ab8
000002c0: 5906 08b9 b430 11b9 9f6e 84b6 cac1 4d39
000002d0: a308 1eb8 2000 b5b7 4202 6039 b4dd 28b7
000002e0: 9780 9438 b602 cd38 f855 02b7 9ca2 a7b6
000002f0: dbec 1b38 3814 2738 0ab4 ab38 4af1 a3b6
00000300: 78a8 6437 5068 9236 da07 e338 b192 2bb8
00000310: c6b3 18b7 9a97 6fb8 1244 b238 5ec3 abb8
00000320: 61ed a838 a560 8338 e74d 2bb8 e251 2f39
00000330: 24d8 1fb8 afe6 cc38 30f3 c0b8 c6f6 9138
00000340: 707a 7e37 ff85 deb8 06d6 b937 cca3 a5b7
00000350: 7d85 58b8 ad94 3838 81fe 1db8 ee19 3ab9
00000360: 2a6a 54b8 5696 8e38 1c27 0237 0890 3ab9
00000370: 4a46 c9b8 7825 bd38 f579 f7b7 287b 0039
00000380: 5c84 ce37 2850 8736 3dfa e137 69c8 8738
00000390: 08b3 6238 d030 2d38 8e7c 2236 f89d bdb8
000003a0: 9c39 feb7 6807 5537 0c7a e038 a6b8 3438
000003b0: e00f ed38 78f1 3138 78c0 2237 2005 48b8
000003c0: 8cad dd38 bce4 4738 4c7d 76b8 b798 2938
000003d0: 25c5 73b8 8858 e238 8039 2f38 b9a0 01b8
000003e0: 50d9 ef36 1a79 bdb8 1edc ac37 b901 2638
000003f0: 976e efb7 4803 8fb6 fff7 bd38 6773 fd37
-1.6894992e-05 -3.3297107e-05 -5.4199234e-05 7.3622025e-05 4.992621e-05 0.00013187442 8.339117e-06 -3.788394e-05
-7.65304e-05 0.00011283842 5.8710946e-05 -1.876177e-05 0.000122697 1.3227633e-05 0.000111106434 -5.7570127e-05
0.00019186818 3.0912684e-05 -3.722674e-05 -1.30405315e-05 -1.7018334e-05 -1.2264076e-05 0.000105038904 -4.9817296e-05
-7.076221e-05 3.136757e-05 8.7277585e-05 -4.300277e-05 7.50351e-05 -9.851585e-06 9.218826e-05 -2.142027e-05
-4.1101157e-07 -9.162739e-06 -1.4943453e-06 -4.725834e-05 -3.142548e-05 -3.0201136e-05 0.00011241904 3.6452027e-05
-7.121857e-05 -0.00011484588 -8.8553534e-05 3.970124e-05 -9.015058e-05 -2.9804826e-06 -2.8113507e-05 -2.9611404e-06
6.352471e-05 -1.4478141e-05 -5.2264782e-05 -7.272452e-05 -2.6716283e-05 1.8821935e-05 -9.71327e-05 -0.0001527033
6.535395e-05 -5.2485935e-05 -5.4515986e-06 -4.480753e-06 -3.6400957e-05 -1.2138156e-05 -0.00023299275 -4.55406e-06
-1.2215638e-05 -0.00013169336 0.00022722901 -2.9690027e-06 -4.8709044e-06 -1.7122438e-05 -3.0295694e-05 8.4293766e-05
3.766697e-05 0.00010964067 5.1318566e-06 6.930289e-05 5.3314663e-05 1.6903785e-05 -9.128366e-05 -3.8153477e-05
5.9415906e-05 4.3567175e-05 -1.3616776e-05 -2.9895928e-05 -3.965278e-05 4.1922638e-05 -4.4775603e-05 -8.746628e-05
-5.1304578e-05 5.895545e-05 -0.00018625818 -4.8238882e-05 3.1491592e-05 5.643073e-05 3.770036e-05 3.8062015e-05
-7.759683e-05 -0.000107045045 9.8584205e-06 1.2413049e-05 -0.00018636457 6.1445244e-06 1.5269052e-06 -6.650298e-07
-2.1815908e-05 -2.8724797e-05 -5.251039e-05 -8.070125e-06 8.163223e-05 5.8759942e-05 4.4085224e-05 -4.740061e-06
-3.500383e-05 3.9117003e-07 0.00023409862 1.6439371e-06 1.8223933e-05 -1.9489416e-05 0.00016978214 3.097193e-05
-0.00011214194 4.3228865e-05 -3.5041212e-05 -2.953398e-05 5.85218e-05 -3.2671094e-05 -4.748367e-05 7.238832e-05
1.2003569e-05 2.0072366e-06 -4.02969e-05 -1.3382496e-05 2.6438101e-06 4.603786e-06 -3.8176033e-05 0.00011197702
-0.000118739365 -3.7340164e-05 2.6739275e-05 -0.00011737365 -1.9040997e-05 1.7554557e-06 2.4963447e-05 -4.9269278e-05
-5.234343e-05 -4.188733e-05 0.00012303558 4.6901292e-05 -0.00013174421 5.05757e-05 -8.558543e-05 -5.2657208e-05
-3.2744916e-05 -3.693704e-05 2.5317016e-05 -1.0103191e-05 -4.634104e-05 -0.0002315577 0.00017708725 5.079707e-05
-0.00010805962 1.9078543e-06 -1.4234232e-05 0.00013480661 8.855674e-05 -4.108897e-05 3.1015617e-05 -1.2192311e-05
-0.00010964711 -1.9639e-05 2.044255e-05 -3.9660816e-05 -5.2157204e-05 -0.00013543824 -9.26834e-06 -7.349799e-05
-0.00012972335 -0.00013846421 -3.9467845e-06 0.00019622516 -3.767818e-05 -2.157694e-05 0.00021363146 -1.00652e-05
7.081142e-05 9.775667e-05 -7.76862e-06 -4.995918e-06 3.717547e-05 3.9834733e-05 8.18745e-05 -4.8858683e-06
1.3629084e-05 4.3632826e-06 0.00010825666 -4.0906194e-05 -9.101763e-06 -5.712323e-05 8.5003805e-05 -8.1903054e-05
8.0550795e-05 6.264568e-05 -4.084213e-05 0.00016719804 -3.810985e-05 9.770446e-05 -9.200571e-05 6.960104e-05
1.5168087e-05 -0.000106107436 2.2153381e-05 -1.9745807e-05 -5.1622734e-05 4.4007484e-05 -3.7668742e-05 -0.00017748002
-5.064361e-05 6.79909e-05 7.75771e-06 -0.00017791998 -9.597519e-05 9.0192014e-05 -2.9501485e-05 0.0001225291
2.4618748e-05 4.032645e-06 2.6938616e-05 6.474631e-05 5.4049335e-05 4.1291874e-05 2.4212382e-06 -9.041646e-05
-3.0305986e-05 1.2697514e-05 0.00010703885 4.308731e-05 0.000113039976 4.2424974e-05 9.700765e-06 -4.768849e-05
0.00010570427 4.7658323e-05 -5.8767662e-05 4.0434967e-05 -5.811932e-05 0.0001079301 4.1776802e-05 -3.090568e-05
7.1480536e-06 -9.034779e-05 2.0606498e-05 3.957909e-05 -2.8542518e-05 -4.262114e-06 9.058415e-05 3.0213689e-05

lstm.weight_hh_l0 f4 [128, 32]
00000000: c055 fdb5 16c4 1db8 2efa b937 cf99 0238
00000010: fdb8 5e38 50dd 08b7 1262 2739 5434 9738
00000020: e497 e2b7 b08b 8c37 4aaa 7ab8 6235 55b8
00000030: 5ac3 9ab8 f0a2 12b8 7254 5238 9cbb feb7
00000040: 550f a838 86bf ce38 0626 dfb8 03b1 ed38
00000050: 30fd 8ab8 e089 a738 a0fc fe37 7aab dfb7
00000060: 19dc 03b9 7ca8 5e36 bcc1 a637 68b0 8437
00000070: 36ed 9ab8 0036 2bb5 3e5e 0e39 8807 19b8
00000080: 7cb7 99b7 1a66 87b8 72ef 97b8 e801 b8b8
00000090: 0c09 a0b8 0a12 86b8 67a8 34b8 de3c e338
000000a0: b0d4 bd37 41c6 1038 2804 0139 ba8c 0a36
000000b0: 7747 13b8 0ccf 0e38 dc49 9f37 30a6 24b7
000000c0: 00fe 4537 a44b 77b8 60b9 e837 53e8 9738
000000d0: c071 8337 8418 0e38 985d a6b6 5add 9438
000000e0: c605 68b8 9187 1f38 518e 78b8 fbb2 bd38
000000f0: ca55 1cb8 dcc7 51b7 602f 35b7 6fb3 ba37
00000100: fc35 7837 e8a0 1038 dafe 8db8 fcd1 5cb8
00000110: 48bb 9636 ded0 6638 0802 b5b6 8272 5838
00000120: 629e adb8 2f61 7738 681b 9a38 a0a8 a6b8
00000130: 003f 0438 50f4 41b7 70a9 7437 6877 8738
00000140: 089d f2b7 86dc 2e38 b43e 56b7 c46c 8337
00000150: ea15 8e38 c88f bc36 bc7b 4037 7c33 d536
00000160: 8032 fe37 2db5 1937 60fd 2cb8 44d6 97b8
00000170: 0028 8f33 382a bdb6 ce84 bd38 4e96 a9b8
00000180: 1cbf 8fb8 4f56 edb8 12d1 6d38 728e ff38
00000190: 2dc2 e9b7 98a1 9338 5d73 ed38 015b 2fb9
000001a0: 8028 b7b8 2deb f837 c662 7638 baa0 46b9
000001b0: faa8 e537 f6bd 46b9 cf08 1bb8 49d9 39b8
000001c0: b2a6 1fb8 7efe b638 2e30 8d38 f29f f6b8
000001d0: a52b ebb7 a098 8537 2845 6539 581e 0439
000001e0: bae7 2938 05a3 bbb8 3021 9d37 ef3f df38
000001f0: c8ac c737 7009 0bb7 5a76 7538 7e52 9838
00000200: f0a5 d0b7 0caf dc37 84ca 56b8 aa00 6139
00000210: 1828 b5b7 827a 95b7 a2a9 76b8 2fd2 0238
00000220: 40b7 bcb5 4c57 6ab7 885e 6937 e8aa 6537
00000230: f120 cdb8 c05b 5837 93c6 1fb8 6022 a236
00000240: 2ead 8538 0473 b238 24d1 7737 028c 7038
00000250: 503e f638 0004 2537 452c edb7 15e9 9e38
00000260: a0e6 a736 351f 94b8 b804 0c36 8f35 02b8
00000270: 80b7 b436 2a60 00b9 6258 34b8 479a 41b8
00000280: 7c59 e0b8 60dd 08b5 38a4 5c38 c0d7 c6b7
00000290: c138 7539 6a8f 2a38 f46c 0eb9 0ed6 9538
000002a0: 30d4 0db6 9f4e 5e38 ff89 bd38 5cbb 9eb7
000002b0: 6064 a836 40a1 a234 c6bd 6339 483d 5db8
000002c0: e4a3 8c36 c261 eeb6 90f3 c6b5 6cc7 8eb8
000002d0: 0b50 1939 51e5 15b8 9026 c336 c52d d437
000002e0: 5870 5338 9c52 9b38 7622 f638 ba25 2b38
000002f0: 509b 21b8 203f 3b39 e6b6 85b8 8241 f4b8
00000300: 685b b8b7 26e8 00b8 cc50 e038 4610 7738
00000310: f0ed 0d36 20a1 ad34 3cd5 b0b7 acfa 26b7
00000320: b254 de38 b528 4939 6a22 3638 94d0 64b7
00000330: d8b1 ddb8 7c86 6ab8 5832 5438 2534 00b9
00000340: e3b0 f7b8 1289 8138 8425 e0b6 047b 0537
00000350: d3d9 2638 c5ee e438 ae38 b038 7ed1 8bb8
00000360: 546b fb37 80c8 98b8 e670 03b8 890c 4338
00000370: 18c8 e438 2bff 89b8 e012 aa38 8abc 9ab8
00000380: 80ac 1db5 8832 1637 98ba fa37 1fff 8438
00000390: 902e a5b7 8c65 feb7 80ac ba36 5841 8cb7
000003a0: ecee 8d37 5080 1238 ac1d 58b8 c87e 2ab8
000003b0: 58dc 29b8 7d5b 9238 c70e e437 1f75 4db8
000003c0: 98a3 a8b8 2a3f 2c38 008c e8b7 001b 4635
000003d0: b023 0eb6 1a4c aeb7 0e1c 96b8 f0a7 07b7
000003e0: f8c7 9238 4db5 ae38 24ac d337 cccc 95b8
000003f0: f067 9ab6 5cf9 fdb8 1e64 3ab9 bc44 b237
-1.8874925e-06 -3.7614336e-05 2.2170218e-05 3.113766e-05 5.310121e-05 -8.15776e-06 0.00015962895 7.209988e-05
-2.7012029e-05 1.6754348e-05 -5.976324e-05 -5.0832874e-05 -7.379679e-05 -3.496086e-05 5.0146547e-05 -3.0366522e-05
8.01372e-05 9.8585195e-05 -0.00010640551 0.00011334012 -6.6275126e-05 7.988862e-05 3.0396797e-05 -2.6663522e-05
-0.00012575126 3.3178649e-06 1.9878957e-05 1.5817772e-05 -7.387476e-05 -6.3781044e-07 0.00013577283 -3.6485057e-05
-1.8324463e-05 -6.4563195e-05 -7.244841e-05 -8.774159e-05 -7.63108e-05 -6.392978e-05 -4.307218e-05 0.00010835541
2.2629596e-05 3.4516914e-05 0.00012303947 2.0645516e-06 -3.5114088e-05 3.4048266e-05 1.898867e-05 -9.813855e-06
1.1801254e-05 -5.8959835e-05 2.7742877e-05 7.243515e-05 1.5669386e-05 3.387827e-05 -4.9580813e-06 7.09842e-05
-5.5318487e-05 3.803481e-05 -5.926035e-05 9.04556e-05 -3.7273196e-05 -1.2503904e-05 -1.0799471e-05 2.2256483e-05
1.4794521e-05 3.448213e-05 -6.770874e-05 -5.264765e-05 4.4921508e-06 5.5030796e-05 -5.394457e-06 5.1605057e-05
-8.278784e-05 5.89799e-05 7.348397e-05 -7.946906e-05 3.1529926e-05 -1.156058e-05 1.4582984e-05 6.459543e-05
-2.8921771e-05 4.169021e-05 -1.2769993e-05 1.5667065e-05 6.7751695e-05 5.619575e-06 1.1472901e-05 6.3538882e-06
3.0302675e-05 9.161694e-06 -4.124397e-05 -7.240151e-05 6.6662324e-08 -5.637554e-06 9.036959e-05 -8.0865444e-05
-6.854368e-05 -0.00011317117 5.6699915e-05 0.0001218588 -2.7866185e-05 7.0396054e-05 0.00011322529 -0.00016723202
-8.733664e-05 2.9673416e-05 5.874296e-05 -0.00018942627 2.7377613e-05 -0.00018953517 -3.6963083e-05 -4.43098e-05
-3.80638e-05 8.725839e-05 6.732378e-05 -0.00011759986 -2.8034507e-05 1.5925907e-05 0.00021864905 0.00012599805
4.0508552e-05 -8.9472196e-05 1.8731313e-05 0.00010645377 2.3803106e-05 -8.287243e-06 5.8522775e-05 7.26329e-05
-2.4872803e-05 2.6307556e-05 -5.1210183e-05 0.0002145792 -2.1595552e-05 -1.7819231e-05 -5.8808953e-05 3.1190164e-05
-1.4060424e-06 -1.3967812e-05 1.3909892e-05 1.3689256e-05 -9.7812976e-05 1.28959655e-05 -3.809349e-05 4.831978e-06
6.3741914e-05 8.509125e-05 1.4771042e-05 5.735085e-05 0.00011741801 9.835698e-06 -2.8273216e-05 7.577442e-05
5.003836e-06 -7.063003e-05 2.0864372e-06 -3.1044296e-05 5.3857802e-06 -0.00012242855 -4.2997657e-05 -4.6158468e-05
-0.0001069782 -5.098609e-07 5.2605028e-05 -2.3703906e-05 0.00023386163 4.0664723e-05 -0.00013582763 7.1447444e-05
-2.1134147e-06 5.3002146e-05 9.037926e-05 -1.8922314e-05 5.0184753e-06 3.0292176e-07 0.00021719103 -5.274758e-05
4.1914045e-06 -7.1043332e-06 -1.4823036e-06 -6.808233e-05 0.00014621035 -3.5737936e-05 5.815942e-06 2.5293682e-05
5.041095e-05 7.406363e-05 0.00011736613 4.0804713e-05 -3.8530037e-05 0.00017857226 -6.376002e-05 -0.000116470284
-2.1977074e-05 -3.0733783e-05 0.00010696202 5.8904545e-05 2.1149135e-06 3.2340995e-07 -2.108013e-05 -9.952735e-06
0.00010601561 0.00019184018 4.3424232e-05 -1.3638422e-05 -0.00010571227 -5.5915196e-05 5.0591625e-05 -0.00012226457
-0.000118108255 6.176731e-05 -6.6800876e-06 7.95606e-06 3.978035e-05 0.000109163615 8.4028914e-05 -6.6670575e-05
2.997151e-05 -7.285271e-05 -3.133798e-05 4.6503297e-05 0.000109091576 -6.580198e-05 8.1097474e-05 -7.3784104e-05
-5.873808e-07 8.952462e-06 2.9889212e-05 6.3417705e-05 -1.9691215e-05 -3.0326446e-05 5.5633136e-06 -1.6719729e-05
1.6919766e-05 3.4928613e-05 -5.1526047e-05 -4.0649233e-05 -4.049795e-05 6.9788635e-05 2.71866e-05 -4.8984886e-05
-8.041336e-05 4.106682e-05 -2.7721748e-05 7.380004e-07 -2.1180422e-06 -2.0777854e-05 -7.157783e-05 -8.085728e-06
6.9990696e-05 8.3307365e-05 2.523332e-05 -7.14302e-05 -4.6016576e-06 -0.00012110427 -0.00017775639 2.125126e-05

lstm.bias_ih_l0 f4 [128]
00000000: 1518 0c39 80e7 fd37 a2c0 0c38 4201 aa38
00000010: 4896 25b7 901a aeb6 0a61 94b8 7a40 60b9
00000020: 1429 50b7 c213 bbb8 dbb1 cf38 52d2 1db8
00000030: fd3f 0639 ea26 22b8 ffe8 2ab9 a679 dd38
00000040: 803f ad36 1edc 0d39 ce71 3438 7e83 03b8
00000050: 4791 0937 bf0a 1e37 edaa 7638 ecd4 7336
00000060: fa6f ccb7 6020 1935 9062 fbb7 83c5 2338
00000070: 045f 0039 160c cdb8 a45c af38 16c0 5d38
00000080: ccd2 0db9 60d7 6ab7 68e5 de36 0c5a a038
00000090: cb83 01b8 b021 01b8 b2c4 0ab9 a8db 0bb7
000000a0: b96f 0338 b0eb 0db8 00a2 e038 90f2 20b7
000000b0: e4b1 48b8 3e50 2a38 7195 b937 80e9 2835
000000c0: d9e7 ec37 2861 b7b8 68f1 65b7 50a4 8736
000000d0: 3655 2739 807e cb35 62b1 94b8 e469 d0b7
000000e0: 333f 0e38 3295 adb7 ea2d 82b8 1dc4 27b8
000000f0: bc19 ceb8 3639 3b38 90d1 a1b6 8b48 2b38
00000100: 8802 feb7 1821 ad37 fab9 3d39 9ad0 0239
00000110: af22 14b8 cafb e3b7 d8f4 d438 ca3f aab7
00000120: 5483 f837 b8e3 4639 60ef ce37 7ae6 2c38
00000130: 7664 a137 d8d6 8536 8582 e9b8 fcd7 8b38
00000140: 72ee 6838 e8e7 d7b8 1522 08b9 58aa 86b6
00000150: d606 9cb8 2008 5e36 204e ce34 ec45 a3b8
00000160: f045 d837 33ab c738 0c7d a437 48fe 0239
00000170: ef6d 2638 3da4 5139 28f5 7937 52af 0938
00000180: 8460 96b7 9aca df38 78cf b8b8 38f1 7e37
00000190: c8bc 5fb7 2ac4 a437 a274 dd37 905b 23b7
000001a0: 705b d1b6 8cce 2a38 10aa 84b6 24af c138
000001b0: 60f0 6cb5 a2f8 03b8 c834 25b7 c8ee bc38
000001c0: 3a00 84b7 cf2e 2fb8 9156 e0b8 292e aab8
000001d0: 5011 f537 3bc5 55b8 c77f 7038 2fa6 0039
000001e0: 6049 bcb8 9ac4 2ab9 3ad4 0d36 fa24 8e38
000001f0: c862 f8b7 9f38 89b7 dcd6 64b8 8c03 13b8
0.00013360412 3.026775e-05 3.3558004e-05 8.106466e-05 -9.8697565e-06 -5.1886964e-06 -7.075265e-05 -0.00021386324
-1.240733e-05 -8.920535e-05 9.903657e-05 -3.7627593e-05 0.00012803073 -3.866005e-05 -0.00016299261 0.0001056076
5.163194e-06 0.00013528808 4.3021333e-05 -3.1355296e-05 8.199661e-06 9.420036e-06 5.8810157e-05 3.6333759e-06
-2.4370838e-05 5.7044053e-07 -2.9967428e-05 3.9046176e-05 0.00012242427 -9.777413e-05 8.361906e-05 5.28694e-05
-0.00013525336 -1.3997633e-05 6.642822e-06 7.646167e-05 -3.087874e-05 -3.078737e-05 -0.0001323398 -8.336188e-06
3.1336884e-05 -3.383652e-05 0.00010711327 -9.593219e-06 -4.784939e-05 4.060589e-05 2.2123308e-05 6.2924664e-07
2.8241355e-05 -8.744217e-05 -1.370567e-05 4.042442e-06 0.00015958105 1.5161495e-06 -7.09023e-05 -2.4844841e-05
3.3914297e-05 -2.0692682e-05 -6.207435e-05 -3.9998547e-05 -9.827639e-05 4.4637556e-05 -4.82257e-06 4.0837138e-05
-3.0280338e-05 2.0638618e-05 0.00018093726 0.00012475476 -3.531825e-05 -2.7177757e-05 0.000101545535 -2.0295283e-05
2.9625058e-05 0.00018967583 2.4668581e-05 4.1222644e-05 1.9239476e-05 3.98872e-06 -0.00011134617 6.668267e-05
5.553518e-05 -0.00010295195 -0.00012982667 -4.013342e-06 -7.439933e-05 3.3085307e-06 3.8427333e-07 -7.78547e-05
2.5781774e-05 9.520948e-05 1.9608553e-05 0.00012492493 3.9679868e-05 0.00019992977 1.4898636e-05 3.2826625e-05
-1.7926337e-05 0.00010671206 -8.812448e-05 1.5195743e-05 -1.333579e-05 1.964167e-05 2.6399564e-05 -9.736876e-06
-6.23933e-06 4.072352e-05 -3.9537044e-06 9.23558e-05 -8.826664e-07 -3.146439e-05 -9.8470555e-06 9.009015e-05
-1.5735732e-05 -4.1766845e-05 -0.000106972766 -8.11483e-05 2.9214338e-05 -5.0966843e-05 5.733946e-05 0.0001226894
-8.978206e-05 -0.00016285703 2.113417e-06 6.777975e-05 -2.9609902e-05 -1.6358039e-05 -5.455954e-05 -3.5050834e-05

lstm.bias_hh_l0 f4 [128]
00000000: b849 b1b7 b928 1638 6c29 cb38 42d6 f0b7
00000010: 3077 23b6 d634 40b7 213a 8238 c520 1c38
00000020: 6192 94b8 9e2e 2238 a899 fa37 e061 9bb5
00000030: f87d 7539 1d22 ed38 1d49 bdb8 3286 cd38
00000040: ac61 7438 c41e 95b8 4a2c 8038 a0ab e038
00000050: aabc 18b8 1471 0e38 2a5d 8738 5c5e c6b8
00000060: 0019 9ab4 4837 5db8 95ac 8a38 481e 35b7
00000070: 47cc d3b6 e12b 8538 0406 a738 9011 5536
00000080: 5b68 0f38 d041 3fb8 0a8d fd37 409f 5d37
00000090: 48ef 9b38 c650 b038 b052 3db7 2b11 bd38
000000a0: b07a 8ab8 6c60 0eb9 68ae 93b6 2cc7 d337
000000b0: e7ce 9438 ff26 4ab7 e83b ca36 30ec bab8
000000c0: b150 9838 5800 3b39 596c ae37 fc72 a7b7
000000d0: 7c6a 2bb8 769d f236 9047 ebb5 8077 0bb9
000000e0: 2815 6eb7 935b 01b8 dc19 9937 22b7 d7b8
000000f0: 4920 0fb6 00af ecb6 a810 10b8 62c5 56b8
00000100: 6e98 50b8 2b8e a838 6af9 9937 21f3 3638
00000110: c0ef 1835 6d2c 08b9 54bf 0fb8 c5e5 9038
00000120: bf81 d538 b72b 5d38 583b 60b8 6069 9ab6
00000130: 00c8 73b8 625e dc37 b260 c437 792d 6db8
00000140: f8c9 3137 2753 87b8 b228 4a38 1e73 f6b7
00000150: 6d38 a4b8 e846 d238 6061 68b6 41ed 1738
00000160: 7d2f 5fb8 805c 7c35 008f 4737 db77 3739
00000170: ff2a 3bb8 0a17 d4b8 0285 6439 6887 19b8
00000180: 7e33 54b8 4f42 2638 d69e 90b8 c26b c237
00000190: c05d 3fb7 9c86 8638 2ad1 7838 6aca 51b8
000001a0: 5826 6537 ba21 bfb7 98f3 5b39 602c 5437
000001b0: 00b4 0936 087a 2b38 24fe b038 c49b 7438
000001c0: e4c3 66b8 7c8a 5bb7 58c9 bfb7 e573 ffb8
000001d0: c463 ad38 3ffc 7238 8aaa dbb7 d7bd 23b8
000001e0: 6272 9a38 00f6 3938 f607 5db8 2e09 cdb8
000001f0: e044 5037 cb8b d736 ccae a3b7 4462 d5b7
-2.1134372e-05 3.5800713e-05 9.68751e-05 -2.8710001e-05 -2.435827e-06 -1.1456394e-05 6.2097104e-05 3.7223817e-05
-7.084455e-05 3.8667225e-05 2.9873874e-05 -1.1576885e-06 0.00023411948 0.00011307395 -9.025841e-05 9.8001576e-05
5.8265097e-05 -7.110604e-05 6.111765e-05 0.0001071312 -3.641533e-05 3.396075e-05 6.454655e-05 -9.4589515e-05
-2.8702925e-07 -5.274199e-05 6.612499e-05 -1.0795491e-05 -6.312071e-06 6.350107e-05 7.964301e-05 3.1749696e-06
3.4191045e-05 -4.559924e-05 3.0225627e-05 1.3209705e-05 7.4355456e-05 8.407379e-05 -1.128453e-05 9.01542e-05
-6.603205e-05 -0.00013578095 -4.401245e-06 2.5245907e-05 7.0957285e-05 -1.2049218e-05 6.027043e-06 -8.9131645e-05
7.262955e-05 0.00017833838 2.079287e-05 -1.9961495e-05 -4.086875e-05 7.230493e-06 -1.7529692e-06 -0.0001330059
-1.4190831e-05 -3.0841282e-05 1.8251063e-05 -0.0001028611 -2.1327453e-06 -7.0537208e-06 -3.4347788e-05 -5.1205403e-05
-4.9733026e-05 8.037345e-05 1.8355164e-05 4.3618613e-05 5.6973295e-07 -0.0001298652 -3.4272045e-05 6.909253e-05
0.000101807986 5.273122e-05 -5.346103e-05 -4.601825e-06 -5.812198e-05 2.6269994e-05 2.3410048e-05 -5.6547553e-05
1.0597047e-05 -6.45279e-05 4.8198453e-05 -2.937909e-05 -7.8306395e-05 0.00010026788 -3.4627374e-06 3.6222165e-05
-5.321157e-05 9.401192e-07 1.1894619e-05 0.0001749689 -4.4624318e-05 -0.00010113239 0.00021793324 -3.660415e-05
-5.0592695e-05 3.963924e-05 -6.8960406e-05 2.317678e-05 -1.1406315e-05 6.414691e-05 5.9322607e-05 -5.0017996e-05
1.3658391e-05 -2.278468e-05 0.00020976213 1.2646517e-05 2.0519365e-06 4.0883227e-05 8.4396714e-05 5.83192e-05
-5.501871e-05 -1.3085661e-05 -2.2862732e-05 -0.000121809346 8.2678656e-05 5.793222e-05 -2.6186248e-05 -3.903903e-05
7.364598e-05 4.4336542e-05 -5.269792e-05 -9.7768716e-05 1.2413802e-05 6.4237734e-06 -1.951251e-05 -2.5437337e-05

lstm.weight_ih_l0_reverse f4 [128, 19]
00000000: 814e 0cb9 3e0a f537 b098 48b8 4e5f 8fb7
00000010: 188d b0b8 ea3b a738 528c 6db8 f28b cdb8
00000020: 4e25 b9b8 2e7b 9ab7 6006 5cb8 8392 b7b8
00000030: 9a59 2338 ceec 94b8 c2d8 4838 00ec b536
00000040: 08b2 7338 b1c9 2a38 2ebc 05b8 1a3c 5138
00000050: 48f4 c9b6 92f5 c237 fe26 0ab9 63b5 ebb7
00000060: bb3d 0039 9018 6eb9 8c86 e2b8 f23b f4b7
00000070: 47ae 4038 b893 d637 580a 4938 60bf 7db6
00000080: d002 0c36 568e 7539 a034 c7b7 1a29 e437
00000090: fcb8 8c37 6433 c5b8 509b d5b6 bc5b 6a37
000000a0: 80f4 e437 06f4 18b8 f166 ccb7 2628 e3b7
000000b0: e023 a138 c91a 92b8 002f fd35 5f79 0039
000000c0: ea94 92b8 178c 9ab8 6c2f 8138 c01a 3a39
000000d0: 201b 1cb7 0bec 9738 06bd d0b7 2ab7 8538
000000e0: 3c74 6637 9040 a5b7 481e a6b8 545c 9fb7
000000f0: fc8d ddb8 8095 5337 a2a1 94b8 0257 f638
00000100: 0f08 3937 32e4 30b8 3713 7638 e7a0 bd38
00000110: adf1 db38 48b0 53b8 9376 41b8 e0a5 1ab7
00000120: b5f5 f438 8c3f 19b8 b1a6 e9b7 c80f 2d38
00000130: d9b8 18b8 d5c6 f4b8 7873 2037 0a58 4236
00000140: e4e0 91b7 24ce 9138 8443 6337 9a81 1837
00000150: 5606 8bb8 9b1d 41b8 6362 61b8 4aa8 00b7
00000160: c837 e0b7 807a 08b6 dc07 2b39 a5fd 1238
00000170: 90f4 c437 7163 1f38 220b 8338 4039 7636
00000180: e016 de38 54b1 c737 2d02 0138 b895 bfb7
00000190: 4980 4a38 33dd ceb8 885f 8c37 a330 94b8
000001a0: a375 f338 7a9b 2f38 e624 9f37 640b 1b38
000001b0: 8a93 3038 88b6 1db8 0967 31b8 9e79 62b8
000001c0: d74c ebb8 9025 97b6 201e a6b6 4059 3cb8
000001d0: 9328 7838 ed49 9a38 906e 0b36 5c7b 0fb8
000001e0: c7e9 edb8 6c8a f7b7 6c83 a737 aa5e 00b9
000001f0: 82c4 12b8 7249 ddb8 7026 26b7 809c 12b6
00000200: 5284 fdb7 a0da cab7 608e 8738 b4f9 8db8
00000210: 6f12 0ab9 6c77 a2b7 120e f8b7 8650 d138
00000220: 7b91 48b8 c671 29b8 13fe 64b8 291e 01b8
00000230: 828e 4639 9867 72b7 a202 37b8 f6fa d537
00000240: f6de 0339 1594 f6b8 8fbf 18b7 c15c 31b8
00000250: 475d 4938 1b6a 0a38 7803 ff38 a0f8 62b7
00000260: 0815 1cb8 025f b3b8 e1cf 2ab8 886c ef38
00000270: 7049 a636 9281 86b8 52cb 5338 4276 88b8
00000280: fa64 e937 7017 87b8 2442 2f39 04a0 40b7
00000290: 1b79 deb8 b84c cab8 3210 28b8 49d8 4e39
000002a0: e0b3 5ab7 3818 6238 30c3 1fb8 fa90 4138
000002b0: 9267 d0b7 a829 0c37 1b8d ba38 1628 80b8
000002c0: e249 00b9 ea09 00b9 ec71 f9b7 966d 9f38
000002d0: bcdb a9b8 db2a 6bb7 1d4c 0f39 4c04 91b7
000002e0: 4261 bdb8 70ce 73b8 9a8d 0e38 644e 8db8
000002f0: 28ad 84b6 bf51 0a38 0fec 23b8 680f 9438
00000300: ad38 ed38 863e 3bb9 c5d1 0039 a807 03b8
00000310: 8cac ce37 a6ce 0339 ca0e 63b7 a240 1bb8
00000320: 2081 e9b5 e574 0038 500a 4637 0e8c b637
00000330: b557 2838 78cb 2c37 0c21 a437 0401 fab7
00000340: 5743 bb37 d11b f9b7 767c 9a38 f683 1738
00000350: d15c 9038 a0b9 09b9 da03 b038 721d 81b8
00000360: e744 98b8 52fe 2238 0050 35b6 3c31 9c37
00000370: 19d1 dd36 d81c 5337 650b 17b8 70dd 6f37
00000380: 0cd4 3fb7 8664 4138 444a aa37 666d 90b8
00000390: 6800 92b6 a8cd ce38 9874 16b8 d0e0 dc38
000003a0: d024 e5b6 afa5 c4b7 8ff1 ec38 002f 79b6
000003b0: ff30 eeb7 46e2 e237 f64a 6db8 201b 7637
000003c0: 5568 1f38 99bc 1838 54cb 1d38 5e48 acb8
000003d0: 29f8 0e39 60e5 0837 620c b038 9cf9 ce38
000003e0: b05b 7238 8e68 df38 3190 ba38 6b3b 5a38
000003f0: 1e45 5338 7c98 09b6 6e64 6039 9860 80b8
-0.00013380685 2.9211045e-05 -4.7825917e-05 -1.7091308e-05 -8.418615e-05 7.9743404e-05 -5.6635887e-05 -9.8012286e-05
-8.828436e-05 -1.841559e-05 -5.2458025e-05 -8.75341e-05 3.8945676e-05 -7.101298e-05 4.7885587e-05 5.4216944e-06
5.810152e-05 4.0719e-05 -3.1884927e-05 4.9885457e-05 -6.018705e-06 2.3240955e-05 -0.00013175231 -2.8098648e-05
0.00012230028 -0.00022706599 -0.00010801581 -2.911498e-05 4.5938676e-05 2.5579575e-05 4.7931768e-05 -3.7811333e-06
2.0863263e-06 0.00023418045 -2.3747154e-05 2.7198857e-05 1.677544e-05 -9.403264e-05 -6.3659754e-06 1.3968845e-05
2.7293572e-05 -3.646689e-05 -2.436663e-05 -2.7079204e-05 7.6837605e-05 -6.9668116e-05 1.8863648e-06 0.00012252246
-6.98956e-05 -7.369386e-05 6.160032e-05 0.00017748307 -9.30464e-06 7.2442075e-05 -2.4883553e-05 6.376051e-05
1.3736131e-05 -1.9699597e-05 -7.921137e-05 -1.899727e-05 -0.00010564548 1.2611388e-05 -7.0872964e-05 0.000117464006
1.1028736e-05 -4.2174193e-05 5.8668866e-05 9.042193e-05 0.000104877494 -5.0470495e-05 -4.6125217e-05 -9.217736e-06
0.00011680593 -3.6537225e-05 -2.7853386e-05 4.126111e-05 -3.6411777e-05 -0.00011671862 9.563628e-06 2.8959498e-06
-1.739007e-05 6.9525355e-05 1.3545974e-05 9.090081e-06 -6.629217e-05 -4.6042358e-05 -5.373581e-05 -7.668577e-06
-2.6728856e-05 -2.0336884e-06 0.00016310759 3.5045337e-05 2.3478904e-05 3.8001166e-05 6.2486404e-05 3.669018e-06
0.00010590046 2.3805223e-05 3.0758023e-05 -2.2838693e-05 4.8280028e-05 -9.864047e-05 1.6733786e-05 -7.066249e-05
0.000116090545 4.186805e-05 1.897146e-05 3.6965488e-05 4.2099076e-05 -3.7601712e-05 -4.2296047e-05 -5.3995864e-05
-0.00011219986 -4.5045235e-06 -4.9506925e-06 -4.4905813e-05 5.9165595e-05 7.357062e-05 2.077697e-06 -3.4208744e-05
-0.00011344585 -2.9509152e-05 1.996915e-05 -0.00012242296 -3.4992125e-05 -0.000105517815 -9.9033205e-06 -2.184679e-06
-3.0221567e-05 -2.4182082e-05 6.463821e-05 -6.769915e-05 -0.00013167573 -1.9367515e-05 -2.9570456e-05 9.980895e-05
-4.7819205e-05 -4.03987e-05 -5.459606e-05 -3.0784086e-05 0.0001893584 -1.4448444e-05 -4.3633052e-05 2.5508441e-05
0.00012576193 -0.000117577765 -9.104507e-06 -4.2286472e-05 4.8009006e-05 3.3000582e-05 0.00012159994 -1.3528537e-05
-3.7212885e-05 -8.553082e-05 -4.072476e-05 0.000114166236 4.9557348e-06 -6.413752e-05 5.0495677e-05 -6.5070126e-05
2.7822785e-05 -6.441667e-05 0.0001671394 -1.1481348e-05 -0.000106083426 -9.6464006e-05 -4.0069404e-05 0.00019726263
-1.3035693e-05 5.3905154e-05 -3.8090337e-05 4.6149806e-05 -2.4843761e-05 8.354349e-06 8.895454e-05 -6.110982e-05
-0.00012234555 -0.00012210725 -2.9736162e-05 7.602123e-05 -8.099477e-05 -1.401707e-05 0.00013665897 -1.7287348e-05
-9.030338e-05 -5.8127975e-05 3.3987315e-05 -6.738005e-05 -3.9540646e-06 3.2977896e-05 -3.9082075e-05 7.0600596e-05
0.00011311597 -0.00017857002 0.00012285176 -3.1239964e-05 2.4637462e-05 0.00012570116 -1.3533698e-05 -3.7015074e-05
-1.7397433e-06 3.0626445e-05 1.1804121e-05 2.1761309e-05 4.0136005e-05 1.0299373e-05 1.9565712e-05 -2.9802795e-05
2.2323495e-05 -2.9696066e-05 7.366475e-05 3.6124104e-05 6.8837435e-05 -0.00013134489 8.3930514e-05 -6.156684e-05
-7.260759e-05 3.8860664e-05 -2.7017668e-06 1.8619576e-05 6.6106554e-06 1.2583296e-05 -3.6011817e-05 1.42970675e-05
-1.1433858e-05 4.6108406e-05 2.0300162e-05 -6.886832e-05 -4.3511864e-06 9.861152e-05 -3.5871373e-05 0.00010532292
-6.8290174e-06 -2.3442173e-05 0.00011298351 -3.713125e-06 -2.8394626e-05 2.7046666e-05 -5.6575016e-05 1.4669058e-05
3.800572e-05 3.641527e-05 3.762108e-05 -8.2150786e-05 0.00013634622 8.159637e-06 8.3946405e-05 9.869339e-05
5.7782687e-05 0.000106529435 8.896029e-05 5.2030588e-05 5.037069e-05 -2.0503348e-06 0.00021399718 -6.1215076e-05

lstm.weight_hh_l0_reverse f4 [128, 32]
00000000: 2892 bab6 5e36 49b9 3a3a 6437 c83a c038
00000010: 54a1 91b7 d409 e8b7 c748 9ab8 6048 d5b5
00000020: e429 e337 b9a6 b738 bc79 f6b7 6519 aa38
00000030: b908 ed38 90c6 9836 b9fc 1db8 8cc2 23b8
00000040: 4cf9 fab7 184e 2a37 8a18 a0b8 2055 00b8
00000050: d2a8 6cb8 9c61 78b7 5f8a 94b8 3c21 fab7
00000060: ac95 e037 a74b 14b8 28a4 08b7 4038 4635
00000070: f353 7638 8c0d cf38 172a e4b7 e1f0 0139
00000080: 4841 99b8 9eca 0039 8082 5d37 0e70 ceb8
00000090: 49bc 7439 d27a a2b8 1865 49b7 8032 47b6
000000a0: 0a30 94b8 c036 72b7 4c2a 20b8 ac27 ba37
000000b0: 6acc 00b8 20ae 5735 946c fc37 e2a2 9838
000000c0: 96a9 b5b7 2001 56b6 b6fd 66b8 d81c 04b7
000000d0: 31ad 9438 b98f 13b8 5860 9638 f854 cf38
000000e0: f0ee fd37 fc0b 8437 b188 7cb8 4838 26b7
000000f0: 6071 0636 624a 9238 9960 1639 3d50 f0b6
00000100: e057 08b6 4649 7438 20f0 07b6 1ad2 01b9
00000110: 6304 afb8 6fc1 aeb8 e80b 5d38 805b 00b9
00000120: fc57 53b8 92b1 9237 8bcd 0937 9906 02b8
00000130: 8c7e 03b8 f5db 2838 086d 4137 a82e 8338
00000140: b22d 5339 9408 0f38 388f 4639 a574 0338
00000150: 9475 0e38 931f 28b8 b942 a738 d404 93b8
00000160: 46c0 1d38 38ed 97b8 90e6 24b8 fccf 4cb9
00000170: 90b5 60b7 add0 0f38 9460 78b8 16ab 9237
00000180: 6a52 a0b7 6ca9 9937 2922 3bb9 2066 b738
00000190: 8e33 53b9 e49f 0937 10aa 13b6 3efa 2638
000001a0: ff59 ddb8 9554 1f38 3c19 9237 f242 8338
000001b0: cec1 b5b7 ba55 9638 30c1 2337 c43f 0038
000001c0: 20f1 df38 5e3e 95b8 80af d436 c015 1f38
000001d0: fbd4 0138 ce79 1fb8 3df7 6238 de19 94b8
000001e0: 58b0 3b38 eb40 a7b8 f374 9438 6d0e e1b8
000001f0: a762 8bb8 2c72 dab7 78a9 4c38 0490 20b9
00000200: 2175 a4b8 cf48 86b8 da57 0338 4edc f5b8
00000210: 005b f9b5 53d3 2838 42ad a438 73ed 86b8
00000220: d54c b7b8 46ad 3338 2698 39b9 1089 5537
00000230: c73f 27b9 e4fe 1739 c056 6e36 4909 95b8
00000240: 700c 5037 cf07 e636 e8a2 3ab9 f0d2 4c39
00000250: 20f4 15b6 f5ce 1238 a887 7738 158c 0a38
00000260: 529d 0e38 b0b5 4bb7 a7ba 38b7 7290 7938
00000270: 29bf a238 13be f438 a0f3 e2b7 9819 1238
00000280: a0f8 3bb5 1225 0cb7 e06f 5438 2275 aa37
00000290: e890 b736 c12a 1238 ba90 bbb8 4c13 0e37
000002a0: 8598 9438 59c5 5a39 c3d2 2bb8 460f 20b8
000002b0: 7f3c f338 7dfb 91b8 54ba 87b8 700d 6b37
000002c0: 843c 4a38 f4a1 2c38 80e2 9636 7e41 6637
000002d0: 9a9a 9438 48bd 29b8 104b 57b7 8e14 0138
000002e0: ea70 5138 00ec a037 8c4c 6b37 75ba 2938
000002f0: cf86 ae38 517d 0138 88d8 2038 d75b 3a39
00000300: c259 f5b8 c014 3a39 9f94 fe37 2565 3ab9
00000310: dffd edb8 261f 29b8 2a4d ceb7 a270 30b8
00000320: 3097 a536 be96 e138 d3ef dfb7 ef31 0a39
00000330: e646 9238 0c89 78b8 fcf4 e937 fd4a 8b36
00000340: c38a ce38 78f7 d6b8 dc7a f5b8 66be ce38
00000350: 33bd 00b8 8625 0039 cac2 7ab8 3c38 c937
00000360: 9e56 ad37 7c10 1138 48de 17b7 b826 5cb9
00000370: de19 ffb7 ad99 1d38 bcf4 64b7 98bb 9ab8
00000380: f831 a236 9692 de38 204c cc38 fa92 8f37
00000390: 0389 9d38 ad7b be38 af47 8838 45c2 a138
000003a0: 906f ffb8 99bc 94b8 b673 e636 808c 2a36
000003b0: 3231 b1b8 9fd7 92b6 12f7 e238 4132 2338
000003c0: 4734 19b8 184e 6a37 9378 a238 4753 cab7
000003d0: 7895 33b6 a92e 06b9 4385 87b8 0e85 e037
000003e0: 1c26 0138 dce9 9138 c44d df38 63a2 2b39
000003f0: 88d8 e438 b8aa aeb7 b4c1 9eb7 aabf f037
-5.560247e-06 -0.00019189107 1.3603416e-05 9.166222e-05 -1.7360471e-05 -2.7661132e-05 -7.356848e-05 -1.5890801e-06
2.7080016e-05 8.7571745e-05 -2.9382172e-05 8.110962e-05 0.000113026654 4.5530687e-06 -3.7667083e-05 -3.9043414e-05
-2.991841e-05 1.0150972e-05 -7.633965e-05 -3.0596857e-05 -5.642401e-05 -1.4804678e-05 -7.0829636e-05 -2.9817798e-05
2.6772577e-05 -3.5356406e-05 -8.144452e-06 7.38426e-07 5.8729154e-05 9.8730525e-05 -2.7199318e-05 0.00012392133
-7.307768e-05 0.00012282512 1.3203011e-05 -9.843717e-05 0.00023339795 -7.747639e-05 -1.2004071e-05 -2.9682706e-06
-7.066138e-05 -1.44370715e-05 -3.8186365e-05 2.2191402e-05 -3.0707954e-05 8.0347127e-07 3.0091302e-05 7.278264e-05
-2.1655851e-05 -3.188914e-06 -5.507256e-05 -7.874529e-06 7.089449e-05 -3.5181383e-05 7.170503e-05 9.886356e-05
3.0271214e-05 1.5741207e-05 -6.0208786e-05 -9.907475e-06 2.003355e-06 6.9756774e-05 0.000143411 -7.1618983e-06
-2.031673e-06 5.8242375e-05 -2.0256339e-06 -0.00012380668 -8.345467e-05 -8.3329964e-05 5.2701595e-05 -0.00012241118
-5.0388262e-05 1.7487244e-05 8.213693e-06 -3.100056e-05 -3.135069e-05 4.0259172e-05 1.1529082e-05 6.255257e-05
0.00020139551 3.4101846e-05 0.00018936105 3.1341468e-05 3.396494e-05 -4.0083727e-05 7.9756086e-05 -7.0104055e-05
3.7610786e-05 -7.2444265e-05 -3.9315375e-05 -0.00019532436 -1.3393714e-05 3.42882e-05 -5.9217753e-05 1.7484224e-05
-1.9111863e-05 1.8317915e-05 -0.00017846435 8.745142e-05 -0.00020141734 8.203064e-06 -2.2003696e-06 3.981054e-05
-0.00010554864 3.7987327e-05 1.7416307e-05 6.259036e-05 -2.1667129e-05 7.168525e-05 9.760537e-06 3.0576964e-05
0.00010678382 -7.1164905e-05 6.3385232e-06 3.792881e-05 3.095435e-05 -3.8021994e-05 5.4112857e-05 -7.062008e-05
4.4748507e-05 -7.9752725e-05 7.0789734e-05 -0.00010731523 -6.646412e-05 -2.604079e-05 4.879522e-05 -0.00015312439
-7.841946e-05 -6.4031796e-05 3.1314652e-05 -0.00011723545 -1.857843e-06 4.0251132e-05 7.852401e-05 -6.433846e-05
-8.740431e-05 4.28383e-05 -0.00017699655 1.2727702e-05 -0.0001595012 0.00014495436 3.5515259e-06 -7.106603e-05
1.2400662e-05 6.855443e-06 -0.0001779903 0.00019533536 -2.234483e-06 3.5001856e-05 5.901573e-05 3.3032225e-05
3.4001954e-05 -1.2142045e-05 -1.1010713e-05 5.950075e-05 7.760368e-05 0.00011670231 -2.7054746e-05 3.483295e-05
-7.0024726e-07 -8.353281e-06 5.064893e-05 2.0320123e-05 5.4706943e-06 3.484893e-05 -8.943812e-05 8.4683525e-06
7.085599e-05 0.00020863618 -4.0965864e-05 -3.8161197e-05 0.00011598411 -6.960982e-05 -6.472008e-05 1.401022e-05
4.8216913e-05 4.1158826e-05 4.4967164e-06 1.3724317e-05 7.085987e-05 -4.046902e-05 -1.28324755e-05 3.077514e-05
4.9934642e-05 1.9183382e-05 1.4024914e-05 4.046639e-05 8.3220766e-05 3.0872707e-05 3.8348633e-05 0.00017772555
-0.00011699229 0.00017746072 3.0348367e-05 -0.00017776022 -0.00011348328 -4.032175e-05 -2.4593046e-05 -4.2066567e-05
4.9349837e-06 0.00010756914 -2.6695348e-05 0.00013179307 6.9750284e-05 -5.9255442e-05 2.7889844e-05 4.1512526e-06
9.848692e-05 -0.0001025041 -0.00011705395 9.85831e-05 -3.0693784e-05 0.0001222101 -5.9786056e-05 2.3987253e-05
2.0663541e-05 3.4586046e-05 -9.052055e-06 -0.00020995259 -3.0410414e-05 3.757484e-05 -1.3646841e-05 -7.378234e-05
4.8337934e-06 0.00010613089 9.7416574e-05 1.711537e-05 7.511864e-05 9.0829424e-05 6.4983375e-05 7.713264e-05
-0.00012180128 -7.092319e-05 6.8680047e-06 2.5413756e-06 -8.449181e-05 -4.3762407e-06 0.0001082254 3.890903e-05
-3.652673e-05 1.39656695e-05 7.747221e-05 -2.4119056e-05 -2.676008e-06 -0.00012796618 -6.4621236e-05 2.676484e-05
3.079149e-05 6.9576985e-05 0.000106479536 0.00016368325 0.00010912219 -2.0821913e-05 -1.8925268e-05 2.869948e-05

lstm.bias_ih_l0_reverse f4 [128]
00000000: 3ba8 0db8 42a3 0339 30a5 0039 2af4 b038
00000010: d805 93b6 f6df 3ab9 942f 49b9 c656 cab7
00000020: 04ee 6bb8 2abc d6b8 94ca 2637 1516 a7b7
00000030: 52b7 f637 70d0 8e36 8720 00b8 eaaa 8c37
00000040: dfef 86b8 2cc7 d037 98d9 c7b6 848d 8e38
00000050: c29a c938 1095 50b7 4ae6 86b8 d07b 5137
00000060: d17e bdb8 8a2f 3bb9 f3b0 85b8 4475 50b7
00000070: ca66 ddb7 c2ce 29b8 ba5f a238 40c8 fd37
00000080: b215 98b8 362a 07b8 58fa 0c37 f0c0 8b36
00000090: 6ebb 94b8 b027 edb8 757c 7338 6824 2738
000000a0: 4fa2 11b8 8ac4 a1b8 207d 3136 7cf9 9e38
000000b0: 50bd a838 5efe fe37 004a 4338 6c9a 8138
000000c0: 6365 13b8 68e9 2938 5c5a b038 92db e337
000000d0: 74ee 6bb8 8946 1eb8 89f2 6638 9b36 1e38
000000e0: d0c1 66b8 31c8 07b9 b011 4a37 e32d d2b8
000000f0: 7c8c bdb8 3407 cbb7 8ae3 2db8 5a09 8c38
00000100: 1c7d bab8 cadf e537 80d3 ccb5 70e8 8b37
00000110: ca18 2638 14a9 e138 db59 4838 0641 0db8
00000120: 1ea9 b6b8 f88e d337 399d 11b7 5d72 b238
00000130: 45d9 8338 c202 56b8 5644 91b8 4cd1 6237
00000140: 18d7 e1b8 fbaa 2938 3ea0 eb38 9268 bd38
00000150: c0ec 3137 9d45 03b8 722b 6237 d177 9c37
00000160: d79e 9638 ea8b dc36 572a fe38 962b 02b8
00000170: 4908 c138 809b 3035 8a0c 5c37 a0a9 26b8
00000180: 85d2 1eb8 5e0b 23b8 72cd 8138 90d5 9438
00000190: dec8 df37 cc87 2938 3de8 5eb8 5a38 38b7
000001a0: a865 4bb7 1625 3f38 fc41 c1b8 b186 1538
000001b0: b5ea ceb8 ba81 b7b8 bf02 a838 9bb4 86b8
000001c0: 2878 d5b6 8005 8634 e20f ffb8 d7de 7cb8
000001d0: c658 9c37 80f9 c6b6 4131 87b8 b90b b038
000001e0: d059 7fb7 0e1b 3a39 2a7e 6039 d53c 52b8
000001f0: 72c5 4738 384c 8538 9041 dd37 801d 2438
-3.3773696e-05 0.00012553952 0.00012268568 8.437813e-05 -4.3816217e-06 -0.00017821774 -0.00019186578 -2.4120684e-05
-5.6250035e-05 -0.000102393635 9.941537e-06 -1.9918234e-05 2.941085e-05 4.256195e-06 -3.054787e-05 1.6768889e-05
-6.4342974e-05 2.4888279e-05 -5.9559934e-06 6.797447e-05 9.613253e-05 -1.2432472e-05 -6.4325126e-05 1.2486198e-05
-9.035844e-05 -0.0001785142 -6.3748936e-05 -1.2425069e-05 -2.6393118e-05 -4.0485298e-05 7.7425924e-05 3.0253199e-05
-7.251966e-05 -3.222582e-05 8.402938e-06 4.1649837e-06 -7.0921014e-05 -0.00011308433 5.8051624e-05 3.984981e-05
-3.4721856e-05 -7.7136865e-05 2.6447888e-06 7.580497e-05 8.0461265e-05 3.0397608e-05 4.656054e-05 6.179963e-05
-3.5141955e-05 4.0510116e-05 8.409165e-05 2.7162754e-05 -5.6250443e-05 -3.7735826e-05 5.506215e-05 3.772099e-05
-5.5016775e-05 -0.0001294918 1.2044256e-05 -0.000100221274 -9.0383895e-05 -2.420284e-05 -4.1458326e-05 6.677462e-05
-8.8924746e-05 2.7403137e-05 -1.5260739e-06 1.6678328e-05 3.960057e-05 0.00010760329 4.77674e-05 -3.3677577e-05
-8.709937e-05 2.5219735e-05 -8.67928e-06 8.509003e-05 6.2870364e-05 -5.1024144e-05 -6.926867e-05 1.351938e-05
-0.000107689004 4.0451978e-05 0.00011235521 9.0317e-05 1.0605145e-05 -3.1297666e-05 1.3480765e-05 1.8652443e-05
7.1821436e-05 6.572799e-06 0.0001211955 -3.1035008e-05 9.2045004e-05 6.579139e-07 1.3115941e-05 -3.973546e-05
-3.7866197e-05 -3.8872815e-05 6.1894665e-05 7.096969e-05 2.6677208e-05 4.041921e-05 -5.3145213e-05 -1.0980375e-05
-1.2123412e-05 4.5572488e-05 -9.215248e-05 3.564981e-05 -9.866563e-05 -8.7502835e-05 8.011376e-05 -6.423258e-05
-6.3618827e-06 2.4963447e-07 -0.00012162306 -6.0289018e-05 1.8637988e-05 -5.9299055e-06 -6.446476e-05 8.3945175e-05
-1.52200955e-05 0.00017748421 0.00021409304 -5.0124556e-05 4.7629183e-05 6.356131e-05 2.6375783e-05 3.912812e-05

lstm.bias_hh_l0_reverse f4 [128]
00000000: 9d22 dcb8 c070 9bb6 4670 a038 f838 bf36
00000010: 1c7e b536 ea27 6ab7 98cf 76b7 48d8 2b38
00000020: 126c 5838 bef1 de38 4853 20b8 b9f6 2638
00000030: 8931 8938 705e 6bb7 24da 5fb7 978b 62b7
00000040: 58cf 27b8 c818 f937 cf3d e9b7 1b73 ad37
00000050: 9f38 e937 90ff 4838 d98e 1eb8 aa31 8638
00000060: 1808 2fb6 8c34 d0b7 f48a cfb8 227a 2bb8
00000070: e8a1 a0b7 f0c7 48b6 3e47 09b7 908d 0137
00000080: 32d0 b738 60a4 8a37 85aa 8bb8 156a 4838
00000090: 7b6b 66b7 e045 55b6 9ca0 94b8 c9f2 8ab6
000000a0: df85 48b9 76f1 03b9 1226 93b8 5caf 4cb9
000000b0: 2045 2838 91c9 7238 8029 3a35 1704 0b39
000000c0: 201b 9f38 c418 3f37 44f1 99b8 580c 9cb7
000000d0: 96fc b038 2c1d 9b38 d165 bd38 b667 adb7
000000e0: 4ae6 8437 8878 f538 b892 ae38 f08b 50b7
000000f0: f8d2 b2b8 1806 23b7 20a4 deb7 c8c3 4e37
00000100: 8cf9 aa38 0dbe 2938 50aa 7536 12f3 6637
00000110: 057b bc38 6d2e 8e38 a3b1 d3b7 aa69 e438
00000120: 1e16 0e39 5e02 9ab8 2007 d435 1aa7 2ab8
00000130: ebeb b6b8 e085 fd36 90aa 5fb9 d9db ceb8
00000140: 7f0b 5db8 f0f4 7cb7 bc48 56b7 0814 63b7
00000150: 965d 0937 baae 69b8 d890 fcb8 5660 2d38
00000160: 64fd 6b38 eac1 dd37 c796 0bb9 8a14 6039
00000170: fc67 5db8 bba1 2ab8 754d fcb7 15c9 0938
00000180: e8b5 b838 3889 ef37 fe30 cdb8 02ec d0b7
00000190: 9252 9438 f5ed 8638 ff66 cab8 6e90 bd38
000001a0: b20b e038 060e 3d38 3048 6236 5e56 f4b8
000001b0: f376 e1b8 8024 1db5 508d c736 78a1 b9b6
000001c0: 56b7 24b8 7bbf 3238 418b a5b7 f849 9536
000001d0: 7560 0639 a056 3d37 0943 96b8 888e 94b8
000001e0: b0dc dcb6 c645 d737 00f9 f9b5 ff62 7638
000001f0: 0a22 20b8 20eb 2fb6 03f5 f738 5545 ed38
-0.00010496865 -4.632486e-06 7.650307e-05 5.6988756e-06 5.4089014e-06 -1.395678e-05 -1.4711077e-05 4.0971005e-05
5.159906e-05 0.00010630813 -3.8224534e-05 3.9807263e-05 6.541896e-05 -1.40290795e-05 -1.3342626e-05 -1.35031505e-05
-4.0009007e-05 2.9694653e-05 -2.7804546e-05 2.0676807e-05 2.780213e-05 4.7921727e-05 -3.7803173e-05 6.3988686e-05
-2.6081743e-06 -2.4820001e-05 -9.896411e-05 -4.0883322e-05 -1.914888e-05 -2.9918701e-06 -8.182424e-06 7.721959e-06
8.7648994e-05 1.6527425e-05 -6.659798e-05 4.7782512e-05 -1.3734093e-05 -3.1780146e-06 -7.087106e-05 -4.1409844e-06
-0.00019123357 -0.00012583085 -7.0165974e-05 -0.00019520283 4.01187e-05 5.788502e-05 6.935079e-07 0.00013257597
7.586763e-05 1.1390253e-05 -7.340548e-05 -1.8602397e-05 8.439382e-05 7.39641e-05 9.031187e-05 -2.0671501e-05
1.5842863e-05 0.00011704961 8.324295e-05 -1.2430348e-05 -8.5269974e-05 -9.716976e-06 -2.6540889e-05 1.2324141e-05
8.1527134e-05 4.046974e-05 3.660698e-06 1.37656625e-05 8.987453e-05 6.779735e-05 -2.5235879e-05 0.00010891569
0.00013550415 -7.343733e-05 1.5797305e-06 -4.0686784e-05 -8.7223794e-05 7.5555727e-06 -0.00021330477 -9.863795e-05
-5.2701213e-05 -1.5077399e-05 -1.2772329e-05 -1.3534918e-05 8.187626e-06 -5.5714256e-05 -0.00012043276 4.1336134e-05
5.6264354e-05 2.6435551e-05 -0.00013312242 0.00021369956 -5.278735e-05 -4.068178e-05 -3.007681e-05 3.2850618e-05
8.8076864e-05 2.8554918e-05 -9.784287e-05 -2.4905432e-05 7.07257e-05 6.433941e-05 -9.651295e-05 9.0391244e-05
0.00010683331 4.507417e-05 3.3718643e-06 -0.00011650914 -0.00010750992 -5.854017e-07 5.947113e-06 -5.532227e-06
-3.9271392e-05 4.2616837e-05 -1.9734378e-05 4.449157e-06 0.00012815169 1.1285447e-05 -7.165044e-05 -7.0837385e-05
-6.5822023e-06 2.5662488e-05 -1.8624414e-06 5.8743168e-05 -3.8178674e-05 -2.6213893e-06 0.00011823515 0.00011313955

lstm.weight_ih_l1 f4 [128, 64]
00000000: d118 52b8 d93f 85b8 a43f b237 b9bb 5639
00000010: a634 8738 f73a 95b8 fae4 79b8 c44b 43b8
00000020: 800d 4b35 32aa a4b8 b43d 2f38 6003 07b6
00000030: 0df3 b038 80c7 0cb6 6974 a7b8 0630 04b8
00000040: 68fb 1ab8 b263 a5b8 7ae8 9438 6020 6c36
00000050: e474 dcb8 9c57 2b38 e033 0a36 9908 9538
00000060: ecdb 0339 949f 8537 07ab 41b8 1837 0438
00000070: b8f2 94b8 36b8 db38 5eb9 5ab9 400e 5838
00000080: aa04 2238 b853 04b7 0a5f 2539 d82d 94b6
00000090: 20d2 d2b7 c2b4 d3b7 accc 11b8 80d7 55b5
000000a0: eefa b938 b471 20b8 eca8 9fb7 6e76 0a39
000000b0: de4d a7b8 5e7a f4b8 b59d ad38 78d6 98b6
000000c0: 2ced ec38 a484 9db7 c12c 49b9 08fa e238
000000d0: 68b0 5a37 c84b 58b8 1e10 cf38 d427 a0b8
000000e0: 2c47 4eb7 10a5 3136 e6f2 6db8 f810 ba36
000000f0: 2b31 9bb7 c4d4 8e38 dba4 b3b8 9871 5db8
00000100: 04d0 51b7 5c2c 2238 1c98 a738 ea5d 9137
00000110: 132c 94b8 3c85 0138 347f 76b8 0a2d fa37
00000120: afda 3ab8 2268 b7b8 5871 c637 6c78 77b8
00000130: 14d4 e137 90bf d738 4540 cab8 e39a 2fb8
00000140: 2a63 e0b8 70b4 2eb8 3e54 0338 70cc 2437
00000150: d473 e037 8a88 22b8 8f4b 83b8 20a8 1db8
00000160: 7642 0db8 c3d7 79b8 8cee 54b8 ed38 ed38
00000170: 54a1 27b8 733b a7b8 6857 88b6 b95b 27b9
00000180: 1884 9ab6 a2e1 0d39 a064 0bb7 5e92 2038
00000190: 6d0b 1e38 1cf8 6937 12de 1db8 828c e8b7
000001a0: add4 1db8 5670 e2b7 04b8 0739 96e6 1138
000001b0: a34c 1837 00e2 93b8 c487 81b8 78e3 e237
000001c0: d135 ed38 99bd 1db8 2b8a 06b9 d0b1 eb37
000001d0: 6959 00b9 653f fc37 1e05 e4b7 ef4b beb8
000001e0: d29d 9438 fd72 aa37 71f5 6538 068d ef37
000001f0: 0120 98b8 be10 8738 4253 a7b7 0075 4d37
00000200: 18d0 5037 c8bb e2b7 6ef5 b6b7 2ea6 00b9
00000210: 9011 b9b7 67ae ba37 3a03 2d38 dd85 46b9
00000220: 0a6c 9b36 9efd 8d38 2ab2 38b7 4009 0736
00000230: d5f4 b738 d0e0 0db9 12db 3bb8 df21 e937
00000240: acab dfb8 9f4a 2439 28ae c1b7 9ff8 10b8
00000250: d45e 6d38 f84d 00b9 eae2 a7b7 90b8 d738
00000260: 9ca9 4337 8ae5 e0b7 60c4 d3b7 d01a 8738
00000270: 85d3 2338 083e 62b8 58de 2937 e1f0 02b8
00000280: 12e2 20b8 c553 9638 a068 13b5 9e66 0038
00000290: 201b f638 b656 9238 50b9 9db6 247d 6d38
000002a0: a024 3db6 bee7 fe37 19d0 c9b7 290d 30b8
000002b0: 3393 0639 1da4 7538 8ec4 63b9 0086 1535
000002c0: 5a23 12b8 0a3b 56b8 5126 d637 9055 d836
000002d0: 31b0 03b9 0553 1238 6692 5238 6fdc 9538
000002e0: 901f 71b6 50c4 1c36 0e24 01b9 824f 22b7
000002f0: a229 d537 7a11 4138 ef54 4b38 1f4b 86b8
00000300: 66a8 9cb7 3a9c 47b8 189d 0eb8 927c c138
00000310: f06b a6b8 1397 ec38 b8e8 8f37 0130 9638
00000320: 9175 de37 3029 98b8 e842 7738 6249 a738
00000330: 48b1 6838 bd0f b0b8 b455 deb8 f034 0336
00000340: b0a4 c1b8 889b 79b7 c5f9 26b8 3383 3338
00000350: 95eb b7b8 60bc 11b5 ee9f 5238 e8be 5437
00000360: ea4f b738 1ecf 94b8 9655 9a38 9201 0239
00000370: daef 3d38 9053 1e38 60f3 8437 5787 98b8
00000380: 589d 5ab8 c6d2 2eb8 98d8 fb37 cec3 6238
00000390: 38a2 ae36 f4a5 85b8 9ad8 f6b8 d9ff ebb7
000003a0: 70b7 f037 b834 9036 2a43 7539 8072 cf37
000003b0: da44 31b9 b2dc ec38 bef3 c837 5ecc c7b7
000003c0: 7143 ed38 70b7 7fb7 bfe5 26b8 ab30 1839
000003d0: 6671 eb38 03b9 f5b8 68ee 9e37 85ed ed38
000003e0: a06a 0eb9 228b 86b8 d031 feb7 1576 2b38
000003f0: fcff 1b38 24c5 69b7 d209 9238 58cb 15b8
-5.0091014e-05 -6.353827e-05 2.1248889e-05 0.00020478563 6.447108e-05 -7.115857e-05 -5.9579477e-05 -4.6562185e-05
7.564304e-07 -7.851831e-05 4.1780717e-05 -2.0118532e-06 8.437606e-05 -2.097775e-06 -7.9848636e-05 -3.1515978e-05
-3.69506e-05 -7.886383e-05 7.100492e-05 3.5185585e-06 -0.0001051219 4.085117e-05 2.0593798e-06 7.106475e-05
0.00012575061 1.5929145e-05 -4.6174067e-05 3.1522562e-05 -7.1024e-05 0.00010477046 -0.00020859155 5.1511684e-05
3.8628154e-05 -7.887305e-06 0.00015771031 -4.4160806e-06 -2.5131798e-05 -2.5237332e-05 -3.476131e-05 -7.9662277e-07
8.868227e-05 -3.8252867e-05 -1.9032937e-05 0.00013204824 -7.9776844e-05 -0.00011657619 8.278658e-05 -4.5549205e-06
0.00011297534 -1.8777624e-05 -0.00019185526 0.00010823092 1.3034885e-05 -5.156899e-05 9.873531e-05 -7.636813e-05
-1.2295128e-05 2.6471134e-06 -5.673142e-05 5.5452074e-06 -1.8500335e-05 6.810718e-05 -8.566092e-05 -5.27963e-05
-1.2505803e-05 3.8665123e-05 7.991513e-05 1.732908e-05 -7.0653994e-05 3.088008e-05 -5.8769438e-05 2.9823295e-05
-4.454952e-05 -8.745516e-05 2.365622e-05 -5.900154e-05 2.6920847e-05 0.0001028768 -9.644082e-05 -4.18675e-05
-0.00010699623 -4.165288e-05 3.131129e-05 9.822761e-06 2.6756818e-05 -3.875097e-05 -6.260641e-05 -3.7588296e-05
-3.3678916e-05 -5.956717e-05 -5.0766903e-05 0.00011311644 -3.996615e-05 -7.974254e-05 -4.0632913e-06 -0.0001596053
-4.6049354e-06 0.00013530863 -8.308474e-06 3.8283288e-05 3.7680777e-05 1.394565e-05 -3.7638536e-05 -2.7721984e-05
-3.7629787e-05 -2.699361e-05 0.00012943154 3.4785444e-05 9.077749e-06 -7.051602e-05 -6.176488e-05 2.7047223e-05
0.00011311065 -3.7608293e-05 -0.00012830707 2.8096983e-05 -0.00012240339 3.0070261e-05 -2.71821e-05 -9.07405e-05
7.086586e-05 2.0319125e-05 5.482644e-05 2.855669e-05 -7.253886e-05 6.44042e-05 -1.9946721e-05 1.2246193e-05
1.2446217e-05 -2.7028742e-05 -2.1810378e-05 -0.00012268938 -2.2061897e-05 2.225414e-05 4.124942e-05 -0.0001893262
4.6319374e-06 6.770644e-05 -1.1008737e-05 2.0121952e-06 8.7717235e-05 -0.00013530557 -4.47883e-05 2.7791537e-05
-0.00010665445 0.00015668057 -2.308849e-05 -3.4563822e-05 5.659352e-05 -0.00012236077 -2.0013616e-05 0.00010286376
1.1662396e-05 -2.6809768e-05 -2.5244604e-05 6.442296e-05 3.905922e-05 -5.394037e-05 1.0124953e-05 -3.121875e-05
-3.8357517e-05 7.168161e-05 -5.4914017e-07 3.0613148e-05 0.000117352465 6.977974e-05 -4.700538e-06 5.662175e-05
-2.8184513e-06 3.0387073e-05 -2.405797e-05 -4.1973926e-05 0.00012834072 5.8565394e-05 -0.0002172163 5.570182e-07
-3.4842036e-05 -5.107656e-05 2.552863e-05 6.4472624e-06 -0.0001255877 3.488643e-05 5.0204246e-05 7.1459326e-05
-3.593017e-06 2.336008e-06 -0.0001231583 -9.674464e-06 2.5410965e-05 4.6031062e-05 4.8478072e-05 -6.40361e-05
-1.8675066e-05 -4.7590795e-05 -3.4001743e-05 9.22616e-05 -7.935602e-05 0.00011281497 1.7155297e-05 7.161499e-05
2.6519208e-05 -7.2555966e-05 5.89517e-05 7.976849e-05 5.5478216e-05 -8.3952655e-05 -0.00010601748 1.9551335e-06
-9.2336326e-05 -1.4877769e-05 -3.98101e-05 4.2799114e-05 -8.7700006e-05 -5.429083e-07 5.0216848e-05 1.26806335e-05
8.741005e-05 -7.0957685e-05 7.359234e-05 0.00012398351 4.528449e-05 3.774796e-05 1.5848957e-05 -7.273134e-05
-5.2121788e-05 -4.168113e-05 3.0022391e-05 5.4064956e-05 5.204489e-06 -6.3728454e-05 -0.00011770539 -2.8133321e-05
2.869565e-05 4.2976717e-06 0.00023390041 2.4729641e-05 -0.00016905685 0.00011294465 2.395536e-05 -2.3817815e-05
0.000113136026 -1.5241894e-05 -3.9791452e-05 0.0001451398 0.00011226795 -0.000117169715 1.8946084e-05 0.00011345282
-0.00013581896 -6.4155334e-05 -3.0302355e-05 4.087955e-05 3.7193284e-05 -1.3933783e-05 6.963652e-05 -3.5713747e-05
