model_4_best.pth (torch, 628148 bytes, 33 tensors)

lstm.weight_ih_l0 f4 [256, 19]
00000000: 898c 47b4 6321 4234 91f1 0734 99d6 1433
00000010: f8b2 10b4 d02b 96b2 26ee 8c34 403c 8b33
00000020: 223b 9cb3 1238 20b3 d6fb 8234 08af 0534
00000030: 0856 1eb4 90a4 1ab4 b58f 4db4 aa40 22b4
00000040: 391a 8733 564c 35b4 14d6 b0b3 4cc5 c7b3
00000050: cc10 ceb2 c862 8532 b81d 7c32 de2f 8432
00000060: 4cc8 2733 6281 4c34 58e5 03b4 2e14 2633
00000070: 12f1 3db3 d073 4f34 2849 5e34 3bb9 5fb4
00000080: 29ab 2034 c32c 2334 2018 d332 b8e1 2b33
00000090: fc25 cfb1 3418 d7b3 c429 5f33 3982 45b4
000000a0: 396d b8b3 f296 9fb3 1593 d133 447a 8fb3
000000b0: e3d1 da33 2018 4bb2 05a9 36b4 332b 71b3
000000c0: d1a1 9433 3cc1 02b3 a0e9 d633 60da 2031
000000d0: b4e9 9033 d8d4 e133 32bd 1934 97f6 0334
000000e0: 83b2 8c33 43ad e3b3 1c61 07b4 e17a 85b3
000000f0: 9d2f 92b3 0a0a 1732 7776 1fb4 ba20 ceb4
00000100: 0552 a0b3 a4a2 18b4 60cf ca31 0aff 78b3
00000110: 619f 1cb4 c0fe 6f33 8fff 02b4 6878 7db2
00000120: 3227 6b33 48bc a3b2 882d 7733 e6c3 16b4
00000130: 7637 4d33 1cb6 8933 8306 48b4 f439 1f33
00000140: d911 1eb3 c237 6633 8f49 67b4 a971 a533
00000150: a4d0 e331 e01a 47b3 10ce c932 8042 4034
00000160: 4c2c 96b4 a16b 99b4 0050 1733 1ab0 41b4
00000170: a97e f0b3 bd40 2533 7ceb 8033 3063 6eb2
00000180: f8a3 1c34 e097 7cb4 ee6b a4b4 8c26 d833
00000190: 9a27 23b3 1949 d832 ead8 f3b4 663e 9032
000001a0: de85 2234 d5cb fa33 53d2 ae33 c021 fd30
000001b0: 2ec7 a534 fbfa e5b4 551c 47b3 75e3 21b4
000001c0: 30c6 7e32 58ce 3c32 dc0c 5ab3 be94 6a33
000001d0: 80a3 cab2 5af0 2db3 5732 e034 1270 22b4
000001e0: e0b8 9b33 be32 5133 004b 67b0 0afb f633
000001f0: 3a3e 4234 44af bb33 680c 34b1 c065 e133
00000200: 0998 01b4 c07d 48b2 ea44 8ab4 4eb6 c8b2
00000210: f8db b1b3 e04a 2534 e634 1eb4 1a1b f5b3
00000220: 568b 94b3 9090 1634 d66a 92b4 be6b f832
00000230: fc1b 8831 a6f0 88b4 d246 6c34 a85c 2533
00000240: 143a a433 e699 6334 f63d 7634 8b55 31b4
00000250: 005e 4ab4 3562 81b3 88cd 0e34 2409 0734
00000260: ce83 4cb4 582f a8b2 2801 9233 e4d6 08b4
00000270: e42d 86b4 f3fb 96b3 16b4 b0b3 1a66 2933
00000280: 20c0 b230 05d4 74b4 7ac5 45b4 7ec7 1934
00000290: b80a 1ab4 7112 0534 b869 3a32 d855 8fb3
000002a0: 6b2c a8b3 8e6b 7434 3340 19b4 c80b 9fb3
000002b0: 3cc3 4432 9c85 02b3 b546 b033 f483 8ab3
000002c0: 958c ca34 b17d 1732 38cf ba33 36b4 c032
000002d0: 6c8c 1133 dfba 9cb3 7540 a5b3 5c06 33b4
000002e0: b9a1 1134 3511 dcb2 8fdf c5b3 fe39 1033
000002f0: fd67 3f34 4ceb 0c34 edcf 7db3 cb3d 48b3
00000300: 8075 acb2 2896 2eb3 90cf 2e33 98c2 4533
00000310: 7f7e d2b3 68ed 3c32 cc36 74b3 fd23 1e33
00000320: 69d0 6133 e0d1 e0b3 786e e3b3 9015 eab2
00000330: 60d0 70b1 edf2 9db2 ecca 0734 da3c a3b3
00000340: 0cbe c4b3 3cdf 9f33 d2cf 63b4 ae69 b7b3
00000350: d07a 88b3 18f3 bc32 56bc c634 63d3 0eb4
00000360: a84e 2cb4 995a 7034 e45e 0533 3603 7434
00000370: 1b5c 46b4 60c5 0f34 80df 3a33 0801 beb3
00000380: 2010 cbb2 dfd9 2db4 5d37 5ab3 5533 85b3
00000390: 716b 5234 70b1 2134 be98 4534 0aa8 1934
000003a0: 56ba 98b3 f48d 1232 8850 b3b2 8ff6 fdb3
000003b0: 67b1 2134 d870 35b2 705c 45b4 38f8 d533
000003c0: 4c68 3332 3415 9a33 d38f 92b4 8092 6c33
000003d0: 5821 2bb3 d680 e1b3 7002 2f34 567a 86b3
000003e0: 4c40 aeb3 1d81 2734 dc02 0533 9830 a434
000003f0: e089 8a33 caab 6bb4 58bb 4bb4 4e70 5134
-1.8584446e-07 1.8079804e-07 1.2660736e-07 3.465411e-08 -1.3476154e-07 -1.7482222e-08 2.6250308e-07 6.483651e-08
-7.275072e-08 -3.73039e-08 2.4397622e-07 1.2450266e-07 -1.4746195e-07 -1.4402235e-07 -1.9144393e-07 -1.511095e-07
6.291197e-08 -1.688471e-07 -8.234579e-08 -9.302548e-08 -2.3989195e-08 1.5528158e-08 1.4675088e-08 1.538859e-08
3.9064886e-08 1.904605e-07 -1.228376e-07 3.866824e-08 -4.4224244e-08 1.932051e-07 2.0701975e-07 -2.083588e-07
1.4963429e-07 1.5196842e-07 2.4574604e-08 4.001933e-08 -6.0288112e-09 -1.001612e-07 5.195922e-08 -1.839443e-07
-8.588035e-08 -7.431471e-08 9.759075e-08 -6.6811964e-08 1.0189594e-07 -1.18216406e-08 -1.701156e-07 -5.6151475e-08
6.921221e-08 -3.044373e-08 1.0007648e-07 2.3407196e-09 6.748033e-08 1.0516095e-07 1.4318064e-07 1.2290035e-07
6.551729e-08 -1.0602027e-07 -1.2608183e-07 -6.215647e-08 -6.8073156e-08 8.791639e-09 -1.4851126e-07 -3.8394302e-07
-7.4655e-08 -1.4215271e-07 5.9025496e-09 -5.7973956e-08 -1.4586614e-07 5.5878218e-08 -1.2200165e-07 -1.4753915e-08
5.475085e-08 -1.9061318e-08 5.755058e-08 -1.4041106e-07 4.7780723e-08 6.412685e-08 -1.862882e-07 3.707278e-08
-3.6803474e-08 5.360176e-08 -2.1540312e-07 7.704086e-08 6.630289e-09 -4.635774e-08 2.3493186e-08 1.7905586e-07
-2.7971907e-07 -2.857678e-07 3.5230187e-08 -1.8038591e-07 -1.119891e-07 3.8475935e-08 6.003299e-08 -1.3875976e-08
1.4588284e-07 -2.352458e-07 -3.062591e-07 1.00652954e-07 -3.7987412e-08 2.517895e-08 -4.5420103e-07 1.6792182e-08
1.5136126e-07 1.1678609e-07 8.140764e-08 1.8417765e-09 3.0878567e-07 -4.2837186e-07 -4.6359066e-08 -1.5077042e-07
1.48298085e-08 1.0989957e-08 -5.0768776e-08 5.461765e-08 -2.3590246e-08 -4.04983e-08 4.1759878e-07 -1.5128197e-07
7.2513785e-08 4.8707754e-08 -8.414389e-10 1.15009314e-07 1.8090296e-07 8.739747e-08 -2.62005e-09 1.0495887e-07
-1.2069371e-07 -1.1670124e-08 -2.5754645e-07 -2.3365967e-08 -8.282217e-08 1.5394062e-07 -1.4734141e-07 -1.1413631e-07
-6.917132e-08 1.402243e-07 -2.7272353e-07 2.8919995e-08 3.9613024e-09 -2.550707e-07 2.2004977e-07 3.8501327e-08
7.6474095e-08 2.119701e-07 2.2933077e-07 -1.651553e-07 -1.8846913e-07 -6.0248944e-08 1.3299552e-07 1.257618e-07
-1.9046931e-07 -1.9579304e-08 6.798865e-08 -1.2744164e-07 -2.4992835e-07 -7.0307486e-08 -8.228396e-08 3.944124e-08
1.300581e-09 -2.2801403e-07 -1.8418896e-07 1.432181e-07 -1.4346267e-07 1.2393299e-07 1.0850663e-08 -6.674571e-08
-7.831189e-08 2.2763399e-07 -1.4272591e-07 -7.4061575e-08 1.1453093e-08 -3.03895e-08 8.2085e-08 -6.450128e-08
3.772772e-07 8.817936e-09 8.698993e-08 2.2433692e-08 3.3888156e-08 -7.298308e-08 -7.695136e-08 -1.6672988e-07
1.3563012e-07 -2.5619196e-08 -9.2141924e-08 3.3580356e-08 1.7826092e-07 1.3124117e-07 -5.909526e-08 -4.662233e-08
-2.0076868e-08 -4.06491e-08 4.070131e-08 4.604462e-08 -9.8018965e-08 1.099702e-08 -5.6860515e-08 3.6819973e-08
5.2576443e-08 -1.0468989e-07 -1.05906054e-07 -2.725099e-08 -3.5043044e-09 -1.8387675e-08 1.2646677e-07 -7.601348e-08
-9.1615306e-08 7.4446206e-08 -2.1216627e-07 -8.5408246e-08 -6.355333e-08 2.1996627e-08 3.7017406e-07 -1.3301683e-07
-1.6047363e-07 2.2384701e-07 3.1052778e-08 2.2725439e-07 -1.8473695e-07 1.3389717e-07 4.3509772e-08 -8.847752e-08
-2.3639643e-08 -1.6191142e-07 -5.0807433e-08 -6.2026324e-08 1.9596861e-07 1.5058845e-07 1.8402622e-07 1.4310368e-07
-7.111946e-08 8.530595e-09 -2.0874964e-08 -1.1826079e-07 1.5058832e-07 -1.0561244e-08 -1.8380683e-07 9.963736e-08
1.0442886e-08 7.175041e-08 -2.7299265e-07 5.5081273e-08 -3.9844366e-08 -1.0500814e-07 1.6299032e-07 -6.262114e-08
-8.114202e-08 1.5600058e-07 3.0969076e-08 3.0582737e-07 6.451205e-08 -2.1948577e-07 -1.8974004e-07 1.9505498e-07

lstm.weight_hh_l0 f4 [256, 64]
00000000: b9c8 7933 c00d ee30 fed2 9cb2 00e6 f7b1
00000010: 00b1 e2b3 b9a6 9eb3 1cd7 04b4 0269 1934
00000020: ba84 b7b3 f2e4 c833 48f3 3032 d732 69b3
00000030: f597 1a34 f72f b833 c2ae 1134 442f 3833
00000040: 87d8 e0b3 bba5 b933 132f 9b34 bd4e 91b3
00000050: 7e7c c733 2540 13b4 367e c733 00c8 632f
00000060: 51d2 e631 987f e331 7a19 96b3 1cc6 d132
00000070: 732d 3134 5e8e 3634 8328 10b4 c3f9 c4b3
00000080: 4a00 1134 1c10 d033 b8bb bfb3 15fa 42b4
00000090: ca0c 8a34 62fc 98b3 0103 d5b3 c082 2d33
000000a0: 9289 3d34 243e 9533 9d97 1234 e7bb 1cb4
000000b0: 44ef c333 5a96 0eb4 2529 0934 6bba 6cb4
000000c0: 99e2 10b4 d0af e6b1 3ea5 90b3 d92d bbb3
000000d0: ecab 3c34 7e4a ec33 56af 20b4 b9f6 3c34
000000e0: f82c 7a32 80b4 86b0 f553 f933 bc21 3134
000000f0: 6090 0c33 8e44 e5b3 928d 18b4 e617 0c34
00000100: 9420 6733 8695 5234 a4bf 80b3 ccb6 ec33
00000110: 30ca f5b1 0d41 6634 84e5 44b4 4a26 39b3
00000120: ae9e 7e34 6de4 ed33 e973 8c32 4427 23b4
00000130: d4e7 a633 f822 1731 a410 38b4 d855 39b2
00000140: a0b8 6db4 f849 b033 4dee 0934 baa5 b7b3
00000150: bc3f 7d34 fe18 0934 d74a ac33 6044 bd32
00000160: 428e 9f33 d26f 8db4 96e5 28b3 9ac6 18b3
00000170: e82d 95b2 a109 bbb2 6896 9833 4041 ddb1
00000180: 08a1 92b4 be76 ad33 7052 2834 6ccc 2e33
00000190: 4dca 0d34 4ca8 4734 a6d4 a5b3 593e f8b3
000001a0: ed6a eab3 6c6b 9b33 dd03 9133 8aef 2934
000001b0: 9893 d7b3 fac2 3834 42e9 81b3 d0e4 d533
000001c0: 7268 14b4 0335 84b3 9887 c1b3 c8ff 97b4
000001d0: 01dc b033 d88f 0db3 a0b1 0031 d92d 13b4
000001e0: b2a9 ee33 e087 7832 9df8 a334 3b59 d633
000001f0: f497 4a33 a66b 9334 1eb4 58b4 b1ae 1ab4
00000200: 8ab9 0eb4 22cb 8eb3 a848 00b4 6651 c2b3
00000210: f4ff 9cb3 d7f9 2634 7b6c 18b4 36ca 8bb4
00000220: c046 b732 b19e 19b4 e89e c533 8215 b5b3
00000230: 12a0 12b4 a6d9 8434 2049 9ab3 a161 8533
00000240: e085 b431 1b40 31b4 fafc 6a34 5211 1ab4
00000250: 585b b033 d161 6bb3 b14d dc33 29e4 4134
00000260: f048 1833 2b22 9d32 54e1 0234 c6df ac33
00000270: 96e0 f0b3 92aa a1b4 11c6 a733 28fe 7eb2
00000280: 13a2 0834 10aa 3e32 ac20 7933 d09c 6b32
00000290: 37c4 0f34 2d4a 2cb4 80fc 5db1 0fbf 1433
000002a0: 4d11 01b4 7752 9a34 399b 1334 925a 5334
000002b0: 461b 7a34 1ed6 ad33 0013 42b4 e89c beb3
000002c0: 9412 2734 0c5d 8133 0251 62b3 d94b 9033
000002d0: c703 3eb4 7891 7a34 79d1 b133 68a6 4234
000002e0: 0903 52b4 e6ac 4834 a093 4432 9681 9534
000002f0: 2afa 4ab4 789b 8832 c816 ec32 9666 04b4
00000300: e0e0 f3b2 1e22 e1b2 782a b6b2 c2d2 ecb3
00000310: 9d32 90b3 b8c0 9831 be61 1434 fb31 84b4
00000320: a676 c333 5462 4034 5a2d ab33 0302 9032
00000330: 9603 5034 3053 93b3 1213 ef33 220a dab3
00000340: ac77 2db4 f80d 68b2 2870 6e32 19f1 5f34
00000350: 5a12 ee33 a614 b833 9a92 a633 710d dfb3
00000360: 8d41 28b3 c28e 6434 303c 4ab2 4cb6 5e34
00000370: 3e70 4e34 818c edb3 444e 48b3 daf5 80b3
00000380: ba49 4fb4 be7b 3634 61ab d4b3 71a5 a833
00000390: 935b 07b4 d60c 9933 b0e5 da32 30d1 2333
000003a0: 3eb2 b0b3 321b 1234 6eab 1cb4 b011 4db2
000003b0: e0de be33 3018 74b3 f254 01b4 7821 b7b2
000003c0: 85a6 6d34 04c9 77b4 0890 f2b3 5bb2 8eb2
000003d0: ce93 9fb3 b619 a733 3a0f 3eb4 96c4 11b4
000003e0: 021d 0f34 959c 0ab3 e82f 1e34 0c54 4d34
000003f0: e131 0834 62f9 4834 509f 57b4 ec15 95b4
5.8157386e-08 1.7320687e-09 -1.8256738e-08 -7.214794e-09 -1.0556141e-07 -7.387775e-08 -1.2371714e-07 1.4287437e-07
-8.5457444e-08 9.354871e-08 1.0299864e-08 -5.429578e-08 1.439765e-07 8.5768924e-08 1.3567754e-07 4.2883826e-08
-1.0470199e-07 8.64488e-08 2.890525e-07 -6.766411e-08 9.2893046e-08 -1.3713777e-07 9.289617e-08 2.0716584e-10
6.717791e-09 6.6210752e-09 -6.9895535e-08 2.4420892e-08 1.6500944e-07 1.7001864e-07 -1.3425783e-07 -9.1723926e-08
1.3504282e-07 9.688685e-08 -8.9282764e-08 -1.8158637e-07 2.5713808e-07 -7.12396e-08 -9.919132e-08 4.0398618e-08
1.7652044e-07 6.9496565e-08 1.3652466e-07 -1.459699e-07 9.123917e-08 -1.3279478e-07 1.2774088e-07 -2.2047031e-07
-1.3493481e-07 -6.7138686e-09 -6.73558e-08 -8.716206e-08 1.7571409e-07 1.10031564e-07 -1.4964948e-07 1.7598622e-07
1.456214e-08 -9.801084e-10 1.1610238e-07 1.6496682e-07 3.27276e-08 -1.06761135e-07 -1.4207606e-07 1.304721e-07
5.381351e-08 1.961217e-07 -5.995324e-08 1.1022857e-07 -7.1534245e-09 2.1444085e-07 -1.833742e-07 -4.3108493e-08
2.3713321e-07 1.1077723e-07 1.6350855e-08 -1.5194843e-07 7.772147e-08 2.199327e-09 -1.7142389e-07 -1.0787936e-08
-2.2139511e-07 8.2090935e-08 1.2845813e-07 -8.551747e-08 2.3585648e-07 1.2768211e-07 8.0229874e-08 2.203359e-08
7.429891e-08 -2.6344657e-07 -3.9324355e-08 -3.5570885e-08 -1.7366759e-08 -2.1774044e-08 7.10541e-08 -6.4393646e-09
-2.7311785e-07 8.077539e-08 1.567621e-07 4.0698453e-08 1.3205245e-07 1.8594545e-07 -7.722092e-08 -1.1559741e-07
-1.0915924e-07 7.23729e-08 6.7527914e-08 1.5826495e-07 -1.0038565e-07 1.7207267e-07 -6.04946e-08 9.960206e-08
-1.3821571e-07 -6.156372e-08 -9.011927e-08 -2.8312047e-07 8.235657e-08 -3.2959946e-08 1.872742e-09 -1.3707121e-07
1.1113606e-07 1.4466394e-08 3.0542006e-07 9.9813825e-08 4.716999e-08 2.7459208e-07 -2.0182094e-07 -1.440592e-07
-1.3292279e-07 -6.64934e-08 -1.1947361e-07 -9.048635e-08 -7.310874e-08 1.5550846e-07 -1.4195568e-07 -2.6037895e-07
2.1336177e-08 -1.4306967e-07 9.202432e-08 -8.4323815e-08 -1.3655543e-07 2.4745276e-07 -7.184485e-08 6.211054e-08
5.2539093e-09 -1.6507731e-07 2.188498e-07 -1.4348669e-07 8.212254e-08 -5.4804165e-08 1.025868e-07 1.805753e-07
3.5456594e-08 1.8292743e-08 1.2189167e-07 8.050078e-08 -1.1216723e-07 -3.0112693e-07 7.8125716e-08 -1.4842534e-08
1.2724949e-07 1.1098123e-08 5.8004545e-08 1.3714455e-08 1.3389295e-07 -1.6045733e-07 -3.2303262e-09 3.4632702e-08
-1.2020355e-07 2.8744736e-07 1.3746912e-07 1.9683856e-07 2.3292986e-07 8.094888e-08 -1.807457e-07 -8.8761055e-08
1.5559846e-07 6.023956e-08 -5.26934e-08 6.719319e-08 -1.7696503e-07 2.3335986e-07 8.2803076e-08 1.8128196e-07
-1.9558878e-07 1.8689352e-07 1.1442268e-08 2.78477e-07 -1.8903725e-07 1.5903183e-08 2.7484376e-08 -1.2330779e-07
-2.8391185e-08 -2.6208962e-08 -2.1206901e-08 -1.1027943e-07 -6.714729e-08 4.445692e-09 1.3819133e-07 -2.4623282e-07
9.101977e-08 1.7917165e-07 7.9710574e-08 1.6764721e-08 1.9372814e-07 -6.8603526e-08 1.11327736e-07 -1.0153259e-07
-1.6155417e-07 -1.35073535e-08 1.3878925e-08 2.0856204e-07 1.1086077e-07 8.5719236e-08 7.756644e-08 -1.0386692e-07
-3.9175166e-08 2.128609e-07 -1.1771633e-08 2.074168e-07 1.9226079e-07 -1.106173e-07 -4.663731e-08 -6.0051846e-08
-1.9305199e-07 1.6995088e-07 -9.903193e-08 7.853203e-08 -1.2606169e-07 7.1269525e-08 2.548299e-08 3.814165e-08
-8.228061e-08 1.3607203e-07 -1.4590998e-07 -1.1936592e-08 8.888105e-08 -5.6832675e-08 -1.2044964e-07 -2.1319224e-08
2.2132924e-07 -2.3076797e-07 -1.1295202e-07 -1.6612082e-08 -7.4309e-08 7.78122e-08 -1.7700668e-07 -1.3575695e-07
1.3328466e-07 -3.227304e-08 1.4732325e-07 1.9122689e-07 1.2684133e-07 1.8717176e-07 -2.0081393e-07 -2.7769363e-07

lstm.bias_ih_l0 f4 [256]
00000000: 3005 ba33 de9d 9db3 c02c 8eb2 a57a 78b4
00000010: 856b a133 98bc 17b4 0145 0833 c026 7db2
00000020: 5f66 a633 de7d e032 b02e 4631 2ee6 9ab3
00000030: 7759 f6b3 5773 98b4 406e 9b33 d6b7 c4b4
00000040: ad3a 0cb4 0ce7 fa32 c3fd db33 9f16 cdb4
00000050: eb55 84b3 c89e 3bb2 fe7c d133 ff20 1534
00000060: 63b5 dbb3 24f4 8fb3 7ce2 d7b2 18bc 3fb4
00000070: 98c7 9234 ad52 aeb3 1a17 9eb3 26d7 1733
00000080: 8e48 bd33 2865 4032 626e 9c33 e4cc 3db4
00000090: 8d8e 5d34 7633 ecb3 d9b2 11b4 7838 edb2
000000a0: ba57 33b4 05e3 0bb4 706d b2b3 3576 2534
000000b0: e345 2934 0006 32b0 a431 0cb1 d0eb 3234
000000c0: d094 2234 5a4f 5934 8402 54b3 07d1 cd33
000000d0: f453 c733 bc72 96b2 f161 03b4 7212 5f34
000000e0: 0824 4e34 ae83 7db4 76cd 1634 483b 6a32
000000f0: 4262 0a33 e4b9 cf33 76f7 9833 b6e4 21b2
00000100: 7ed9 8e34 5314 3134 b068 e132 c0a4 b032
00000110: 987d db33 10fe a6b3 e88a d331 0911 8133
00000120: d666 5e34 e008 6b32 d04c e1b4 5a80 1bb4
00000130: b9ab 1fb4 812c d933 14c2 83b3 04f6 25b3
00000140: ccfd 9333 3972 ff33 e6b5 ae33 ee32 4934
00000150: 752d 2534 a58a 16b4 e482 9ab3 ce09 42b4
00000160: 75df 3033 0026 2db0 28ca 0bb4 6c57 1b33
00000170: 1aeb 4b33 00dc 0734 de08 d2b3 ec14 1334
00000180: 4f61 e6b3 a062 79b2 3e63 1b34 ad38 34b4
00000190: e7e8 f633 0c66 66b4 3821 beb1 9bf9 f3b3
000001a0: 842a 1133 c65e b3b3 b87b 22b4 41ff 93b3
000001b0: 8a72 7bb4 6b33 e0b3 737f 3834 65a8 3e34
000001c0: 16f5 1334 6e56 8db4 18b2 b733 1341 08b4
000001d0: a079 cbb3 1e17 f434 1c50 e2b2 0a10 db34
000001e0: 7634 a2b3 4433 0db4 dcbd 23b3 7b5f f933
000001f0: 3075 94b1 aa97 6db4 704c 48b4 9791 8934
00000200: 3868 2933 3206 5d33 8a28 9433 2afb a634
00000210: b74e 5134 b774 ad33 a2f1 3fb4 b8bd 6cb3
00000220: 1c69 de33 58e2 09b3 f668 8bb3 2ecc 4eb3
00000230: c793 2534 0603 51b3 513e 8db4 ded2 2834
00000240: e25f 2834 34ec 1934 024d 29b4 96bf 97b3
00000250: a89c 0f34 c877 c3b2 12db bab4 1867 c732
00000260: 109c 2b34 b4ed e732 3a85 49b3 6e57 2d32
00000270: 9610 8233 84d0 9db3 aed1 c633 e8c3 f9b1
00000280: 27df d1b3 28e0 b133 5b2b 8b34 761b 03b4
00000290: 2088 0d32 0684 45b4 e750 1632 34b2 9831
000002a0: 923e 8e33 989e 30b2 e817 14b4 25d0 1834
000002b0: 1f4e a732 9a5b 65b3 e0d2 5eb4 d9a6 6434
000002c0: 61f5 c9b4 2a72 1c34 8475 25b3 2b1f 13b4
000002d0: f0ba 9730 44ba aa33 94dd a632 41f3 69b3
000002e0: c09c 3b33 f80e 21b4 38cc 24b3 4486 55b4
000002f0: a5b8 ea33 54b8 6534 d6ca 1ab4 b841 1db3
00000300: 7475 3d32 c0a0 ed2f bec6 1634 a8d9 7ab2
00000310: 0718 1532 4021 09b0 2efc c0b3 c381 7e33
00000320: b4d0 b033 21dc 4234 2600 f9b3 43b9 9eb4
00000330: 3217 33b3 3668 ea33 1e2b 5533 258c 9834
00000340: 90d3 2d34 d689 c4b4 a2da 51b4 a876 51b2
00000350: c7e5 e233 0ca7 3eb4 bd55 edb3 c74c 4534
00000360: eea7 e8b3 42b6 8733 014b 1434 f2b4 db33
00000370: b6e6 02b4 74fa 9bb3 4965 8933 a470 f8b3
00000380: df00 db33 901b 8431 4960 0434 3993 c4b4
00000390: 3e7f 7ab4 8aa4 c934 30c6 bab4 26a8 c2b3
000003a0: ba4b 9d34 9011 96b1 d13a 1fb4 e0f7 f0b3
000003b0: 43aa bcb3 94a7 4834 c032 9f33 a809 9e33
000003c0: dc88 7f32 100a 23b3 64d1 4db4 ed18 99b4
000003d0: d202 29b4 160d a6b4 38ed 9d33 e2fa 3333
000003e0: 824b 8f33 e6a8 26b3 c5d5 a5b3 562c 5e34
000003f0: 71cb 80b3 b8c7 1b33 c237 ac33 96b8 1234
8.6622435e-08 -7.339598e-08 -1.6551326e-08 -2.3141418e-07 7.5167044e-08 -1.4131581e-07 3.1727726e-08 -1.4735349e-08
7.7485986e-08 2.613427e-08 2.883933e-09 -7.213053e-08 -1.1471541e-07 -2.8396127e-07 7.237804e-08 -3.6641603e-07
-1.3059862e-07 2.9208898e-08 1.0244141e-07 -3.8200685e-07 -6.1623574e-08 -1.0920935e-08 9.755057e-08 1.388871e-07
-1.0230976e-07 -6.703365e-08 -2.5132287e-08 -1.7856689e-07 2.7339843e-07 -8.117545e-08 -7.3616505e-08 3.5353104e-08
8.814196e-08 1.1198871e-08 7.2843946e-08 -1.7676535e-07 2.0634089e-07 -1.0998967e-07 -1.3569242e-07 -2.761611e-08
-1.6702589e-07 -1.3027973e-07 -8.3086775e-08 1.5409826e-07 1.5764776e-07 -6.476455e-10 -2.0400899e-09 1.666333e-07
1.5141563e-07 2.0238568e-07 -4.9362384e-08 9.584078e-08 9.2819306e-08 -1.7514473e-08 -1.2235957e-07 2.0775204e-07
1.9198353e-07 -2.3610366e-07 1.4044585e-07 1.3634072e-08 3.2219994e-08 9.673002e-08 7.1230644e-08 -9.423436e-09
2.6607808e-07 1.6491803e-07 2.6241054e-08 2.0564016e-08 1.02208276e-07 -7.776191e-08 6.1567e-09 6.010129e-08
2.0712773e-07 1.3680818e-08 -4.1965404e-07 -1.4482194e-07 -1.4870501e-07 1.0112945e-07 -6.1354655e-08 -3.8640806e-08
6.891386e-08 1.189514e-07 8.1355935e-08 1.8738112e-07 1.538336e-07 -1.4020277e-07 -7.194993e-08 -1.8071225e-07
4.1181426e-08 -6.2991035e-10 -1.3018928e-07 3.616826e-08 4.7478444e-08 1.265289e-07 -9.7805e-08 1.3698053e-07
-1.072791e-07 -1.4516132e-08 1.4471604e-07 -1.6784425e-07 1.14976324e-07 -2.1457544e-07 -5.5335043e-09 -1.1360972e-07
3.379911e-08 -8.352576e-08 -1.5132434e-07 -6.891651e-08 -2.3417866e-07 -1.0440166e-07 1.7182701e-07 1.775639e-07
1.3779604e-07 -2.6326182e-07 8.5539966e-08 -1.2689661e-07 -9.4750476e-08 4.5465362e-07 -2.6346292e-08 4.08036e-07
-7.5532554e-08 -1.3150299e-07 -3.812407e-08 1.1612334e-07 -4.3206896e-09 -2.212752e-07 -1.865426e-07 2.562417e-07
3.9443165e-08 5.1461207e-08 6.899161e-08 3.1102655e-07 1.9493278e-07 8.0771706e-08 -1.7876167e-07 -5.512058e-08
1.03568e-07 -3.2103657e-08 -6.491784e-08 -4.8148813e-08 1.5420584e-07 -4.8664354e-08 -2.6308638e-07 1.5722932e-07
1.5681101e-07 1.4335166e-07 -1.5767367e-07 -7.066335e-08 1.3374904e-07 -2.2755458e-08 -3.4804594e-07 2.321353e-08
1.5982391e-07 2.7000034e-08 -4.692013e-08 1.00898045e-08 6.056614e-08 -7.348811e-08 9.258234e-08 -7.2691257e-09
-9.772912e-08 8.2829786e-08 2.5922313e-07 -1.2210316e-07 8.238231e-09 -1.8395085e-07 8.749544e-09 4.4440416e-09
6.623772e-08 -1.0280608e-08 -1.3792271e-07 1.4231826e-07 1.9476884e-08 -5.340153e-08 -2.0752077e-07 2.1294854e-07
-3.7617704e-07 1.4570165e-07 -3.8523936e-08 -1.370178e-07 1.1039827e-09 7.9501234e-08 1.9425705e-08 -5.4470778e-08
4.3681894e-08 -1.4999739e-07 -3.836996e-08 -1.9886016e-07 1.0930061e-07 2.1394345e-07 -1.4416159e-07 -3.6614182e-08
1.1027954e-08 4.3224269e-10 1.404214e-07 -1.46014045e-08 8.678405e-09 -4.988756e-10 -8.986568e-08 5.9257e-08
8.2336015e-08 1.814774e-07 -1.1594993e-07 -2.956459e-07 -4.169778e-08 1.091543e-07 4.9632142e-08 2.8414175e-07
1.6188847e-07 -3.6608134e-07 -1.954418e-07 -1.219238e-08 1.0565741e-07 -1.77559e-07 -1.1051768e-07 1.8374986e-07
-1.0833888e-07 6.31958e-08 1.381086e-07 1.0230896e-07 -1.2191126e-07 -7.263307e-08 6.397983e-08 -1.1568889e-07
1.01981406e-07 3.844839e-09 1.2328486e-07 -3.6614964e-07 -2.3329355e-07 3.7558885e-07 -3.47894e-07 -9.064415e-08
2.9298627e-07 -4.367571e-09 -1.4829426e-07 -1.1220959e-07 -8.7854026e-08 1.8687416e-07 7.413246e-08 7.359205e-08
1.4874072e-08 -3.7960547e-08 -1.9168289e-07 -2.8516607e-07 -1.5740378e-07 -3.092943e-07 7.354032e-08 4.1904862e-08
6.672691e-08 -3.88035e-08 -7.722296e-08 2.069149e-07 -5.99747e-08 3.6270393e-08 8.0195164e-08 1.3664462e-07

lstm.bias_hh_l0 f4 [256]
00000000: 84a9 1933 0863 2fb1 4892 e4b3 21f3 1334
00000010: 9215 0f34 6b0b 34b4 e022 04b3 4887 3c32
00000020: d38a 0834 ae3c a033 ec22 70b3 cad9 e033
00000030: 2ed1 8db3 6966 a1b3 ccfb 6bb1 1475 43b3
00000040: 807c 3a32 7654 b633 42fe 6832 84f3 0433
00000050: ff24 1eb4 4044 1e33 8ee7 3134 a01a 85b3
00000060: 52f1 a033 60f1 01b4 7f9b 9ab3 483a 9db2
00000070: be21 fc33 a42a 4eb2 a7a6 5733 c6e8 84b4
00000080: 34f6 58b4 515c 3134 dbc0 f5b3 f87f 65b4
00000090: e868 08b4 808c 58b2 c888 b7b3 6c6f 25b4
000000a0: e805 ff32 d222 2633 fd00 0834 c082 0534
000000b0: 7b6f 0834 212b 29b4 347b 89b3 a056 93b3
000000c0: 9d73 8933 ff13 c7b2 35ed 14b4 f2ec 3eb3
000000d0: 0d2d c334 7c63 c133 c88a b9b2 9fb9 0fb4
000000e0: 9589 1234 8af8 7934 62bc 29b4 cd6e b0b3
000000f0: 6c7d 1ab4 80e2 65b1 4de2 9633 eeb5 20b4
00000100: 7c19 12b4 5828 0934 a41e 0cb4 79e1 90b3
00000110: e0ad 1bb3 8a75 8a33 274b 42b4 9ee5 9d34
00000120: 9990 b933 be4a d132 e050 16b2 938d 8833
00000130: 7239 9d31 c408 e134 5a61 f133 6239 6db3
00000140: b29f b933 bd99 a233 6616 a4b3 247e 6734
00000150: ca35 9233 c075 0db2 8ba0 47b4 6b8f d4b2
00000160: 504d 58b2 c9a8 1933 a11c 8ab4 d17f 8a34
00000170: 8cf1 f8b2 796b 4034 e60e 7434 5c5c 89b3
00000180: e735 92b3 dc3d 1131 d66a f4b2 1c35 e233
00000190: 80c1 fc31 cc6a 9ab4 b1fd 3834 7042 a832
000001a0: 768d a2b3 b2ab f9b3 3097 c3b3 10e7 79b4
000001b0: 9f0b 6634 f739 8633 98bf 6334 52f8 24b4
000001c0: 247e 9833 9271 f633 ea53 b8b3 fa96 b233
000001d0: df93 71b4 6049 2a33 88a6 2eb3 6559 e0b3
000001e0: 8a3f 4d33 d493 6334 5cc0 9bb3 8e34 5634
000001f0: f82e ffb2 1619 a233 ca7d 8033 9cb6 8db2
00000200: 7c1c 14b4 c1e9 1834 bda4 1334 6ef6 d1b3
00000210: d73e 09b4 6d38 5cb4 4254 42b3 40ea 1633
00000220: 6657 74b3 16f6 93b3 0e71 ceb3 843c 4334
00000230: 6c83 3334 a7a8 9b33 1a5a a233 4eb6 5b34
00000240: 20a2 00b1 c84a 46b2 0085 7d33 5eff 07b4
00000250: f316 3834 6f64 1d34 196c deb3 b821 bc32
00000260: 717b f5b3 4095 0ab3 57f2 88b3 386b 2d34
00000270: 52e1 4eb4 605c d631 ffb9 3e34 2d15 98b4
00000280: ea82 f7b3 fcc9 3034 a6ed a2b3 dc23 0ab4
00000290: 0d50 96b4 c7fe a833 ec55 8132 7cb6 08b3
000002a0: f597 6334 3ed7 87b3 556b 9b33 d539 62b4
000002b0: b0e3 57b4 e078 f431 f335 05b3 8f3e 70b4
000002c0: 083e 03b2 3c3f 45b3 6035 72b3 d114 d4b1
000002d0: 14b2 7c34 dac6 db33 fc9b 0534 3483 7433
000002e0: 9c94 d932 d033 da32 fc59 3334 cb05 d6b3
000002f0: a6ab 2e34 82f0 abb2 28c6 8a33 a33b 0134
00000300: 93c0 d333 5c14 a6b3 2825 14b2 b889 e932
00000310: 0af1 e9b3 ab3a 35b4 ece7 c6b3 deea f932
00000320: a531 f333 fbd2 b032 b274 3db4 30d1 3531
00000330: b99b 2334 2e59 2f33 e010 5733 c22d 1e34
00000340: 611f 85b3 48ef e3b4 f84e 5433 daa9 e033
00000350: c9da 7933 6d1f 94b3 865c 1c33 60ba bab4
00000360: 11f0 0e34 6c9e 9f32 24c9 c733 cde1 8cb3
00000370: 0ddd 22b4 f65f b133 e8c9 1db4 429f 65b4
00000380: dfea 84b3 3c73 85b3 f0c3 28b4 fe7e 4cb4
00000390: 4099 f9b0 ea16 3033 a6c8 99b3 c042 0fb4
000003a0: 8a42 cab3 4ee5 0b31 b926 4d34 bcc1 e832
000003b0: f085 4134 f13a f333 6f65 ad34 3e4e 1a33
000003c0: 668e 59b4 0444 2033 443c 3433 054c b0b3
000003d0: 6d1a e0b4 9089 4eb2 bcc2 bd32 91d0 cb33
000003e0: 1b21 7a34 584b 3034 f668 cab3 9674 eb33
000003f0: 3539 1634 5b9b 48b4 d0bc 9b32 b082 3333
3.5777262e-08 -2.5522144e-09 -1.0643686e-07 1.3778892e-07 1.332576e-07 -1.676796e-07 -3.0765364e-08 1.09738e-08
1.2716491e-07 7.461618e-08 -5.5911116e-08 1.04704284e-07 -6.603874e-08 -7.515775e-08 -3.434013e-09 -4.5508457e-08
1.0854933e-08 8.490399e-08 1.3561989e-08 3.095512e-08 -1.4728356e-07 3.6849315e-08 1.6568649e-07 -6.198138e-08
7.4944765e-08 -1.2101873e-07 -7.1994684e-08 -1.8303709e-08 1.1740802e-07 -1.20004735e-08 5.0210158e-08 -2.475628e-07
-2.0206136e-07 1.6517994e-07 -1.1443782e-07 -2.1373842e-07 -1.2704152e-07 -1.2604801e-08 -8.546482e-08 -1.5407358e-07
2.9688593e-08 3.8681556e-08 1.2666347e-07 1.2434157e-07 1.2706543e-07 -1.5755042e-07 -6.40197e-08 -6.860978e-08
6.4005896e-08 -2.3175742e-08 -1.386987e-07 -4.4453323e-08 3.635436e-07 9.005359e-08 -2.1599945e-08 -1.3385441e-07
1.3647362e-07 2.328035e-07 -1.5807885e-07 -8.215793e-08 -1.4387996e-07 -3.3452636e-09 7.026083e-08 -1.4967347e-07
-1.3606581e-07 1.2773796e-07 -1.3049663e-07 -6.746536e-08 -3.6246888e-08 6.447506e-08 -1.8094998e-07 2.9410597e-07
8.641036e-08 2.4364791e-08 -8.749538e-09 6.358746e-08 4.575832e-09 4.1915894e-07 1.1240145e-07 -5.5233052e-08
8.643782e-08 7.571678e-08 -7.6409194e-08 2.1559441e-07 6.808439e-08 -8.234053e-09 -1.8591724e-07 -2.4745267e-08
-1.2590434e-08 3.5776598e-08 -2.5725333e-07 2.5797502e-07 -2.8980843e-08 1.7920492e-07 2.2729691e-07 -6.39636e-08
-6.8084596e-08 2.113544e-09 -2.8453922e-08 1.05336056e-07 7.3561637e-09 -2.876244e-07 1.7228628e-07 1.9587986e-08
-7.5694444e-08 -1.1626197e-07 -9.107896e-08 -2.3273992e-07 2.1424647e-07 6.250405e-08 2.1210724e-07 -1.5364029e-07
7.1009964e-08 1.1475926e-07 -8.5834316e-08 8.3162334e-08 -2.2498669e-07 3.9647944e-08 -4.066399e-08 -1.04470736e-07
4.778807e-08 2.1194802e-07 -7.25274e-08 1.9949422e-07 -2.9707266e-08 7.548276e-08 5.9833454e-08 -1.6497602e-08
-1.3793937e-07 1.4241142e-07 1.3750373e-07 -9.777146e-08 -1.278198e-07 -2.0509624e-07 -4.5245777e-08 3.5137646e-08
-5.6890165e-08 -6.889984e-08 -9.613187e-08 1.8182806e-07 1.6718485e-07 7.2484276e-08 7.560102e-08 2.0462286e-07
-1.8718609e-09 -1.154212e-08 5.9027116e-08 -1.2665757e-07 1.7144684e-07 1.4658302e-07 -1.03573434e-07 2.1901414e-08
-1.14311554e-07 -3.226637e-08 -6.377075e-08 1.6150886e-07 -1.9267216e-07 6.2387215e-09 1.7762794e-07 -2.8327614e-07
-1.1525647e-07 1.6464759e-07 -7.586941e-08 -1.2865297e-07 -2.7997922e-07 7.8694534e-08 1.505665e-08 -3.1830936e-08
2.1196304e-07 -6.32558e-08 7.2372735e-08 -2.106893e-07 -2.0106268e-07 7.1150765e-09 -3.1015542e-08 -2.23745e-07
-7.639308e-09 -4.5925148e-08 -5.639356e-08 -6.1723786e-09 2.3534113e-07 1.0234153e-07 1.2443337e-07 5.6930006e-08
2.5329705e-08 2.5402102e-08 1.670341e-07 -9.966205e-08 1.6267458e-07 -2.001639e-08 6.46217e-08 1.2035757e-07
9.860482e-08 -7.733681e-08 -8.623182e-09 2.7187397e-08 -1.0893753e-07 -1.6878282e-07 -9.26228e-08 2.909422e-08
1.13245996e-07 2.058504e-08 -1.764445e-07 2.6457876e-09 1.523721e-07 4.082647e-08 5.0073936e-08 1.4731543e-07
-6.199003e-08 -4.2456145e-07 4.9431918e-08 1.0461709e-07 5.8173814e-08 -6.8975034e-08 3.640573e-08 -3.4780805e-07
1.3312116e-07 1.8582078e-08 9.303247e-08 -6.560331e-08 -1.5167844e-07 8.25966e-08 -1.4695217e-07 -2.1385225e-07
-6.189452e-08 -6.214256e-08 -1.5717501e-07 -1.904518e-07 -1.8160691e-09 4.0999034e-08 -7.1611154e-08 -1.3342196e-07
-9.4184614e-08 2.0357507e-09 1.91062e-07 2.7096455e-08 1.8023252e-07 1.1326291e-07 3.2297564e-07 3.592708e-08
-2.0261504e-07 3.7314763e-08 4.1964327e-08 -8.2094665e-08 -4.174248e-07 -1.2022056e-08 2.209105e-08 9.490862e-08
2.3295108e-07 1.6418687e-07 -9.42545e-08 1.0964247e-07 1.399065e-07 -1.868297e-07 1.8130237e-08 4.1795545e-08

lstm.weight_ih_l0_reverse f4 [256, 19]
00000000: bba0 71b4 fba2 1232 52ec 1db4 4ac9 06b4
00000010: 180f 3534 a038 8631 c0b5 12b4 284d 4034
00000020: ff07 78b3 385e 99b3 c3b4 d033 dea6 8ab4
00000030: 970f 3634 0d29 2734 98ed 66b2 d443 f732
00000040: 46dd 20b4 ef82 ec33 3cd9 c9b3 c0d8 17b3
00000050: a417 dbb4 a321 7934 1441 5233 bc2b 82b2
00000060: 65f4 b233 8693 2a33 9a47 20b3 d0c1 0933
00000070: 0f39 bc33 0440 0433 7040 3033 748c 1434
00000080: fa9c 0f34 055f bbb3 cb31 46b4 7680 1bb3
00000090: 1f0f 1434 3e18 fc33 4e5d a0b3 f571 9933
000000a0: 119e 48b4 1349 9634 bf92 3134 acd3 4334
000000b0: 418e 16b3 8234 90b3 0eac 12b2 ee8f 9f34
000000c0: 3c02 2c33 6d98 8933 4613 0034 4e66 ba33
000000d0: 22e8 8033 8093 4fb2 952c 33b4 00f4 0732
000000e0: aada 7534 c18e 32b4 dee2 2333 60aa 4a32
000000f0: 8175 f633 634a 4634 fce7 5333 25d0 8bb4
00000100: 025a 3333 0cae 95b2 e19d 48b4 70be 3431
00000110: d86b 01b3 dcc9 a433 5a00 9cb3 9ba0 9733
00000120: b02e 1633 c0cc e8b0 fed5 b733 28d4 9cb1
00000130: e18b 7b34 d456 1233 50a6 dd33 a239 52b3
00000140: e01c 15b4 2ee4 7ab2 a4c0 dcb3 62cf 9233
00000150: a52f aab3 08c2 36b2 5628 1733 adb2 9534
00000160: 5aaf 1334 20a3 d6b2 d0af a3b2 4da2 35b2
00000170: 7409 69b1 0037 8fb0 342b 7634 d020 4933
00000180: 774f 1734 4053 d832 2159 bab3 dc67 d0b2
00000190: 0c36 e4b3 d8b3 6ab4 4a21 e232 3a2c ebb3
000001a0: 0f58 d1b3 e9fe 8433 d7dc 4234 10de 57b4
000001b0: 78a3 5332 581f 0934 f18a 1ab4 276f f1b2
000001c0: 2ec3 6ab3 1854 8db3 88cc 01b3 c076 2430
000001d0: d4c3 4533 a4b9 f932 328a 9ab3 a810 f2b3
000001e0: 0cd6 7933 45ea 0e34 fa0a 04b4 d1e3 18b4
000001f0: 2d4e 2b34 3b4a ef31 4097 7c34 8849 b7b3
00000200: dab7 58b4 07bc d7b3 a24e 4533 aacb 1a33
00000210: 3869 a6b2 c645 f0b3 cecf ac33 7e53 3e34
00000220: dad1 53b3 e4bd 8a34 91d7 2eb4 6451 5233
00000230: 101f 1cb1 0476 c632 00d5 83b0 e9d2 0e33
00000240: 4174 02b4 3ff0 11b4 96c3 0234 a653 e134
00000250: 51e0 0b34 ee1d 1733 f622 1fb4 4ad1 0734
00000260: 6093 e730 0f15 4733 661a 3f34 ac72 44b4
00000270: a36d 7834 ca27 dbb4 30f5 9832 ff55 2a34
00000280: d8bc f2b3 fc9b 4333 627d 5633 e27f 5a33
00000290: 8199 bf34 4925 77b3 3df9 e2b3 d835 4fb4
000002a0: 6074 03b4 9446 0934 da30 5fb3 b23c c5b3
000002b0: ac3a 0eb4 80cb a3b0 79cd 4033 0c7b 5ab4
000002c0: eaad 4db4 a07a 12b4 2247 6ab4 ec8b 1eb4
000002d0: 7f14 09b4 c3eb 57b3 5cd6 4ab4 b0eb a134
000002e0: 3225 a2b4 77ca 95b4 3c46 cfb2 a922 d1b2
000002f0: add5 24b3 f091 a133 e5b9 8f33 328d 17b4
00000300: a287 18b4 940f 0fb4 6ebd 2b33 e493 51b4
00000310: 30fb 7332 c4ec 22b3 20ec 5eb3 3891 c7b3
00000320: 536e 3f34 2d31 95b3 20f7 bb32 c3e1 4f34
00000330: 3486 6833 e439 9633 38fd a332 ba7c 4134
00000340: dde0 8fb3 f283 4db4 7c98 e6b3 7415 4933
00000350: 7445 a433 22ba a934 d60d 84b3 e47f 4534
00000360: 6636 06b3 5843 16b4 683d b633 2159 1334
00000370: b293 6f33 c666 9133 5071 3ab1 d041 35b3
00000380: 2c7f 0fb4 de74 46b3 b02a 02b2 c9c4 8bb3
00000390: 7eba 4134 4ab9 c533 44b1 4533 1128 8633
000003a0: 5527 5eb4 04af 96b3 284f e5b1 0005 4db4
000003b0: 6ae9 dd33 0ef7 53b4 44e8 6cb3 cc7e 18b3
000003c0: 6bc6 4734 b4ef a7b3 6b91 4e34 382f 04b4
000003d0: 5e73 3334 9888 2833 7e6d 0933 de99 2734
000003e0: 1352 d1b3 4305 2234 ebf6 6534 c124 0e34
000003f0: 3df9 8cb4 da07 96b4 d886 17b1 8485 9cb4
-2.2503347e-07 8.535376e-09 -1.4707737e-07 -1.2552951e-07 1.686243e-07 3.906351e-09 -1.366343e-07 1.7909463e-07
-5.7749272e-08 -7.141756e-08 9.718635e-08 -2.5825915e-07 1.6955742e-07 1.5568021e-07 -1.3441785e-08 2.878543e-08
-1.498166e-07 1.1013423e-07 -9.3993066e-08 -3.535456e-08 -4.080913e-07 2.3202169e-07 4.8953623e-08 -1.515388e-08
8.333226e-08 3.971538e-08 -3.7318024e-08 3.207407e-08 8.764811e-08 3.0791867e-08 4.10368e-08 1.383467e-07
1.337502e-07 -8.72515e-08 -1.8458302e-07 -3.6205584e-08 1.3789075e-07 1.1739074e-07 -7.4675526e-08 7.1453464e-08
-1.8683956e-07 2.7992846e-07 1.6537795e-07 1.8237796e-07 -3.5053976e-08 -6.715074e-08 -8.537439e-09 2.972078e-07
4.0048903e-08 6.407286e-08 1.192794e-07 8.679909e-08 6.002689e-08 -1.2082523e-08 -1.6686893e-07 7.913513e-09
2.2896953e-07 -1.6629475e-07 3.815773e-08 1.1796686e-08 1.14766415e-07 1.8467249e-07 4.9338254e-08 -2.6042213e-07
4.1758547e-08 -1.742503e-08 -1.8683888e-07 2.6301699e-09 -3.0133236e-08 7.673563e-08 -7.26438e-08 7.0606994e-08
3.496706e-08 -1.6938415e-09 8.5605265e-08 -4.564317e-09 2.3427084e-07 3.4072244e-08 1.03213665e-07 -4.8946852e-08
-1.3887211e-07 -1.4603797e-08 -1.02795894e-07 6.8363775e-08 -7.9249084e-08 -1.0637912e-08 3.5194113e-08 2.7883416e-07
1.3754234e-07 -2.498706e-08 -1.9055648e-08 -1.05724896e-08 -3.3911336e-09 -1.0420251e-09 2.2926253e-07 4.6828802e-08
1.409188e-07 2.5183567e-08 -8.6775124e-08 -2.4261617e-08 -1.06269084e-07 -2.1858375e-07 2.6325e-08 -1.0951085e-07
-9.748339e-08 6.193097e-08 1.8147999e-07 -2.0104221e-07 1.2318985e-08 1.2770522e-07 -1.4392914e-07 -2.8106639e-08
-5.4659886e-08 -6.581121e-08 -3.0221173e-08 5.9831606e-10 4.604574e-08 2.9071835e-08 -7.1963214e-08 -1.1272033e-07
5.8169505e-08 1.3310007e-07 -1.2297451e-07 -1.4238982e-07 1.5954056e-07 6.9642545e-09 2.3524353e-07 -8.534977e-08
-2.0183452e-07 -1.004592e-07 4.5939153e-08 3.604115e-08 -1.9372791e-08 -1.11885626e-07 8.0471736e-08 1.7725503e-07
-4.9318125e-08 2.5842667e-07 -1.6283435e-07 4.896846e-08 -2.2718645e-09 2.3103901e-08 -9.592043e-10 3.3253773e-08
-1.2149486e-07 -1.3591578e-07 1.2178347e-07 4.1970378e-07 1.302699e-07 3.5184648e-08 -1.4820748e-07 1.2648994e-07
1.6849349e-09 4.635245e-08 1.7797865e-07 -1.829564e-07 2.3136685e-07 -4.082088e-07 1.7806627e-08 1.5863769e-07
-1.13033536e-07 4.5543842e-08 4.9939793e-08 5.087339e-08 3.568821e-07 -5.754308e-08 -1.0569281e-07 -1.9297966e-07
-1.2242663e-07 1.2784795e-07 -5.1965664e-08 -9.184568e-08 -1.3246125e-07 -1.1917649e-09 4.489036e-08 -2.0347596e-07
-1.9155382e-07 -1.364192e-07 -2.1818826e-07 -1.47658e-07 -1.2766576e-07 -5.0273012e-08 -1.88907e-07 3.0160072e-07
-3.0201915e-07 -2.7900725e-07 -2.412991e-08 -2.4346564e-08 -3.8378563e-08 7.5236926e-08 6.6927704e-08 -1.4114337e-07
-1.4205446e-07 -1.332358e-07 3.9986325e-08 -1.9518444e-07 1.4201575e-08 -3.79339e-08 -5.1903157e-08 -9.293075e-08
1.7828397e-07 -6.947298e-08 2.1882045e-08 1.9360509e-07 5.4138766e-08 6.9954496e-08 1.9090848e-08 1.8019901e-07
-6.699859e-08 -1.9140114e-07 -1.0737946e-07 4.681847e-08 7.6494786e-08 3.1614132e-07 -6.149246e-08 1.8393581e-07
-3.124878e-08 -1.3994338e-07 8.486205e-08 1.3722867e-07 5.5780852e-08 6.770783e-08 -2.7130973e-09 -4.2202203e-08
-1.3364178e-07 -4.6206758e-08 -7.576702e-09 -6.508487e-08 1.8042371e-07 9.207231e-08 4.602886e-08 6.247149e-08
-2.068967e-07 -7.0167545e-08 -6.673776e-09 -1.9093932e-07 1.0333572e-07 -1.9740784e-07 -5.5159276e-08 -3.550558e-08
1.8605503e-07 -7.820145e-08 1.9238148e-07 -1.2310636e-07 1.6712644e-07 3.923978e-08 3.199738e-08 1.5609064e-07
-9.74725e-08 1.508934e-07 2.1417115e-07 1.3238152e-07 -2.6258377e-07 -2.794539e-07 -2.2050042e-09 -2.915441e-07

lstm.weight_hh_l0_reverse f4 [256, 64]
00000000: 3cbc 6533 bf15 f533 c8f3 9ab3 9acb 05b4
00000010: f3ea 73b4 be8c 7cb3 f9a0 f3b3 719d 58b4
00000020: 9017 2ab4 bf67 96b4 0c17 1633 60c4 76b1
00000030: 0e5a 40b3 aab0 6434 ae10 cfb3 85db a233
00000040: 5c2b 8bb4 f6d1 8d34 c213 1ab4 30f8 7633
00000050: 9f3e d1b3 4f00 58b4 9730 0234 9655 4534
00000060: d23d 76b4 3ceb 7634 827a 8db3 2b4b bb33
00000070: aa83 a7b3 830b 5833 d0c6 f9b3 2812 dcb2
00000080: 8c72 6ab4 3e8a 3234 3a33 e134 50db 7433
00000090: 30ce 6db4 be23 bb33 db88 07b4 5c14 3a33
000000a0: 34b4 35b4 a45b b934 84c4 2033 2b5e dcb3
000000b0: 8092 d533 f7ab 65b4 c1d1 8433 f6e0 9433
000000c0: 6019 8d32 e77c 0fb4 e9d4 1334 e03e 5532
000000d0: 57ce 87b4 f878 9a33 3ff1 b7b3 aef9 83b4
000000e0: b437 46b3 6d6d 0734 fea6 5534 a2da 85b3
000000f0: 88c9 5532 9bf4 dc33 a6d0 9133 26cc 46b3
00000100: c02b ad30 18ff 4e33 828f 9ab4 6f95 1eb4
00000110: 3096 45b4 e2fd dfb4 faeb 05b4 7beb adb4
00000120: d894 7633 7076 8234 d2a7 2ab3 fd08 7d34
00000130: b098 aab2 0cac 0db4 4637 9c33 be4d d9b3
00000140: baa6 c932 3225 edb3 d7e4 60b4 e213 0eb2
00000150: 2a6c c0b3 a25e 60b2 6c06 7bb4 1220 85b2
00000160: 7cd7 ba33 ac05 81b3 a87a 9834 0414 6a32
00000170: 0a6b 4234 55c1 9ab3 b42f f932 7c1d beb3
00000180: 2558 5e34 6558 6534 343e 1434 903c a731
00000190: 0c9d 29b4 b4a8 35b3 85b3 55b3 f432 6333
000001a0: c05c 3f33 7c2f 8a34 5d1a df33 da9d eb33
000001b0: 3e7e bc33 3125 84b4 a4c2 03b4 4824 1d32
000001c0: def5 6532 2e95 37b4 983d 19b3 d8b3 d733
000001d0: ba61 96b3 3a6e 8933 c98a 2bb4 d6f1 c7b3
000001e0: ced2 0134 b98c 3bb4 bc87 d7b3 7354 9632
000001f0: 4254 c033 13ed 4c34 909d fcb2 bf2a 6a34
00000200: f09a 6534 0c49 2734 2fdf bbb3 2b6a 8cb4
00000210: 28f2 77b4 fc2a 8634 9608 8434 fa41 03b4
00000220: c0fc 8b34 c0ab fab0 e562 08b4 3a88 99b3
00000230: abb1 4b33 847c a632 5cea 1a34 7d29 9233
00000240: a141 4db4 58db 3034 34f3 8934 92e1 32b4
00000250: d74c 5934 acf6 4134 0200 0d34 240f 9734
00000260: d276 4e34 ce58 7eb4 7e61 7c33 6cbb f9b1
00000270: aa98 0834 651f 91b3 3c93 d6b2 8eb5 4134
00000280: 20c0 f1b2 7ba2 7bb4 5092 56b3 6e57 19b4
00000290: a966 0934 0bba 2333 09bd 3a33 fa4c 88b3
000002a0: ea90 a133 98ce ce33 9e6b ed33 6222 89b3
000002b0: 1f58 07b4 0021 1f34 f868 78b2 a801 1032
000002c0: 82cd 0ab4 d283 87b3 9643 8433 4faf 3fb4
000002d0: 9da1 02b4 54ea b2b3 783f 1934 142b 38b4
000002e0: 5165 21b3 6592 44b4 484e 1bb4 1ee0 6d33
000002f0: d502 0cb4 1059 7e34 bf05 b4b3 1360 e8b3
00000300: becb 5fb3 b48f 0233 8b50 5834 3a40 1bb4
00000310: 6be7 77b3 0297 0cb2 8a1c 04b4 ca2f 9cb3
00000320: 28ad 47b4 7a77 ec33 e823 3b32 40da 2834
00000330: bbe3 b1b4 04f1 4733 c226 f632 493f 3133
00000340: 6dbe fdb3 b14b 85b3 d226 5eb4 a899 8932
00000350: f89d fab2 3d8d db33 ba6b 79b4 4d13 b833
00000360: 9c29 15b4 407b 9d31 5613 1a34 60b9 dbb1
00000370: e324 c933 1485 05b4 50e5 bcb2 96f6 4c34
00000380: 8eb0 7b34 4ebe d033 e298 d932 6c76 1db2
00000390: fef8 34b4 cea8 ae33 0553 1f34 c83e 4f32
000003a0: ab60 0734 242b 14b3 954a ed33 807e d8b2
000003b0: 2856 92b3 623d 2234 6d7d 9bb4 fd48 0cb4
000003c0: b70e 41b4 4c49 82b3 4696 76b3 d886 a731
000003d0: ee9b 8e33 e25e 85b3 60fc dfb3 94a8 16b3
000003e0: 70b9 1b31 b0b2 4ab2 88df 58b2 9bd4 d5b2
000003f0: 40be 8fb2 9cae 6d34 2028 38b2 23aa cc32
5.3489416e-08 1.1412657e-07 -7.2155274e-08 -1.246066e-07 -2.2716613e-07 -5.8801326e-08 -1.134485e-07 -2.0173844e-07
-1.5841056e-07 -2.8015162e-07 3.4945558e-08 -3.5909338e-09 -4.4785388e-08 2.1298425e-07 -9.642223e-08 7.583643e-08
-2.5922316e-07 2.6416063e-07 -1.4349555e-07 5.7502064e-08 -9.7437116e-08 -2.011668e-07 1.212487e-07 1.837819e-07
-2.2933025e-07 2.2996113e-07 -6.588108e-08 8.721539e-08 -7.800493e-08 5.030189e-08 -1.163113e-07 -2.5619627e-08
-2.183462e-07 1.6627834e-07 4.1946788e-07 5.701014e-08 -2.2147356e-07 8.7143675e-08 -1.2622642e-07 4.3325016e-08
-1.6922496e-07 3.4525613e-07 3.7431633e-08 -1.02616774e-07 9.9452336e-08 -2.1389847e-07 6.184883e-08 6.932707e-08
1.64261e-08 -1.3363352e-07 1.3767898e-07 1.2412528e-08 -2.5295842e-07 7.193188e-08 -8.565484e-08 -2.4582317e-07
-4.615113e-08 1.2612664e-07 1.9897922e-07 -6.233064e-08 1.2444055e-08 1.0289042e-07 6.7900416e-08 -4.628614e-08
1.2599841e-09 4.819512e-08 -2.878915e-07 -1.476926e-07 -1.8401693e-07 -4.172171e-07 -1.2472438e-07 -3.2395096e-07
5.741171e-08 2.4300562e-07 -3.973384e-08 2.3565731e-07 -1.9860039e-08 -1.3194239e-07 7.27437e-08 -1.0118991e-07
2.3475298e-08 -1.1042938e-07 -2.0944877e-07 -8.270009e-09 -8.9603716e-08 -1.3060033e-08 -2.3378533e-07 -1.5497822e-08
8.700496e-08 -6.008062e-08 2.840145e-07 1.3625144e-08 1.8106599e-07 -7.206351e-08 2.9009108e-08 -8.8529276e-08
2.0707428e-07 2.1359445e-07 1.3806203e-07 4.867225e-09 -1.5796485e-07 -4.229578e-08 -4.97562e-08 5.2898898e-08
4.455501e-08 2.5739052e-07 1.0389042e-07 1.0971753e-07 8.7773955e-08 -2.4613976e-07 -1.2271136e-07 9.146852e-09
1.3385458e-08 -1.7097474e-07 -3.5679108e-08 1.0044431e-07 -7.002696e-08 6.39961e-08 -1.5976106e-07 -9.310649e-08
1.2090752e-07 -1.7466927e-07 -1.00364076e-07 1.7500701e-08 8.956023e-08 1.9085228e-07 -2.9408312e-08 2.1808499e-07
2.1383653e-07 1.5579661e-07 -8.748463e-08 -2.615428e-07 -2.3091764e-07 2.499072e-07 2.4593163e-07 -1.2224328e-07
2.6074667e-07 -1.8238708e-09 -1.2701965e-07 -7.149397e-08 4.742621e-08 1.9381567e-08 1.4427627e-07 6.8062015e-08
-1.9115988e-07 1.6471074e-07 2.5695192e-07 -1.6659604e-07 2.0237654e-07 1.8064264e-07 1.3131651e-07 2.8136958e-07
1.9228472e-07 -2.36879e-07 5.876199e-08 -7.268161e-09 1.2721526e-07 -6.757799e-08 -2.4979833e-08 1.8040575e-07
-2.8143461e-08 -2.3435307e-07 -4.9958828e-08 -1.4281042e-07 1.2796467e-07 3.81206e-08 4.3478426e-08 -6.3469955e-08
7.5235064e-08 9.630202e-08 1.1055748e-07 -6.385814e-08 -1.2604913e-07 1.4820034e-07 -1.4459367e-08 8.38228e-09
-1.2927015e-07 -6.310405e-08 6.159023e-08 -1.7852038e-07 -1.2165988e-07 -8.331395e-08 1.4272325e-07 -1.7152007e-07
-3.757788e-08 -1.830718e-07 -1.4463978e-07 5.5384696e-08 -1.3039546e-07 2.3687994e-07 -8.3829484e-08 -1.0820818e-07
-5.2106536e-08 3.039868e-08 2.0145869e-07 -1.4458865e-07 -5.7719642e-08 -8.183408e-09 -1.230384e-07 -7.273009e-08
-1.8596313e-07 1.1011339e-07 1.0892997e-08 1.5725618e-07 -3.3134515e-07 4.65525e-08 2.8655794e-08 4.126858e-08
-1.1815869e-07 -6.207063e-08 -2.0689484e-07 1.6018774e-08 -2.9175666e-08 1.0223673e-07 -2.3229123e-07 8.5716785e-08
-1.3891844e-07 4.5833133e-09 1.4349402e-07 -6.3948136e-09 9.3665015e-08 -1.2435004e-07 -2.199036e-08 1.9088688e-07
2.3440427e-07 9.720371e-08 2.5331648e-08 -9.165529e-09 -1.6854389e-07 8.133212e-08 1.4838231e-07 1.2063261e-08
1.2608022e-07 -3.449817e-08 1.1049739e-07 -2.5203235e-08 -6.8143265e-08 1.5109757e-07 -2.896226e-07 -1.3065069e-07
-1.7979879e-07 -6.0669294e-08 -5.741301e-08 4.8756696e-09 6.640754e-08 -6.210554e-08 -1.04301535e-07 -3.5077917e-08
2.2660878e-09 -1.1798576e-08 -1.262368e-08 -2.4893145e-08 -1.6733907e-08 2.2135868e-07 -1.0719333e-08 2.3826095e-08

lstm.bias_ih_l0_reverse f4 [256]
00000000: 5af7 80b3 5a2e 9534 b20d 4934 ff62 28b4
00000010: 52e8 a8b3 9c00 3db4 87df 9fb3 2c49 aeb3
00000020: c2ff 79b4 a98b f1b2 b4a6 b3b3 41bd 1cb4
00000030: 0fa1 95b4 bcba c832 a038 4534 b573 4434
00000040: 9a6b 05b4 4e18 2fb3 aa1b 45b3 b05e 51b2
00000050: 8c87 01b4 e73b 9a34 b5c7 b6b3 13c5 aeb4
00000060: d0f3 3733 37eb 16b4 8b58 78b3 9e28 da33
00000070: 8952 2934 4a82 a0b4 75b2 34b4 478f 1034
00000080: 0412 5f34 30fb c532 5bf6 8433 8cee 7733
00000090: a182 d033 763d 8633 69bd b7b3 e640 c5b3
000000a0: 52c1 7c33 de1b bd33 b6d7 0a33 4621 6a33
000000b0: ed6b 02b4 48f8 8fb2 ee21 8c34 4036 bbb0
000000c0: f0f7 63b1 580a 19b4 3851 21b1 66a9 6ab3
000000d0: 2506 17b4 36df 8f32 dc1f 2234 9207 aab4
000000e0: 23e8 29b4 acc7 7cb3 3573 6334 7a8e bd32
000000f0: 7d9a 9933 e0c4 7833 3d83 9bb2 0dbd f4b3
00000100: 41d7 0eb4 e116 3cb3 6244 97b3 c9a6 4334
00000110: 75d4 9e34 f6f6 fdb3 cc81 1db3 741d 6cb3
00000120: 90e8 5d34 7b49 dbb4 0dc4 adb2 5281 2734
00000130: bd83 b1b4 34d6 73b1 01a6 b9b3 05c3 0cb4
00000140: fca8 f9b3 2d59 2534 b824 81b3 aea8 12b4
00000150: e0f9 0234 582a 50b2 fe78 fdb2 2481 1634
00000160: e0b7 9eb4 88c0 eb33 b8d2 55b4 4eef ae33
00000170: 82e1 43b4 3475 4a33 4b17 0db4 4139 3c34
00000180: 9871 5db4 6e6a feb3 3b65 ffb3 b838 6db3
00000190: 2834 feb3 b22d 66b3 761e 31b4 9c10 f7b3
000001a0: 5883 8234 0895 a433 944b 3eb3 b186 0834
000001b0: c834 72b3 0216 99b3 393f 2534 965c f1b3
000001c0: a10e 85b3 2889 a9b1 7c15 4db3 3c71 fb33
000001d0: 8974 0a33 aeec b533 d8f7 1033 f6da 73b4
000001e0: 3e35 fab2 d427 6b34 8648 1834 a662 45b4
000001f0: 30cf a934 b029 5e32 d427 23b3 b08f 0633
00000200: c33e a233 dafb 6b33 607a 8b31 56e4 4133
00000210: 220c 98b3 590e 59b4 69e9 7eb3 008e bcb3
00000220: d8b6 1233 8012 7fb2 778d f7b3 3880 41b4
00000230: ce13 1d33 2f22 5c34 ec25 d133 14e6 1532
00000240: 6bc4 cab3 e620 1d34 f676 16b4 f8a0 9ab3
00000250: baec 9e34 103e b2b3 1986 8db3 eae4 85b3
00000260: 3047 5ab4 36ba 18b4 3e73 8434 065a edb3
00000270: 034f c9b3 ce38 64b4 0c60 38b2 1ec1 63b4
00000280: 4eb9 0ab4 a6ee 8cb3 2e15 f932 b815 f9b2
00000290: 1f36 65b4 aa67 99b4 04fb 9db4 101d 2fb4
000002a0: a382 0434 4677 8b33 b33a ba33 9506 3534
000002b0: 9fe9 5eb4 643f 5d33 7085 5ab2 b629 a4b3
000002c0: a797 3034 f06e a232 ce87 dab2 df09 86b1
000002d0: 2852 db33 e749 4fb4 e711 dbb3 8412 4db3
000002e0: 2eb7 a5b3 5979 a933 de12 5c34 dcb1 cf33
000002f0: b952 ceb3 030c d8b2 8703 2434 408c 8bb0
00000300: b849 f3b3 a1dc 0033 8be3 e1b1 08f5 4534
00000310: f8c2 3eb4 84f8 7333 d8cd 1fb3 3c89 4533
00000320: 581b 7434 9711 d1b3 df68 1434 de37 7ab4
00000330: a299 7db3 5dac 9834 d6c2 0533 b032 14b4
00000340: 843f 0934 0c56 1433 1e50 3334 d0ff 34b2
00000350: 7671 afb3 48b6 8fb3 bf67 d0b3 7901 9fb2
00000360: facf 48b4 b1f3 8633 9b41 b8b3 d10f 3334
00000370: 0223 0434 d442 6c33 60f8 c031 00c3 01b4
00000380: c494 6333 a62c bdb3 1c57 fa32 e09e 06b1
00000390: d969 0933 3e15 41b4 8f35 3634 4635 46b3
000003a0: fefc 35b3 c032 2834 8ad4 ecb3 4427 30b2
000003b0: 78be d1b2 4b26 7f34 4aef 86b4 3426 e431
000003c0: 0e17 41b3 6e0b f6b3 60a9 a9b3 220e 4f34
000003d0: b08b 8b32 5b70 8333 2df1 16b3 385f 5132
000003e0: 31e8 f2b3 ac30 4db4 aa7d 9cb3 49cc 3f33
000003f0: aa39 b1b2 d097 7cb4 18f3 8634 bfb5 6134
-6.0054575e-08 2.7787138e-07 1.8724566e-07 -1.5682234e-07 -7.8653684e-08 -1.7602218e-07 -7.444674e-08 -8.115816e-08
-2.3282976e-07 -2.8119603e-08 -8.36566e-08 -1.4597482e-07 -2.7870598e-07 2.3367981e-08 1.8367655e-07 1.8296016e-07
-1.2425735e-07 -4.0767468e-08 -4.5892797e-08 -1.2186931e-08 -1.2063373e-07 2.872832e-07 -8.511362e-08 -3.2553416e-07
4.2829754e-08 -1.4055409e-07 -5.782253e-08 1.0158804e-07 1.5769378e-07 -2.989712e-07 -1.6828729e-07 1.3463169e-07
2.0775047e-07 2.3048045e-08 6.191541e-08 5.7726126e-08 9.709516e-08 6.251041e-08 -8.556055e-08 -9.185332e-08
5.8849146e-08 8.806067e-08 3.2326817e-08 5.4512633e-08 -1.2146457e-07 -1.6760296e-08 2.610172e-07 -1.362146e-09
-3.3173784e-09 -1.4252998e-07 -2.347475e-09 -5.4636438e-08 -1.4065206e-07 1.6748896e-08 1.5099016e-07 -3.1670476e-07
-1.5823802e-07 -5.8854923e-08 2.1182935e-07 2.2067287e-08 7.152719e-08 5.7921056e-08 -1.8104055e-08 -1.13965235e-07
-1.330309e-07 -4.379297e-08 -7.043924e-08 1.8221466e-07 2.9584376e-07 -1.18261525e-07 -3.667246e-08 -5.497482e-08
2.0666835e-07 -4.0845393e-07 -2.0229004e-08 1.5600133e-07 -3.306467e-07 -3.5482914e-09 -8.64493e-08 -1.3109464e-07
-1.1625704e-07 1.5399264e-07 -6.01371e-08 -1.3658675e-07 1.2198097e-07 -1.2116821e-08 -2.9508097e-08 1.401682e-07
-2.956358e-07 1.09780615e-07 -1.991383e-07 8.146036e-08 -1.824283e-07 4.7138386e-08 -1.3140122e-07 1.7529693e-07
-2.0623554e-07 -1.1847156e-07 -1.18927765e-07 -5.5232448e-08 -1.1837284e-07 -5.3592608e-08 -1.6495491e-07 -1.1504855e-07
2.4309952e-07 7.663954e-08 -4.430656e-08 1.2714987e-07 -5.639302e-08 -7.128621e-08 1.5389823e-07 -1.1239278e-07
-6.195956e-08 -4.93414e-09 -4.7749822e-08 1.17086955e-07 3.2236617e-08 8.471521e-08 3.3753025e-08 -2.2710796e-07
-2.9128042e-08 2.190057e-07 1.4182487e-07 -1.8382943e-07 3.1629452e-07 1.2931579e-08 -3.798762e-08 3.132999e-08
7.555129e-08 5.494426e-08 4.059345e-09 4.5143985e-08 -7.0802585e-08 -2.021492e-07 -5.935127e-08 -8.780262e-08
3.415957e-08 -1.484716e-08 -1.1527566e-07 -1.8021171e-07 3.6572423e-08 2.0501533e-07 9.739219e-08 8.725255e-09
-9.442086e-08 1.4633733e-07 -1.4013116e-07 -7.200464e-08 2.9602035e-07 -8.30006e-08 -6.5902164e-08 -6.234934e-08
-2.032873e-07 -1.4223846e-07 2.4670766e-07 -1.1052548e-07 -9.374164e-08 -2.125482e-07 -1.0732048e-08 -2.1211278e-07
-1.2919665e-07 -6.562668e-08 2.8997047e-08 -2.8997292e-08 -2.1346976e-07 -2.8573896e-07 -2.9426167e-07 -1.6308718e-07
1.2340983e-07 6.4943876e-08 8.671977e-08 1.6859333e-07 -2.0760352e-07 5.1513226e-08 -1.271961e-08 -7.644432e-08
1.6446448e-07 1.890973e-08 -2.5440297e-08 -3.9010355e-09 1.0212926e-07 -1.9305263e-07 -1.02012386e-07 -4.7747122e-08
-7.7167314e-08 7.891749e-08 2.049596e-07 9.671541e-08 -9.60767e-08 -2.5151172e-08 1.5274973e-07 -1.0153443e-09
-1.13289786e-07 3.0002983e-08 -6.5742305e-09 1.8436197e-07 -1.7766058e-07 5.680387e-08 -3.7207286e-08 4.599245e-08
2.2734218e-07 -9.7355205e-08 1.3821726e-07 -2.3303389e-07 -5.904588e-08 2.8437617e-07 3.1143678e-08 -1.3802014e-07
1.2782226e-07 3.4537194e-08 1.669982e-07 -1.0535544e-08 -8.169711e-08 -6.692113e-08 -9.704626e-08 -1.8510706e-08
-1.8702113e-07 6.2841885e-08 -8.580101e-08 1.6676428e-07 1.2306194e-07 5.500881e-08 5.6161724e-09 -1.2085002e-07
5.2987858e-08 -8.80912e-08 2.9143443e-08 -1.9589876e-09 3.1994066e-08 -1.7982254e-07 1.6969555e-07 -4.614892e-08
-4.237244e-08 1.5664682e-07 -1.1028267e-07 -1.0253476e-08 -2.4417417e-08 2.3762657e-07 -2.513355e-07 6.6400165e-09
-4.4957282e-08 -1.1457347e-07 -7.900485e-08 1.9283519e-07 1.6245252e-08 6.1206e-08 -3.5143945e-08 1.2187051e-08
-1.13112385e-07 -1.910982e-07 -7.287174e-08 4.465645e-08 -2.0631735e-08 -2.3524558e-07 2.513632e-07 2.1020877e-07
