LeeFiles/best_model.pth (torch, 272738 bytes, 13 tensors)

lstm.weight_ih_l0 f4 [200, 79]
0	0x3df8c824	0.12147549
1	0xbe0b0d9c	-0.1357941
2	0x3d9ea84a	0.07746942
3	0x3d5e9862	0.054344542
4	0x3d3ebee6	0.046568774
5	0xbdde2273	-0.108464144
6	0xbda4134c	-0.08011493
7	0xbce6387c	-0.028103106
8	0x3dbcbac7	0.092153125
9	0xbcd926a1	-0.026507678
10	0x3d8650e5	0.06558398
11	0x3dcb6882	0.09932043
12	0xbe0c3a5e	-0.1369414
13	0x3dd3637a	0.10321708
14	0xbc98be81	-0.018645527
15	0xbe194bae	-0.14970276
16	0xbd3a6127	-0.045502808
17	0x3cc2b664	0.023768611
18	0xbde683cc	-0.11255607
19	0x3d2c7b40	0.042109728
20	0xbd26825a	-0.040651657
21	0xbc5a680d	-0.013330472
22	0x3cd8523c	0.0264064
23	0xbd84e012	-0.064880505
24	0xbdf9e869	-0.12202532
25	0xbd3e9dc1	-0.046537165
26	0x3d92323e	0.07138489
27	0x3d6d95e1	0.058004264
28	0xbd811f2e	-0.06304775
29	0xbc33e423	-0.010979685
30	0xbcecf4a7	-0.028925253
31	0x3df894c0	0.12137747
32	0x3dcaf1e7	0.099094205
33	0xbd8c3027	-0.06845122
34	0x3d597662	0.053091414
35	0xbc8081c8	-0.015686885
36	0x3b9c5e93	0.0047720163
37	0x3d0ba863	0.034096133
38	0x3e2902da	0.16504994
39	0x3e02368f	0.12716125
40	0x3e31d7a2	0.17367414
41	0x3dcedfa2	0.10101248
42	0xbc38b92d	-0.011274618
43	0x3c245fd0	0.010032609
44	0x3d2492ba	0.04017899
45	0xbdcb932c	-0.0994018
46	0xbce05ef9	-0.027389036
47	0x3dbd6866	0.09248428
48	0x3db44b56	0.08803432
49	0xbdbcc470	-0.09217155
50	0xbe048bfa	-0.12944022
51	0xbe1a9915	-0.15097459
52	0xbd8cb803	-0.06871035
53	0xbd4044ca	-0.046940602
54	0xbe099272	-0.1343477
55	0xbd4749fb	-0.048654538
56	0x3d248ccf	0.040173348
57	0xbd171c19	-0.03689203
58	0x3b9b7383	0.0047439947
59	0x3b49104f	0.0030679887
60	0x3d319b56	0.04336103
61	0x3da8d883	0.08244421
62	0xbdce0419	-0.10059375
63	0xbd5540bc	-0.05206369
64	0x3cc630aa	0.024193127
65	0xbc960948	-0.018314973
66	0xbdcb55ee	-0.09928499
67	0xbcaa2b9e	-0.020772751
68	0x3dcfb1d5	0.10141341
69	0x3d7fd26a	0.062456526
70	0x3e33366a	0.17501226
71	0xbcffd6db	-0.03123038
72	0x3b78c666	0.0037960052
73	0xbc22116f	-0.009891852
74	0xbdbb45e6	-0.091441914
75	0x3d2a7104	0.041611686
76	0xbc399887	-0.011327869
77	0x3d25282e	0.04032152
78	0x3d847928	0.06468421
79	0xbdf192d4	-0.11795583
80	0xbe1db2a3	-0.15400176
81	0xbd56b7b2	-0.05242128
82	0xbd4d79de	-0.05016505
83	0xbd9e201e	-0.077209696
84	0xbdff8d02	-0.12478067
85	0x3e16139a	0.14655915
86	0x3e0be4b8	0.13661468
87	0xbbc21ad7	-0.0059236097
88	0xbdaa8f7b	-0.08328148
89	0x3d23511e	0.03987228
90	0xbd942e5b	-0.07235404
91	0x3d511737	0.05104753
92	0xbc43aaba	-0.01194256
93	0xbdeaf6ce	-0.114728555
94	0x3d143b7a	0.036189534
95	0xbdb58d3a	-0.088648275
96	0x3c04b355	0.008099397
97	0xbb6072a9	-0.003424803
98	0x3d9d707c	0.0768747
99	0x3d15118d	0.03639369
100	0xbd74c8e2	-0.05976189
101	0xbda6a3d1	-0.08136714
102	0xbd604b76	-0.054759465
103	0xbddbd665	-0.10734252
104	0x3dc380af	0.09546029
105	0xbe2dce5e	-0.16973254
106	0x3d931278	0.07181257
107	0xbdd13294	-0.10214725
108	0xbc3ed085	-0.011646395
109	0xbd7ad2b0	-0.061236084
110	0xbe00218e	-0.125128
111	0x3dab7671	0.083722
112	0xbe1e4484	-0.15455824
113	0x3d387540	0.045033693
114	0xbded7b2d	-0.115957595
115	0x3cb8a9b4	0.022541858
116	0x3dd029b6	0.10164206
117	0xbd3edf62	-0.046599753
118	0x3d2e37e3	0.042533766
119	0x3d6ef82f	0.058342155
120	0x3da148d8	0.07875222
121	0x3db91670	0.09037483
122	0xbae90a95	-0.0017779643
123	0x3dee6460	0.11640239
124	0x3d571199	0.052507017
125	0x3dbb6e8e	0.09151946
126	0x3dc786c3	0.09742501
127	0xbc41dc79	-0.01183235
128	0x3e02478d	0.12722607
129	0x3d338b3b	0.043833952
130	0xbdbeb842	-0.09312488
131	0xbdccca7b	-0.099995576
132	0xbda7bfcc	-0.08190879
133	0xbc52bff2	-0.012863146
134	0xbdcab6af	-0.098981254
135	0xbe269dad	-0.16271086
136	0x3dd568c1	0.10420371
137	0xbd3390a4	-0.043839112
138	0x3c9c5fa5	0.019088576
139	0xbddcb936	-0.10777514
140	0x3c790e7a	0.015201205
141	0xbd67d51f	-0.056599732
142	0xbd4a0728	-0.04932323
143	0x3d433986	0.04766228
144	0xbe239dd7	-0.1597818
145	0xbd971132	-0.073763266
146	0x3d82ef43	0.06393292
147	0xbd8565f2	-0.06513585
148	0x3d076163	0.03305186
149	0x3e0476e6	0.12935981
150	0xbc211e1e	-0.009833841
151	0x3d61d212	0.05513198
152	0xbe054d61	-0.13017799
153	0xbd18e862	-0.037330993
154	0x3d8fa826	0.07014494
155	0x3da21fcf	0.07916223
156	0xbd52fe4e	-0.051512055
157	0x3d7bf2b6	0.061510764
158	0x3cbc9d46	0.023024213
159	0x3ce2bddc	0.027678423
160	0xbd810337	-0.06299441
161	0xbdf5a8cf	-0.11995088
162	0x3e3aa115	0.1822551
163	0x3c5c004f	0.013427808
164	0xbdea43f4	-0.11438742
165	0x3dd08f70	0.101836085
166	0xbd9765ea	-0.073924854
167	0xbd960fec	-0.073272556
168	0xbe0cdd26	-0.13756236
169	0xbd453a04	-0.04815103
170	0xbd1e5386	-0.038653873
171	0xbd9bbc66	-0.076042935
172	0x3e030fc0	0.12798977
173	0xbd6f0825	-0.058357377
174	0xbd25192d	-0.040307213
175	0x3ddbe6f2	0.10737409
176	0xbe0015e7	-0.12508355
177	0x3d6a10a7	0.057144787
178	0x3dd24624	0.102672845
179	0x3daf2ec9	0.085538454
180	0xbd0a39d9	-0.033746574
181	0x3dbb7887	0.09153848
182	0x3c03c835	0.008043339
183	0x3e37208a	0.17883506
184	0xbdbe1a41	-0.09282351
185	0xbd581b98	-0.05276069
186	0x3e2f0903	0.17093281
187	0xbd570ce8	-0.052502543
188	0x3c9d3895	0.01919202
189	0x3c442975	0.011972775
190	0x3b64b85a	0.003489992
191	0x3e124e7c	0.14287752
192	0xbad7ab9a	-0.001645434
193	0x3b5cd4c3	0.0033696152
194	0x3d9d7527	0.07688361
195	0x3cc554ed	0.024088347
196	0x3db4ab57	0.08821743
197	0xbe18eba0	-0.14933634
198	0xbdfc0f9a	-0.12307663
199	0xbd52bdd0	-0.05145055
200	0xbe104870	-0.14090133
201	0x3d334ce7	0.04377451
202	0xbde001c4	-0.10937837
203	0xbcc9403c	-0.024566762
204	0x3c2d4d90	0.010577574
205	0x3d1bb2f8	0.038012475
206	0x3dd6edd8	0.10494584
207	0x3d213056	0.039352737
208	0xbcb4d21a	-0.02207284
209	0x3d19007b	0.037353974
210	0x3cd5fa5f	0.026120363
211	0xbd98fa9c	-0.07469675
212	0xbd9e4c15	-0.07729355
213	0x3dea3f2e	0.11437832
214	0xbdb77862	-0.08958508
215	0x3e1d549a	0.15364304
216	0x3dba019a	0.09082337
217	0xbd7d7b66	-0.06188526
218	0x3de832a1	0.11337782
219	0x3d0297c0	0.031883
220	0x3de640cf	0.1124283
221	0x3e120096	0.14258036
222	0xbdc434b5	-0.095803656
223	0x3e11142a	0.14167848
224	0xbdb4e55d	-0.0883281
225	0xbcd6ea69	-0.026234822
226	0x3d9f3fb0	0.07775819
227	0x3d98788b	0.07444867
228	0xbdf89239	-0.12137265
229	0xbdbde580	-0.09272289
230	0x3d758c06	0.05994799
231	0xbc31e2fb	-0.010857339
232	0x3e11ab38	0.14225471
233	0xbd16522b	-0.036699455
234	0xbcdccf1c	-0.026954226
235	0xbcd88586	-0.026430856
236	0xbc2bf811	-0.010496155
237	0x3dbfea75	0.09370891
238	0x3da37d1d	0.07982848
239	0x3be345d1	0.006935813
240	0x3de2bbba	0.11070962
241	0x3b8f78a1	0.0043783938
242	0xbdac1bb3	-0.08403721
243	0x3db336e3	0.08750703
244	0xbca822f6	-0.020524483
245	0xbcfb375a	-0.030666042
246	0xbda1ef7c	-0.07907006
247	0x3db72fb2	0.08944644
248	0x3de026c3	0.10944893
249	0xbb01aa75	-0.0019785438
250	0x3c3ec77e	0.011644242
251	0x3d32095f	0.04346597
252	0x3d0e9010	0.034805357
253	0xbd4017e7	-0.046897795
254	0x3d69c509	0.057072673
255	0xbe33b9fb	-0.17551415

lstm.weight_hh_l0 f4 [200, 50]
0	0xbe4026e2	-0.18764833
1	0xbd896fa0	-0.06710744
2	0x3d81b938	0.06334156
3	0xbe458af0	-0.19291282
4	0x3e562a2e	0.20914528
5	0xbd6bf489	-0.057606254
6	0xbc1eef86	-0.0097006615
7	0xbdd97e5d	-0.10619805
8	0x3ca5e607	0.020251287
9	0x3d3ad392	0.045611925
10	0x3b9c86c6	0.0047768084
11	0x3bfa2649	0.0076339585
12	0x3e0a17a3	0.13485579
13	0x3d9903f9	0.07471461
14	0x3c82c228	0.015961722
15	0xbe5c4b3d	-0.21513076
16	0x3d2088e1	0.039193038
17	0x3d924253	0.071415566
18	0xbcf94bb9	-0.030431615
19	0x3d3cf232	0.046129413
20	0x3e15338e	0.14570448
21	0x3e19605d	0.14978166
22	0xbde6ab66	-0.112631604
23	0x3e1bf650	0.1523068
24	0xbdf0da36	-0.117603704
25	0x3e048baa	0.12943903
26	0xbd815168	-0.06314355
27	0xbe196b75	-0.14982398
28	0xbdaf3c21	-0.085563906
29	0xbc6f6fcb	-0.014614056
30	0x3e1ea7c6	0.15493688
31	0x3d849221	0.064731844
32	0x3ca59d58	0.020216629
33	0xbe0910df	-0.13385342
34	0x3cff47d4	0.03116218
35	0xbaf05954	-0.0018337169
36	0x3d4ea86c	0.05045359
37	0x3d1cc93a	0.038277842
38	0x3d3ec0f7	0.046570744
39	0xbd726c2f	-0.059185203
40	0x3d2993a0	0.04140055
41	0x3ca71c5c	0.020399265
42	0x3def9b69	0.11699564
43	0x3e0009ca	0.12503734
44	0xbd18b8ef	-0.03728574
45	0x3e1398e1	0.14413787
46	0xbde676a5	-0.112530984
47	0x3e2e39f7	0.170143
48	0x3d9d1d3e	0.07671593
49	0x3d13dcab	0.036099117
50	0xbe0182fb	-0.12647621
51	0xbd9ce50f	-0.07660877
52	0xbde3d882	-0.1112528
53	0xbca9e16a	-0.020737369
54	0xbd48a706	-0.04898741
55	0x3c4909a0	0.012270361
56	0xbda13895	-0.0787212
57	0xbc38573e	-0.011251269
58	0xbd128b73	-0.03577752
59	0x3d2b8e91	0.04188401
60	0x3d8ca518	0.06867427
61	0xbe2427c5	-0.16030796
62	0x3d49057d	0.0490775
63	0x3da41e3f	0.080135815
64	0xbe1415ac	-0.14461392
65	0x3cd2acfe	0.025717255
66	0xb9437d76	-0.00018643387
67	0x3df1d531	0.11808241
68	0xbd9a6f35	-0.07540742
69	0x3d79dd5c	0.06100212
70	0xbc4f3e71	-0.012649165
71	0x3da30dea	0.07961638
72	0xbc4bd213	-0.012440222
73	0x3d88aaaa	0.066731766
74	0x3cb27ca5	0.02178795
75	0x3d886bab	0.06661161
76	0xbce3d3d5	-0.02781097
77	0x3b61d45e	0.0034458856
78	0xbce4ac5b	-0.027914217
79	0xbdec26de	-0.11530851
80	0x3ddcf3ff	0.10788726
81	0x3d44a81d	0.048011888
82	0xbe11ceb3	-0.14239006
83	0xbe35cb8d	-0.1775343
84	0xbe0bffb6	-0.13671765
85	0xbe2c6076	-0.16833672
86	0xbe099830	-0.13436961
87	0x3e222676	0.15834984
88	0x3e0e29f7	0.13883196
89	0x3d6c339d	0.05766641
90	0x3e00463a	0.1252679
91	0x3c935c68	0.017988399
92	0x3d305688	0.043051273
93	0x3e10754f	0.1410725
94	0x3c44ed35	0.012019445
95	0x3e2b6512	0.16737774
96	0xbccc83c9	-0.024965184
97	0xbe14e524	-0.14540535
98	0x3df8669d	0.12128947
99	0xbe023b49	-0.12717928
100	0x3d4c4d10	0.04987818
101	0xbce0f9eb	-0.02746292
102	0x3d9a8910	0.07545674
103	0xbcad7cd6	-0.02117769
104	0x3dc30ec5	0.095243014
105	0x3d0ac3f9	0.0338783
106	0x3dd5cee2	0.104398504
107	0xbdbeb4fb	-0.09311863
108	0x3cfcdd70	0.030867308
109	0xbba173b2	-0.004927122
110	0xbd681ea2	-0.05666984
111	0x3da5ee00	0.081020355
112	0x3e211967	0.15732346
113	0xbd0fc831	-0.035103027
114	0xbd1eb9d1	-0.038751427
115	0xbdfd74a3	-0.12375762
116	0xbe11c1f9	-0.14234151
117	0x3d78cacd	0.06074028
118	0x3e048c49	0.1294414
119	0x3da7c047	0.08190971
120	0xbd008540	-0.031377077
121	0x3d39111e	0.04518234
122	0x3e079709	0.13241209
123	0x3ba2aacc	0.004964208
124	0xbc5ef5d6	-0.013608417
125	0xbd2e2df5	-0.042524297
126	0x3bab02a1	0.0052188192
127	0xbd41389e	-0.047173135
128	0x3dcc0d4a	0.09963472
129	0x3dc0a37f	0.094061844
130	0x3d88475d	0.066542365
131	0x3d256e17	0.040388193
132	0x3c3f8e54	0.0116916485
133	0xbdd252b4	-0.102696806
134	0x3ca1e06f	0.019760339
135	0x3d032335	0.032015998
136	0x3e035323	0.12824683
137	0xbe128e12	-0.14312008
138	0xbbc8cc1f	-0.0061278488
139	0xbe191f83	-0.14953427
140	0xbdc7fd34	-0.097650915
141	0x3d70a581	0.058751587
142	0x3c107d6f	0.008818968
143	0x3e173cbb	0.1476926
144	0xbbdadfb4	-0.0066794995
145	0xbd44c639	-0.048040602
146	0xbc165ea3	-0.009177837
147	0x3c42d9ac	0.011892717
148	0x3da94589	0.08265216
149	0xbd706c64	-0.05869712
150	0x3d124a1e	0.035715215
151	0x3da797e0	0.08183265
152	0x3d7b2d12	0.06132228
153	0x3d740689	0.059576545
154	0x3e2473be	0.16059777
155	0x3d8aad18	0.06771296
156	0x3c55c13f	0.013046562
157	0xbd9cd4e8	-0.07657796
158	0x3d136e3f	0.03599381
159	0xbda1470a	-0.07874878
160	0x3bdfa4c2	0.0068250606
161	0x3daec3f8	0.08533472
162	0x3e00c7dd	0.12576242
163	0x3e26faf1	0.16306664
164	0xbe008855	-0.12552007
165	0x3dcc070b	0.09962281
166	0xbd001d1e	-0.03127777
167	0xbe0e6a7e	-0.13907811
168	0xbdcf574d	-0.10124073
169	0xbe09be9c	-0.13451618
170	0x3dbc9b92	0.0920936
171	0xbda5c03d	-0.08093307
172	0xbdce7252	-0.100803986
173	0xbd492dc4	-0.04911591
174	0x3d86104b	0.065460764
175	0xbd254584	-0.0403495
176	0xbd31bdc5	-0.04339387
177	0xbdb5750a	-0.08860214
178	0x3d4222a5	0.04739632
179	0xbc14016e	-0.009033544
180	0x3cdfe305	0.027329931
181	0xbdf20fc2	-0.11819412
182	0x3d87097e	0.06593607
183	0xbdc2c376	-0.095099375
184	0xbd99ae9f	-0.075040095
185	0xbc52596c	-0.012838703
186	0x3e147699	0.14498366
187	0xbd630cc4	-0.055432096
188	0xbe194afb	-0.14970009
189	0x3de08bdc	0.10964176
190	0x3d680ed4	0.056654766
191	0x3e076fff	0.13226317
192	0x3cf20432	0.029543016
193	0xbd22ba20	-0.039728284
194	0xbe14ebd9	-0.14543094
195	0xbda9d0ed	-0.082918026
196	0xbdacb517	-0.08432978
197	0xbd10a736	-0.035315715
198	0x3d9a9806	0.075485274
199	0xbd044808	-0.032295257
200	0x3d3f09c7	0.046640184
201	0xbd08da14	-0.0334111
202	0x3e02248d	0.12709256
203	0xbb42cfed	-0.0029725984
204	0x3c12f5a9	0.008969703
205	0x3dadf410	0.08493817
206	0xbd9c2f7c	-0.076262444
207	0x3c9eb706	0.019374382
208	0x3cabfa1a	0.020993281
209	0x3dcd8273	0.10034647
210	0x3e2e0d30	0.16997218
211	0x3db48820	0.08815026
212	0x3cf87d58	0.030333206
213	0xbcfa7afc	-0.030576222
214	0x3d4ea7a9	0.050452862
215	0xbbde2396	-0.0067791445
216	0x3d83f646	0.06443457
217	0x3d4923f2	0.049106546
218	0xbd7ec8b5	-0.062203128
219	0x3d878fa1	0.06619192
220	0x3e0422d0	0.12903905
221	0x3df5cb8d	0.12001715
222	0x3e1515ee	0.14559147
223	0x3df8ac48	0.12142235
224	0xbdbb3ff3	-0.09143057
225	0xbb4c8b23	-0.0031210862
226	0xbde24ae9	-0.11049444
227	0xbe1833cd	-0.1486351
228	0x3e36107b	0.17779724
229	0x3dd90bb4	0.10597935
230	0xbdd68c90	-0.10476029
231	0x3bc52dda	0.006017429
232	0x3c4e8a42	0.012606205
233	0xbdef51ac	-0.116854995
234	0x3d373fd3	0.044738602
235	0x3d5e1985	0.054223556
236	0xbd186589	-0.037206206
237	0xbd8621cd	-0.06549416
238	0x3c3fe2b0	0.011711761
239	0x3e32b35a	0.1745123
240	0x3dc0c9e2	0.09413506
241	0x3cec63ed	0.028856242
242	0x3d95294c	0.072832674
243	0xbd4bfc8d	-0.049801398
244	0x3db2cebd	0.087308384
245	0xbd661ffc	-0.056182846
246	0xbd88320b	-0.0665017
247	0xbdc636ee	-0.09678446
248	0x3d6c6c2b	0.057720345
249	0x3da25e03	0.079280876
250	0x3da635c4	0.08115724
251	0x3cebc84a	0.028782029
252	0x3d8d70bb	0.06906267
253	0xbc943e3d	-0.018096084
254	0x3dd0c54c	0.101938814
255	0x3d133402	0.03593827

lstm.bias_ih_l0 f4 [200]
0	0x3d5c6303	0.053805362
1	0xbdb22846	-0.08699088
2	0x3dd59e86	0.104306266
3	0xbd148a82	-0.036264904
4	0x3dc6b7a0	0.097029924
5	0x3da6bf81	0.08141995
6	0xbd8f4951	-0.06996406
7	0x3e004da4	0.12529618
8	0x3df91e49	0.121639796
9	0xbd3a473a	-0.045478083
10	0x3c78972f	0.015172764
11	0x3df7ef54	0.12106195
12	0xbc81eb53	-0.015859282
13	0x3baa9ded	0.0052068145
14	0x3e14f06a	0.14544836
15	0x3bb260ea	0.005443682
16	0x3de2c560	0.110728025
17	0xbdb84dba	-0.089992
18	0x3c053959	0.0081313485
19	0x3d164b30	0.0366928
20	0xbd01fe42	-0.03173662
21	0x3b2bbf69	0.0026206619
22	0x3df0a337	0.11749881
23	0xbd9fb9c8	-0.07799107
24	0xbcb5002e	-0.022094812
25	0x3e0f8ac9	0.14017786
26	0x3e28645b	0.16444533
27	0x3db82f62	0.089934126
28	0x3d3f92f6	0.046771012
29	0x3e0dcc29	0.13847412
30	0x3e13aa9e	0.14420554
31	0x3d4f2ca1	0.05057967
32	0x3e18c67f	0.1491947
33	0x3d60d5ea	0.054891504
34	0xbd8d0c14	-0.06887069
35	0x3e131d24	0.14366585
36	0x3d74e9d2	0.0597933
37	0xbd30bdb2	-0.043149658
38	0xbd47cd0f	-0.048779543
39	0xbde159a4	-0.11003426
40	0x3e1e2a0d	0.15445729
41	0x3e03f96c	0.12888116
42	0xbdca6930	-0.09883344
43	0x3d7951ce	0.06086903
44	0x3db51f5e	0.088438734
45	0x3b91cfff	0.004449844
46	0xbcb0f214	-0.021599807
47	0xbd2f7477	-0.04283568
48	0xbd161011	-0.036636416
49	0x3d556495	0.052097876
50	0xbd216011	-0.039398257
51	0x3db1451d	0.086557604
52	0x3e2415ff	0.16024016
53	0x3d836eba	0.06417604
54	0x3e04f015	0.12982209
55	0x3d07c870	0.033150136
56	0x3d9a540b	0.07535561
57	0xbcfb3884	-0.030666597
58	0x3dd59012	0.1042787
59	0x3da3cb2e	0.07997738
60	0x3dd1148b	0.102089964
61	0xbcf1ee1d	-0.029532487
62	0x3d980f4f	0.07424795
63	0x3df0e61e	0.11762641
64	0x3e0adc2c	0.13560551
65	0x3dfcea8b	0.12349423
66	0xbd8eb886	-0.06968789
67	0x3de15dd8	0.110042274
68	0x3dfaf19a	0.12253113
69	0x3e05ca48	0.13065445
70	0x3e2b3d00	0.16722488
71	0xbd9fffdd	-0.07812474
72	0xbc01494d	-0.007891011
73	0x3dfbf207	0.123020224
74	0x3db455db	0.08805438
75	0xbd8e0627	-0.06934767
76	0x3dbc12a8	0.09183246
77	0x3d9ee6dd	0.077588774
78	0x3dc6b507	0.09702497
79	0xbcc55168	-0.02408667
80	0xbda89c07	-0.08232885
81	0x3d8c139c	0.06839678
82	0xbd961303	-0.07327845
83	0x3d9c4bb9	0.076316305
84	0x3dba3c40	0.09093523
85	0x3e19ebe1	0.15031387
86	0x3db4c1f7	0.08826058
87	0xbd715acd	-0.058924485
88	0x3e325d87	0.1741849
89	0xbd7aaa8e	-0.06119781
90	0xbb8d2b37	-0.00430813
91	0xbdd118cd	-0.102098085
92	0xbdce1217	-0.10062044
93	0xbda74216	-0.08166902
94	0x3e171d0f	0.14757179
95	0x3e21da96	0.1580604
96	0xbc0ee18e	-0.008720769
97	0x3db108c1	0.08644248
98	0xbddfb180	-0.10922527
99	0x3e200c3f	0.15629672
100	0xbe0dacca	-0.13835445
101	0xbdb45ef7	-0.088071756
102	0x3df904a4	0.12159088
103	0xbd97e5b5	-0.0741686
104	0x3e0f0d23	0.13969855
105	0xbdd51f5d	-0.10406373
106	0x3d949e07	0.07256704
107	0xbd0327ca	-0.032020368
108	0xbdc6a266	-0.09698944
109	0x3d91e190	0.07123101
110	0xbce429e4	-0.027852006
111	0x3e222dbb	0.15837757
112	0x3d55a2aa	0.05215708
113	0x3dda2b5a	0.106528
114	0xbe0981ea	-0.13428465
115	0x3c8e1ecb	0.017348668
116	0xbbc436ba	-0.005987969
117	0xbc8ab767	-0.016933156
118	0xbd9a8c8e	-0.0754634
119	0xbdfbed37	-0.123011045
120	0x3e2b7eca	0.16747585
121	0xbcc7c5af	-0.024386255
122	0x3dcc005e	0.099610075
123	0xbcedd5a0	-0.029032528
124	0x3d40fad8	0.047114223
125	0x3e31f0a8	0.1737696
126	0x3e0189cc	0.12650222
127	0xbe18e65e	-0.14931628
128	0x3d84de88	0.06487757
129	0x3d04a12b	0.032380264
130	0x3cdfc990	0.027317792
131	0xbdeeb818	-0.11656207
132	0x3c29fc2e	0.010375066
133	0xbbfd3f56	-0.0077284975
134	0xbde5a504	-0.11213115
135	0xbc9207d4	-0.017825998
136	0x3d477564	0.048695937
137	0x3cb8a1fd	0.02253818
138	0x3e2ec5f2	0.17067698
139	0x3d66a227	0.056306984
140	0x3d9b2210	0.07574856
141	0xbd88fa2f	-0.06688344
142	0x3da65113	0.081209324
143	0xbd822ad9	-0.06355829
144	0x3dbb3e7a	0.09142776
145	0xbd93c761	-0.07215763
146	0xbe00bfc9	-0.1257316
147	0xbdc4c418	-0.096077144
148	0xbce43221	-0.027855935
149	0xbb4031d4	-0.0029326575
150	0x3dade8a1	0.08491636
151	0x3dbf6148	0.09344727
152	0x3dd02b60	0.10164523
153	0xbd7c90f3	-0.06166167
154	0x3e1ef131	0.15521695
155	0xb9836e42	-0.00025068416
156	0x3dc2a044	0.095032245
157	0x3cac3ea9	0.021025972
158	0xba82cb55	-0.000997881
159	0xbd610799	-0.054938886
160	0xbca13e86	-0.019683134
161	0x3de28a4f	0.110615365
162	0x3e40d416	0.18830904
163	0xbd1b4411	-0.03790671
164	0x3d3fb048	0.046798974
165	0x3df4207a	0.11920257
166	0x3d295a46	0.041345857
167	0xbcee4bf5	-0.029088954
168	0xbcd72fb5	-0.026267866
169	0x3e29c4c3	0.16578965
170	0xbd83f91d	-0.06443999
171	0x3e1d816a	0.15381399
172	0x3dbf1549	0.09330232
173	0x3d2f33e7	0.042774107
174	0x3cd4d6f5	0.025981406
175	0x3d04efe3	0.032455336
176	0x3d2e908c	0.04261832
177	0x3e3cf3dc	0.184524
178	0xbd352410	-0.044223845
179	0x3e034c2e	0.12822029
180	0xbc48829b	-0.01223817
181	0x3d3be476	0.045872174
182	0x3e1c5a42	0.15268806
183	0x3e234fc6	0.159484
184	0xbde59518	-0.11210078
185	0xbda50780	-0.08058071
186	0xbc5ea6c1	-0.013589562
187	0xbd344580	-0.044011593
188	0xbdbf268c	-0.09333524
189	0xbce6c78d	-0.028171325
190	0x3d5dd619	0.054159258
191	0x3c0c7aef	0.0085742315
192	0xbca73b10	-0.020413905
193	0x3cc45924	0.023968287
194	0x3dc18a50	0.09450209
195	0x3e2a9c5c	0.16661209
196	0x3d97ea98	0.07417792
197	0x3dac4877	0.08412259
198	0xbb36305e	-0.0027799825
199	0xbbf216e6	-0.0073879836

lstm.bias_hh_l0 f4 [200]
0	0x3e076627	0.13222562
1	0x3de92364	0.11383703
2	0xbbf3d0b7	-0.007440652
3	0xbdc48b79	-0.09596915
4	0x3df56688	0.11982447
5	0xbdb73394	-0.089453846
6	0x3e1491f5	0.14508803
7	0x3d0d45cf	0.034490403
8	0x3e09f790	0.13473344
9	0xbe18e2f8	-0.14930332
10	0x3df998e5	0.121873654
11	0xbd433f41	-0.047667746
12	0x3dc6c965	0.09706382
13	0x3e1a163d	0.15047546
14	0x3d8b0465	0.067879476
15	0xbdb79897	-0.08964651
16	0x3e002d1d	0.1251721
17	0xbdf5b801	-0.119979866
18	0x3dd0a76f	0.101881854
19	0xbc002b37	-0.007822803
20	0xbd4b55b4	-0.04964228
21	0x3d78124c	0.060564324
22	0x3d0ff7af	0.03514832
23	0xbcf5c670	-0.030001849
24	0x3e33106d	0.17486735
25	0x3c999390	0.018747121
26	0x3e32a02d	0.17443915
27	0x3e33ea69	0.17569889
28	0x3ce9e670	0.028552264
29	0x3d4f9740	0.050681353
30	0xbdb3eddb	-0.08785602
31	0x3d7ce157	0.06173834
32	0xbdbaa461	-0.09113384
33	0x3cad3a48	0.021145955
34	0x3b8dc871	0.004326873
35	0xbd18e5e5	-0.03732862
36	0xbd2ff4a0	-0.042957902
37	0xbccdbd71	-0.025114747
38	0xbdbc74ec	-0.092019886
39	0xbdd7c181	-0.10534955
40	0x3e1f4111	0.15552165
41	0x3bdc7a86	0.006728473
42	0x3e30772b	0.17232959
43	0xbd9539cc	-0.072864145
44	0xbcfae3d3	-0.030626213
45	0x3e2e3acb	0.17014615
46	0xbd87cce6	-0.06630878
47	0x3b7e982e	0.003884803
48	0x3bf70709	0.0075386805
49	0x3dc6ac58	0.09700841
50	0xbb89b8ff	-0.0042029615
51	0x3cf0419e	0.029328164
52	0x3e1c00c6	0.1523467
53	0x3df6853e	0.12037133
54	0x3ddf160e	0.108928785
55	0xbd92c6b4	-0.07166806
56	0xbda4ed43	-0.080530666
57	0x3e30384d	0.17208977
58	0x3d011794	0.031516626
59	0xbda0ac1e	-0.07845329
60	0x3d173e87	0.036924865
61	0x3e076505	0.1322213
62	0x3e0017d1	0.12509085
63	0xbd3390e1	-0.04383934
64	0x3da9168d	0.08256254
65	0x3d65ae6c	0.056074545
66	0x3e278e4e	0.16362879
67	0x3d085dbc	0.033292517
68	0xbd1ecdb9	-0.03877041
69	0xbd1331bc	-0.035936102
70	0x3dd25951	0.10270942
71	0x3d9ff444	0.07810262
72	0x3da1a215	0.07892243
73	0xbda0a519	-0.0784399
74	0x3b25610b	0.0025234844
75	0xbc82baed	-0.015958274
76	0x3d321161	0.043473605
77	0xbc8996ee	-0.016795602
78	0xbdcda083	-0.10040381
79	0xbd6486df	-0.055792686
80	0x3b61bab7	0.0034443566
81	0x3d023cee	0.03179639
82	0x3dc14a89	0.094380446
83	0xbc347497	-0.011014125
84	0xbd47a1da	-0.048738338
85	0x3e106035	0.140992
86	0x3d802515	0.06257073
87	0xbdc82380	-0.09772396
88	0x3dc772ab	0.09738668
89	0x3d09be1a	0.03362856
90	0x3ba2f6e1	0.004973278
91	0x3e35cf31	0.17754818
92	0x3c452f64	0.012035225
93	0x3e20fd16	0.15721545
94	0xbd1f612d	-0.038911033
95	0xbb261195	-0.002534007
96	0x3d5f55eb	0.054525297
97	0x3e27a100	0.1637001
98	0x3d3c4a70	0.045969427
99	0x3c882552	0.016619358
100	0xbdb881ca	-0.0900913
101	0xbdbd04a5	-0.092294015
102	0x3dd08740	0.10182047
103	0xbdcbd17d	-0.09952066
104	0x3cc75e79	0.02433704
105	0xbdc9acf8	-0.09847444
106	0x3dd17de8	0.10229093
107	0xbdff936b	-0.124792896
108	0x3d5a4ee5	0.053297896
109	0xbc821a1b	-0.015881589
110	0x3e07cf5c	0.13262695
111	0xbc5ddacf	-0.013540938
112	0xbdb07c79	-0.08617491
113	0x3dd3e150	0.10345709
114	0xbd058c81	-0.032604698
115	0xbd95eb71	-0.073202975
116	0xbe1e0082	-0.15429881
117	0x3d383899	0.04497585
118	0xbcacbefc	-0.021087162
119	0xbe04d017	-0.12970005
120	0xbc4ccbb8	-0.012499742
121	0x3e25570a	0.16146484
122	0x3d98be7c	0.07458207
123	0x3e297ab2	0.16550711
124	0xbdea8d1c	-0.11452696
125	0xbdb9a7cc	-0.09065208
126	0x3e0e2260	0.138803
127	0xbdc18d98	-0.09450835
128	0xbdbd1364	-0.09232214
129	0xbdaec51b	-0.08533689
130	0x3d94cda5	0.07265786
131	0xbd4b7cba	-0.049679495
132	0x3e18cbb6	0.1492146
133	0xbe188d63	-0.14897685
134	0x3d851d10	0.06499684
135	0x3dea7ee2	0.11449982
136	0xbe023c1a	-0.1271824
137	0xbca43033	-0.020042514
138	0x3df81483	0.12113287
139	0x3d19112c	0.037369892
140	0xbd989602	-0.07450487
141	0x3e12f472	0.14351061
142	0x3de60ccc	0.112329096
143	0xbc6eb9b4	-0.014570642
144	0x3d5d93b5	0.054095943
145	0x3e29aa0c	0.16568774
146	0x3dba023e	0.09082459
147	0x3de0e2f2	0.109807864
148	0x3dc18337	0.09448855
149	0xbde54997	-0.11195677
150	0x3d8eec88	0.069787085
151	0x3c949689	0.018138187
152	0x3d44130f	0.04786974
153	0x3c27999f	0.010229497
154	0xbd6ddc7c	-0.0580716
155	0x3df62ddb	0.12020465
156	0xbca1fbf8	-0.019773468
157	0x3e2ee974	0.17081243
158	0x3e0682fc	0.13135904
159	0xbdebe749	-0.115187235
160	0xbd8934ca	-0.06699522
161	0x3d994ebe	0.07485722
162	0x3bde274e	0.006779588
163	0x3e2c223a	0.16809931
164	0xbd4f4e23	-0.050611626
165	0x3e20c6e9	0.15700878
166	0x3db064b0	0.086129546
167	0xbd8d028d	-0.06885252
168	0x3cd71cef	0.026258914
169	0x3e07416a	0.13208547
170	0x3e0a4fd4	0.13507015
171	0x3e092761	0.13393928
172	0xbd28f948	-0.041253358
173	0x3e24e821	0.16104175
174	0xba99e70c	-0.0011741831
175	0x3c34c66e	0.011033637
176	0xbda0e2d4	-0.07855764
177	0x3e1fec40	0.15617466
178	0xbc124387	-0.008927233
179	0x3cbe084e	0.02319732
180	0xbcbbccf4	-0.022924878
181	0x3da8d0e8	0.08242971
182	0xbced4b24	-0.028966494
183	0x3a2fc611	0.00067052344
184	0x3de230f0	0.1104449
185	0x3db77594	0.08957973
186	0x3d524262	0.05133284
187	0x3da0d5bf	0.07853269
188	0xbd9e26f3	-0.07722273
189	0x3d18baac	0.0372874
190	0xbcbd4fd9	-0.023109363
191	0xbc8d033e	-0.01721346
192	0x3cb441e0	0.022004068
193	0x3d17ed5f	0.03709161
194	0x3cf6dda9	0.030134993
195	0x3e520259	0.20508708
196	0x3e184938	0.1487168
197	0xbd7e6946	-0.062112115
198	0x3cf42a17	0.029805226
199	0x3d2a05e3	0.04150952

lstm.weight_ih_l1 f4 [200, 50]
0	0x3de575c2	0.11204101
1	0xbac4d251	-0.0015016292
2	0x3df38baf	0.11891877
3	0xbc441668	-0.011968233
4	0xbd9a71b3	-0.07541218
5	0xbceccb72	-0.028905604
6	0x3d1ba95c	0.03800331
7	0xbde1e31c	-0.11029646
8	0x3d158757	0.036506023
9	0x3dd0dc22	0.10198237
10	0x3d840c5a	0.064476684
11	0x3d7b0131	0.061280433
12	0x3df2ddd3	0.11858716
13	0x3e101244	0.14069468
14	0x3deb6e50	0.1149565
15	0xbe265daf	-0.16246675
16	0xbcadc91d	-0.021214062
17	0xbdda0679	-0.10645766
18	0x3d8b399d	0.06798098
19	0xbb0d62ab	-0.0021573703
20	0xbd3b1ce3	-0.045681845
21	0x3d8e8283	0.06958487
22	0xbc755a46	-0.014975136
23	0xbdc3ee82	-0.09566976
24	0x3c64dbbb	0.013968403
25	0x3c6756e0	0.014119834
26	0xbc6b9a49	-0.014380046
27	0xbd03e6b2	-0.03220243
28	0x3e309855	0.1724561
29	0xbd9f261d	-0.077709414
30	0x3b26c604	0.0025447616
31	0x3dacf913	0.08445945
32	0x3e0bf550	0.13667798
33	0x3c66d9ae	0.014089985
34	0x3d84b4a9	0.06479771
35	0x3ddd2825	0.107986726
36	0xbc5ab2c6	-0.013348287
37	0x3d7c8567	0.06165066
38	0x3e00f58c	0.12593669
39	0xbde795c2	-0.11307861
40	0x3d51b812	0.051200934
41	0x3b865bd6	0.004100303
42	0x3d98d0cc	0.074617
43	0xbc48c371	-0.012253628
44	0x3d7ab49a	0.06120739
45	0xbce544b4	-0.027986862
46	0xbd29d445	-0.0414622
47	0x3db6a11f	0.0891745
48	0x3d89e4d6	0.067331
49	0x3d9430a1	0.07235838
50	0xbb078978	-0.0020681303
51	0x3e29ed7e	0.16594502
52	0x3e09f3ef	0.1347196
53	0x3cc1bea4	0.023650475
54	0x3df810fe	0.12112616
55	0xbd9abc65	-0.07555465
56	0x3e15d581	0.14632227
57	0x3d0167c6	0.031593107
58	0x3c2b1740	0.010442555
59	0x3cc14c15	0.023595849
60	0x3e154cb5	0.14580043
61	0x3de0c163	0.109743856
62	0xbdbadd4b	-0.091242395
63	0x3cb13e17	0.021636052
64	0xbde440f0	-0.11145198
65	0x3dc7198c	0.097216696
66	0xbd60a4a4	-0.054844514
67	0xbdfdf248	-0.12399727
68	0xbbadb734	-0.0053013805
69	0xbe164cc4	-0.14677721
70	0xbd3c8a2d	-0.046030212
71	0x3e0885dc	0.13332313
72	0xbce457f7	-0.027873976
73	0x3d9b96d9	0.07597131
74	0xbe0b83d1	-0.13624503
75	0x3dbde05e	0.0927131
76	0x3dedac36	0.11605112
77	0x3dc53d73	0.09630861
78	0xbbc0fa98	-0.005889248
79	0xbd0cd3f5	-0.034381825
80	0x3db55408	0.08853918
81	0x3da474b6	0.08030073
82	0xbd41f4e2	-0.04735268
83	0x3d4dad4d	0.0502141
84	0x3daa6ade	0.083211645
85	0x3d312fba	0.043258406
86	0xbd2e122a	-0.04249779
87	0x3d2a8869	0.041633997
88	0x3de34805	0.11097721
89	0x3db8d6c5	0.09025339
90	0xbe18c41e	-0.14918563
91	0x3d0579d2	0.03258688
92	0xbd8f3ebc	-0.069943875
93	0x3e311cab	0.17296092
94	0xbd61cd4e	-0.055127434
95	0x3c5ca9c7	0.013468212
96	0xbe28975f	-0.16463993
97	0x3c8bc54a	0.017061848
98	0x3dc2a185	0.09503464
99	0x3dbfa2a3	0.09357192
100	0xbd962085	-0.07330421
101	0x3e056a7a	0.13028899
102	0xbdc26909	-0.0949269
103	0xbc88a8aa	-0.016681988
104	0x3d4aa2f9	0.04947183
105	0xbe1afe68	-0.15136111
106	0x3d149035	0.03627034
107	0x3d9f0aa2	0.077657
108	0x3947bc98	0.00019048376
109	0xbdb76934	-0.08955613
110	0x3e1e4fce	0.1546013
111	0xbca4c6c0	-0.020114303
112	0x3c987181	0.01860881
113	0x3c8c8327	0.017152382
114	0xbdf26f4a	-0.11837633
115	0x3d046b83	0.032329094
116	0xbcc645a0	-0.024203122
117	0x3dc61460	0.09671855
118	0x3df4c925	0.11952428
119	0xbe237831	-0.15963818
120	0x3cac7192	0.021050248
121	0xbce30e6c	-0.027716838
122	0xbdd2263d	-0.102611996
123	0xbdd45e51	-0.10369552
124	0xbdc48f9e	-0.09597705
125	0xbd835840	-0.06413317
126	0xbd3a6653	-0.04550774
127	0x3cae6cee	0.021292176
128	0x3d4363fd	0.047702778
129	0x3d8e9bba	0.06963296
130	0x3e03fa25	0.12888391
131	0x3dc4b627	0.09605055
132	0x3de6c371	0.11267746
133	0x3de2c777	0.11073201
134	0xbce733cf	-0.028222946
135	0xbda5f3e9	-0.08103163
136	0xbe2f6935	-0.17129977
137	0xbe13dcc7	-0.14439689
138	0x3d4d7729	0.050162468
139	0x3cc42c90	0.02394703
140	0xbd4dd728	-0.050254017
141	0x3c9ea21f	0.019364415
142	0xbcd26076	-0.025680762
143	0x3df6cc0f	0.1205064
144	0x3cd75244	0.026284344
145	0xbda17264	-0.078831464
146	0x3d4ff650	0.05077201
147	0x3df64f81	0.12026883
148	0xbdb67970	-0.08909881
149	0xbe137c5b	-0.14402907
150	0x3d8cff6d	0.06884656
151	0x3d77559f	0.06038439
152	0xbd1b99a5	-0.037988324
153	0xbe157ad8	-0.14597642
154	0x3db526f0	0.08845317
155	0xbe118c4f	-0.1421368
156	0xbc8c6f05	-0.017142782
157	0x3d843c2e	0.06456791
158	0x3d97b35a	0.074072555
159	0xbcd6ce03	-0.02622128
160	0xbba5caf6	-0.005059595
161	0xbd3fe911	-0.04685313
162	0x3e162225	0.14661463
163	0x3d2a035a	0.041507103
164	0x3da8b800	0.0823822
165	0x3d7a97ab	0.061179798
166	0xbe1c5be8	-0.15269434
167	0xbd773429	-0.06035248
168	0xbd5f9bf3	-0.054592084
169	0x3c5ff049	0.013668128
170	0x3e06d8d5	0.13168652
171	0x3e1440be	0.14477822
172	0xbd3f8fc4	-0.046767965
173	0x3da355f8	0.079753816
174	0xbe22396a	-0.15842214
175	0xbd1546ec	-0.03644459
176	0x3d5ebcd6	0.054379307
177	0xbdf38543	-0.11890652
178	0x3d2d39a2	0.04229129
179	0x3d595b27	0.053065445
180	0x39b907ad	0.0003529167
181	0x3cf28a11	0.02960685
182	0x3de176b8	0.11008972
183	0x3d38ec6d	0.04514735
184	0xbd8b3960	-0.06798053
185	0x3daf51c1	0.08560515
186	0xbe1e4103	-0.15454488
187	0xbcc0b41e	-0.023523387
188	0x3d691c89	0.05691198
189	0x3dc6f2b4	0.09714261
190	0xbd94267f	-0.07233905
191	0xbdccd778	-0.10002035
192	0x3ccf2dc3	0.025290376
193	0x3d6c9209	0.057756457
194	0x3dceaae0	0.100911856
195	0xbdda14e4	-0.10648516
196	0x3c490904	0.012270216
197	0xbcbddc22	-0.023176257
198	0xbe0ac955	-0.13553365
199	0xbdfd0438	-0.1235432
200	0xbd206a47	-0.039163854
201	0x3d2dbe5b	0.042417865
202	0x3db38b8d	0.087668516
203	0x3cb947c6	0.022617232
204	0x3d0ab8b4	0.033867553
205	0xbc3ca81d	-0.011514691
206	0x3e22a528	0.15883315
207	0x3dd47d1f	0.103754275
208	0x3d82eea2	0.06393172
209	0xbc9ef32d	-0.019403065
210	0xbd8897a1	-0.06669546
211	0xbdf02b39	-0.11726994
212	0xbc608991	-0.013704673
213	0xbd2e4a14	-0.042551115
214	0xbe2bcc9d	-0.16777273
215	0xbdca816c	-0.098879665
216	0xbd63e516	-0.055638395
217	0xbe0a0678	-0.1347903
218	0xbd82ec06	-0.06392674
219	0xbdbad593	-0.09122767
220	0xbd081708	-0.03322509
221	0x3db3561f	0.08756661
222	0xbcb9a649	-0.022662299
223	0xbdc083d7	-0.094001465
224	0x3d0698c2	0.032860525
225	0x3deab309	0.114599295
226	0x3b8d87c7	0.0043191644
227	0x3c8a5109	0.016884344
228	0x3dd8f67c	0.10593888
229	0x3d514055	0.051086742
230	0x3d64cad7	0.055857506
231	0x3ce15a28	0.02750881
232	0x3d198ec8	0.037489682
233	0xbd399d1f	-0.045315858
234	0xbd8f42ba	-0.06995149
235	0xbd90f584	-0.070780784
236	0xbc65bc95	-0.014022012
237	0xbd363af8	-0.04448983
238	0x3d321090	0.043472826
239	0x3bc7ff6f	0.006103448
240	0xbdf8d96a	-0.121508434
241	0x3dfbd925	0.122972764
242	0x3b0fbef8	0.0021933895
243	0xbd430537	-0.047612395
244	0x3e07580a	0.13217178
245	0xbde5a9f1	-0.112140544
246	0xbe0cb7ab	-0.13741939
247	0xbd80bae5	-0.06285647
248	0x3da37571	0.079813845
249	0xbe21c3b6	-0.15797314
250	0xbd8f6445	-0.07001547
251	0x3d5a6cce	0.05332642
252	0xbdccd929	-0.100023575
253	0x3d594eaa	0.053053536
254	0xbd32e658	-0.043676704
255	0xbaa20652	-0.0012361503

lstm.weight_hh_l1 f4 [200, 50]
0	0x3d9b9c6b	0.07598194
1	0xbd807c17	-0.06273668
2	0xbdc2d892	-0.09513964
3	0xbce7ac17	-0.028280301
4	0xbd0ad655	-0.03389581
5	0xbddd0b9e	-0.107932314
6	0x3e264a30	0.16239238
7	0xbdc409cc	-0.09572181
8	0x3dc517de	0.09623693
9	0x3cbdc9f0	0.02316758
10	0x3d412356	0.04715284
11	0x3e2804f3	0.16408138
12	0xbdc68c64	-0.09694746
13	0x3d90a143	0.07062008
14	0x3e012422	0.1261144
15	0x3d8767d2	0.06611599
16	0xbdc04791	-0.0938865
17	0xbd50cd1a	-0.05097685
18	0x3d53fa1d	0.0517522
19	0x3dfeae8c	0.12435636
20	0x3ae100dc	0.0017166394
21	0x3da9e0cb	0.08294829
22	0xbd850ba3	-0.0649636
23	0xbd40aa6b	-0.047037523
24	0xbd9a2f98	-0.07528609
25	0xbe1125c5	-0.14174564
26	0x3dd7037b	0.10498711
27	0xbccaa8a2	-0.024738614
28	0x3dec5f62	0.1154163
29	0xbcfa2a7b	-0.030537834
30	0xbdd38faa	-0.10330136
31	0x3ccfd1ad	0.025368536
32	0x3e1e0563	0.15431742
33	0x3dbd876b	0.092543446
34	0x3c516398	0.012780093
35	0x3e1754c7	0.14778434
36	0x3d9cccd6	0.07656257
37	0x3cd16221	0.025559487
38	0x3bff8de4	0.007798897
39	0xbd952cea	-0.07283957
40	0x3de4fe24	0.11181286
41	0xbe1cf3f9	-0.15327443
42	0xbdb2a721	-0.087232836
43	0xbcb653cd	-0.022256756
44	0x3d61eeaa	0.05515925
45	0xbd76eedd	-0.06028639
46	0x3de266af	0.110547416
47	0xbdb0cc01	-0.08632661
48	0xbe1506c0	-0.14553356
49	0xbe10ce07	-0.14141093
50	0x3c7e3cfd	0.01551747
51	0x3c1d61be	0.009605823
52	0xbcd3baa6	-0.025845837
53	0xbda61796	-0.081099674
54	0xbe3cf349	-0.18452181
55	0x3e23873c	0.15969557
56	0x3c02972d	0.007970613
57	0xbdfe3f1c	-0.12414381
58	0x3e294d1a	0.16533318
59	0xbb7095a1	-0.003671028
60	0x3d380023	0.044922005
61	0x3e2d8685	0.16945846
62	0x3d6fbe3b	0.058531027
63	0xbe346c47	-0.1761943
64	0xbcc9d713	-0.024638688
65	0x3d968a7c	0.073506325
66	0x3b86da28	0.0041153617
67	0xbdb22bee	-0.08699785
68	0xbe23538f	-0.15949844
69	0x3e0b4db3	0.13603859
70	0xbdb8a303	-0.09015467
71	0xbd7454a8	-0.059651047
72	0x3dc460c2	0.095887676
73	0x3de866cc	0.11347732
74	0xbe3e050e	-0.18556616
75	0xbe16b897	-0.14718853
76	0x3ddbc49a	0.10730858
77	0xbd9a96c2	-0.07548286
78	0x3ba94b09	0.0051664156
79	0xbdddcc4e	-0.10829984
80	0x3d4f84a5	0.05066361
81	0xbd91fde2	-0.071285024
82	0x3da28a31	0.07936514
83	0xbdc963b4	-0.0983347
84	0x3cebc62e	0.028781023
85	0x3e1d4b53	0.15360765
86	0xbdbdc4e6	-0.09266071
87	0x3dc6cc91	0.09706987
88	0x3d257998	0.040399164
89	0x3d108e27	0.035291817
90	0xbc963523	-0.018335884
91	0xbd447db6	-0.04797145
92	0x3d2a8f64	0.041640654
93	0x3d19b088	0.03752187
94	0x3cb13c9e	0.02163535
95	0x3dcb6a04	0.0993233
96	0xbba102c6	-0.0049136607
97	0x3db51561	0.08841968
98	0xbe10b802	-0.14132693
99	0xbb10e871	-0.0022111202
100	0xbdf298d0	-0.11845553
101	0x3dba7f3d	0.091063
102	0xbdf27283	-0.118382476
103	0xbd8f27ec	-0.06990036
104	0x3d23b4bd	0.039967287
105	0xbd0cc705	-0.034369487
106	0xbc9c7cb5	-0.019102434
107	0xbe03f1c7	-0.128852
108	0xbccc4e84	-0.024939783
109	0xbcf4f627	-0.02990253
110	0xbd6aa421	-0.05728543
111	0xbd4fe325	-0.05075373
112	0x3cd90ec2	0.026496295
113	0xbd2cd6e9	-0.04219714
114	0x3e1f87fa	0.15579215
115	0x3c9ad998	0.018902585
116	0xbd6b088a	-0.05738119
117	0xbd1f1c1a	-0.03884516
118	0x3c35dde9	0.011100271
119	0xbdc8620c	-0.09784326
120	0x3ddcad0a	0.10775192
121	0x3d8eae3f	0.069668286
122	0x3ca02071	0.01954672
123	0xbd2ada01	-0.04171181
124	0xbd97e978	-0.074175775
125	0xbe2025eb	-0.15639465
126	0x3d08fed7	0.03344616
127	0x3e093613	0.13399534
128	0x3e02816a	0.1274468
129	0xbd6080ef	-0.05481046
130	0xbd09955a	-0.0335897
131	0x3e0ed3c4	0.1394797
132	0x3d21c524	0.03949465
133	0x3dfa2843	0.122147106
134	0xbd92a2bb	-0.071599446
135	0xbd0565a7	-0.032567646
136	0x3db29f38	0.08721775
137	0x3d9fb049	0.077972956
138	0xbe2cfae5	-0.16892584
139	0xbd8dee64	-0.06930235
140	0xbc481699	-0.012212419
141	0xbe3a6fa2	-0.18206647
142	0xbca3d1e6	-0.019997548
143	0x3d492382	0.04910613
144	0x3bac5566	0.0052592037
145	0x3a95f95c	0.0011442113
146	0x3e1cd36e	0.15315029
147	0xbe13560b	-0.14388292
148	0xbdcd0691	-0.10011018
149	0xbd048dda	-0.032361843
150	0xba31f12c	-0.00067879516
151	0x3e19dba0	0.15025187
152	0x3d986ee4	0.07443026
153	0x3d78ab64	0.060710326
154	0xbe1db87e	-0.1540241
155	0xbcb5c491	-0.022188457
156	0x3d995ae7	0.07488041
157	0xbe1f1550	-0.15535474
158	0xbc463a38	-0.012098841
159	0x3caada4d	0.020856047
160	0x3d830706	0.06397824
161	0x3cc2f981	0.023800613
162	0xbdaa8d46	-0.08327727
163	0x3da358ff	0.07975959
164	0xbd99b088	-0.07504374
165	0x3ca568f7	0.020191653
166	0xbd9aeded	-0.07564912
167	0x3e193286	0.1496068
168	0xbe15fe0b	-0.14647691
169	0x3ca36a0c	0.019948028
170	0x3d7f6502	0.062352188
171	0x3d0435c0	0.032277822
172	0xbcc86bd4	-0.024465479
173	0x3ccca9ec	0.024983369
174	0x3d3d9d40	0.046292543
175	0xbd2795ee	-0.04091447
176	0xbdad9316	-0.0847532
177	0x3cfee59c	0.031115346
178	0x3dbe8dc1	0.09304381
179	0xbdb60c2b	-0.088890396
180	0x3e1d2d74	0.1534937
181	0xbd8ad45d	-0.06778786
182	0x3d28df6c	0.041228697
183	0xbce6cef6	-0.028174859
184	0xbde0afed	-0.10971055
185	0x3d606947	0.0547879
186	0xbe0ad993	-0.1355956
187	0x3db41b5c	0.08794281
188	0xbcfa69fa	-0.030568112
189	0x3de89b2d	0.113577224
190	0x3e192d48	0.1495868
191	0xbe0226b3	-0.12710075
192	0xbd8feb3f	-0.070272915
193	0xbe08e023	-0.13366751
194	0xbdf326ce	-0.11872636
195	0xbda45a32	-0.08025016
196	0xbde90811	-0.11378492
197	0xbc3b397a	-0.011427278
198	0x3d4dab34	0.0502121
199	0x3d792011	0.060821597
200	0xbc8a0eaa	-0.016852695
201	0xbc4fe419	-0.01268866
202	0xbd8b2316	-0.067938015
203	0x3dd0a3f1	0.10187519
204	0x3d64a891	0.05582482
205	0x3d9ff686	0.078106925
206	0x3de73ace	0.11290513
207	0xbda1f52a	-0.079080895
208	0xbd68f81b	-0.056877237
209	0x3ddaac00	0.10677338
210	0xbde020cc	-0.109437555
211	0xbd6f2b22	-0.058390744
212	0x3d604f87	0.054763343
213	0x3d59be34	0.053159907
214	0x3cf6b9ec	0.030117951
215	0x3d29abd0	0.04142362
216	0x3d823dd0	0.06359446
217	0x3db0a727	0.08625632
218	0xbcef4009	-0.029205339
219	0x3d0a3d92	0.033750124
220	0x3cad301c	0.021141104
221	0xbe0b2b78	-0.13590801
222	0xbdac5981	-0.08415509
223	0x3e064cac	0.13115185
224	0xbdd3e0f3	-0.1034564
225	0xbd326450	-0.043552697
226	0xbda9e7bc	-0.08296153
227	0xbdf63116	-0.12021081
228	0x3e052444	0.13002115
229	0xbdef089c	-0.11671564
230	0x3e032cf6	0.1281012
231	0x3ddced50	0.10787451
232	0xbd092886	-0.03348591
233	0x3cb559d8	0.022137567
234	0x3dac24a3	0.084054254
235	0xbd6f9264	-0.05848922
236	0xbd87c749	-0.066298075
237	0xbd5fd5aa	-0.054647125
238	0x3d7cd132	0.06172294
239	0x3bc2d8ed	0.0059462697
240	0xbd73e42e	-0.05954378
241	0xbd66f11e	-0.05638229
242	0x3c93f189	0.018059509
243	0xbe35efc6	-0.17767248
244	0xbbb8728f	-0.005628891
245	0x3d57502a	0.052566685
246	0x3d291baa	0.041286148
247	0x3cb2d315	0.021829167
248	0xbd419386	-0.04725983
249	0x3c2dfa56	0.010618767
250	0xbde62a33	-0.112385176
251	0x3e1f762b	0.15572421
252	0x3dc6e6f3	0.09712019
253	0xbe13864f	-0.14406703
254	0xbe0643bc	-0.13111776
255	0x3b8549b7	0.0040676254

lstm.bias_ih_l1 f4 [200]
0	0x3d7b14da	0.061299182
1	0x3dd8a9c7	0.105792575
2	0x3debefd0	0.1152035
3	0x3d0bef15	0.034163553
4	0x3e2bdb42	0.16782859
5	0x3df5694b	0.11982974
6	0x3e0788cb	0.13235776
7	0xbd802c5b	-0.0625846
8	0xbc3c7e37	-0.011504701
9	0x3de9dcef	0.11419093
10	0xbdc0255f	-0.09382128
11	0xbb6b8273	-0.0035935908
12	0xbc68a4dc	-0.014199462
13	0x3cb04a07	0.021519674
14	0xbd96cbf7	-0.07363122
15	0xbdad9549	-0.084757395
16	0x3e0ea311	0.13929392
17	0xbd83e7fd	-0.06440733
18	0x3d8ca079	0.06866545
19	0x3e0f48c1	0.13992597
20	0x3d16aeeb	0.03678791
21	0xbdacbb83	-0.084342025
22	0xbdbb7f84	-0.09155181
23	0xbd02deac	-0.031950638
24	0xbdc9cfaa	-0.09854062
25	0xbd40014e	-0.046876244
26	0x3e2dfd0f	0.16991065
27	0xbd34c78c	-0.044135615
28	0x3d08243e	0.03323769
29	0x3bdf79eb	0.0068199537
30	0x3dbe08e4	0.092790395
31	0x3e05af76	0.13055214
32	0x3d86a5ad	0.06574569
33	0x3e1cb92a	0.1530501
34	0x3da8dcf4	0.082452685
35	0x3d72c7c5	0.059272546
36	0x3daede9d	0.08538554
37	0x3d456671	0.0481934
38	0xbdbc3b12	-0.09190954
39	0x3d45ae99	0.048262212
40	0x3e0498ad	0.12948866
41	0xbc84ec93	-0.016226089
42	0x3c8ed1f3	0.017434096
43	0xbcf6966e	-0.030101027
44	0xbd5ca9c6	-0.053872846
45	0x3db0d84a	0.08635004
46	0x3dfd6764	0.12373236
47	0x3d022c52	0.03178055
48	0xbd421e97	-0.047392454
49	0xbcd6985f	-0.026195703
50	0x3ca4f0eb	0.02013441
51	0x3d51a379	0.05118129
52	0x3d77ae59	0.060469005
53	0x3dade631	0.08491171
54	0x3d361862	0.044456847
55	0xbdc663c3	-0.09686997
56	0xbdc7ee97	-0.09762304
57	0x3d850f56	0.06497066
58	0xbc69f615	-0.014279862
59	0x3e1b7805	0.15182503
60	0xbdab37c7	-0.08360248
61	0xbd8f2886	-0.06990151
62	0x3cb9f5b0	0.02270016
63	0x3d2ae59c	0.04172288
64	0x3da5cd95	0.08095852
65	0xbc4b36b9	-0.012403184
66	0x3d0eda83	0.034876358
67	0x3e0e2057	0.13879524
68	0xbd85dbd0	-0.065360665
69	0x3ab617b5	0.0013892563
70	0x3e2f9d9b	0.17149965
71	0x3e09587b	0.13412659
72	0xbc131ef7	-0.008979551
73	0x3e15922d	0.14606543
74	0xbd9488b2	-0.07252635
75	0x3d894c7e	0.06704043
76	0x3ddd191b	0.10795804
77	0xbbf48455	-0.0074620643
78	0x3e0c8a13	0.13724546
79	0xbda00022	-0.07812525
80	0x3e0563cd	0.13026352
81	0xbd617ef7	-0.055052724
82	0xbdaa3ac2	-0.083119884
83	0x3c9a94a5	0.018869707
84	0x3e0415f6	0.12899002
85	0x3cbcb27e	0.02303433
86	0x3e11778b	0.14205758
87	0xbb0e06a0	-0.002167143
88	0x3dc0376e	0.093855724
89	0x3d8c4163	0.06848409
90	0xbd7fd84d	-0.06246214
91	0x3d74d949	0.05977753
92	0xbced96b9	-0.029002534
93	0xbda58e7a	-0.08083816
94	0x3dfff54f	0.12497961
95	0x3d0060f3	0.031342458
96	0x3ddfd984	0.1093016
97	0xbddbb274	-0.107273966
98	0xbddd0a7e	-0.10793017
99	0x3cc3fb16	0.023923438
100	0xbe02a030	-0.12756419
101	0x3e121816	0.14267
102	0x3b959da0	0.0045659095
103	0x3db14cd1	0.0865723
104	0xbce49e30	-0.02790746
105	0x3d4b8954	0.049691513
106	0x3e0173f4	0.12641889
107	0xbe1eb7fd	-0.15499873
108	0xbbcee390	-0.0063137487
109	0x3dac1eff	0.084043495
110	0xbe0d0dec	-0.13774842
111	0x3e3585d5	0.17726834
112	0xbe0416f5	-0.12899382
113	0xbd199993	-0.037499975
114	0xbb805667	-0.00391655
115	0x3db82bd7	0.08992737
116	0x3de7c58c	0.11316976
117	0x3e08b1e7	0.13349114
118	0xbdd6a724	-0.10481098
119	0x3d84fdbc	0.064937085
120	0x3e121158	0.14264429
121	0xbd9fcd10	-0.078027844
122	0x3dc70a07	0.097187094
123	0x3dd29927	0.10283118
124	0xbe2d3914	-0.16916305
125	0xbe172a31	-0.14762188
126	0x3e22f468	0.15913546
127	0xbc0ec5fd	-0.008714196
128	0xbd05caf9	-0.032664273
129	0xbda7d4d6	-0.08194892
130	0x3e2b961e	0.16756484
131	0x3e017197	0.12640987
132	0x3d279983	0.040917885
133	0x3c0373fd	0.008023259
134	0xbe0fc3f2	-0.14039591
135	0x3ddb398e	0.10704337
136	0xbe1af351	-0.1513188
137	0x3d8a5834	0.06755105
138	0xbe051647	-0.1299678
139	0xbd8a16d4	-0.06742635
140	0x3d7d04dc	0.061772212
141	0xbdf06a81	-0.11739064
142	0xbdf25c7b	-0.118340455
143	0x3c22d46d	0.009938342
144	0x3c887e64	0.01666183
145	0xbc9b4785	-0.018955002
146	0x3da2cc24	0.07949093
147	0x3dc6a60f	0.09699642
148	0x3d89123c	0.06692931
149	0x3d3d42ba	0.046206214
150	0xbcf962b7	-0.030442579
151	0x3d843672	0.06455697
152	0x3d02cffd	0.031936634
153	0x3d93afba	0.072112516
154	0x3d710463	0.058842074
155	0x3e3103bb	0.1728658
156	0x3e04435c	0.1291632
157	0x3da056e7	0.07829075
158	0x3dd049d9	0.10170335
159	0x3e270206	0.16309366
160	0x3da311a1	0.07962347
161	0x3d0e12ed	0.034686018
162	0xbcba31e2	-0.022728864
163	0x3dfc81a7	0.12329417
164	0x3dcffb12	0.1015531
165	0xbcc452ab	-0.0239652
166	0x3c745c25	0.014914547
167	0x3d0cc353	0.034365963
168	0xbd639581	-0.0555625
169	0x3e063291	0.13105227
170	0xbc6893a3	-0.014195356
171	0x3c3ce58b	0.011529337
172	0x3e1c13bc	0.15241903
173	0xbd86d1c7	-0.065829806
174	0x3cf781c6	0.030213248
175	0xbd578790	-0.052619517
176	0x3dde1d63	0.10845449
177	0x3dea7e28	0.11449844
178	0x3dc5f06b	0.09664997
179	0x3db4b6dc	0.0882394
180	0xbc37cb04	-0.011217836
181	0xbcc01c14	-0.023450889
182	0x3e18bf84	0.14916807
183	0x3e23c5ed	0.15993471
184	0x3e189585	0.14900787
185	0x3e1bb9d2	0.15207604
186	0x3d9a6e59	0.075405784
187	0x3d7ddba6	0.06197705
188	0x3e0d7ebd	0.13817878
189	0xbcba6585	-0.022753486
190	0x38ca72ed	9.653517e-05
191	0x3e05feeb	0.13085525
192	0xbd306bbe	-0.0430715
193	0x3d97d8d8	0.074144065
194	0xbd02ab14	-0.031901434
195	0x3e0d790f	0.13815711
196	0x3db71f37	0.08941501
197	0x3e3c25e3	0.18373828
198	0xbd7f8003	-0.06237794
199	0xbd80f519	-0.06296749

lstm.bias_hh_l1 f4 [200]
0	0xbd52746e	-0.051380567
1	0x3d8219e2	0.06352593
2	0x3df5888c	0.11988935
3	0x3db9ba23	0.09068706
4	0x3c632463	0.013863656
5	0x3e32bc33	0.17454605
6	0x3d6d9ef6	0.058012925
7	0xbc8940b5	-0.016754488
8	0x3e1868a8	0.14883673
9	0x3d7b970f	0.061423358
10	0x3e070043	0.13183694
11	0xbd6254d7	-0.05525669
12	0x3d13a461	0.036045436
13	0x3ce81dac	0.028334461
14	0x3e30dc75	0.17271598
15	0x3d0db524	0.034596577
16	0x3e0bff27	0.13671552
17	0xbcec5aaf	-0.028851835
18	0x3e1550ee	0.14581653
19	0x3c13f07f	0.009029507
20	0x3d05c52b	0.032658737
21	0x3c9876f8	0.018611416
22	0x3c86079b	0.016361048
23	0x3df639ee	0.12022768
24	0xbca3a2d1	-0.019975098
25	0x3e31b124	0.1735273
26	0xbd2afb83	-0.041743767
27	0x3bb34e81	0.005472005
28	0x3e1f5239	0.15558709
29	0x3c9f23ad	0.019426191
30	0xbd7c9eb8	-0.061674803
31	0x3df49434	0.1194233
32	0x3df29c4d	0.11846218
33	0x3d4f2370	0.050570905
34	0xbd7c980c	-0.06166844
35	0x3cdcc6be	0.026950236
36	0x3e1e2b66	0.15446243
37	0x3dad69eb	0.08467468
38	0x3e15f5a7	0.1464449
39	0xbd12c727	-0.035834458
40	0x3e1d681a	0.15371743
41	0x3da1c502	0.078989044
42	0x3dec7e18	0.11547488
43	0x3e004643	0.12526803
44	0xbcb6f93d	-0.022335643
45	0xbdaeaab1	-0.085286506
46	0xbdcc60a3	-0.099793695
47	0xbc90b25e	-0.017663177
48	0xbd6357eb	-0.055503767
49	0x3dee0254	0.11621538
50	0x3dec0534	0.1152443
51	0x3e1a5895	0.15072854
52	0x3de30f06	0.1108685
53	0x3d579dc8	0.052640706
54	0x3e335380	0.17512321
55	0x3e00213d	0.1251268
56	0xbdaea92b	-0.0852836
57	0xbd3f6ca9	-0.046734486
58	0xbda4abac	-0.08040556
59	0x3dd5acfd	0.104333855
60	0x3d4fbcf2	0.0507173
61	0xbd84c71c	-0.064832896
62	0xbd48fb5d	-0.049067844
63	0x3d887e1f	0.06664681
64	0xbd93fc42	-0.07225849
65	0x3c919785	0.017772445
66	0xbd1b014f	-0.037843045
67	0xbd1a28fb	-0.03763674
68	0x3e0fe7b1	0.14053227
69	0xbcb96fa2	-0.022636238
70	0x3df472cc	0.11935958
71	0xbdb779e7	-0.08958798
72	0xbdc8a2c3	-0.09796669
73	0x3c8db8b0	0.01729998
74	0x3e0b06d2	0.1357682
75	0x3c9b07b5	0.018924573
76	0x3e035829	0.12826599
77	0xbc6de62f	-0.014520212
78	0x3cd1f440	0.025629163
79	0x3dcebeaa	0.1009496
80	0xbc85f289	-0.016351001
81	0xbd6332fb	-0.05546854
82	0x3e0fd96c	0.14047784
83	0xbdcda096	-0.10040395
84	0x3dd759ce	0.10515176
85	0x3dc8f22d	0.09811816
86	0x3d9577c4	0.07298234
87	0x3d88f785	0.066878356
88	0xbce19d75	-0.027540902
89	0xbd591f62	-0.053008445
90	0x3d828c4d	0.063744165
91	0xbddf8326	-0.109136865
92	0x3c7acfaf	0.015308305
93	0x3de3ff23	0.11132648
94	0xbd8a4060	-0.0675056
95	0x3e028c78	0.12748897
96	0x3e2d2689	0.16909231
97	0x3e161f29	0.14660324
98	0xbc181513	-0.009282368
99	0x3e082ec0	0.13299084
100	0xbdb6c024	-0.08923367
101	0x3e31e09b	0.17370836
102	0xbdba1ada	-0.09087153
103	0xbb9e3ea0	-0.004829243
104	0xbd5dcfc8	-0.054153234
105	0x3cf3c6db	0.029757908
106	0xbdb017dc	-0.08598301
107	0xbde09d08	-0.10967451
108	0x3de3a175	0.1111478
109	0x3dc06395	0.09393994
110	0xbd965ebc	-0.07342288
111	0x3df36f20	0.1188643
112	0xbe293fe7	-0.16528283
113	0xbe194400	-0.14967346
114	0x3e1170fc	0.14203256
115	0xbe0fbe09	-0.14037336
116	0x3cc6ae98	0.024253175
117	0xbd20e8f2	-0.039284654
118	0xbe00cae1	-0.12577392
119	0x3dc3e0be	0.095643505
120	0x3e02373a	0.1271638
121	0xbe0afaa6	-0.13572177
122	0xbe152fc2	-0.14569
123	0x3e1101e5	0.14160879
124	0xbe2f28f1	-0.17105462
125	0xbd7384fd	-0.059453
126	0xbd8ddd1b	-0.06926938
127	0x3db32931	0.08748091
128	0x3cea8b70	0.028630942
129	0x3cc81c1b	0.024427464
130	0x3e316a16	0.17325625
131	0xbddc7c83	-0.10765936
132	0x3dc39a96	0.09550969
133	0x3d688e22	0.056776173
134	0x3ccfde57	0.025374575
135	0x3d74085b	0.05957828
136	0x3dd6b6c2	0.10484077
137	0x3d781e6a	0.06057588
138	0xbdd00ae5	-0.10158328
139	0xbdbdbc39	-0.09264416
140	0x3e12e5e6	0.14345512
141	0xbc80d406	-0.0157261
142	0xbde95e9f	-0.11395001
143	0xbda0f5d9	-0.07859392
144	0x3d6b25f6	0.05740925
145	0x3cf9abbc	0.030477397
146	0x3d45541f	0.048175927
147	0xbe2f90d1	-0.17145087
148	0xbdf47268	-0.11935884
149	0xbe30b44f	-0.17256282
150	0x3dd0e5c6	0.10200076
151	0x3ddb9aab	0.1072286
152	0x3d806b68	0.06270486
153	0xbafa32f2	-0.0019088669
154	0x3e24ca09	0.16092695
155	0x3e0c9934	0.13730317
156	0x3e189b55	0.14903004
157	0x3de69cbe	0.11260365
158	0x3e06b173	0.13153629
159	0x3d6690f9	0.0562906
160	0x3e15708c	0.14593714
161	0xbd2749fd	-0.040842045
162	0x3e22ff2a	0.1591765
163	0xbd98fa3b	-0.07469603
164	0xbcfb13c4	-0.030649073
165	0x3d8c4d4e	0.06850682
166	0x3c85f5a9	0.016352491
167	0x3e0ec0e7	0.13940774
168	0xbd63590c	-0.055504844
169	0xbcb12001	-0.021621706
170	0x3d6604fe	0.056157105
171	0xbd844f08	-0.064603865
172	0x3e229fea	0.15881315
173	0x3bf09aaa	0.007342656
174	0xbd718300	-0.058962822
175	0xbd42982f	-0.047508415
176	0x3e370c1c	0.17875713
177	0x3dd2b932	0.102892295
178	0xbcdddcde	-0.027082857
179	0x3d932d88	0.07186419
180	0x3b21472b	0.002460907
181	0xbc8021c7	-0.015641106
182	0x3d87c482	0.06629278
183	0x3dda5841	0.10661364
184	0x3e280ec7	0.16411887
185	0x3bbdf8e0	0.0057974905
186	0x3d9d1a66	0.07671051
187	0x3e18eb0f	0.14933418
188	0x3de10bf4	0.10988608
189	0x3df15756	0.11784236
190	0xbdb418e2	-0.087938085
191	0x3e46abfe	0.19401547
192	0x3e3a4a46	0.18192396
193	0x3e37ba5f	0.17942189
194	0xbd854e62	-0.06509091
195	0x3e1ee498	0.15516889
196	0x3b9c0517	0.004761349
197	0xbd8d094b	-0.06886538
198	0xbcf96a4e	-0.030446198
199	0x3cba4e2f	0.022742359
