LeeFiles/best_model.pth (torch, 225186 bytes, 27 tensors)

lstm.weight_ih_l0 f4 [128, 69]
000000 94 d1 62 3d 52 d1 d2 3d c4 d2 46 3d 56 dd e8 3d
       0.05537565 0.10293831 0.048540846 0.113703415
000010 25 06 28 3e 00 d8 15 be 70 01 5b 3c a4 71 60 3d
       0.16408594 -0.14633179 0.013367042 0.054795876
000020 ee 78 cd 3d 46 78 8b 3d 44 54 df bd 88 a2 bf bc
       0.10032831 0.0681005 -0.10904744 -0.02339293
000030 76 bd de 3d b4 b8 15 bd 40 67 1d 3c 96 29 2e be
       0.108759806 -0.0365531 0.009607136 -0.17008051
000040 64 1f df bd 66 b1 d4 3d e0 b1 8a bc 87 62 2c 3e
       -0.10894659 0.103853986 -0.01693052 0.1683446
000050 cc 1f 23 3d 88 5e 47 bd 73 07 22 3e 3e 84 b6 3d
       0.039825246 -0.048674136 0.15823154 0.08911942
000060 1b c5 15 3e 00 53 f7 3a b8 52 ce bc 08 17 ed 3c
       0.14625971 0.001886934 -0.025185928 0.028941646
000070 ce 5c e5 3d 8c bb 62 bd 8c c0 02 be 72 66 9d 3d
       0.11199342 -0.05535464 -0.12768763 0.076855555
000080 38 91 ca 3c b0 e2 71 bd 06 9e ae 3d 20 4e 18 bc
       0.024727449 -0.059054077 0.08526234 -0.00929597
000090 83 d1 b1 bd 74 6a b9 bd 81 38 22 3e b0 e1 16 3c
       -0.08682539 -0.090535074 0.15841867 0.0092090815
0000a0 26 b7 b1 3d 96 1d 08 be 00 ab 76 ba 91 cb a9 bd
       0.08677511 -0.13292536 -0.0009409636 -0.0829078
0000b0 53 8b 00 3e cb 08 18 3e 14 ee b8 bd da ef e5 3d
       0.12553148 0.14847104 -0.09029785 0.11227389
0000c0 b0 60 3b 3d 13 25 19 3e 38 25 d3 bd 40 8c 98 3b
       0.045746505 0.14955549 -0.10309833 0.004655391
0000d0 1f f9 05 be ce 25 c5 3d 13 3e 15 be 52 34 86 3d
       -0.13083313 0.09626351 -0.1457446 0.06552948
0000e0 bd fc 26 3e 48 fc 12 bd 90 b0 63 3d a1 79 19 3e
       0.1630735 -0.035885125 0.055588305 0.14987804
0000f0 02 35 fe 3d 58 d0 59 bd 93 e7 0e 3e af b5 25 3e
       0.12412454 -0.053177208 0.13955526 0.16182588
000100 40 5b d7 bc 20 81 75 3d 10 47 e9 3c 17 5f 16 be
       -0.026288629 0.059937596 0.028476268 -0.14684711
000110 62 50 33 be 51 96 06 3e 45 3a 1c be 90 20 03 3c
       -0.17511132 0.13143279 -0.15256603 0.008003369
000120 1d c8 cc bd 10 7e 46 3d b0 4f 46 3c 05 04 2a be
       -0.09999106 0.048460066 0.01210396 -0.16603096
000130 25 12 1b be 86 98 24 be 70 75 18 be e0 aa 20 bd
       -0.1514364 -0.16073808 -0.14888549 -0.03922546
000140 20 64 44 bd 19 dd a3 bd 94 ed 22 3d b8 87 d2 bc
       -0.04794705 -0.080011554 0.039777353 -0.025699481
000150 7a a4 04 be 50 31 cf bc 38 5a 2c be 82 f6 19 be
       -0.12953368 -0.025292069 -0.1683129 -0.15035442
000160 22 90 b4 bd a3 c1 14 3e b9 c3 d5 bd 80 51 cb bc
       -0.08816554 0.14526992 -0.10437722 -0.024819136
000170 88 50 84 3c cf 25 f4 bd 5e 94 98 bd d8 5f 91 3d
       0.016151682 -0.11921274 -0.07450174 0.07098359
000180 2a d1 e9 bd b4 15 c1 bd c6 c7 f0 3d 14 a6 6b 3d
       -0.11416848 -0.09427968 0.11756854 0.05753143
000190 b2 67 14 be c0 67 d6 bb d4 4d 91 3d 7b a5 c0 bd
       -0.14492682 -0.0065431297 0.07094923 -0.09406563
0001a0 a9 99 ba bd 88 a2 26 3d af 9e 31 3e 11 e2 91 bd
       -0.091113396 0.040682346 0.17345689 -0.07123197
0001b0 fe e1 f2 3d 68 42 1b be 60 a1 a2 bc 30 7a bb bd
       0.11859511 -0.1516205 -0.01985234 -0.09154165
0001c0 76 a0 fc 3d 5b e4 30 3e 30 e9 04 bc f8 42 66 3d
       0.12335293 0.1727461 -0.008112237 0.05621621
0001d0 3a e0 a9 bd ae 9a d7 3d 5f 4b a2 bd 6e 16 ff 3d
       -0.08294721 0.1052755 -0.07924532 0.1245545
0001e0 7a d6 ce bd e4 fb 03 be 44 f6 08 3d 60 e1 9c 3b
       -0.10099502 -0.12889057 0.033437982 0.004787609
0001f0 aa 5c c2 3d e8 80 61 3d c2 c4 ed 3d ae 40 14 be
       0.094903305 0.055054575 0.11609794 -0.14477798
000200 6c c9 17 bd 42 f3 cf 3d 5a ba e7 3d 20 a8 12 3c
       -0.037057325 0.101538196 0.113148406 0.008951217
000210 ab eb 28 be ea ec f9 3d 20 c9 d7 3c d8 c2 c6 3c
       -0.1649615 0.12203391 0.026341021 0.02426283
000220 2f 2a 21 3e 99 7c d2 bd da fb a7 3d 3c 70 b4 bd
       0.15738748 -0.10277671 0.08202334 -0.088104695
000230 ca ec 32 be 1a 74 bf bd 60 7f 3b bd b0 4c ad bc
       -0.1747314 -0.093483165 -0.04577577 -0.021154732
000240 fa ae d1 3d e0 99 e7 bd 20 43 c5 bc 7c 1e 57 3d
       0.10238452 -0.11308646 -0.02407986 0.052519307
000250 ee b4 a5 3d 30 a0 24 3d 49 d3 10 3e 5f 17 1a 3e
       0.0809115 0.04019183 0.14143099 0.15047978
000260 dc 96 46 3d 29 9c 1f 3e 90 23 72 3d 40 29 48 bd
       0.048483714 0.15586914 0.059115946 -0.048867464
000270 94 ec a5 bd 07 3f 30 3e 75 92 ec bd 00 9c 08 39
       -0.08101764 0.17211543 -0.11551372 0.00013028085
000280 da f4 84 3d 46 bd 54 bd 01 99 29 3e 78 7f 99 3c
       0.06492014 -0.051938318 0.16562273 0.01873754
000290 90 78 6b 3d c0 23 6b bc c8 6c 36 3d 5a 8c 9d 3d
       0.057488024 -0.014351785 0.044537336 0.076927856
0002a0 8c 01 78 bd 4f f9 2a 3e e6 0f fa bd a0 d5 05 3d
       -0.06054835 0.16696666 -0.12210064 0.03267443
0002b0 80 8a 86 3a 9b 2e c3 bd b5 c2 32 3e a0 0b 0f be
       0.0010264665 -0.09530374 0.17457087 -0.13969278
0002c0 5a 93 bb 3d 76 7a 84 3d 60 ce 2c bc 64 ea 1b be
       0.091589645 0.0646867 -0.0105472505 -0.15226132
0002d0 94 ec 55 bd 5f 23 05 3e 1e e8 ef 3d a2 37 e5 bd
       -0.05222757 0.13001774 0.11714195 -0.11192252
0002e0 80 33 b9 3b 06 51 b1 3d 62 0c 27 be c5 1a 1d be
       0.005651891 0.08658032 -0.16313317 -0.15342243
0002f0 c2 11 9c 3d ea 20 87 3d 12 5f 81 bd e9 73 87 bd
       0.076205745 0.06598075 -0.06316961 -0.06613905
000300 5a e9 e0 bd 1d af 0f 3e 33 82 0f 3e 90 f4 93 3d
       -0.10982008 0.14031644 0.14014511 0.07224381
000310 70 d4 61 3c f8 a1 0b bd 00 0c 99 ba 86 c8 da 3d
       0.013783559 -0.034090012 -0.001167655 0.10682778
000320 eb 4c b5 bd 14 1d 52 3d 92 73 1d be de f0 ab bd
       -0.088525616 0.051297262 -0.15376118 -0.08395551
000330 f4 2f 73 bd f2 c9 80 bd fb 9d ab bd 90 66 38 3c
       -0.059371904 -0.06288518 -0.08379742 0.011254922
000340 42 a6 e1 3d 2a 44 ed bd c4 5b 85 bd 8e d3 c8 3d
       0.11018039 -0.11585267 -0.065116435 0.09805976
000350 d9 fc 19 3e a0 96 8c 3c 40 d7 3c bd 80 6c be ba
       0.1503786 0.017161667 -0.046103716 -0.0014528185
000360 2a c4 11 be 44 51 15 3d 43 02 0e 3e 7d 86 1d be
       -0.14234987 0.036454454 0.1386805 -0.15383334
000370 b4 21 14 be 83 aa 26 3e cb aa 1a 3e 33 e0 2d 3e
       -0.14465982 0.16275983 0.15104215 0.16980056
000380 c0 9d c0 bb ca eb 19 be 2c af 71 3d f5 68 24 3e
       -0.0058781803 -0.15031353 0.059004948 0.16055663
000390 e0 f9 11 be e3 7f 0a be 61 30 c0 bd 58 24 82 3d
       -0.14255476 -0.13525347 -0.093842275 0.06354588
0003a0 27 e1 03 3e d7 65 11 be 00 1b dc 3b a3 17 33 3e
       0.12878858 -0.14199005 0.006717086 0.17489485
0003b0 66 26 ad 3d cc 36 64 bd bb df d7 bd a0 26 87 3d
       0.084545895 -0.05571632 -0.1054072 0.06599164
0003c0 d6 b9 06 be 58 31 06 3d 00 1f b4 3b 20 7c e9 3b
       -0.13156828 0.0327619 0.0054968596 0.0071253926
0003d0 e5 0c 32 3e 05 78 20 be 0e 69 f3 bd 1f 83 05 be
       0.17387731 -0.15670784 -0.11885272 -0.130383
0003e0 b2 37 98 3d ea 02 f4 bd c0 64 11 bb 00 1f f2 bb
       0.07432498 -0.11914618 -0.0022185296 -0.0073889494
0003f0 24 38 46 bd 1d 02 11 3e b2 4b 54 bd aa 1f f2 bd
       -0.048393384 0.14160962 -0.05183 -0.11822446

lstm.weight_hh_l0 f4 [128, 32]
000000 38 59 88 bc a0 9d 88 3d 78 50 ee 3c 35 a4 ac bd
       -0.016644105 0.066706896 0.029091105 -0.084297575
000010 59 62 1d 3e e8 00 af 3c a6 cd 5c bd 48 7e 85 bd
       0.15369548 0.021362737 -0.05390706 -0.06518227
000020 a6 0a ab 3d 1a 45 a4 3d 60 e0 bd bd 7c 25 0d bd
       0.083516404 0.080209926 -0.09271312 -0.034459576
000030 66 4c 92 3d 4d 00 20 3e 42 e5 e3 bd 18 f2 71 3d
       0.07143478 0.15625115 -0.11127712 0.05906877
000040 d0 df 2d 3d 80 3e f1 bb 77 56 b3 bd ea 2e c2 3d
       0.042449772 -0.007362187 -0.08756726 0.094816044
000050 2f 70 13 3e d8 29 b4 bc 94 62 28 3d 9a 1f ab 3d
       0.14398263 -0.021992609 0.041109636 0.08355637
000060 42 7e 11 be a0 07 fb bc d8 da dc 3c 40 85 cb 3b
       -0.1420832 -0.030643284 0.026959822 0.006210953
000070 d0 58 67 bc c4 35 d2 bd 7c 15 6a bd 18 1a ba bd
       -0.014120296 -0.10264161 -0.057149395 -0.09087008
000080 22 5a b4 3d be 65 cf 3d 62 04 d9 bd bc 5a 2e be
       0.08806254 0.10126828 -0.10596539 -0.170268
000090 44 4f 27 3d b4 41 59 3d ee 9a 6e bd 0f 34 2b 3e
       0.040847078 0.053041175 -0.05825322 0.16719078
0000a0 9d 1d 0f 3e 9e 7f ea 3d bf 2f 1a 3e 4a 56 95 bd
       0.1397614 0.11450122 0.15057276 -0.07291849
0000b0 79 e3 2d 3e 5e de c5 bd 9a df ad 3d 9a a9 87 3d
       0.16981305 -0.09661554 0.08489914 0.06624146
0000c0 77 98 8e bd c6 95 22 be 93 10 28 be f6 11 94 bd
       -0.06962674 -0.15877447 -0.16412573 -0.07229988
0000d0 e0 29 bc 3c f8 c2 ff bd cf 1b 21 be 20 9d 98 3b
       0.022969186 -0.12488359 -0.15733264 0.0046574026
0000e0 3b 14 97 bd b4 47 1d be 5e be cc bd 8a 6d f4 3d
       -0.073769055 -0.15359384 -0.09997247 0.119349554
0000f0 1d 52 15 3e 81 33 cd bd 48 db 7d 3d 3a 64 c2 3d
       0.14582105 -0.10019589 0.0619767 0.09491773
000100 5c d6 0a be e1 d4 02 be 0e 2a d2 3d d2 4f 06 be
       -0.13558334 -0.1277652 0.102619275 -0.13116387
000110 d8 42 87 bc 09 6b 14 be c8 cd 6a 3d 90 96 26 3d
       -0.016511366 -0.14493956 0.057325155 0.04067093
000120 34 d3 33 be 40 ad 4f bc 4a fd 02 be b0 c7 8e bc
       -0.17561036 -0.012675583 -0.12791935 -0.017429203
000130 7f 28 1e be ae 67 a8 bd 6d b0 12 3e f0 58 62 bc
       -0.15445136 -0.082229 0.14325114 -0.01381515
000140 74 3c 24 bd 5d fe c9 bd 5e 4d 08 be 49 cb fc bd
       -0.040096715 -0.09862969 -0.13310763 -0.12343461
000150 e0 39 0a bd 98 b8 17 3d 76 4a 79 bd 3c e2 0f bd
       -0.0337466 0.037041277 -0.060862027 -0.035127863
000160 3e 36 fc 3d 5c 7e 92 bd bb 01 d3 bd 0f ef 02 3e
       0.123150334 -0.071530074 -0.103030644 0.12786506
000170 80 f8 0f 3d 3e 54 d9 3d 48 1a c6 bd 69 f2 2c 3e
       0.035149097 0.10611771 -0.096729815 0.16889347
000180 38 66 1d 3d 16 43 89 3d d3 ec 27 3e 10 d3 f6 3c
       0.03842756 0.06702249 0.16398935 0.03012994
000190 f5 f9 be bd 6e 68 5f bd ec 4a fa bd 80 81 cf bc
       -0.09325019 -0.05454295 -0.122213215 -0.025330305
0001a0 e0 7e 10 3c 40 75 6a 3b f7 97 08 be c6 23 b5 bd
       0.008819312 0.0035775453 -0.1333922 -0.08844714
0001b0 45 51 f9 bd 78 43 1e 3d 31 ee 31 3e b8 6a c7 bc
       -0.12173704 0.038638562 0.17376019 -0.02434288
0001c0 0c 66 77 3d 62 ef cc 3d 0e ef ea bd f1 a5 0a be
       0.060400054 0.10006596 -0.11471377 -0.13539864
0001d0 4a 01 25 be 41 2c 9f bd 06 4b ec 3d 80 c1 bc ba
       -0.16113773 -0.07772113 0.11537747 -0.0014400929
0001e0 8b b0 20 3e b0 44 12 3c 88 f9 4f 3d c8 4a 05 bd
       0.15692346 0.008927509 0.05077508 -0.03254202
0001f0 c0 e4 03 be be 91 f2 bd ea e1 e7 3d 90 62 c0 3c
       -0.1288023 -0.11844204 0.113223866 0.023484498
000200 cb 6e 07 3e c8 0b ba bc 5c 92 0a bd 26 c3 fd bd
       0.13225858 -0.022710696 -0.033830985 -0.12390737
000210 e0 89 0d 3d 77 3a 34 3e c2 21 b8 bd b2 58 a5 3d
       0.034555316 0.17600428 -0.08990814 0.08073558
000220 d5 e8 04 3e a0 62 d8 bc 80 b5 1a 3b 71 3b 1d 3e
       0.12979443 -0.026414216 0.0023606718 0.15354706
000230 d0 a7 ce 3c 70 be 10 bc d2 29 e9 bd 91 6b 1b 3e
       0.025226504 -0.008834466 -0.1138493 0.15177752
000240 59 58 d4 bd d8 27 7b 3d 24 50 4f 3d 49 4a 32 3e
       -0.103684135 0.061317295 0.050613537 0.1741115
000250 06 64 a7 3d ed e9 03 3e 57 4e 2b 3e b5 cf 94 bd
       0.08173375 0.12882204 0.16729103 -0.072661795
000260 4c 09 11 bd 1f 93 a4 bd 58 7e a2 3c af 4f 34 3e
       -0.035409257 -0.080358736 0.019835636 0.17608522
000270 e3 87 f6 bd ca ec d2 3d 10 ad 56 bc 4e 6f 9c 3d
       -0.12037637 0.1029907 -0.013102785 0.07638417
000280 07 a7 83 bd 54 ef 2a 3d 8c 5e 64 bd 17 fe 1a 3e
       -0.06428342 0.041732147 -0.05575423 0.1513599
000290 34 ba 1d 3d 30 1a 54 bc c0 22 61 bc fd a1 17 3e
       0.038507655 -0.012945697 -0.013741195 0.14807887
0002a0 a9 6e 2e 3e 2f c5 03 3e 50 fc 1f bc df ea 07 3e
       0.17034401 0.12868188 -0.009764746 0.1327319
0002b0 29 08 b4 bd 4d bf 2a 3e 68 67 ef bc d8 78 89 bc
       -0.08790619 0.16674538 -0.029224113 -0.016781256
0002c0 30 c3 97 bc 92 d7 ef bd 70 5b 39 bc f4 75 03 3d
       -0.01852569 -0.11711039 -0.011313304 0.03209491
0002d0 da 3b 71 bd 91 ad 2e 3e d4 ac f1 bd 1a 66 ab 3d
       -0.05889497 0.17058398 -0.118005425 0.08369084
0002e0 97 31 88 bd a4 8e 08 be 98 d9 1f be 6a 69 f0 3d
       -0.066500835 -0.13335663 -0.15610349 0.11738856
0002f0 fe 10 9b 3d cb 1f 28 be e8 c9 d0 bc 84 28 4d bd
       0.075716004 -0.16418378 -0.025486901 -0.050087467
000300 a9 ee 19 3e d3 a2 1e 3e f0 b5 ba bc 86 84 f4 3d
       0.15032448 0.154918 -0.022791833 0.11939339
000310 2d 77 a5 bd 38 fe 92 3d a1 8b 2d 3e 18 41 e9 bc
       -0.080793716 0.07177395 0.16947795 -0.028473422
000320 f0 c7 b3 bc f0 d0 82 3d 62 7d c4 3d 8a 9e e4 3d
       -0.021945924 0.06387508 0.095942274 0.111630514
000330 a0 77 38 bc f7 64 de bd ac 69 38 3d 52 91 b3 3d
       -0.01125899 -0.10859101 0.04502265 0.08767952
000340 4e c0 f7 bd 66 84 e6 3d 06 d7 26 be 19 0f 10 3e
       -0.12097226 0.11255722 -0.16292962 0.1406826
000350 31 02 8e bd b0 d2 ca 3c 00 0e e9 bd f2 4c f5 3d
       -0.06934012 0.024758667 -0.113796234 0.11977567
000360 c6 52 f2 3d ce 7b dc bd 56 6b f3 3d 64 3e 69 bd
       0.11832194 -0.10765801 0.11885707 -0.056944266
000370 60 d8 72 3c 2e 8b 91 3d ba 24 cb 3d fb 14 25 be
       0.014822096 0.071066245 0.099191144 -0.16121285
000380 42 bc 2c be 68 1d 03 be f0 25 68 bd 2e 25 ff 3d
       -0.1686869 -0.12804186 -0.056676805 0.12458263
000390 96 09 28 be 80 40 38 3b 3e 1a 96 3d ec 0b 53 bd
       -0.16409907 0.0028114617 0.07329224 -0.05152504
0003a0 97 96 0c 3e 6e ab ac 3d bf f0 22 be 8e 7c d8 bd
       0.1372932 0.08431135 -0.1591215 -0.10570632
0003b0 52 c8 8f bd e9 d3 01 3e cf 3b 0d 3e 7d 31 06 be
       -0.0702063 0.12678494 0.13792346 -0.13104816
0003c0 e0 60 12 bc 0c e6 e4 bd f8 92 93 bd c2 3a fa bd
       -0.00893423 -0.111766905 -0.072057664 -0.122182384
0003d0 0e af 13 be 08 db 7f 3d 3f 45 1a 3e 14 82 50 bd
       -0.14422247 0.062464744 0.15065478 -0.050905302
0003e0 b1 a3 17 be 88 51 81 bc 5c ec 7f 3d 00 9a 88 3d
       -0.14808537 -0.015785947 0.06248127 0.06669998
0003f0 18 e9 58 3d 5f 22 28 3e d3 4d 14 3e bc b1 41 bd
       0.05295667 0.16419362 0.14482813 -0.04728864

lstm.bias_ih_l0 f4 [128]
000000 d9 9a 16 be ca 6e 75 bd 64 9a 67 3d 5c 7b ef bd
       -0.14707507 -0.05992011 0.056543723 -0.11693451
000010 c9 91 16 3e 40 ce 3b bd e0 51 41 3c 70 80 56 3c
       0.1470405 -0.045850992 0.011799306 0.013092145
000020 b1 07 2c 3e 06 16 34 be 18 3b a9 bc 8f 41 2b 3e
       0.16799809 -0.17586526 -0.02065806 0.16724227
000030 f4 3c 9c bd 00 26 2c be 79 62 2e be 9b 92 bd bd
       -0.076288134 -0.16811371 -0.17029752 -0.092564784
000040 b9 dc e0 bd 7c c7 2a 3d 0f bf f9 bd 6a e2 a8 3d
       -0.109795995 0.04169415 -0.12194645 0.0824631
000050 3a 71 fe 3d c2 51 98 bd f8 6f b4 bc 08 1a da bc
       0.1242394 -0.07437469 -0.022026047 -0.02662374
000060 b6 91 a3 3d d3 5d e3 bd 58 aa 1f 3d 28 10 05 bd
       0.079867765 -0.1110188 0.03898081 -0.03248611
000070 1d 50 0b be fa f7 d8 3d 0c aa f9 bd 68 dc 59 bd
       -0.1360478 0.10594173 -0.12190637 -0.05318871
000080 a0 01 74 3c 12 8e 55 bd 86 53 d0 3d 29 e7 0a 3e
       0.014892966 -0.052137442 0.10172181 0.13564743
000090 e8 92 88 3d 14 ad 37 3d cf 5b 20 be 2e 9d e7 bd
       0.06668645 0.044842795 -0.15660022 -0.113092765
0000a0 d2 3c 1f be 06 f8 9f 3d 8a 8a bc 3d 8c 78 bc bd
       -0.15550545 0.078109786 0.09206112 -0.0920268
0000b0 80 f7 21 3c 10 9b 23 3c 60 b9 48 bd 08 bd 14 bd
       0.009885669 0.0099857 -0.049004912 -0.036313087
0000c0 5e 46 83 3d 6e e6 b8 3d d6 20 8f bd 00 34 b0 bd
       0.06409906 0.09028326 -0.06988685 -0.08603668
0000d0 88 b2 a1 bc 78 d5 15 bd 7a 0c 82 3d de 39 f4 3d
       -0.01973845 -0.036580533 0.06350036 0.119251
0000e0 f1 8f 0d be ec a3 94 bd 20 0a b2 bc d0 b4 c6 bc
       -0.1382444 -0.07257828 -0.021733344 -0.02425614
0000f0 20 fa 9b 3b 71 48 d5 bd 28 e5 40 3d 0d cc 17 3e
       0.004760042 -0.10414208 0.04709354 0.14823933
000100 2b b9 28 3e 0b fe 01 3e 2d f6 b0 bd 60 50 9d bb
       0.16476886 0.12694566 -0.08640704 -0.004800841
000110 20 30 53 3d 35 cd da bd e7 48 1d be 82 b1 e0 3d
       0.051559567 -0.106836714 -0.15359841 0.10971357
000120 3c ed 63 bd 1d 68 24 3e 34 d4 49 bd 62 00 ad 3d
       -0.055646166 0.16055341 -0.04927464 0.08447339
000130 77 9f 01 be c5 63 12 3e bb 0e 25 3e 58 10 e7 bd
       -0.12658487 0.14295872 0.161189 -0.11282414
000140 1a be c6 bd 72 1f b9 3d 00 96 51 ba 89 f7 25 3e
       -0.09704228 0.09039201 -0.0007995069 0.16207708
000150 0e 21 c5 3d 01 d5 c6 bd 20 f5 53 3d 74 31 09 be
       0.09625445 -0.09708596 0.05174744 -0.13397771
000160 c4 5a 01 bd de 4c d9 3d e1 5c 26 3e fa f6 70 bd
       -0.0315807 0.106103644 0.16246368 -0.058829285
000170 67 43 22 3e f0 d7 a0 3c 76 62 f8 3d 34 c7 1c bd
       0.15846024 0.019634217 0.12128155 -0.038275912
000180 48 c0 ef bd fa 3b 8c bd c0 f9 ae 3c 88 87 0c be
       -0.117065966 -0.06847377 0.021359324 -0.13723576
000190 7e 54 a0 3d a8 fc de bc ea 0e 11 be e5 b3 00 be
       0.078286156 -0.027220085 -0.14165846 -0.12568624
0001a0 86 be 31 be 3c 37 69 bd 82 c3 0d be f8 b5 b5 bd
       -0.17357835 -0.05693744 -0.13844112 -0.088725984
0001b0 8d dc 09 3e 3a f0 ee bd d0 54 5e bd ea be f4 3d
       0.1346304 -0.11666913 -0.054280102 0.119504765
0001c0 2a d1 c8 3d 66 7e 86 3d c0 5f 0a be a8 1c 5c bd
       0.0980552 0.06567077 -0.13513088 -0.053738266
0001d0 38 65 64 3d ee 60 d5 3d c0 c4 1c 3d 71 86 2d 3e
       0.055760592 0.104188785 0.038273573 0.16945817
0001e0 02 10 66 bd 49 20 26 3e 36 3d b9 bd c8 fc db 3c
       -0.05616761 0.16223253 -0.09044878 0.026853934
0001f0 cf f4 20 3e 20 4d 0a be 01 23 d6 bd 57 d9 9b bd
       0.15718387 -0.13505983 -0.10455895 -0.07609814

lstm.bias_hh_l0 f4 [128]
000000 ef 99 0f be fa 16 b5 3d 94 e1 24 be 4b 04 29 3e
       -0.14023565 0.08842273 -0.16101676 0.16505544
000010 de c7 99 3d d0 a6 9f bc 83 cc 1e be a8 1d b6 bc
       0.07508825 -0.019488722 -0.15507703 -0.022230938
000020 76 e8 da 3d 96 e5 ab 3d cd c3 a4 bd a0 3d 9b bc
       0.1068887 0.083933994 -0.080451585 -0.018950284
000030 5d d6 09 be 50 df 28 bd 28 f4 bf bc 4e 0d 97 3d
       -0.1346068 -0.041228592 -0.023431852 0.073755845
000040 f0 5e e8 bd 62 48 e7 3d 04 4d 6f bd 63 20 24 3e
       -0.11346233 0.11293103 -0.058423057 0.1602798
000050 a0 cd 28 be fe 2b b2 3d ba ee d2 bd ec d8 76 3d
       -0.1648469 0.08699797 -0.1029944 0.060265467
000060 84 9b 13 be b2 d5 0c be 00 44 7d bb d1 a0 b6 bd
       -0.14414793 -0.13753393 -0.0038645267 -0.08917392
000070 9e a4 8c 3d c3 d1 8e bd d8 bb fb 3c d6 a8 d9 3d
       0.06867336 -0.069736026 0.03072922 0.10627906
000080 1d d2 84 bd 08 47 2e bd ae ab 6a bd 00 00 f4 3c
       -0.064853884 -0.04254821 -0.057292633 0.029785156
000090 39 4d 0d 3e f8 8a ce 3c 00 42 cc b9 24 d2 ff bd
       0.1379899 0.02521275 -0.00038959086 -0.12491253
0000a0 80 5e 51 bc 42 95 cf 3d 65 5d 21 be 05 9b 2b 3e
       -0.012778878 0.101358905 -0.15758283 0.16758354
0000b0 b0 07 9a 3c fb ad 14 3e 01 32 11 3e 0a 75 f3 3d
       0.018802494 0.14519493 0.14179231 0.11887558
0000c0 10 64 6a 3d 40 c4 2b bc e0 20 93 bb e1 3f 0d 3e
       0.057224333 -0.010483801 -0.004490003 0.13793899
0000d0 57 11 30 be 9b ad 0d be 8a 96 f4 bd 34 17 ce bd
       -0.17194115 -0.13835756 -0.119427755 -0.100630194
0000e0 0f 9d 11 3e 52 28 f5 bd d4 d6 4b 3d 23 9a 2e be
       0.1422007 -0.11970581 0.049765423 -0.17050986
0000f0 a6 d9 db 3d de b7 b6 3d b5 06 1d 3e 85 ba 2f 3e
       0.107348725 0.08921789 0.1533459 0.17160995
000100 65 a8 8e bd 6e 39 b9 bd 82 d3 ea bd c2 7d 0f be
       -0.069657125 -0.09044157 -0.11466123 -0.14012817
000110 2a 14 b6 3d a0 78 fb 3b 2c 26 e1 bd 77 e9 01 3e
       0.08890565 0.0076742917 -0.10993609 0.12686716
000120 00 1d cb 3c 0e c2 fd 3d e0 9b be 3b 5f 5a cf bd
       0.024794102 0.123905286 0.0058169216 -0.10124659
000130 28 35 9b 3c 6c 50 25 be 40 98 d3 3b 6a 70 9e 3d
       0.018946245 -0.1614396 0.0064573586 0.07736285
000140 31 9c 26 3e d9 96 14 3e 2c 32 58 3d 63 d8 19 3e
       0.1627052 0.14510669 0.052782223 0.15023951
000150 98 ff 14 be 60 48 ce 3c 7b a4 01 be 00 b1 14 3d
       -0.14550626 0.025180995 -0.126604 0.036301613
000160 7a c6 0f be e9 10 33 be 40 a5 e7 bc b0 84 2d bd
       -0.14040557 -0.1748692 -0.02827704 -0.04236287
000170 05 e6 2e 3e d0 fd 0d bd 63 19 34 3e 1a e1 fc 3d
       0.17079933 -0.034665883 0.1758781 0.12347622
000180 ca 2d ef bd 25 ee cd bd 48 e5 d4 bc 48 32 b7 bc
       -0.116786554 -0.10055188 -0.025988236 -0.022362843
000190 b6 6a f9 bd e0 ee 88 3c 84 23 48 bd d6 26 cd 3d
       -0.121785566 0.016715467 -0.048861995 0.10017173
0001a0 60 5f 9f bb 5e 11 f9 3d ae 1b da bd fd 81 ce bd
       -0.0048636645 0.12161516 -0.10649811 -0.10083387
0001b0 b8 bd ca 3c 80 b5 83 3b e0 97 ef 3b fc 15 57 3d
       0.024748668 0.004019439 0.007311806 0.0525112
0001c0 a6 db eb 3d 10 9e 41 bc dd 7e 11 3e 94 f1 3f 3d
       0.11516504 -0.01181747 0.14208551 0.046861246
0001d0 d2 2f d9 3d 0a b4 1d be 47 f5 24 3e 96 d6 85 3d
       0.10604824 -0.1540071 0.16109191 0.0653507
0001e0 b1 8a c4 bd a0 ed e3 bc c0 70 90 3b 20 c4 0e be
       -0.09596766 -0.02782327 0.004407972 -0.13942003
0001f0 c5 6f 07 be e6 66 ba 3d 76 ee f2 bd d8 d7 0c bd
       -0.1322623 0.091016576 -0.11861889 -0.034385532

lstm.weight_ih_l0_reverse f4 [128, 69]
000000 c0 b0 13 3c 3c ec 02 be 95 c2 2f 3e c0 4c 8c bb
       0.009014308 -0.12785429 0.17164071 -0.0042816103
000010 c2 7a a6 3d da 7f 8b bd 60 48 67 3c c6 b1 f5 3d
       0.08128883 -0.06811495 0.014116377 0.11996798
000020 c0 ff a9 bb ea a2 84 3d 25 ba db bd e0 72 31 be
       -0.0051879585 0.06476386 -0.107288636 -0.17328978
000030 ea c0 13 be 60 6d 2e 3d 40 d8 93 bc c8 1d 4a bd
       -0.1442906 0.042584777 -0.018047452 -0.049344808
000040 64 46 12 bd 1b bc 18 be 8e f7 91 bd b2 8a a5 3d
       -0.03571166 -0.14915507 -0.071272954 0.08083095
000050 4e eb aa 3d 7c 25 48 3d 49 bc 2e be b8 1c c4 3c
       0.08345662 0.048863873 -0.17064013 0.023939475
000060 42 5a 19 be fc 6c 4b bd d3 79 21 3e 60 b3 a5 3b
       -0.14975837 -0.049664482 0.15769129 0.0050567836
000070 68 42 e8 3c 52 d5 12 be 37 a8 08 3e ee e1 a3 3d
       0.028351977 -0.14339188 0.13345419 0.08002077
000080 87 17 b6 bd ed 8b 30 3e 20 43 7e bc 86 44 cc 3d
       -0.08891206 0.17240877 -0.015518934 0.09974007
000090 ad f6 10 be df 31 a2 bd 88 09 f6 bc c8 61 ea 3c
       -0.141566 -0.079196684 -0.030033842 0.028611079
0000a0 22 f2 fd 3d 36 2e f2 3d 60 88 61 3d a0 46 4c 3c
       0.12399699 0.1182522 0.055061698 0.01246801
0000b0 a2 02 bb 3d 39 29 1a 3e 6d e9 8a bd 98 d6 56 3d
       0.091313615 0.15054788 -0.06782804 0.052450746
0000c0 fb f8 2d 3e 2f 82 21 3e fe fc 56 bd 2e d1 f2 3d
       0.1698951 0.15772317 -0.052487366 0.11856304
0000d0 d9 ae 2d 3e 39 d7 fd bd c4 50 f6 bd a6 83 b7 3d
       0.1696123 -0.12394566 -0.120271236 0.08960657
0000e0 bc b7 43 3d 37 ec 04 be 97 b2 2e 3e 10 ab fd 3c
       0.047782645 -0.12980734 0.17060314 0.030965358
0000f0 ab ab 02 be b6 c0 ee 3d 43 5a 1a 3e 6e d2 b1 bd
       -0.12760799 0.116578504 0.15073495 -0.086827144
000100 69 c9 cf bd 91 69 0d 3e a4 5e 74 bd d4 87 94 3d
       -0.10145838 0.13809802 -0.05966057 0.0725247
000110 a9 26 2f 3e 55 72 a8 bd e0 e3 bb 3b d8 fb 8d 3d
       0.17104591 -0.08224932 0.005733952 0.06932801
000120 f2 0b e2 3d b4 e1 24 3d 5e 40 9d 3d e2 52 8b 3d
       0.11037435 0.04025431 0.07678293 0.06802918
000130 50 b7 92 bd ac b6 8b 3d 10 e6 44 3d 80 15 5d 3b
       -0.0716387 0.06821951 0.048070967 0.0033734739
000140 b9 1e cf bd 40 63 9c 3c f0 8f d9 3c 90 27 10 bc
       -0.10113282 0.019090295 0.026557893 -0.008798495
000150 ba b6 66 bd 38 b9 12 be 15 a9 11 be c0 e2 58 bb
       -0.056326605 -0.14328468 -0.14224656 -0.0033094138
000160 be 94 c6 3d 3b ff 98 bd 00 0c 20 3d b8 4c 7a 3d
       0.09696339 -0.07470556 0.039073944 0.06110832
000170 6c ce 75 3d c2 06 70 bd e8 89 e8 bc 18 f5 eb bc
       0.060011312 -0.058600195 -0.028386071 -0.028803393
000180 f0 ed 02 3d ba 8e c3 3d f4 07 25 3d 74 ba 31 bd
       0.031965196 0.09548707 0.040290788 -0.043390706
000190 38 90 ac bc 3e ae c1 3d 07 e1 15 3e 88 6c 05 3d
       -0.021064863 0.09457062 0.14636622 0.032574207
0001a0 28 01 b2 bc c8 e9 1a 3d 1f c0 ff bd 15 b2 bf bd
       -0.021729067 0.037820607 -0.12487816 -0.09360138
0001b0 9b 90 16 be 34 ae ec bd bc aa 2c be 36 95 d5 3d
       -0.147036 -0.11556664 -0.16862005 0.1042885
0001c0 0e 5d c6 3d 08 6c dd 3c 1d dc 00 3e 20 1e 28 bc
       0.096857175 0.027029052 0.12583967 -0.010261089
0001d0 c7 53 28 be d6 fd c1 3d b4 de c4 bd 9a 00 8c 3d
       -0.16438209 0.094722435 -0.0961279 0.06836052
0001e0 4f f5 11 3e 10 61 15 bd 38 3e 05 bd 14 8b 34 bd
       0.14253734 -0.03646952 -0.03253004 -0.044077948
0001f0 6e 77 b2 bd 00 15 7f bd 0a 8c 20 be a8 c1 15 3d
       -0.08714186 -0.062275887 -0.1567842 0.036561638
000200 5e 37 ed bd 60 22 1d bd 35 52 05 3e 50 c8 6b bd
       -0.11582826 -0.03836286 0.1301964 -0.05756408
000210 f2 d8 81 bd c2 d6 0e be 00 d9 3c 3c 04 3f a3 bd
       -0.06340207 -0.13949111 0.011526346 -0.07971004
000220 d8 70 eb bd ca 43 e1 3d a0 57 8d 3c 2f a3 23 3e
       -0.114961326 0.10999258 0.017253697 0.15980218
000230 dc f0 a4 bd 7a 95 a9 3d e6 79 da 3d a2 3f b0 bd
       -0.08053753 0.082804635 0.106677815 -0.08605887
000240 f0 49 e2 bc e1 8c d9 bd d0 65 97 3c 06 ea ef 3d
       -0.027623147 -0.10622574 0.018481165 0.11714558
000250 9e ad ba 3d 1b b5 05 be b2 1d 8b 3d ec a3 8a bd
       0.09115146 -0.13057368 0.06792773 -0.06769547
000260 d5 53 08 3e 68 2c 15 3d 0b 1f cd bd 81 b5 87 bd
       0.1331323 0.036419302 -0.100156866 -0.06626416
000270 ea 99 c4 bd 02 6d 74 bd 7a d7 c7 3d ee 80 a5 3d
       -0.09599669 -0.05967427 0.09757896 0.08081232
000280 92 9e 9a 3d 88 a9 67 3d a0 3b ef bb aa bc e8 3d
       0.07549776 0.056558162 -0.007300809 0.1136411
000290 50 88 d0 3c b4 c5 14 bd 26 9b e1 3d c8 5c d0 bc
       0.025455624 -0.036321357 0.1101592 -0.025434867
0002a0 46 8d fc 3d 6b 5b 18 be 79 d5 84 bd c0 84 3f 3d
       0.12331633 -0.14878623 -0.06486029 0.04675746
0002b0 0a e0 dd 3d 87 c2 26 3e da bd c8 3d fa fd d4 3d
       0.10833748 0.16285144 0.09801836 0.10400005
0002c0 fe 88 c3 3d ba 18 f1 3d 0e c9 d6 bd 83 9c 2f be
       0.095476136 0.11772294 -0.10487567 -0.17149548
0002d0 c9 13 a9 bd ab a1 32 3e 80 20 19 3c 40 ae 31 bc
       -0.08255727 0.17444484 0.0093461275 -0.010844767
0002e0 86 25 2d be 00 71 57 3d 43 c4 04 3e 70 84 b2 bc
       -0.16908845 0.052598 0.12965493 -0.021791667
0002f0 07 87 20 3e 9d ee 04 be 24 37 16 be 4f 8d 96 bd
       0.15676509 -0.12981649 -0.14669472 -0.07351171
000300 7b 85 bb bd b1 0c d9 bd 14 8e 7e 3d cc 4f 24 bd
       -0.09156319 -0.10598124 0.062147215 -0.040115163
000310 40 cd 84 3d f0 93 77 bc 00 c8 40 39 c6 5f b0 3d
       0.06484461 -0.015110955 0.00018385053 0.08612017
000320 c0 53 31 be b8 fd bc bc 04 ec f7 bd ad 0c 34 3e
       -0.17317104 -0.023070201 -0.12105563 0.1758296
000330 e4 8b 05 bd 14 85 95 3d 0a 28 fb 3d fa 85 ed 3d
       -0.032604113 0.07300773 0.12263496 0.115978196
000340 20 ec aa bc 86 30 ac 3d 94 e0 33 be 01 d0 84 bd
       -0.020864546 0.084076926 -0.17566139 -0.06484986
000350 ca cd eb 3d 7f 3a 22 be ec f7 f1 bd 71 66 0a 3e
       0.115138605 -0.15842627 -0.118148655 0.13515641
000360 e2 11 e0 bd fe 0b ff 3d a4 a5 31 3d 4a f2 be 3d
       -0.10940911 0.12453459 0.043370858 0.09323557
000370 49 db 28 3e c9 a1 11 be 5f 2c 01 3e 76 0a a7 3d
       0.164899 -0.14221872 0.12614582 0.08156292
000380 80 a9 c1 3b 4a 53 0f be cb ef 23 3e 71 55 2f be
       0.0059100986 -0.13996616 0.16009443 -0.17122437
000390 cf 2c 07 3e 5e a6 03 be 55 55 b4 bd a0 1f 16 be
       0.13200687 -0.12856433 -0.08805338 -0.14660501
0003a0 e5 6a b5 bd 70 43 ee bc 06 66 b6 3d 2c 5b 24 be
       -0.08858279 -0.029084891 0.08906178 -0.16050404
0003b0 0f 50 1a 3e 7b 41 21 3e 49 f7 b8 bd b4 40 d4 bd
       0.15069602 0.15747635 -0.09031541 -0.10363904
0003c0 43 fc 03 3e cc 86 59 3d f4 8a bc bd 22 40 d1 3d
       0.12889199 0.053107068 -0.09206191 0.102173105
0003d0 1a 95 84 3d 20 be 2b bc d0 0f 8e 3c f5 50 c1 bd
       0.06473751 -0.010482341 0.017341524 -0.094392695
0003e0 c4 e5 74 bd 66 10 e9 3d 67 78 07 3e 01 d3 31 3e
       -0.059789434 0.11380081 0.13229524 0.17365648
0003f0 bc e3 51 bd e0 57 e3 3c 57 11 0a 3e 12 cc 10 be
       -0.051242575 0.027751863 0.13483177 -0.14140347

lstm.weight_hh_l0_reverse f4 [128, 32]
000000 6f 71 05 be b7 7c 17 3e 22 ca b1 3d b2 82 fe bd
       -0.13031553 0.14793669 0.08681132 -0.12427272
000010 34 3d 28 be 2d d2 1c 3e b1 c9 0b 3e 40 3f 42 3b
       -0.16429597 0.1531455 0.13651158 0.002963975
000020 8f 6e 07 3e 38 3b 8d bd 74 b3 2c 3d 2b d5 07 3e
       0.13225769 -0.06896061 0.042163327 0.13264911
000030 fa 7f a2 3d a8 e8 97 bc 46 b2 d8 3d f4 da 60 3d
       0.07934566 -0.018543556 0.10580878 0.05489631
000040 56 75 0c be 48 c7 04 3d 4e cc bd 3d 20 5d 9e bc
       -0.13716635 0.032416612 0.09267484 -0.019331515
000050 00 c2 b8 3b aa 88 12 be 60 37 3c bc 24 ec 64 3d
       0.005638361 -0.14309946 -0.011487812 0.055889264
000060 90 dd 96 bd 90 ca 02 3d 68 98 2a be 4d f9 d0 bd
       -0.073664784 0.03193146 -0.16659701 -0.102038
000070 20 18 9d 3b ac 7d 81 3d 28 96 4a 3d 9e 41 f6 bd
       0.0047941357 0.06322798 0.049459606 -0.12024234
000080 2f 5d 93 bd a8 df 19 3d 01 ba 0e 3e 0e a6 32 be
       -0.07195508 0.03756681 0.13938142 -0.17446157
000090 0a b9 b7 3d 20 74 f2 bb b6 3e c2 bd 9a 41 c1 3d
       0.0897084 -0.007399097 -0.094846174 0.09436341
0000a0 b8 c7 0e be f8 27 d2 3c 16 af b7 bd 3a b4 9c 3d
       -0.13943374 0.025653824 -0.08968942 0.07651563
0000b0 52 a7 9f 3d 2e cb f2 3d 95 64 23 3e c4 d2 95 bd
       0.07795586 0.1185516 0.15956338 -0.07315591
0000c0 cb cb b0 bd 4e 41 f4 3d 00 71 de bd c2 3e e7 bd
       -0.086326204 0.119265184 -0.10861397 -0.11291267
0000d0 99 1a 26 3e 4d 81 06 3e 16 29 10 be fd e7 1e 3e
       0.16221084 0.13135262 -0.14078173 0.15518184
0000e0 00 e6 93 bb 20 e3 c2 bc 75 5e da bd ca 7b 19 be
       -0.004513502 -0.023789942 -0.106625475 -0.14988628
0000f0 ea 91 ca 3d cb 6a 09 be 74 ec 31 bd 5f 86 32 be
       0.09891112 -0.13419645 -0.04343839 -0.17434071
000100 7c 9f 8d 3d dd ea 18 3e 48 9d 4e bd 90 33 69 3d
       0.06915185 0.14933343 -0.050442964 0.05693394
000110 c0 7f 6d 3b db 8c 94 bd de e5 f4 3d 58 ae ca bc
       0.0036239475 -0.072534285 0.11957906 -0.024741337
000120 28 78 61 bd 10 b1 f2 bd ad 04 34 3e df 2d b3 bd
       -0.05504623 -0.11850178 0.17579909 -0.087489836
000130 5d e5 26 3e 40 2b c9 3c 30 0a 79 bc ef 3d bc bd
       0.16298433 0.024556756 -0.015200183 -0.091915004
000140 53 3c 07 be 4c 59 3e 3d b6 f0 8c 3d 17 9f 10 be
       -0.13206606 0.04647188 0.068818495 -0.14123188
000150 d0 80 c7 3c e0 aa 2e 3d aa 26 0a be fe 62 ad 3d
       0.024353415 0.042643428 -0.13491312 0.08466147
000160 7c 3f 27 be 8c 8f 8e bd c6 a7 cc bd 50 49 fe bd
       -0.16332811 -0.06960973 -0.09992938 -0.12416327
000170 b6 51 bf 3d 02 e0 ab bd 20 8a 3a bc 80 77 e3 ba
       0.09341757 -0.083923355 -0.011385471 -0.0017354339
000180 e0 ad 9f 3b 7f 2e 0a 3e 36 0c b4 3d 93 e9 0d 3e
       0.0048730224 0.134943 0.087913916 0.13858633
000190 8c c1 8d bd 40 97 42 bb c0 ba d7 bb f5 c9 05 3e
       -0.06921682 -0.0029692203 -0.0065835416 0.13065322
0001a0 a5 fd 93 bd a6 58 60 bd 23 a9 22 be 5c 1f 09 bd
       -0.07226113 -0.05477204 -0.15884833 -0.033477172
0001b0 e6 ce 8c 3d 60 25 92 3d ad fa 25 be fd bb 2f 3e
       0.068754 0.07136035 -0.16208906 0.17161556
0001c0 f0 22 35 bd 08 33 c7 bc 1a e9 ca 3d f6 a5 e2 3d
       -0.044222772 -0.024316326 0.09907742 0.11066811
0001d0 76 91 a5 bd 73 a9 1d be cf 6b 19 be 5a 7b a0 3d
       -0.08084385 -0.15396671 -0.14982532 0.078360274
0001e0 f0 d3 30 bc c5 87 20 be 42 02 f7 bd 30 42 e1 bc
       -0.010792717 -0.15676792 -0.120609775 -0.027497381
0001f0 18 fa 22 be d0 b8 c9 bd a5 05 9a bd b5 f4 f1 bd
       -0.15915716 -0.09849703 -0.07520608 -0.11814252
000200 8d 54 1a be 30 fd 3b 3c d8 1b ab bc c4 47 29 3d
       -0.15071316 0.011473939 -0.0208873 0.041328207
000210 f5 96 1c 3e d5 2b e9 bd 09 91 11 3e a2 27 88 3d
       0.1529196 -0.113853134 0.14215483 0.06648184
000220 d2 fa 99 3d 08 42 e2 3c 27 ee 93 bd d8 eb 12 3d
       0.07518543 0.027619377 -0.07223158 0.03586945
000230 f8 77 a2 bc f2 9e 5b bd 5c 30 8f bd 59 d5 21 be
       -0.019832596 -0.05361838 -0.06991646 -0.15804042
000240 4f 87 9e bd 10 b8 b2 bd 3f 09 03 3e 29 7f d0 bd
       -0.07740652 -0.087265134 0.12796496 -0.10180504
000250 6a eb 90 3d e0 64 bb bd 80 3e e4 3b a0 8c f4 bb
       0.07076152 -0.091501 0.0069654584 -0.007463053
000260 b1 d7 df bd fa b7 a4 3d 95 97 23 3e 8e 25 f8 3d
       -0.10929812 0.08042903 0.15975793 0.12116538
000270 b0 b5 51 bd 8c 74 86 3d d8 fc 55 bd 2a e4 28 be
       -0.05119866 0.06565198 -0.052243084 -0.16493288
000280 b8 c1 b8 bc f6 e2 f3 3d cc 9a 83 bd ce 03 ac bd
       -0.02255331 0.11908524 -0.064260095 -0.08399163
000290 78 6a 8c 3d 3b f7 23 3e 4f 4c 07 3e c5 17 02 3e
       0.06856245 0.1601228 0.13212703 0.1270438
0002a0 0d 65 8d bd 8e 07 e5 3d a9 01 07 be b6 fa e5 3d
       -0.069040395 0.111830816 -0.13184227 0.1122946
0002b0 5a 6a ec 3d 80 4b 85 3c 08 db f6 bc 0e 30 b4 bd
       0.115437225 0.016271353 -0.03013374 -0.08798228
0002c0 40 0b 82 bb fb 69 20 3e 67 0d 1b 3e c8 a4 d8 bd
       -0.0039686263 0.15665428 0.15141831 -0.105783045
0002d0 27 80 0a 3e 98 6b 30 bd d2 dd b5 bd b3 90 21 3e
       0.13525449 -0.04307136 -0.088801995 0.15777855
0002e0 4f 48 1b 3e 00 b4 77 39 f9 f8 2a 3e 81 94 2e 3e
       0.15164302 0.00023622811 0.16696538 0.17048837
0002f0 00 10 30 3b e9 58 bf bd e0 a2 57 3d 59 d9 1b 3e
       0.0026865005 -0.0934313 0.052645564 0.1521963
000300 2a 44 da bd 28 c4 0e 3d 8b b6 f2 bd b4 a0 15 be
       -0.106575325 0.034855038 -0.118512236 -0.14612085
000310 44 ff 46 bd ed 10 26 be 92 96 fc 3d 88 b0 10 3d
       -0.048583284 -0.16217394 0.123334065 0.035324603
000320 40 38 a1 bb 32 ef fe bd 33 87 2d 3e dc e9 13 3d
       -0.0049200356 -0.12447967 0.16946106 0.036111698
000330 e8 08 14 bd bd 80 82 bd b0 e4 aa bc 42 5e 1a be
       -0.036141306 -0.06372211 -0.020861 -0.15075019
000340 36 3c ae 3d 83 42 1b be ce 73 cb 3d b6 52 d7 3d
       0.08507578 -0.15162091 0.09934197 0.10513823
000350 02 14 99 3d ec 50 1c be b9 bc 2b 3e c0 2f 99 bc
       0.07474519 -0.15265244 0.1677121 -0.018699527
000360 aa b1 97 bd 38 f1 84 bc 94 2f 56 bd 47 0d 27 3e
       -0.074069336 -0.016228303 -0.052291468 0.16313659
000370 40 6b 58 bb 40 9e 62 bc 62 1b da 3d 30 77 4e bd
       -0.003302291 -0.013831675 0.10649754 -0.050406635
000380 a5 67 c8 bd 6a 26 f0 3d 03 16 b4 bd 68 eb 0a 3d
       -0.097853936 0.11726077 -0.08793261 0.033915907
000390 14 b2 16 be 2e 14 a4 3d 69 8c 18 3e 20 be 5f 3c
       -0.14716369 0.080116615 0.14897312 0.013656169
0003a0 be 0f c7 3d 98 b2 12 be f8 1f d0 3c 9e c0 ec bd
       0.097197995 -0.1432594 0.025405869 -0.11560176
0003b0 9a 5c cb 3d b4 4f 9a bd 2a f8 9c 3d d3 67 03 3e
       0.09929772 -0.075347334 0.07664521 0.12832575
0003c0 52 64 f3 3d 90 0c 57 3c ac f7 e4 bd 02 5d fd 3d
       0.11884369 0.013125554 -0.11180052 0.123712555
0003d0 10 84 7c 3c 10 5b 2b bd 00 8c 3e 39 cd 7d 27 3e
       0.0154123455 -0.04183489 0.00018171966 0.16356583
0003e0 34 b6 0c be e8 35 18 bd 32 d2 ad bd f6 a6 13 be
       -0.1374138 -0.037160784 -0.08487357 -0.1441916
0003f0 a8 0f 3c bd d7 05 8c bd 88 8f 13 be 4b da 08 3e
       -0.04591337 -0.06837051 -0.14410222 0.13364522

lstm.bias_ih_l0_reverse f4 [128]
000000 0a 44 01 be 24 88 f8 bd 39 07 96 bd 85 0b 23 3e
       -0.12623611 -0.12135342 -0.07325596 0.15922363
000010 c8 b5 6b 3d 91 9b c7 bd dc 1c 85 3d a8 5d 6e 3d
       0.057546407 -0.09746469 0.06499645 0.058194786
000020 4a d3 ee 3d c2 42 e2 3d 9d 76 30 3e d4 59 18 3d
       0.11661394 0.11047889 0.17232747 0.03719504
000030 8f cd cc bd ee 73 9c 3d 89 58 0b be 80 a7 0e bb
       -0.10000145 0.07639299 -0.13607992 -0.0021767318
000040 c8 22 ed 3c f2 a0 fa bd d2 11 9f 3d 12 e1 34 be
       0.028947249 -0.12237729 0.07767071 -0.17663983
000050 9e ce f6 bd 9d 42 1e 3e 50 57 44 3d e0 59 4a bc
       -0.12051128 0.15455098 0.04793483 -0.012350529
000060 ab 6f 13 be 86 ee e1 3d 79 6c 21 3e 52 54 bd 3d
       -0.14398067 0.11031823 0.15764035 0.092445984
000070 3e 9a a0 3d ea d3 b0 3d c2 0a ee bd 4c 87 17 3d
       0.07841919 0.086341694 -0.11623146 0.036994264
000080 58 57 b4 bd c3 4f 2a 3e 3e 30 04 be a5 97 00 3e
       -0.08805722 0.16631989 -0.12909028 0.12557848
000090 f0 42 40 bd 5e 39 f3 3d c5 b0 21 3e 76 99 9a bd
       -0.046938837 0.11876176 0.15790088 -0.075488016
0000a0 2b a1 04 be 80 46 26 3c e3 d4 ae bd 31 50 34 3e
       -0.12952106 0.010148644 -0.08536699 0.17608716
0000b0 70 91 48 3c d0 09 4e bc ee 4f 62 bd f0 61 28 be
       0.012241706 -0.012575582 -0.05525201 -0.1644361
0000c0 78 d5 ca 3c 3f 3e 1a be 12 92 f0 3d c8 8f 35 bd
       0.024759993 -0.15062808 0.11746611 -0.044326574
0000d0 4c e9 4c bd 31 81 29 be 7c f3 6c 3d 73 68 08 3e
       -0.050027177 -0.16553189 0.057849392 0.13321094
0000e0 f8 5e 2c 3d ec 40 5a 3d 3b af 1e 3e b6 e0 fc 3d
       0.042082757 0.05328457 0.15496533 0.12347548
0000f0 e4 09 15 3d 3a 50 fe 3d 49 c7 c1 bd 90 c7 1b bd
       0.036386386 0.12417646 -0.09461839 -0.038032115
000100 90 eb 94 3d 78 73 ca bc 86 50 d6 bd c0 6b 9f bd
       0.072714925 -0.024713263 -0.104645774 -0.077842236
000110 a0 c6 44 bc 96 65 aa 3d 74 71 c9 bd aa 5b d1 3d
       -0.0120102465 0.08320157 -0.098360926 0.10222562
000120 38 e2 0e 3d 0b 1e 09 3e 40 b3 10 3b d0 c0 25 3d
       0.034883708 0.13390367 0.0022079498 0.040467083
000130 65 85 03 3e a1 ec 31 be c8 f0 3b 3d 28 a0 68 3d
       0.12843855 -0.17375423 0.045883924 0.056793362
000140 83 95 d0 bd 40 40 1b bb b0 94 74 3c 1e 35 ea 3d
       -0.10184767 -0.002368942 0.014928028 0.114359125
000150 40 9d 45 3c 63 9a 23 be ae a0 d4 3d 91 85 9e bd
       0.012061417 -0.15976863 0.1038221 -0.077403195
000160 80 45 47 3c fa 2f e7 bd f0 8a 10 be e0 65 dc 3b
       0.012162566 -0.11288448 -0.141155 0.0067260116
000170 2c 77 7f 3d 95 d3 20 3e d4 d6 27 3d 0c 15 ee bd
       0.06236951 0.15705712 0.04097636 -0.11625108
000180 00 16 55 ba 0e 7c 5e bd cf 40 c4 bd 9a 52 82 3d
       -0.00081285834 -0.054317527 -0.09582674 0.06363411
000190 06 27 b0 3d 95 e5 c9 bd f4 a8 c6 bd a9 cc 2d be
       0.08601193 -0.098582424 -0.09700194 -0.16972603
0001a0 98 4c e5 3c 3f be 21 3e 70 5a 60 bd 8a 3a f2 3d
       0.027990624 0.1579523 -0.054773748 0.11827572
0001b0 90 c5 58 bc 30 36 51 3d ba ab dd bd 1e ae c5 bd
       -0.013230696 0.051077068 -0.1082377 -0.09652351
0001c0 40 bc 59 3b ec 9e 64 3d 78 88 b7 bc 50 e8 6c bc
       0.0033223778 0.055815622 -0.02240394 -0.0144596845
0001d0 83 d1 22 3e 6d 3d 0e 3e 60 59 03 3c e0 78 be 3b
       0.15900235 0.1389062 0.008016914 0.0058127493
0001e0 3e 97 b7 bd c1 fd 2e be d4 f1 79 3d b2 95 7f bd
       -0.08964394 -0.17088987 0.06102164 -0.06239862
0001f0 84 40 05 bd c9 bf c1 bd 70 24 80 bc cc 32 74 3d
       -0.03253223 -0.09460408 -0.015642375 0.059618756

lstm.bias_hh_l0_reverse f4 [128]
000000 d2 c7 e8 bd aa 7e 34 be cd ef 9f bd 88 5d 33 bd
       -0.11366238 -0.17626444 -0.0780941 -0.04379037
000010 38 bb 93 3d 84 be e0 bd 50 87 21 bd 73 f5 2d 3e
       0.072134435 -0.10973838 -0.039435685 0.16988163
000020 f8 6c 9a bd e2 2e 90 3d 05 93 2d 3e 38 48 e0 3c
       -0.075403154 0.07040192 0.16950615 0.027378187
000030 69 ec 30 be 80 79 a9 bc c3 02 00 3e 20 cc 5a 3c
       -0.17277683 -0.020687819 0.12501054 0.013354331
000040 d8 04 ee bc 4e 58 fd 3d f0 de 23 3d f8 b8 87 3c
       -0.029055044 0.123703584 0.04000753 0.016567692
000050 37 be 20 3e 1e 69 e2 3d 00 6c 88 3a 78 91 80 3c
       0.15697561 0.11055206 0.0010408163 0.015694365
000060 8c 2c 38 bd 26 3f e1 3d 09 11 16 3e 9e dd 34 be
       -0.04496436 0.10998373 0.14654936 -0.17662665
000070 6f ac 0f be 50 5e 4a bd fa f3 b0 3d 0a ec ea bd
       -0.14030622 -0.04940635 0.08640285 -0.11470802
000080 a4 1c 73 3d d0 86 2c 3d b2 3a ad 3d 96 2c b7 3d
       0.059353486 0.042120755 0.08458461 0.08944051
000090 58 18 bd 3c 80 b5 ec 3a 00 9a 3e bc 48 4c 1e 3d
       0.023082897 0.0018059462 -0.011633396 0.038646966
0000a0 58 17 f0 3c 21 f7 c0 bd 3a 5f f3 3d c7 74 0b 3e
       0.029308006 -0.09422136 0.118833974 0.13618766
0000b0 4b bf 01 3e a4 31 06 3d 36 99 c9 3d 4c e6 29 be
       0.12670629 0.032762185 0.09843676 -0.16591758
0000c0 d0 6f ef 3c 83 72 84 bd f3 e7 98 bd 39 6c 24 3e
       0.029228121 -0.06467154 -0.07466116 0.16056909
0000d0 50 85 44 bc 52 fd 33 be 48 cb 8b bd 78 33 9d bc
       -0.011994675 -0.17577103 -0.06825882 -0.019189581
0000e0 1e b8 f3 3d 40 92 36 3b 32 d8 fc 3d 25 1d d9 bd
       0.11900352 0.0027858168 0.123459235 -0.10601262
0000f0 69 68 93 bd ee 7d 03 be c4 77 29 3d 2a 92 95 3d
       -0.07197649 -0.12841007 0.041373983 0.07303269
000100 4e 8e 89 bd 10 55 00 bc 1a 4a d4 3d 23 48 22 be
       -0.067165956 -0.0078327805 0.10365696 -0.1584783
000110 2f 28 14 3e 43 84 0f be d5 6e 82 bd 86 ba d1 3d
       0.14468454 -0.14015298 -0.06368796 0.10240655
000120 e5 31 0b be fc 49 3c bd f0 f7 d1 bd 90 8b 18 bc
       -0.13593252 -0.045968994 -0.102523685 -0.009310618
000130 83 79 28 3e b7 f8 2a 3e 90 0a 77 bc 31 bd 02 3e
       0.16452603 0.1669644 -0.015078202 0.12767483
000140 b3 fc 03 be 12 dc 5a bd df a7 2f 3e b6 3d ad 3d
       -0.12889366 -0.05343253 0.17153881 0.08459036
000150 d4 67 da bd 20 7b df 3c 98 ae 1f 3d 3d e6 1f be
       -0.10664335 0.02728039 0.038984865 -0.15615173
000160 00 f3 5f ba 0d a6 2f 3e e0 d0 f8 bd a0 c8 8e 3b
       -0.0008542985 0.17153187 -0.12149215 0.0043574125
000170 62 b2 10 be 8c 1a 76 bd 37 b8 a8 bd 40 d8 b2 3b
       -0.14130548 -0.06008391 -0.08238261 0.005457908
000180 c0 28 97 bd 60 11 ba 3b c3 bd 82 bd ed 26 12 3e
       -0.07380819 0.005678341 -0.063838504 0.14272662
000190 52 5f c9 3d 76 ff 68 bd 85 ce 1a 3e 6c 08 34 bd
       0.09832634 -0.05688425 0.15117843 -0.043953344
0001a0 f6 7b 85 bd e0 17 65 3c 30 16 29 bc c6 3d bd bd
       -0.06517784 0.013982743 -0.010320231 -0.09240298
0001b0 4d 39 00 be 12 0a 00 be 48 22 00 3d 6c f2 18 bd
       -0.12521859 -0.12503842 0.031282693 -0.037340567
0001c0 b7 cc af bd e8 7f 94 bd d2 c2 e6 3d 4c f5 36 3d
       -0.08583968 -0.07250959 0.11267628 0.044667527
0001d0 82 b6 db 3d bc 88 4e 3d 6e 4e 02 be 97 c6 b0 bd
       0.1072817 0.05042337 -0.12725231 -0.08631628
0001e0 38 81 0c 3d 2c f2 2f bd dc 91 19 bd a3 ef 29 3e
       0.03430292 -0.042955562 -0.037492618 0.1659532
0001f0 27 81 16 3e a6 63 eb bd c5 09 03 be 00 34 d0 3c
       0.14697705 -0.11493616 -0.12796696 0.02541542

lstm.weight_ih_l1 f4 [128, 64]
000000 78 f6 35 bd a2 c7 98 bd f5 62 8a bd 62 3d fb bd
       -0.044424504 -0.07459952 -0.06757156 -0.12267567
000010 b4 43 00 be cc 74 84 3d ba f8 8d 3d 22 76 82 bd
       -0.12525827 0.0646759 0.069322065 -0.06370188
000020 b4 a9 a0 bd ab b5 00 3e ca 0e fc 3d b8 44 f0 bd
       -0.07844868 0.12569301 0.12307508 -0.11731857
000030 6c 8e 16 bd cd e5 0c 3e c1 2c 1b 3e ba 0c ba 3d
       -0.036756918 0.13759537 0.15153791 0.09084459
000040 9b 45 19 3e 3b 03 18 be a0 6f 5c bc 2f 66 2d 3e
       0.14967959 -0.14844982 -0.013454348 0.16933511
000050 14 e2 19 be 78 e4 2b 3d d7 85 0d 3e ae 47 a6 3d
       -0.15027648 0.04196593 0.13820587 0.081191406
000060 71 5f 8c bd 40 71 6d bb 89 bf 21 3e a1 ad 21 3e
       -0.068541415 -0.0036230832 0.15795721 0.1578889
000070 11 83 14 3e b0 e8 34 3d 7a c1 b1 3d 46 e6 0d be
       0.14503123 0.04416722 0.08679481 -0.13857374
000080 b4 67 2b bd df 79 13 be 73 2a 18 3e f0 90 10 3d
       -0.041846946 -0.14401959 0.14859943 0.035294473
000090 84 6b 91 bd dd 5b 01 3e e6 e4 f2 3d 11 ab 33 3e
       -0.07100585 0.126327 0.11860065 0.17545725
0000a0 68 35 1b 3d 99 70 0a 3e 78 2d 2c be 17 2f 2f 3e
       0.03789273 0.13519515 -0.1681422 0.17107807
0000b0 74 56 62 3d 36 d4 c9 3d 00 66 5f bc 7e 91 f7 3d
       0.05525823 0.09854929 -0.013635159 0.12088297
0000c0 04 c0 32 be 2e 58 ec 3d b0 c0 bd 3c 68 a8 09 3d
       -0.1745606 0.115402564 0.02316317 0.03360787
0000d0 98 75 39 3d f8 1e e1 bc fc cb 9f bd d8 50 99 bd
       0.04527816 -0.027480587 -0.07802579 -0.07486123
0000e0 b2 39 21 be 10 aa d4 3c f0 33 62 3d ed 9d 2b 3e
       -0.15744665 0.025959998 0.055225313 0.16759463
0000f0 f0 e1 5e 3c 7f b3 d2 bd df 98 31 3e 25 45 bd bd
       0.013603672 -0.102881424 0.17343472 -0.09241704
000100 5f 52 23 be 96 e6 08 be 14 92 a3 bd c2 9b d6 3d
       -0.15949391 -0.13369212 -0.079868466 0.10478927
000110 49 cc 10 3e 6e 77 e1 3d 70 60 f4 bc c4 01 34 bd
       0.14140429 0.110091075 -0.029831141 -0.043946996
000120 60 13 72 3c da 53 f0 3d e7 42 32 3e 2f d0 2b 3e
       0.014775127 0.117347434 0.17408334 0.16778634
000130 d4 aa 13 3d de 3c d2 3d c3 4c c4 bd ce 9f b5 bd
       0.036051586 0.10265516 -0.09584954 -0.08868371
000140 6f 2e d3 bd e7 18 26 3e a3 a0 b0 bd c0 2b 0f bb
       -0.10311591 0.16220437 -0.08624389 -0.0021846145
000150 38 90 99 bc c0 83 1e bd d2 9f c2 3d e0 0b 2d 3c
       -0.018745527 -0.038699865 0.095031396 0.010561913
000160 8a 4a 6b bd 18 f4 62 bd 5c f4 4f bd c0 fc ab 3c
       -0.057444133 -0.055408567 -0.05077015 0.020994544
000170 a0 56 ae bc 68 11 88 bd 46 d8 d6 3d 82 88 ea 3d
       -0.02128154 -0.06643945 0.1049047 0.11451818
000180 8a 95 d1 bd 0c 85 0b be ad 39 91 bd 20 e8 27 3c
       -0.102336004 -0.13624972 -0.07091079 0.010248214
000190 f0 88 4f 3c 74 3f 3c 3d ea c2 cf bd 9d 8f 0d 3e
       0.012666926 0.04595895 -0.10144599 0.13824315
0001a0 2c 0d 3d 3d 61 63 b1 bd 79 73 b8 bd 76 90 69 bd
       0.04615514 -0.08661533 -0.090064 -0.057022534
0001b0 96 82 76 bd 38 af f4 bd 9f 70 1a be d5 90 13 be
       -0.06018313 -0.11947483 -0.15082024 -0.14410718
0001c0 86 43 f2 3d 35 ae 23 be 8e f7 ff 3d 6a 44 a9 3d
       0.11829285 -0.15984423 0.12498389 0.08265002
0001d0 a7 c2 2c 3e 58 45 8e 3c 2e 90 97 3d 13 fb 00 be
       0.16871129 0.01736705 0.07400547 -0.12595777
0001e0 e5 21 d1 bd 19 81 24 be b0 77 59 bc 6c 14 9b bd
       -0.10211543 -0.16064872 -0.013273165 -0.075722545
0001f0 10 94 2a 3c 6a 09 af 3d ed a7 9c bd 14 fd eb bd
       0.010411277 0.085467175 -0.07649217 -0.1152288
000200 a2 83 25 be ec 1c 13 be 3c f5 bf bd e4 26 14 3d
       -0.16163495 -0.14366502 -0.093729466 0.0361699
000210 00 05 ff 3b 40 b9 d8 bb 80 b4 3c bc 90 50 52 bd
       0.0077825785 -0.0066138804 -0.011517644 -0.05134636
000220 6f 98 2b 3e ef 29 2b 3e cc e5 4c 3d e8 f3 e1 3c
       0.16757368 0.16715215 0.05002384 0.027582124
000230 42 bb d2 3d 50 fe 81 bd 40 6a 2f be 3e 2c b1 3d
       0.10289623 -0.063473344 -0.17130375 0.08651017
000240 5c 40 0c bd ed 3d 2b 3e 00 1b 21 bb 2f 63 08 3e
       -0.034241065 0.16722842 -0.0024582744 0.13319086
000250 04 d2 24 bd bf a1 23 3e 49 57 1b 3e 08 4e 48 bd
       -0.04023935 0.1597967 0.15170015 -0.04890254
000260 28 53 0d be 24 66 94 bd a0 2c 0c 3d dd e1 2c 3e
       -0.13801253 -0.07246044 0.034222245 0.16883035
000270 02 52 f7 bd 58 99 ad 3c a5 33 d2 bd 82 18 c5 bd
       -0.120761886 0.021191284 -0.10263757 -0.09623815
000280 50 a1 6f 3d a2 1b 21 be 6a 6d 87 3d 27 1c ca bd
       0.05850345 -0.15733197 0.06612666 -0.09868651
000290 b7 4c 92 bd 79 a9 14 3e bb 35 1f 3e ae 20 9f 3d
       -0.071435384 0.14517774 0.1554784 0.07769905
0002a0 92 a3 dc 3d 3d 0d 1e 3e f6 0b bd 3d 3c 62 eb bd
       0.10773386 0.15434738 0.09230797 -0.11493346
0002b0 c1 8b 23 be ba 4e bd 3d 3b d2 25 3e 76 73 00 be
       -0.1597128 0.092435315 0.16193478 -0.12544045
0002c0 b7 37 b1 bd 41 b7 2d 3e 80 f9 c4 bc e9 06 1c 3e
       -0.08653205 0.16964437 -0.024044752 0.15237011
0002d0 3c 5b 3e bd 28 69 28 be d4 94 1f 3d 8c b5 11 bd
       -0.046473727 -0.16446364 0.038960293 -0.035573527
0002e0 aa b1 fc 3d 49 f3 f7 bd 9b ef 2a be 21 3f 19 3e
       0.12338574 -0.1210695 -0.16692965 0.14965488
0002f0 76 50 87 3d 9e d9 e5 3d 88 0f e5 3c 58 f8 e3 bc
       0.066071436 0.11223148 0.027961507 -0.02782838
000300 80 19 15 3b b8 87 2f be f9 94 f1 bd 38 f2 c6 bc
       0.0022750795 -0.17141616 -0.117959924 -0.02428542
000310 e1 56 0c 3e 62 c9 e7 bd 3d e4 1b be 3a c8 ef 3d
       0.13705017 -0.113177076 -0.15223785 0.11708112
000320 9c b1 01 bd 5a b0 f2 3d 35 a5 ab bd 2f f6 1d 3e
       -0.031663522 0.11850043 -0.0838112 0.15425943
000330 d8 c7 1c be 48 7b d9 bc dd 10 33 3e 40 5b 44 3d
       -0.1531061 -0.026548043 0.17486902 0.047938585
000340 1d 8c 08 3e 8e 8f 87 3d f5 4f 09 be 12 21 8e 3d
       0.13334699 0.06619178 -0.13409407 0.069399014
000350 74 16 01 be 71 68 0d 3e 63 ce 80 bd b0 b0 c6 bd
       -0.12606221 0.13809372 -0.06289365 -0.09701669
000360 c0 15 96 3c 3c 5e 84 bd 50 31 b2 bc 70 8e 24 3d
       0.018320918 -0.06463286 -0.02175203 0.0401749
000370 00 44 40 b9 de c2 23 be be c7 a4 3d 60 cc be bc
       -0.00018335879 -0.15992305 0.0804591 -0.023290813
000380 5c 14 66 3d a9 16 b5 bd 39 10 25 3e b5 bf 88 bd
       0.05617176 -0.08842213 0.1611947 -0.0667719
000390 c0 a5 bc 3c b0 82 91 bc 26 ec 01 be 52 a5 d8 3d
       0.023028255 -0.017762512 -0.1268774 0.10578407
0003a0 2d 22 32 3e 87 92 1c 3e 96 27 fe 3d b6 12 f4 3d
       0.1739585 0.15290271 0.12409894 0.11917631
0003b0 39 d3 be bd cb 25 0d 3e 64 9b 0a bd 46 b9 bf 3d
       -0.09317631 0.13783948 -0.0338396 0.0936151
0003c0 40 57 ac bb b7 22 d0 bd d9 96 e7 bd 8e 70 ef bd
       -0.0052594244 -0.10162871 -0.11308069 -0.1169139
0003d0 4a bd b3 3d 8b c6 32 3e 3a b7 ae 3d 04 e3 f6 bd
       0.087763384 0.1745855 0.085310414 -0.120550185
0003e0 8c b3 1f bd 56 e0 e6 bd 50 43 24 3d 4f 13 2b be
       -0.03898959 -0.112732574 0.040103257 -0.16706584
0003f0 d0 3f f4 3c 60 97 cb 3c c0 7e 8c bc 9c 22 1c be
       0.029815584 0.024852455 -0.017150283 -0.15247577
