LeeFiles/best_model.pth (torch, 24359 bytes, 7 tensors)

lstm.weight_ih_l0 f4 [128, 4]
00000000: 3e58 a4bd 33bc d53c a8a2 173d 1522 283e
00000010: 97c9 3b3b 5115 013e ca58 8abb 3f43 c23d
00000020: 06ae 30bd 4fb6 a13d 2e17 b13d d375 05be
00000030: f4af 6f3b 2654 473b 01c0 073d 64d3 14be
00000040: 15af 31be bc4a 0fbe bb5c 75bc 8920 d33d
00000050: 7ecc d3bd f682 a7bd c3ac dcbd d25c 6d3d
00000060: 23e7 063e b9a7 583c 20d5 c53d e52d 423e
00000070: c5a8 17bd 452c b3bd c67a e8bd 88df c43d
00000080: 9a5f d03d a310 febd 4f40 c43d 6601 623d
00000090: 1814 803d be83 2b3d 3362 3dbd 2a98 cd3d
000000a0: b9a8 dbbd fb6e 77bc 32ab 9a3d 1e19 af3d
000000b0: 5e5f d2bd 1026 2abe c5ff 933d 415d c5bd
000000c0: 2b8d a23d 5a55 3dbe 8a4b 2ebe a516 303e
000000d0: f4f8 373e 40d9 19bd bec3 003e b223 ec3d
000000e0: 068a eebc 86b5 1f3e f9e5 123e 7c0e 173e
000000f0: 198c 5fbd 361d 41be db5f febd eb80 3abd
00000100: 27ea c8bd bc5d b23d 480e fb3d 404d 383e
00000110: 15b2 a13d 2756 30bd 590e 8bbd ab50 be3c
00000120: ffa8 c8bd d894 133e 389b 07be 006f 05be
00000130: 1b83 abbc 22d5 0ebd 57d6 dbbc 05a1 4e3d
00000140: 9b38 d2bd 9d4a 12be 380e cc3d e2de 88bd
00000150: a165 053e cc4b d73d 1a61 fd3d 3e91 37be
00000160: 7ef4 133e 9cfc b6bd 89b6 a73d e207 20be
00000170: 907d 113e 8cae 203e 699e fcbd 6c85 4a3d
00000180: 2f74 8cbd 9b3e 7ebb 7c6c 353e 37f1 113e
00000190: 4962 20be 6e91 953d 74c2 e2bd 29f9 5abd
000001a0: 50c1 173e 2405 a4bd 1ec8 693d db13 d0bd
000001b0: f23b 09be 5f4a 30be bdd2 863d a70b 11be
000001c0: eef0 2c3e 4d82 8f3d 3f46 babd 41fd 083e
000001d0: 9412 1a3d 9c01 00bd 6919 123e 32ce b3bd
000001e0: 7f87 d6bd c665 97bd 85f8 f1bc 13a5 d83d
000001f0: ea21 a0bc 5fa4 04be ff5a 29be 70fd 41bc
00000200: 3309 d53d e5cf 15be e26c b13d 55de 073d
00000210: 26b2 42bd 2f6e c73d e70d 8dbd 6f2d 97bd
00000220: 44a0 b6bd abb8 433d 1a74 0a3e 3c99 2e3d
00000230: 95db 633d 0559 d23d 40af cd3d 894c f6bd
00000240: d215 83bd e761 833d 1de6 243e 6492 2fbe
00000250: 8972 31be 6de6 24bd d603 983d 54d5 a7bb
00000260: 5cf5 40bc b37e 093e d5e3 e7bd a1a9 72bd
00000270: ea36 4dbd 4216 dd3d a3a4 0abe 13eb 0b3d
00000280: fc3a 1f3e 0192 06be 0eae d03d 05d2 48be
00000290: ad7c 1a3e c463 98bd 38a6 cd3d 3965 013e
000002a0: 09b2 953c a48b 113e 7c1e e93d 45fc 96bc
000002b0: f4f7 8dbd 4dfe bfbd 8794 33bd ffca 5b3c
000002c0: 4f23 1ebc f3c1 8f3c 5b9c 993c 4205 223e
000002d0: a471 3f3e f949 cf3d 0435 3e3e 9d3b 28be
000002e0: 60d4 de3d 9953 8bbd 98b3 06be 09c7 1bbd
000002f0: 79ad a8bc 78a2 8339 dba0 903d 50f1 d33d
00000300: 7d96 7bbd a10a 643d 44d3 43bd 93b2 1d3c
00000310: fe34 eebd b8e3 1f3d 2960 953d b390 413d
00000320: ffa4 d6bd 6d60 ac3d fb16 2ebc bcb2 f53d
00000330: e0c9 d1bd 548b c0bd 8ae9 8ebb 3397 45bd
00000340: f533 0ebc ff36 14be c71b ccbd 5cc1 653d
00000350: 6efd cb3d df9b 683d 58b5 3abe 4ea4 03bd
00000360: db6a 90bd 8a09 443e f5ff b3bd 7215 fcbb
00000370: 997c da3d 5fc4 963d 1997 bd3d d626 f93d
00000380: defc ac3d f96c 403e 563e e53d f1f6 e03c
00000390: c060 34be e1bb 2d3e cb50 b7bd 2a1c 05be
000003a0: 85f4 e93d 39fb 0dbe 23e2 5b3d b366 d73d
000003b0: 67d9 98bd 09f6 083e bdea 6cbc f9ec 30be
000003c0: 3c66 62bc df7b 32bd 28dd 29bd ee0f e6bd
000003d0: 3416 c6bd b31f 0ebe 91a1 d93d f055 00be
000003e0: 144a 85bd 575a eb3c c217 2a3e 8eda ab3d
000003f0: 6e5c cabd 0d11 bd3d 91e8 b7bd ec68 c43a
-0.08024643 0.026090717 0.037020355 0.16419251 0.0028654092 0.12605788 -0.0042220103 0.094854824
-0.04313471 0.07896101 0.08646999 -0.13033228 0.0036573382 0.0030415147 0.033142094 -0.14533764
-0.17351945 -0.13993353 -0.014975722 0.1030894 -0.10341738 -0.08179276 -0.10775139 0.05794985
0.13174109 0.013223582 0.09659791 0.1896282 -0.037026186 -0.08748678 -0.11351542 0.09612948
0.101744846 -0.12405517 0.095825784 0.055177115 0.062538326 0.041873686 -0.04623623 0.100387886
-0.10725541 -0.015102143 0.07552184 0.085497126 -0.10272096 -0.16616082 0.072265185 -0.096369274
0.07937082 -0.1848959 -0.17021003 0.17196138 0.17966062 -0.0375607 0.1257467 0.11530246
-0.02911855 0.1559659 0.1434554 0.14751619 -0.054576967 -0.188588 -0.12420627 -0.045533102
-0.09810286 0.08709285 0.12258583 0.17998219 0.078952946 -0.04305091 -0.06789846 0.023231825
-0.097978584 0.14412248 -0.13242805 -0.13030624 -0.02093654 -0.034871228 -0.026835604 0.05044653
-0.10264703 -0.14286275 0.099636495 -0.066831365 0.1302705 0.10512504 0.12372036 -0.17926499
0.14448735 -0.089349 0.08189113 -0.15628007 0.14208055 0.15691584 -0.12334902 0.049443647
-0.06858098 -0.003879464 0.17717165 0.14252172 -0.15662493 0.07303129 -0.11072245 -0.053460274
0.14819837 -0.08008793 0.057075612 -0.10160037 -0.13401774 -0.1721587 0.06583164 -0.14164601
0.16888782 0.07007275 -0.0909543 0.13377859 0.037615374 -0.031251535 0.14267506 -0.08779563
-0.104750626 -0.073924586 -0.029537449 0.105783604 -0.019547421 -0.12953328 -0.16538619 -0.011840209
0.10402145 -0.14630087 0.08663346 0.033171017 -0.047533177 0.09737813 -0.06887417 -0.07381713
-0.08917287 0.047783535 0.13520852 0.042626604 0.05562933 0.102708854 0.10043192 -0.12026317
-0.06400646 0.06415158 0.16103406 -0.17145687 -0.17328848 -0.040258814 0.07422607 -0.0051218662
-0.011777248 0.13427238 -0.113227524 -0.059243802 -0.0501012 0.10795261 -0.13539366 0.03415973
0.15549845 -0.13141634 0.10189448 -0.19611366 0.15086623 -0.07440904 0.10041469 0.1263627
0.01827337 0.14213425 0.113827676 -0.018430838 -0.06932059 -0.09374676 -0.04384282 0.013415097
-0.009651973 0.017548537 0.018751314 0.15822318 0.18695694 0.10121531 0.18574911 -0.1642899
0.10880351 -0.06803054 -0.13154447 -0.03803161 -0.02059053 0.00025107316 0.07061931 0.10348761
-0.061422814 0.0556742 -0.0478089 0.009625095 -0.11631201 0.03903553 0.07293732 0.047257137
-0.10480689 0.08416829 -0.010625596 0.119969815 -0.10243583 -0.09401575 -0.004361336 -0.048239898
-0.00867938 -0.14474104 -0.099662356 0.056092605 0.09960447 0.056789275 -0.1823324 -0.032139115
-0.07051631 0.19144264 -0.08789054 -0.007692986 0.10668296 0.073616736 0.09257335 0.121656105
0.08446668 0.1879157 0.1119353 0.0274615 -0.17615032 0.16966201 -0.08950957 -0.12999025
0.114235915 -0.13865365 0.053682458 0.10517635 -0.07463341 0.13375105 -0.014460263 -0.17277898
-0.01381832 -0.043575164 -0.041470677 -0.11233507 -0.09672204 -0.1387928 0.106265195 -0.12532783
-0.0650827 0.0287296 0.16610625 0.083912954 -0.09880911 0.09231768 -0.089799054 0.0014984882

lstm.weight_hh_l0 f4 [128, 32]
00000000: 123c 44bb 8b40 ecbd b142 3a3e c46b 193d
00000010: 2ae1 933d 48e3 a8bd 092d b93d 2964 8cbd
00000020: 2348 82bc 73a8 ec3d fb66 17be f7b9 a2bd
00000030: bd65 3a3d 8504 0c3e bc27 9ebd 3362 c73d
00000040: c494 c7bd 7e2a 38be 04d3 acbd 1c6e 43be
00000050: 4025 2b3e 9115 b0bd c792 d53d ffb7 92bc
00000060: f1aa dcbc 71bc 063c f233 5c3d 02d2 ed3d
00000070: 6707 c63d 04eb 813c 7258 233e 718d 703d
00000080: 6361 c6bd 7269 07be af38 1fbe c543 ce3d
00000090: c529 1c3e 0f68 0a3e 6a1b c7bd 8260 bd3d
000000a0: c92c ab3d e7ad 063e 673b 06be 49dc a03d
000000b0: 2e2b 13be 79c2 8b3d c08a 92bb c402 88bd
000000c0: e1ce 1b3e 7c7e 38be 49e4 053c 48cc 4039
000000d0: ec7b cebd 87c1 0b3e 6f2f 823c dd01 21be
000000e0: dd83 fdbc a6e6 993c 8520 063d 62c0 80bc
000000f0: 932c a0bd 86a4 ac3d 851e d9bd c793 a7bb
00000100: d987 ce3b 97a2 0f3e f0ef 25be 6a25 b2bd
00000110: 5df4 e03d eb25 fa3d 07aa f3bd 01ab cabd
00000120: e949 b6bd f654 a33d 3c75 053e 1c97 bb3b
00000130: 6e35 78bc 4495 0abe 9f43 8e3d f236 cf3d
00000140: 1ded dbbd 87af 5f3d 6f34 363d f406 a1bd
00000150: 36fb 93bd 95b3 cdbd 35fb 24be 64b5 2dbe
00000160: c0a8 18be 6b4e a53c 1e55 843d 2385 3ebd
00000170: 94ac 113d 016a 133e 2877 9d3d 72ec 8abd
00000180: 0c6d 2d3e b07b 17bd 97e0 423d 9940 9dbc
00000190: fd31 c93d af19 c43c 166d a1bc 5076 cb3d
000001a0: dcc2 b03d c572 de3d 2d1b 273e 9e77 1a3b
000001b0: d570 dd3d e666 0dbe 2830 653d fb11 28be
000001c0: a257 0bbd 1599 aebd 9f7a ef3d 9b11 153e
000001d0: 1a50 08be c605 093e 2961 003e f921 cf3a
000001e0: ca7c ea3c 2076 cabb b5e2 d7bd 9ae7 303e
000001f0: 85fc 2c3e 646f 9dbd 4651 493d 58c4 f73d
00000200: bcbb 873d 3fba d73d fa16 d13d ef79 39bd
00000210: ba5d 74bd 5c13 29bd 0d8d 87bc 0044 80bd
00000220: 9721 02be cc91 3f3e 083b cc3d 4fd3 e438
00000230: 0f29 acbd 0f0a aabc 809d dcbd cc19 4fbd
00000240: 40de 9dbd 93fb 1a3e 4e1d 313d 67e3 c03d
00000250: c593 413d 71a7 3a3c 5ce6 1f3e 4d49 923c
00000260: 9546 8d3c f10e 7ebd 65c0 07be 8cb7 1dbe
00000270: 6e6f b83c 3c9a e0bd fd19 b6bd 353b 9dbd
00000280: 1673 14bd cd11 853c 2187 14be 372c ca3c
00000290: fa60 263e f836 7dbd aeaf 08be 67f4 e8bd
000002a0: 2ee9 5ebd c099 483e 3bea 41bd dfb3 a2bd
000002b0: 70bc babd 2cc1 babc 750f c53d 49b8 e93d
000002c0: be62 a03c 0f38 343e 4ed3 0bbe dfb7 12bc
000002d0: 7dd4 02be 3372 a53d 3583 fb3c b299 32bd
000002e0: 9f1b 143e 6065 8cbd 03e7 e2bd 343c 9c3c
000002f0: 1840 993d c5dd b93c f4e5 5d3d ccca 3d3e
00000300: 64ae bc3d bd47 4b3e bb82 c9bd 0631 193d
00000310: 60f4 213e 7658 0ebe 250f 333e e7af 6fbd
00000320: 0537 15bd 318e 1dbd 11e4 0b3e ec9a a93c
00000330: ba6c 39be 23f5 2d3e 3517 61bd 7e96 eb3d
00000340: c30c 80bd 9bb9 56be 26cc 32be ca4c 2a3e
00000350: 4df8 2b3e d063 c93d dea6 233e acff e13d
00000360: ffe2 2ebe 4545 0f3d a4fd 0a3e 4b36 323e
00000370: 6af0 1b3e dadd 65bd 48be 283e 6c39 7e3d
00000380: 1096 4a3a 995f fdbd a007 383d 3b56 e43d
00000390: 09a7 ff3d 694a 16bd c587 a83d 9143 bb3c
000003a0: c2dd 0bbe e6c8 0dbe 17c3 803d 4ea8 0f3e
000003b0: afa6 723d 6532 49be 29f4 66bd 7a79 0ebe
000003c0: 622c 2bbe 4654 e7bd 8c48 cbbd 12c4 133e
000003d0: 8d9e 98bc 3b54 5f3d bbf3 0e3c 7bba 523d
000003e0: 65da 12bc 0036 8abc 6a11 2d3e 18c2 033e
000003f0: 0985 223e 7f4a a5bc 956e 243e 8c69 5d3e
-0.0029943031 -0.11535748 0.18189503 0.03745629 0.07220681 -0.082464755 0.09041793 -0.068550415
-0.015903538 0.11555567 -0.14785378 -0.07945626 0.04550718 0.13673599 -0.077224225 0.09735527
-0.09745172 -0.1798496 -0.084386855 -0.19084972 0.16713428 -0.085978635 0.10428386 -0.017910002
-0.02693698 0.008223639 0.053760476 0.116123214 0.09669381 0.015859134 0.15951708 0.05872864
-0.09686544 -0.13223818 -0.15548967 0.1007152 0.15250309 0.13516258 -0.09722026 0.09246923
0.083581515 0.13152276 -0.13108598 0.07854516 -0.1437194 0.06824202 -0.0044721067 -0.066411525
0.15215637 -0.18017 0.008172103 0.00018386648 -0.1008223 0.13648044 0.015891759 -0.15723367
-0.030946666 0.01878674 0.032745857 -0.015716735 -0.07821002 0.08429818 -0.10601524 -0.005114052
0.0063028154 0.14026867 -0.1620481 -0.086985424 0.109841086 0.122142635 -0.118976645 -0.09895898
-0.08900816 0.079751894 0.13033003 0.0057248008 -0.015149457 -0.13533503 0.069464915 0.10117902
-0.10738585 0.054610755 0.0444836 -0.07862654 -0.07225649 -0.10044018 -0.16111453 -0.16963726
-0.14908123 0.020178994 0.06461547 -0.046513688 0.035564974 0.14395906 0.07688743 -0.067833796
0.1693613 -0.036983192 0.047577467 -0.019195842 0.09823988 0.023938028 -0.019705337 0.09934676
0.086309165 0.10861734 0.1631896 0.0023569833 0.108125366 -0.13808784 0.05595413 -0.16413109
-0.03401912 -0.08525292 0.1169331 0.14557497 -0.13311806 0.13381109 0.12537064 0.0015802971
0.028623957 -0.0061786324 -0.10541288 0.17275849 0.16893204 -0.07687262 0.049149774 0.120979965
0.06627604 0.105335705 0.102094606 -0.0452823 -0.059659697 -0.04127823 -0.01654675 -0.0626297
-0.12708126 0.18707961 0.09972197 0.000109112465 -0.08406269 -0.02075675 -0.10772228 -0.05056171
-0.077084064 0.1513503 0.043240838 0.094183736 0.047260065 0.01139246 0.15615219 0.017857218
0.01724557 -0.062025968 -0.13256986 -0.15402049 0.022514071 -0.10966918 -0.088916756 -0.076773085
-0.036242567 0.01624384 -0.14504673 0.024679286 0.16247931 -0.06182 -0.13348266 -0.11374741
-0.054421596 0.19589901 -0.04734252 -0.07944464 -0.09117973 -0.02279719 0.09622089 0.11412103
0.019578334 0.1759951 -0.13654825 -0.008954971 -0.1277637 0.080784224 0.030702213 -0.043603607
0.14463662 -0.06855273 -0.11079218 0.019071676 0.07482928 0.022688756 0.05417438 0.18534392
0.0921295 0.19851585 -0.09839388 0.037400268 0.15815878 -0.13900933 0.17486246 -0.058517363
-0.036429424 -0.038465682 0.13661219 0.020703755 -0.18107882 0.16988043 -0.054953773 0.115033135
-0.06252434 -0.2096924 -0.17460689 0.16630855 0.16793938 0.09833491 0.15981624 0.11035094
-0.1707878 0.03497817 0.13573319 0.17403524 0.1522843 -0.056119777 0.16478837 0.06206648
0.00077280495 -0.123717494 0.044929147 0.1114926 0.12483031 -0.036692057 0.08229021 0.022859367
-0.13658813 -0.13846168 0.062872104 0.14029047 0.059240993 -0.1964813 -0.056385193 -0.13913527
-0.1671615 -0.11295371 -0.099259466 0.14430264 -0.01863029 0.054523688 0.008725102 0.051447373
-0.008963202 -0.016871452 0.16901174 0.1286701 0.15871061 -0.020177124 0.16057809 0.21622294

lstm.bias_ih_l0 f4 [128]
00000000: 7bbc e9bd 93fa d03d f952 88bc 171d 6f3d
00000010: 7272 48be 1962 7ebc 979d 30bd 9723 ceba
00000020: fbec d63c 9746 333e a388 de3d f95a 6dbd
00000030: aee1 cf3d a9b2 8abd 9861 f93d 99d4 3bbe
00000040: 5808 fdbc affb 9f3c 409f 733c 69be c73d
00000050: 08f9 0cbe d792 ba3d ff6c 28be 4308 4b3d
00000060: 504e 103e 552d 04be dd32 853d 4458 8dbd
00000070: cdaf 2b3e 8ab0 893d e3af ccbd 9f14 18bc
00000080: 7d1d fbbd 6cfb 153e 6fc5 f63d 64b8 dc3d
00000090: 06c2 28be 691c 01be 7065 19be bf10 dcbd
000000a0: c76c 9c3d 5206 6c3c 3e6d 2ebd 5fb9 4fbd
000000b0: f756 0fbe a411 d93d 45d3 09be 6242 0bbe
000000c0: 04bd ac3c 1410 9fbd 232c c7bc e1c5 c8bc
000000d0: 4458 3a3e 843c df3d 6801 b93d d06f 343d
000000e0: b971 a2bd 7f82 003e b145 c13b 41a6 6cbd
000000f0: ee65 823b e1ab 4b3d db21 923d 4de4 ab3d
00000100: 3a24 d23a f13a a73d cd52 3cbb 84f5 e5bb
00000110: e86c 083e d7be 30bc f2fa 1a3e 6d2f df3c
00000120: 0aca 1abe 32cf 05be 9a05 973d 817d 623c
00000130: c8c9 9d3d 26cb 823d 629b d3bd b2df 1ebe
00000140: ac32 313e 7064 92bc 9a0b 14be f2a9 3fbd
00000150: 92e0 23be b73a c5bc 18f5 b3bc cdb5 ffbc
00000160: 8f4f af3d fd45 43be dabe 293d 4fd4 c23c
00000170: 94a0 973d 8819 033e 0c09 813c 2609 5bbe
00000180: 12ae 833d a6e3 d93d 848f 3abe ac72 3c3d
00000190: 4bf3 4ebe 69b0 f6bd 64c5 99bc 2649 2bbe
000001a0: ba64 dabd 45d3 0c3e feaa 173c a6bb 51bc
000001b0: 2c71 1cbe 99a8 bc3d 8cdf aa3d 95e6 0fbe
000001c0: 5a66 00be 29fd 423e 94dc bbbd 84ab cebd
000001d0: 7750 c83b 713e 06bd b55d 04be 1727 473d
000001e0: 5653 e93d 7599 c3bd ecdb 09bd 6f00 b53d
000001f0: 74e1 403e 592c 6cbd 1028 53bb 68b9 c7bc
-0.11412903 0.10204043 -0.016641127 0.05837735 -0.19574907 -0.015526318 -0.04311904 -0.0015727159
0.026236048 0.17507397 0.10865905 -0.057948086 0.10150467 -0.06772358 0.12176818 -0.18342818
-0.030887768 0.019529192 0.014869511 0.09753115 -0.13766873 0.09110039 -0.16447829 0.049568426
0.14092374 -0.12907918 0.06503842 -0.06901601 0.16766281 0.06723125 -0.09994485 -0.00928226
-0.12261484 0.14646691 0.12049376 0.10777357 -0.16480264 -0.12608494 -0.14980102 -0.107453816
0.07637935 0.014405804 -0.04258465 -0.050713893 -0.13998018 0.10599068 -0.13459499 -0.13599542
0.021086223 -0.077667385 -0.024313038 -0.024508419 0.18197733 0.10900214 0.09033471 0.044051945
-0.07931847 0.1254978 0.0058982004 -0.05777574 0.003979436 0.049724463 0.07135364 0.08393154
0.0016032525 0.08165539 -0.0028735877 -0.007017793 0.13322794 -0.010787687 0.1513479 0.027244294
-0.15116134 -0.1306732 0.07374115 0.013823868 0.07704502 0.06386404 -0.10332371 -0.1551502
0.17304486 -0.017870158 -0.1445755 -0.04679293 -0.16003636 -0.024075849 -0.021967456 -0.031214619
0.085600965 -0.19069667 0.041441776 0.023782877 0.07403675 0.12802708 0.015751384 -0.21390209
0.06429686 0.106391236 -0.1821881 0.046007797 -0.20209996 -0.12045366 -0.018770881 -0.16727123
-0.10663743 0.13752468 0.009257076 -0.0128010865 -0.15277547 0.09211845 0.083434194 -0.14052804
-0.12539044 0.19041885 -0.09172931 -0.10091308 0.006113108 -0.032774393 -0.12926371 0.048621263
0.11392848 -0.09550754 -0.033657 0.08837973 0.18836004 -0.05765948 -0.0032219924 -0.0243804

lstm.bias_hh_l0 f4 [128]
00000000: 451c 15be cf24 e13d e73f 2d3d cee0 feba
00000010: e1f3 b33d 1341 4cbe 7fc4 21bd 7074 013e
00000020: 9976 c2bd 9965 813d 61db adbd cde2 a3bd
00000030: 015d 563d 83c1 27be 217b e33d 9a95 fdba
00000040: 5a02 14be 998c 983d ec14 65bd 789f ca3d
00000050: 4e1a 75bd 3c27 383d a924 d83d e9c8 883d
00000060: 5675 133e 5648 e3bd 8f66 443d 507c d83d
00000070: 4bba b5bd e3a9 4e3d 4cd2 bdbc 4a58 7c3c
00000080: b966 09be b487 7b3c f6cd b93d eb8f 0dbc
00000090: 8bd1 06be 1291 953d 11f1 09be 4084 f73c
000000a0: 7c1c 2dbe 9af0 d4bd bd3e cfbc 4fd4 3abd
000000b0: 5dba 9f3d a944 203d 8a77 9cbd 0967 58bd
000000c0: e8e3 15be 0966 aebd af71 1a3e 7801 e63c
000000d0: 7f8e efbd 68d2 213c 81ce 0b3d 4920 6ebd
000000e0: 8077 053e e337 71bd 0d93 f03d d57f acbd
000000f0: b6c3 0cbe 50a7 20be 6dc6 c93c 5883 ed3d
00000100: eaeb 063d 0d13 bb3d 558f d0bd 8e63 733c
00000110: f7c9 afbd 6f4c d03d 82cb 963d 5ada 92bd
00000120: 0b80 f13c 4739 babd cc5e edbd 198c 2ebe
00000130: 86f7 34be dfa1 173e 0cb2 7e3d a51c 383d
00000140: 22c2 133e a2b6 05be 8dcb 81bc e33e f93c
00000150: a6df 40be c046 e5bd 83d6 e13d 6417 8fbd
00000160: b6bc 2b3e 3104 d3bc 0b2c a83c 2f15 1dbe
00000170: 5c59 35be 0ffb 8cbd e5c6 6ebd 7311 a33d
00000180: dbfe 953c 6fff 053e 2a2c f13d d6d7 85bc
00000190: a11d 1bbd ee8a 4cbb f0e3 06bd bcfa f03d
000001a0: 8027 983d c2d8 9ebc 41c5 cd3d 43af 003e
000001b0: fdd9 bb3c 8ab4 3abd 32e4 9ebd 6631 e33d
000001c0: 3921 c0bd f970 873c eb0c 103b 6715 d63d
000001d0: 0fa1 d63c 47b8 0cbe af62 0abe 86c3 56be
000001e0: 0e09 d9bc 5dcb ccbc da7b 853d 9336 9abd
000001f0: d4a5 063e 8802 723d 14c5 34be 6a53 563e
-0.14561565 0.10993349 0.04229727 -0.0019445659 0.087867506 -0.19946699 -0.039494034 0.12642074
-0.09495277 0.06318206 -0.08489109 -0.08002243 0.05233479 -0.16382413 0.11107469 -0.0019346953
-0.14454022 0.07448692 -0.055928156 0.098936975 -0.05983954 0.04495929 0.10553867 0.066789456
0.14400229 -0.11097781 0.04794937 0.10570586 -0.08873423 0.050454985 -0.023171566 0.015401909
-0.13418092 0.015352178 0.09072487 -0.00864027 -0.13165872 0.073030606 -0.13470866 0.030214429
-0.16905397 -0.103974536 -0.02529847 -0.04561263 0.07799218 0.03912798 -0.07639988 -0.052832637
-0.1463772 -0.085155554 0.1508243 0.028076872 -0.11697101 0.009876825 0.034132484 -0.05813626
0.13033867 -0.05889119 0.11746798 -0.084228195 -0.13746533 -0.15688825 0.02463075 0.115973175
0.03293983 0.09134493 -0.101835884 0.014855279 -0.085834436 0.101708286 0.07363035 -0.071705535
0.029480001 -0.09092956 -0.11590347 -0.1704563 -0.17672548 0.14807843 0.062181517 0.044949193
0.14429525 -0.1305795 -0.01584413 0.030425495 -0.18835315 -0.11195135 0.11027243 -0.06986883
0.16771206 -0.025758835 0.020528814 -0.15340112 -0.17709869 -0.06883823 -0.05829515 0.079623125
0.018310001 0.13085721 0.11776002 -0.01633827 -0.037870053 -0.0031210738 -0.032932222 0.11766574
0.07429409 -0.019390468 0.10047389 0.12566857 0.022931093 -0.04558233 -0.077583686 0.110934064
-0.09381337 0.016533362 0.0021980356 0.10453301 0.026199846 -0.13742171 -0.13514207 -0.20973024
-0.026493575 -0.024999315 0.065177634 -0.075299405 0.13149196 0.059084445 -0.17653304 0.20930257

fc.0.weight f4 [16, 32]
00000000: 8133 4abe b0d7 573d afcd 103d f7fb 173d
00000010: f83d 2dbc 0605 9c3d 102f 113e 22ab f2bd
00000020: 1941 6fbd 213c 83bd 46dd afbc 200b b43d
00000030: 3278 98bc e88f d63c fb8c 09bd d752 983d
00000040: 0d08 6abd 836d 223e 820a d93d 8d94 253e
00000050: e604 fabd 5ad9 d63d 51d3 a1bd 9690 a33d
00000060: a7e7 28be bf02 2abd 79c5 11be 8f5c e03d
00000070: ffce db3d 7610 d6bc 450b 813d 3281 44bd
00000080: 1f85 b83d 7a78 83bd 8dc9 b53d 5a34 83bc
00000090: d231 da3c 5c4a 01be 9090 273e c260 b33d
000000a0: da9f 3e3d fd7b 203e 56cd bb3d 4af4 01bc
000000b0: 5a82 123d d78f 02be 2bbc 16bd 83c9 38bb
000000c0: efa4 35be 92f5 083e cc17 b0bc 5a77 ba3c
000000d0: 4b83 003e fd44 6f3d 13d2 ed3c 7315 cfbc
000000e0: aef9 0b3e ca8a 17bd d712 833c 44c1 1ebe
000000f0: a371 f53d 968b 1ebd a25a 1dbe ad03 233e
00000100: 5f01 2ebd 6db8 a53d 6934 d83c b078 283d
00000110: e902 343e 6718 8e3c 5f0d 23be 702a c2bc
00000120: d605 a23d 95ec f43d 198e 1d3e 2f4d 0a3e
00000130: 1038 6bbc 579c eb3d 0f8d 2bbd e069 bab9
00000140: e3c8 24be b663 d23d 3c02 fdbd 604d 3eba
00000150: 3af1 d8bc e45a 413e 178f 8cbd 03cc ffbc
00000160: 73ae 8dbd a8d3 cb3d 2f02 503b 14d8 343e
00000170: a9cc 50bc 2fe9 723c 74df babd 4623 363e
00000180: ea5c 4bbd 1452 09be ea1e a83d 628d dfbd
00000190: 0161 4f3d a659 e1bc 7769 b4bd c526 54bc
000001a0: 897a ff3d f4f8 ebbd 1d3b 103e 9c1b dfbb
000001b0: ba48 17bd ae89 e13d 9c2d e53d 48a5 113e
000001c0: 88db b93d d926 3d3e 3f11 0c3e 30c1 cf3d
000001d0: 8c51 be3d d4e1 0c3e 0c8c 06be 2dc8 813c
000001e0: 5db4 273c 9db6 d43d d2cb 8e3d e1cf 21bc
000001f0: b670 513d 1c68 2f3d 260c cebd bb25 ef3d
00000200: 315b aebd 3e86 76bc 6171 1cbe 5f52 163c
00000210: b643 143e 78f0 0ebd c65a dabd 1c40 303e
00000220: b751 bb3d 7c5b 8c3d 54d8 e83d 6dd6 9bbd
00000230: f3a8 1e3e ecd9 cb3d 9c78 f8bb 51b9 4b3d
00000240: 3325 043e a821 df3c 5ac5 dfbc a4ff 183e
00000250: 3da3 343e b4aa 03be 64df d9bb 978c eb3d
00000260: 29ec de3d 7f4d 2a3e 4123 643d 514e 563c
00000270: 7a89 cf3a f53c e93d 0b71 f03d 9f13 2fbd
00000280: 4ab5 bbbc ed82 7d3d f59e b2bd 0b5b 9cbd
00000290: ea33 9bbd 57e5 8bbd 9970 213b c0b8 08be
000002a0: 0107 ae3d 071f 153e a01e d53d 38fa 3d3e
000002b0: ac00 1fbe 8db3 0c3e 9545 20bd eed2 ab3c
000002c0: 9f39 07be 627d 263e 36c3 f53d e347 88bd
000002d0: c492 01be 4792 073e 4a3d 23be 788d 023d
000002e0: e1bf 6dbd ae69 113a 30ca 333e 4994 fbbd
000002f0: d5d3 e5bb 336b c0bd e29b 01bc 8c1b 4b3e
00000300: 7acf 383c 4863 33be c2c5 153e 8991 38be
00000310: 4a6c 33be b87a fe3d 63cd 22be 2d48 9e3d
00000320: f6ef 903c 2cba 9fbb eae6 273e 309d fdbd
00000330: 6b73 3c3e 92c9 243b 1bc2 7e3d 569b 1d3e
00000340: 986c 9c3c 9f4d 8f3d 8b9a 3dbd 8679 b8bd
00000350: 5baf 8f3d 0e0a 2bbe e324 0fbd b78f 013e
00000360: f9ed 143c 363e 103e 9b14 04be 8efa 7d3c
00000370: f30c a43d 2926 1abe 3a81 4a3d cccb 8b3d
00000380: 4725 e2bd b8d4 4dbb dea9 7fbd 0054 dcbd
00000390: 953a b8bd 4e33 11be 20be 78bd f9ae 9bbd
000003a0: 3c2f a83c 9ad3 4bbd 85c9 ce3d 1b2a f53d
000003b0: 883c e73c f01b e33c 314a 09be 6464 423e
000003c0: 74d6 253d c0a3 ba3c 51fd 08be c97a ecbd
000003d0: 0cd0 1dbc dc8d 2c3e 7648 2b3d a419 083e
000003e0: 7260 003e 9b53 37be c681 27be 4590 933c
000003f0: 0522 a53d a91b 023e 31ee 213e 8b81 ecbd
-0.1974621 0.05269593 0.035352405 0.037105527 -0.0105738565 0.07618146 0.14178109 -0.11849047
-0.05841169 -0.06407953 -0.021467816 0.087911844 -0.018612001 0.026191667 -0.033581715 0.074376754
-0.057136584 0.15862088 0.10597707 0.16169949 -0.122079656 0.10490675 -0.079016335 0.07986562
-0.16494618 -0.041506525 -0.14235486 0.10955154 0.10732841 -0.026130896 0.063009776 -0.047974773
0.09009766 -0.064194635 0.088763334 -0.016016174 0.026635084 -0.12626022 0.1636374 0.087586895
0.046539165 0.15672298 0.09170024 -0.007931778 0.035768844 -0.12750183 -0.036800545 -0.0028196282
-0.17738698 0.13374928 -0.021495722 0.02276199 0.12550084 0.0584154 0.029030835 -0.025278782
0.13669464 -0.036997594 0.016000194 -0.15503412 0.11984565 -0.03870734 -0.15366605 0.15919371
-0.042481776 0.08091817 0.026392179 0.04113072 0.17579235 0.01734562 -0.1592307 -0.023701876
0.07911269 0.11959187 0.15386237 0.13506006 -0.014356628 0.11504429 -0.04188257 -0.00035555568
-0.16092257 0.102729246 -0.12353942 -0.00072594546 -0.026482213 0.18882328 -0.0686323 -0.03122521
-0.06918039 0.099524796 0.0031739583 0.17660552 -0.012744107 0.014826103 -0.091246516 0.17786893
-0.049649157 -0.13410217 0.082090214 -0.109156385 0.05062962 -0.027508568 -0.08809178 -0.0129486965
0.124745436 -0.115220934 0.1408505 -0.006808711 -0.03693459 0.110125884 0.1119034 0.14223206
0.090750754 0.1847185 0.13678454 0.101442695 0.092928976 0.13758022 -0.13139361 0.015842522
0.010235873 0.10386393 0.069724694 -0.009876222 0.05113288 0.042823896 -0.10060911 0.116771184
-0.08513487 -0.015046654 -0.15277626 0.009174912 0.14478955 -0.034897298 -0.10661845 0.17211956
0.09146445 0.06853387 0.11369386 -0.07609258 0.15494137 0.09953675 -0.007582737 0.04973728
0.12904815 0.027237728 -0.027315784 0.14941269 0.17640395 -0.12858087 -0.0066489447 0.11501425
0.10884888 0.16631125 0.055697683 0.0130801955 0.0015833818 0.1138858 0.11740311 -0.04274332
-0.022913594 0.06189244 -0.08721725 -0.076345526 -0.07578261 -0.068308525 0.0024633764 -0.13351727
0.0849743 0.14562617 0.10406232 0.18552482 -0.155276 0.13740368 -0.03912886 0.020974603
-0.13205574 0.16258767 0.12000124 -0.06654336 -0.12653643 0.13239394 -0.15941349 0.031873196
-0.058044318 0.00055470585 0.17557597 -0.122841425 -0.0070137777 -0.09395447 -0.0079107005 0.19834727
0.011279935 -0.17518342 0.1462622 -0.18024267 -0.17521778 0.124257505 -0.15898661 0.0772861
0.017692547 -0.0048744883 0.1639668 -0.12383497 0.18403403 0.002514456 0.062196832 0.15391287
0.01909475 0.06997227 -0.04628996 -0.09007554 0.07015868 -0.16703054 -0.034947287 0.12652479
0.00908994 0.14086232 -0.12898485 0.015501631 0.08010282 -0.1505362 0.049439646 0.068259805
-0.11042266 -0.0031407308 -0.062417857 -0.10758209 -0.08995549 -0.14179727 -0.060728192 -0.07601733
0.020530336 -0.049762346 0.100970306 0.119709216 0.028227106 0.027723283 -0.13407208 0.18983608
0.04048772 0.02278316 -0.13377883 -0.11546857 -0.009632122 0.1685099 0.04181715 0.13291031
0.12536791 -0.17902987 -0.16358098 0.018013129 0.08063129 0.12705864 0.15813519 -0.11548146

fc.0.bias f4 [16]
00000000: dee4 f63d e31c be3d 9b49 033e 4873 a73d
00000010: 4b13 38bd be91 cabc cb7b 093b 75cb 153d
00000020: 6e32 f5bd 8086 18be fc9b 113e 8508 21be
00000030: 5ca6 cdbd 6fea b83d fdb8 8cbd e835 f73d
0.12055372 0.092828535 0.12821047 0.08176285 -0.044940274 -0.024727698 0.0020978327 0.036570985
-0.11972509 -0.14895058 0.1421966 -0.15725906 -0.10041496 0.0902909 -0.06871221 0.12070829

fc.3.weight f4 [1, 16]
00000000: df0c cbbd 7b22 d3bd 4351 463e a306 4ebe
00000010: 5651 d43a bd5e dabd 95b0 363e ef96 103d
00000020: 8ada 503e 889c 7cbe 4c8d 5a3e 289f 043d
00000030: 8a01 0fbe 9cca 1abe a1f6 a63d ac78 b7bc
-0.09914564 -0.10309311 0.19366936 -0.20119719 0.0016198556 -0.10662601 0.17840798 0.03530019
0.20395866 -0.24669087 0.21342963 0.032378346 -0.13965431 -0.15116352 0.081525095 -0.022396408
